experiments/experiment_9/best_model_4_9.pt (torch, 39119 bytes, 8 tensors)

conv1.bias f4 [50]
00000000: 3f3e 91bc ced3 e8bc 6dd3 d33c ab53 e8bb
00000010: 23ba aabb 8486 193d aeb0 bfbb 0d3b dbbc
00000020: eb7b 2dbb 353f 6f3c 36ec 193d 9941 bcbc
00000030: b69c ef3b d3b7 b0bc 25ea 84bc 244a 0bbc
00000040: 650a 163c 24ef 923c 369e 59bc fed8 af3b
00000050: 55a0 003d 7ee5 1a3c 6a59 70bc 2fae a73c
00000060: e0d1 9a3c 6b9e cc3c 0b29 c73c f9c3 a13b
00000070: 9750 053d 5af9 0b3d 5142 a5bc 06a3 9f3b
00000080: 8f68 993b 5b4d cebb c47b 053d b133 dd3c
00000090: f1db d23c 6bb2 f8bc 7413 83bc 455a 99bb
000000a0: c08c e63c 761e d13c 8c60 89bc 47eb 1c3d
000000b0: 579f d63a 908b 163d b3e1 9bbb 5761 29bc
000000c0: 9fc5 d9bb 80fb 543d
-0.017729877 -0.028421309 0.025857652 -0.007090052 -0.0052101775 0.0374818 -0.0058499193 -0.026761556
-0.0026471566 0.014602472 0.037578784 -0.022980498 0.0073123826 -0.02157203 -0.01622493 -0.008501563
0.009157752 0.017936297 -0.013282349 0.0053664437 0.031402905 0.009454129 -0.0146697555 0.0204688
0.018898904 0.024977883 0.024311563 0.004936692 0.03254756 0.034173347 -0.020173224 0.004871729
0.004681654 -0.0062958426 0.032588735 0.027002187 0.025739642 -0.030358514 -0.016000487 -0.0046799504
0.028143287 0.02552722 -0.01676967 0.038310315 0.0016374391 0.03675419 -0.00475713 -0.010338149
-0.0066458727 0.05199766

conv1.lin.weight f4 [50, 116]
00000000: c4e3 38be 009b 4e3d eb9c 10be 720d 58bd
00000010: 0991 4ebd 2462 3fbd a694 c73d 6eb7 903d
00000020: 80e8 043e ef60 f53c 8274 043e 59ca 403e
00000030: 6bb0 9b3d f256 403e c66f 91bd b595 243e
00000040: 4544 3a3e 0509 1c3e 9239 de3d 49a7 49bd
00000050: 91ce 25be 35ca 14be 79e8 e7bd d100 c0bd
00000060: 50e0 dbbd f4cc 213d 2d98 853d c943 abbd
00000070: e7a5 91bd 8cac f7bd 8995 1bbd c4b3 6cbd
00000080: 258c b73c a398 eebd 89d2 11be c0b2 acbd
00000090: 7129 76bd 66e9 833d 6e61 853b f3be 563c
000000a0: 3fa9 d9bd c056 713d ea4b 913d 67f3 debd
000000b0: 564e fd3d b870 0b3e 0b43 603d d295 e33b
000000c0: 3b6c a03d 7721 43bd aba8 5b3d caa0 f6bd
000000d0: e45d 5e3e b374 e13d 72aa ec3d 1f01 503d
000000e0: 4378 603e 69be 0e3e 0448 5d3c 60b5 14be
000000f0: 5f7d 24be 211b 3abe 948a 4f3e 9072 b63d
00000100: 4a6b 613d caa3 bfbd 3856 483e afdb 153e
00000110: 2da7 2d3e d5a1 67bc 57a2 ad3c 2e7a 463e
00000120: 3fec 8abd 10f9 9dbb 5eec e13d 4995 4ebe
00000130: 50ac 38bd aeb9 babd d730 a83c c55b 22be
00000140: 508e b5bd 2dc1 673e ff6e 6b3d 342b f73b
00000150: d153 4c3e caa0 3fbd 0886 6f3e 13d0 513e
00000160: 2c3e 0ebd c66d f7bd 6166 533d 8e1e 203e
00000170: 18d9 7cbe 6484 c53d 7bec e2bd 6474 cf3c
00000180: 31fa 463e 7851 7a3d 309c 55bd 1cb5 47bd
00000190: 8807 bf3c 4db6 5bbe 2648 c43d 3ca9 c7bd
000001a0: e4f0 4e3e 4506 e53d 2ecb 283d a5e0 ab3d
000001b0: dc0b 933d caf3 023e b3e5 61be 847f 06be
000001c0: 61fb 68be 98cc c53d 4efa 73bd e3ee 47be
000001d0: 6ed4 8b3d 5110 a1bd 36c7 b23d 7bd7 7ebd
000001e0: 3cf2 09be c4cc a23d 95f6 083e 63cf bb3c
000001f0: 52d0 093e 4fd6 8a3d 9fdf 803d 9545 323e
00000200: a5b0 3fbe 562a dcbd bfc1 103d 7ee8 7b3c
00000210: 00a1 39bc 66bf 4c3d 94fe 953d 23a7 a93d
00000220: 8c1a d43d 4090 2abe 5a7f 693c e986 833c
00000230: 3815 bb3a 8263 51bc b25e 58bd ccb5 823c
00000240: 26cc 113d a4dd 33be 358e 7abe a95f c13c
00000250: 3479 6b3e 4ec8 dcbd 588b 4abd 61cc 93bd
00000260: 02ab 6dbd 1c54 bd3d 1784 e7bd e1c2 48be
00000270: c56f df3d 26e2 18be 105f 2c3d 8c33 0d3e
00000280: e00f eabd 737f 28be ae28 47be 1e24 e0bd
00000290: ce6f a83d 35e8 48be 941c 893d 1aa6 1ebc
000002a0: 23bf 29bd 2d7f ffbb bc27 e63a 69fd 52bd
000002b0: c318 57bd 170b eb3c f0a1 1a3e 1b2d 7a3d
000002c0: 6e5d 62bd 758d df3d 58df 89bd 9a61 4ebe
000002d0: 2e39 0dbe e508 17be 4141 da3d 18ed b7bd
000002e0: 5707 cd3c e60f 2abe 1c4b f5bc 63cd 0f3e
000002f0: 3ed3 3c3d 0f47 96bd 572a 86bc a5bf a2bd
00000300: e46b 103e c788 0bbe 352d afbd 87a3 bbbd
00000310: 1f92 c23d d445 d3bd 2de6 a63d 9a41 ba3d
00000320: 3c34 273e 99a0 5dbd 9a67 603d 2b42 0e3e
00000330: b792 1d3d 1483 89bc dea5 4abd 2d7e 033e
00000340: 7ed1 b5bd a77f 4f3e 1964 0fbd 81f9 57bd
00000350: 7ca0 e63d 510e 0d3d 1d93 5dbc 9b23 9abd
00000360: 8a99 0a3e 0fc0 28be 857c 0b3e eefa d5bb
00000370: e3ab 483e 1ae1 c7bd 22fd 29be f86b df3d
00000380: c645 5dbe f9d6 03bd 8a2d 09be ac9e 7f3d
00000390: c30e d93d 6e21 dcbd 9711 e4bd 85a3 91bd
000003a0: 9b98 c1bd 1dbe ba3d 8d79 07bb 404b 3b3e
000003b0: 6d26 82bc 93c7 ee3d 37df eabb 7e86 173e
000003c0: 32a7 bc3c 86b6 293e b42b c5bd c102 d3bd
000003d0: 2499 d4bd 8f2c 9cbd d42b 3a3e 0d4b 55be
000003e0: 2867 77bc 2a83 2bbe bb0e 0fbd 26b1 2ebe
000003f0: 7b5c 2a3e 2b4a 02be aa31 7a3b 4ccb f43d
-0.18055636 0.05044079 -0.1412236 -0.052747197 -0.050431285 -0.046724454 0.09745149 0.070662364
0.12979317 0.029953448 0.12935069 0.1882719 0.076020084 0.18783167 -0.07101397 0.16072734
0.18190105 0.15237816 0.108508244 -0.0492318 -0.1619208 -0.14530261 -0.113236375 -0.09375156
-0.107361436 0.0395021 0.06523166 -0.08362538 -0.071117215 -0.120934576 -0.037984405 -0.057788625
0.022405693 -0.11650207 -0.14240469 -0.08432531 -0.060098115 0.064410016 0.0040704524 0.013107049
-0.10627984 0.058920622 0.070945576 -0.10886269 0.12368457 0.13617218 0.054751437 0.00694535
0.07833143 -0.047639336 0.05362765 -0.12042387 0.21715504 0.11008587 0.11555947 0.05078232
0.21920876 0.13939823 0.013505939 -0.14522314 -0.1606345 -0.18174411 0.20267707 0.0890857
0.05503396 -0.09357412 0.1956414 0.14634584 0.16958304 -0.014137705 0.021195574 0.19382545
-0.067833416 -0.0048209503 0.110314116 -0.20174135 -0.045086205 -0.09117447 0.020531101 -0.1585532
-0.088650346 0.22632284 0.0574789 0.007542992 0.19953848 -0.0467842 0.23390973 0.2048953
-0.03472726 -0.120814845 0.051611308 0.15636656 -0.2469219 0.09644392 -0.11080261 0.025324054
0.19431378 0.06111285 -0.052150905 -0.048756704 0.02331902 -0.21456261 0.09584074 -0.09749076
0.2020908 0.111828364 0.041209392 0.08392457 0.07179996 0.1278831 -0.2206028 -0.13134581
-0.22752143 0.09658164 -0.05956488 -0.19524722 0.06827627 -0.0786444 0.08729403 -0.062217217
-0.13471311 0.07949212 0.13375314 0.022926038 0.13458374 0.06779157 0.06292652 0.17409356
-0.18719728 -0.107502624 0.03534102 0.015375255 -0.011329889 0.04998722 0.073239475 0.08283832
0.10356626 -0.1665659 0.014251554 0.016055541 0.0014273291 -0.012780072 -0.052824683 0.015955828
0.03559508 -0.17565018 -0.2446831 0.023605185 0.22995454 -0.107803926 -0.049449295 -0.072167166
-0.058024414 0.09244558 -0.11304491 -0.1960559 0.1090999 -0.14930019 0.042082846 0.13789195
-0.11428809 -0.16454868 -0.19449112 -0.10944389 0.0822445 -0.1961983 0.06694904 -0.009683156
-0.041442048 -0.007797143 0.0017559449 -0.051511202 -0.05251385 0.028691811 0.15100837 0.061078172
-0.055264883 0.10915653 -0.067320526 -0.2015442 -0.13791344 -0.14749487 0.106569774 -0.08980769
0.025027914 -0.16607627 -0.029943042 0.14043193 0.046099894 -0.07337772 -0.016377611 -0.079467095
0.14103657 -0.13626395 -0.085535444 -0.0916205 0.09500527 -0.10316053 0.08149371 0.09094544
0.1632852 -0.054108236 0.054786302 0.13892429 0.038469996 -0.016786136 -0.04947459 0.12841101
-0.08877848 0.20263539 -0.03500757 -0.05272818 0.11261079 0.03443748 -0.013523844 -0.075263225
0.13535133 -0.16479515 0.13621719 -0.0065301573 0.1959682 -0.097597316 -0.16600469 0.10909265
-0.21608648 -0.032187436 -0.13396278 0.06240718 0.10598519 -0.10748564 -0.111361675 -0.07111267
-0.09452935 0.091182925 -0.0020671815 0.18290424 -0.015887463 0.116591595 -0.0071677226 0.14797398
0.023028944 0.16573533 -0.09627476 -0.1030326 -0.10380772 -0.076256864 0.18180782 -0.20829411
-0.015100278 -0.16749254 -0.034926157 -0.17059764 0.16636841 -0.12723605 0.0038176575 0.11952838

conv2.bias f4 [50]
00000000: f5ad 7b3c df20 1cbd 90df afbc 574f d93c
00000010: 1e8a b43c 05bd 6c3c 9a02 4a3c 33fd 9f3c
00000020: 117d dbbc cc00 59bc c1b3 2cbd fe8d fd3c
00000030: e2b1 33bc 2971 003d ebe2 a63c 5b8c 2bbd
00000040: 6b0f 413d 49e5 d5bc dc06 e13c ed59 1bbd
00000050: 09ab 8b3c 8b72 d7bc 9f5e de3c aa38 f2bc
00000060: 8a7c 47bd 3769 203d 74a7 bebc d85a 493c
00000070: 154b f3bc 6ef8 d0bc e7bf f13c c77b bcbc
00000080: b55d ecbb 63c6 1f3c 7c9f 2f3c a475 1a3d
00000090: 3052 c6bc 7932 023d f3e5 91bc cc71 0b3c
000000a0: 0e8c d9bc 9eb5 8f3c e53c 0e3c 563d f33c
000000b0: 811e abbc 6a9f 013d ebdb fc3c d0fa 89bd
000000c0: 135c cc3b e999 acbc
0.015361299 -0.038117286 -0.021468908 0.02652709 0.022038516 0.014449363 0.012329722 0.019529914
-0.026793035 -0.013244819 -0.042163614 0.030951496 -0.010967704 0.031357918 0.020371875 -0.0418819
0.047133844 -0.026110308 0.027469091 -0.037927557 0.01704933 -0.026299736 0.027144728 -0.029568035
-0.048702754 0.03916284 -0.023273207 0.012289725 -0.029698888 -0.025509086 0.029510451 -0.02300824
-0.007213319 0.009751889 0.010719176 0.037709847 -0.024209112 0.031786416 -0.017809844 0.008511018
-0.026556041 0.017542657 0.008681511 0.029692333 -0.020888569 0.03164617 0.030866584 -0.06737292
0.006236562 -0.021069484

conv2.lin.weight f4 [50, 50]
00000000: cbd4 093d 4001 103e bdd9 353e d6a1 1c3e
00000010: 9733 66be e1b9 113e 84d6 303e 6996 b43c
00000020: d9e6 913d 770a ecbd 9384 8bbd 12f1 9f3d
00000030: 534b 273e af2e b43d d9d6 e6bc fbb8 a3bd
00000040: 6538 b53d 8a62 2b3e 5a3b b0bd 9c32 6e3e
00000050: f6e6 3dbe 2feb ebbd f522 333e f67f 563e
00000060: 36b0 e43c bff1 66be 50ab c2bd 089e 683e
00000070: 2f22 a0bc 1308 743e e22e 013d e69f c0bc
00000080: 97f9 54be 0cf5 b9bd 5022 8cbd fca9 d13d
00000090: 6072 803e 7f61 14be f4f5 d43d 3210 5a3d
000000a0: a379 0b3e 4e00 59bd 5bcc 0a3e 9a0b 1b3e
000000b0: 453b bcbd b7dd 14bc 7fec 76be 0a9d 933c
000000c0: 912d 36be d4bb 40be 88b4 16be df3d f63d
000000d0: 272b 69be 1e73 6f3e 05b3 0d3e d829 353d
000000e0: 1d92 933d 1789 1b3e f7ce 0cbe a6f7 ddbd
000000f0: 5fd8 e43c 2655 cabd 36ec 923d 9135 22bd
00000100: 2634 693e e806 f43b d7e5 773e 3101 3c3e
00000110: 31f0 d63d 1367 4fbe 4305 37bd f6c4 f53c
00000120: df66 efbd 97d5 273d 0055 b5bd b399 dbbc
00000130: 5514 bcbd a3b3 033d f56d 16be 9b0d 02be
00000140: 9e68 003e d651 403e cb6b 8b3d 4625 aebd
00000150: 8dd3 58bb 4f51 2f3e 4f4e 1d3e c781 ef3d
00000160: 560a f6bd 4e51 98bd 841d 773c 6ea5 ce3d
00000170: e0d1 c43b d8bf aebd a067 15be cbb7 0cbe
00000180: cabd 3cbe c233 a83d 6739 1cbe 447e d53d
00000190: 9580 bb3d c2df 7a3e 6711 86be c66a 163e
000001a0: e692 433d b7ee 4d3d 0cbf 543d 4ac6 3dbe
000001b0: 4a2a 233e 7ab2 343d 1cd4 4fbe 3bd8 eb3d
000001c0: e4db b3bd 73aa 543d 3db2 25be 9580 bebd
000001d0: b382 323e 46de 27be a96c 233d 833c bbbd
000001e0: 815c 043e a907 733d 77d8 013d 7b4b 993c
000001f0: 34fb 863c c407 88bc 17e2 80be 4d7e 35bd
00000200: f07a 62bd 0e2a afbc a675 333e 4530 733e
00000210: da3a 473e ef31 0dbe 80d2 3bbe b456 9cbd
00000220: 195c 783d 6703 0c3e 862f fd3d 7248 743d
00000230: 5eb3 be3d c182 403e 8cf7 a23d 5947 8a3d
00000240: b121 083e 146a 39be ecdd f53d 648d 58be
00000250: 9619 653e 7b3c 283e 98e2 01be e237 18be
00000260: 71c0 1c3e 1033 41be 8a70 55be 7887 ac3d
00000270: 8f77 3bbe f5b4 30be f04b 65be 9487 dc3d
00000280: 26b7 1fbd fff5 393d 822b ef3c 0aa5 8b3e
00000290: f547 3b3e 5ff4 0fbe 3486 093e 0042 60be
000002a0: 5890 fd3d 5b37 9b3b 4ee5 6c3e a038 c7bd
000002b0: 3ef4 863c ad07 553e 8ba9 82be 3381 743d
000002c0: d5e6 99bd 947d 1cbd 65eb 1abc 2d48 123e
000002d0: a218 e2bd 0bdb c0bd 5132 8d3e 7c50 c6bd
000002e0: 21d6 4bbb 47c1 c13d a46e 44be 7ccd 36be
000002f0: 17d2 41bd c6c1 f93c 377a 7dbe d187 083e
00000300: 487b 873e 161b 84be b5db 96be af29 d23d
00000310: 6c70 6fbd ec80 afbd 87a5 aa39 3dc9 e23d
00000320: 6e49 88be cd23 88bd adb1 273e 350a 783d
00000330: aa91 f9bd b1a2 403e ae39 fc3c cd2e f9bd
00000340: 2e89 083e ebae ecbd aad3 543e 7000 1e3e
00000350: 3ec8 733e a86c 2e3e 6791 4dbe 14b5 19be
00000360: 235c ae3d 5c56 25be 4180 cd3d d28a 023e
00000370: 7ae0 1cbe 9d24 873e b11f 9ebd 3c73 903e
00000380: 334a 29bc c126 083e 4197 1fbe 3378 e4bd
00000390: 06cd b4bd 0602 cabc 5c4a 313e aaf2 943c
000003a0: cce7 49be d42f 283e 6a0f 2cbe b19d a63d
000003b0: 4916 15be d79c 683d 4a96 dc3d 1f74 2ebe
000003c0: 0e4c 0a3e 75ce 163e 09ce d03d 78ca 43be
000003d0: 1112 4c3b 6c57 e7bd 9260 0f3e 04fc cb3d
000003e0: 233c 3fbe d7f2 8fbd 8794 81be 0c14 89be
000003f0: 20ba 053e 15cb e5bd cd9c 393e 25cd 8bbd
0.0336502 0.14062977 0.17758842 0.1529611 -0.22480617 0.14231063 0.17269331 0.022044377
0.07124109 -0.115254335 -0.06812396 0.078096524 0.16337328 0.08797967 -0.02817862 -0.079942666
0.08848647 0.16736808 -0.086050704 0.23261493 -0.18545136 -0.11519467 0.17493804 0.2094725
0.027916055 -0.22553156 -0.095053315 0.22716534 -0.01954755 0.23831205 0.03153885 -0.023513746
-0.20798336 -0.09079942 -0.06842482 0.102375 0.2508726 -0.14490317 0.10398474 0.0532381
0.1362062 -0.052978806 0.13554518 0.15141144 -0.09190992 -0.009086064 -0.24113654 0.018019218
-0.1779082 -0.1882165 -0.14717305 0.1202352 -0.22770368 0.23383757 0.13837822 0.04422936
0.07205603 0.15189014 -0.13750826 -0.10838251 0.027935205 -0.09879522 0.0717396 -0.039601866
0.227738 0.0074471124 0.2420877 0.1835983 0.104950316 -0.20254163 -0.044682752 0.030001145
-0.11689543 0.04097518 -0.08854103 -0.026806688 -0.091835655 0.032153737 -0.14690383 -0.12700503
0.12539908 0.18781218 0.06807669 -0.08503203 -0.0033085078 0.1712086 0.15361904 0.11694675
-0.1201369 -0.07437383 0.015082721 0.10090147 0.0060064644 -0.08532685 -0.14590311 -0.13741986
-0.18431774 0.08212997 -0.15256272 0.10424474 0.091553845 0.2449942 -0.26185152 0.14689168
0.047747515 0.050276484 0.05194001 -0.18532673 0.15934101 0.04411552 -0.20295757 0.11515852
-0.08782175 0.051920366 -0.16181274 -0.09301869 0.1743267 -0.16393384 0.03989855 -0.09142401
0.12925912 0.059333477 0.031700578 0.01871275 0.016477205 -0.016605265 -0.25172493 -0.044309903
-0.055293024 -0.021382358 0.17525348 0.23748882 0.19456044 -0.1378858 -0.18342018 -0.07633725
0.060634706 0.13673173 0.1236258 0.0596394 0.09311555 0.18799879 0.07957372 0.0675189
0.13294102 -0.18106872 0.12005219 -0.21147686 0.22373042 0.16429321 -0.12684095 -0.14865068
0.15307786 -0.18867135 -0.20843711 0.08424276 -0.18307327 -0.1725653 -0.22392249 0.10768047
-0.038993023 0.045400616 0.02919555 0.27274352 0.18289168 -0.14058064 0.134301 -0.21900177
0.12381047 0.0047368235 0.23134348 -0.09727597 0.016473886 0.2080371 -0.25519976 0.059693526
-0.07514731 -0.038205698 -0.0094555365 0.14285345 -0.110398546 -0.09416779 0.2757745 -0.0968332
-0.0031102973 0.09460693 -0.19182831 -0.17851824 -0.047319498 0.030487906 -0.24753653 0.1333306
0.26461244 -0.25801915 -0.29464498 0.10261857 -0.058456823 -0.08569512 0.00032548254 0.110735394
-0.26618522 -0.066474535 0.16376372 0.06055661 -0.12185986 0.18812062 0.030789223 -0.1216713
0.1333358 -0.115568005 0.20783868 0.15429854 0.23806855 0.17033637 -0.20074998 -0.15010482
0.085136674 -0.16146225 0.10034228 0.12748268 -0.15320006 0.2639512 -0.077208884 0.28212917
-0.010332632 0.13296033 -0.15585043 -0.11155739 -0.088281676 -0.024659168 0.17313522 0.018182117
-0.1971733 0.16424495 -0.16802755 0.08135546 -0.14559282 0.0567902 0.10770853 -0.17036484
0.13505575 0.14727195 0.10195548 -0.19120204 0.0031138698 -0.11295971 0.14001682 0.099601775
-0.18675284 -0.0702874 -0.2530863 -0.26773107 0.13059282 -0.112203754 0.18126221 -0.068262376

pool1.weight f4 [1, 50]
00000000: eda2 0dbe 11d6 4abd 6526 963d fa35 aabd
00000010: a2a7 2abd 42f4 53bd 6410 823d 5255 edbc
00000020: d2b0 c6bd 72a5 fabd d34b 36bc 92f8 17bd
00000030: 9b44 1a3e bfbe 09be 04f1 cdbd de01 203d
00000040: 5c9f 973c 58f3 ae3d e536 64bc d935 a0bd
00000050: 86cc 583c 8a7d 243e 39f6 91bc 907b db3c
00000060: 6530 07ba 82e6 93bd 0d1e e73d ed54 c1bd
00000070: 5b89 783c 74e4 eebb 3dd9 efbd 8b68 893c
00000080: d05f 9e3d 8acc 69bd 2c98 b8bc 72c5 bf3d
00000090: 34f1 793d c4dd 24bc cfc8 13be f33f 6abd
000000a0: 549f 8d3d 3aa6 283d 5d9e afbd 42e6 8bbd
000000b0: e254 593d 15fe 3fbd 0e07 ecbc 1e26 dfbd
000000c0: d200 b53d e40f 9dbc
-0.13831683 -0.049520556 0.07331542 -0.083110765 -0.041663773 -0.051746614 0.063507825 -0.028971348
-0.097016945 -0.122385874 -0.011126476 -0.03710229 0.15065233 -0.1345167 -0.10055736 0.03906428
0.018508606 0.08542508 -0.0139291035 -0.078227706 0.013232356 0.16063514 -0.017817603 0.026792318
-0.00051570527 -0.072217 0.112850286 -0.094400264 0.015169467 -0.0072904173 -0.11711357 0.016773483
0.077331185 -0.05707983 -0.022533499 0.093638316 0.061021045 -0.010062639 -0.14432071 -0.057189893
0.06915155 0.04117415 -0.08575127 -0.068310276 0.053059466 -0.04687317 -0.028811958 -0.10895942
0.08838047 -0.019172616

pool2.weight f4 [1, 50]
00000000: 0ddd 0bbc f393 0abd 468a 17be 0365 5cbd
00000010: 5766 6b3d 437d 903d 0b0c fa3d 9d4e 023e
00000020: a284 adbd f210 1fbe 23e0 77bd 797c a73d
00000030: 6f50 c3bd 427a f03c ee2d f43b 6693 32bd
00000040: 729d 56bd 5185 05be 9c8a d13d 27d3 d53c
00000050: 6d7c fd3d 07e4 d8bd 454b ba3d 97ed e2bd
00000060: c6d9 ccbb e8fc a0bc 9682 16be 1f16 233e
00000070: 433e ebbc 5ad5 89bd b02a b93c 869f b53c
00000080: 9cf9 e8bd c83e 8d3d c8fd 2a3d f789 3bbd
00000090: 0d54 a1bd 7349 973d 2326 17be 8300 ff3d
000000a0: a000 3bbe ca7d 753d bf8c c93d 5fd3 233d
000000b0: 57a6 b8bd cb6b 213d 5cdc c2bc b7e4 bfbc
000000c0: 86e8 3f3d af99 a5bd
-0.008536589 -0.0338325 -0.14798841 -0.05380727 0.057470646 0.07055142 0.12209328 0.12725301
-0.08472563 -0.15533808 -0.060516488 0.08178038 -0.09536826 0.029355172 0.0074517643 -0.0435976
-0.052396245 -0.13039137 0.10231516 0.026101662 0.12377248 -0.10590368 0.09096388 -0.11080473
-0.0062515466 -0.019651845 -0.14698252 0.15926407 -0.028716212 -0.06730147 0.022603363 0.022170793
-0.11375734 0.0689674 0.04174593 -0.04578587 -0.078773595 0.07387056 -0.14760642 0.124512695
-0.18261957 0.059934415 0.09841298 0.0399965 -0.09016102 0.03940944 -0.023786716 -0.02342449
0.04685261 -0.080859534

fc4.weight f4 [3, 200]
00000000: 134e b3bd fbe7 6b3d ae8c d1bd c88b eebc
00000010: c699 62bd 20cd a1bd 20e8 1a3d 9f07 073d
00000020: 8fd8 dabd cc0a 33bd 55ed d4bd 261d cb3c
00000030: ad3b 653d e29a 383d 5408 543d 4bbd 88bd
00000040: f565 8f3d 1a80 383c b596 adbd d219 333c
00000050: eaee 24bd 69e6 053c 3fb6 7bbc e381 d3bd
00000060: 7fd5 793d 30c6 9bbc be26 6039 6271 14bc
00000070: c8a7 a8bd a82b 65bd 6409 963d f58f 993d
00000080: 59d7 193d e883 4e3d 838a b1bc 2d08 d4bd
00000090: 275b d3bd 49ee f93c ee89 8b3d 3ef0 ba3c
000000a0: 1bd0 eabd 06a0 94bb 3517 353d 7bdf 713c
000000b0: 1e92 22ba 5115 59bd 3ac8 cabc 7af4 82bc
000000c0: 81ec 26bd 6586 bebc 990c 73bd ebd5 36bb
000000d0: e817 a3bd d650 a53d f22d ccbc 5559 de3c
000000e0: 5f68 023c 79cd a73d 9343 553d 6d7b 163d
000000f0: 12cb 08bc 797c a63d be21 0f3d afaa 843d
00000100: e7ba 413d feba fe3c 043f cc3d b626 6fbd
00000110: 5dda e93b d2f5 acbc 7aca ecbd a21c 40bd
00000120: bfdd e5bd 9be8 adbd ca6f c93d c065 ff3d
00000130: 3c14 c8bd be4e 3b3d e859 1b3b 90cd 5fbb
00000140: 3d45 943d a44a 683d afc5 3b3c 5a43 e43d
00000150: a5d8 5ebd a924 17bd 3e32 e0bc fb2e b1bd
00000160: 6a2d 3a3c d4f8 af3d 16f9 95bd 0896 043d
00000170: c0a0 ca3d d09d 69bd aa66 1d3c c58c 533c
00000180: 58ca 6b3d 4977 3bbd ecff 5f3b d1e7 e6bc
00000190: 2b5b a2bd a9d6 0e3d cb15 043e 9668 a3bd
000001a0: 32d1 4ebc 1b69 55bc 1a1d 9ebc a507 c1bb
000001b0: f3d8 3b3d cd4b 833d 2372 d2bd 45f8 8cbd
000001c0: 2089 e0bd 225e 1a3b 64b7 73bd 54be 43bd
000001d0: 3131 4f3d 088c 79bc 3678 debd a6d6 6a3c
000001e0: 3f3e b8bd 5575 f0bd aa3c 37bc 80e7 59bc
000001f0: 6a4e 04bd dd9b a9bd 18f3 d93d 4a21 55bd
00000200: 40f8 77bd ca5c 203d 65c1 9fbd 0438 b33d
00000210: 5a66 e3bd 13a0 94bd ea5f aebd 7eac 35bd
00000220: b965 7d3d 3a03 97bd cdfd fcba e6b8 473d
00000230: d1e3 283d 36a5 4cbd c55d 933d 3f67 bdbd
00000240: 4abc ce3c 6381 c1bd c52c 89bd 859a c4bb
00000250: 45d4 b73c e3c2 05be 0615 a73c 548b d3bc
00000260: 6ba8 9b3c 1979 ab3d cd24 a83d bb5c 063d
00000270: 3a43 9f3c 9720 5fbd 7ced 013d 89d8 5b3d
00000280: 9262 97bd 2ded 18bd e15b a5ba 8e9c 513c
00000290: 8fb7 f2bc 96bd bbbd 826a b43c eaff b43d
000002a0: e5c2 3fbd 7895 82bd 7e34 8cbd 59c3 c53c
000002b0: 25a0 23bc d854 7d3d 0440 94bd e573 9ebd
000002c0: 796b bc3d 9f2c cd3c ba80 66bd c2b9 8dbc
000002d0: b11d 1ebd b1d8 79bd 88f8 ac3c 461d 103d
000002e0: e688 dc3b 27f7 0bbc 471d 68bd 6eb3 0dbb
000002f0: 38ff 93bc 2f17 bf3d a871 df3c 62f1 793c
00000300: 4161 2cbd 0e3c a8bd 7569 18bd 0323 febc
00000310: 9457 413b 0480 d4bc 820a 013b cd9c 9bbd
00000320: 614b 593a 69c9 02bd b189 b03c 0091 c23d
00000330: 99d0 d13b dac1 553d 3d92 dfbc fafd 6f3c
00000340: ec2d 823d 7337 943d b6d4 a53d f0a3 533c
00000350: ccd1 c93c e8ab cebc 8e9c d9bc 2cd3 e8bc
00000360: d172 5ebc 295b 523d a758 4e3c 7165 de3d
00000370: 8977 ee3d 20f4 663d 6ae7 4b3c 5d4d 4cbb
00000380: 5cfa a03c e5d5 bd3c f112 773d 8998 d93d
00000390: ffa9 b63d 8ad2 583d ebd5 abbc c2eb 31bc
000003a0: 9604 b43d ed1b 5a3d bc9b dc3d 329c c43d
000003b0: 6596 f13d ee8d 003d 7468 03bc 2b93 a43c
000003c0: 5d67 f73d 13a0 dc3d ccd6 85bc ce23 e43c
000003d0: 9a38 9b3c 76ef 3c3d ac19 b03d 7550 453c
000003e0: 7ab3 b5bc bd78 3fbd b2b9 68bd 1536 65bd
000003f0: 21d6 523d 6fd7 80bd 6278 9ebc 35e1 903c
-0.08755126 0.05759428 -0.10231911 -0.029119387 -0.05532243 -0.079004526 0.037819028 0.032966252
-0.106858365 -0.04371147 -0.1039683 0.024794172 0.055965114 0.045069583 0.051765755 -0.0667673
0.07001869 0.011261011 -0.08476011 0.010931449 -0.04026691 0.00817261 -0.015363275 -0.10327508
0.06099462 -0.019015402 0.00021376737 -0.009060236 -0.08235127 -0.055949837 0.0732601 0.07498161
0.037558887 0.050418764 -0.021672493 -0.10353122 -0.1032012 0.030509131 0.068134174 0.022819635
-0.11465474 -0.004535678 0.044211585 0.014762755 -0.0006201583 -0.052998845 -0.024753679 -0.015985716
-0.04075289 -0.023257444 -0.059338186 -0.00278985 -0.07963544 0.08072059 -0.024924252 0.027142206
0.007959454 0.08193488 0.052066397 0.0367388 -0.008349197 0.0812921 0.03494429 0.06477868
0.047297385 0.031095024 0.09972957 -0.058386527 0.0071366266 -0.02111331 -0.11562057 -0.046902306
-0.11223935 -0.084916316 0.09835775 0.12470579 -0.097694844 0.04572939 0.0023704711 -0.0034149624
0.07239769 0.056711808 0.011460706 0.11145659 -0.054405827 -0.036900196 -0.027367707 -0.08651539
0.011363367 0.08592382 -0.073229 0.032369643 0.09893942 -0.057035267 0.009606997 0.01291198
0.057566017 -0.045768056 0.003417964 -0.02818671 -0.07927545 0.034872685 0.12898938 -0.079789326
-0.012623118 -0.013025547 -0.019300986 -0.005890804 0.045861196 0.06410942 -0.10275676 -0.06883291
-0.109636545 0.0023554643 -0.059501067 -0.047788933 0.050584022 -0.01523114 -0.10862772 0.014333403
-0.089962475 -0.11741129 -0.011183897 -0.013299823 -0.032301344 -0.08281682 0.106420696 -0.0520337
-0.060539484 0.03915099 -0.07800559 0.087509185 -0.111035064 -0.07257094 -0.08514388 -0.044353954
0.06186459 -0.07373662 -0.0019301713 0.048760317 0.041232888 -0.049962245 0.071956195 -0.09248208
0.025236268 -0.09448507 -0.06697992 -0.0059998655 0.022440085 -0.13062625 0.020395767 -0.025823273
0.019001206 0.08372707 0.08210144 0.03280328 0.019441236 -0.05447444 0.031720623 0.0536733
-0.07391848 -0.037335563 -0.0012615883 0.012793673 -0.029628543 -0.0916702 0.022023443 0.08837874
-0.046816725 -0.06376165 -0.068459496 0.024141 -0.009986912 0.06184849 -0.072387725 -0.07736949
0.09200186 0.025045691 -0.056275107 -0.01730049 -0.038602535 -0.06099767 0.021114603 0.035184167
0.0067301868 -0.008542812 -0.056668546 -0.002162184 -0.018066034 0.09330594 0.027275875 0.015255304
-0.042084936 -0.082145795 -0.037209947 -0.031022554 0.0029501664 -0.025939949 0.00196901 -0.07598267
0.00082891254 -0.03193036 0.021550031 0.09500313 0.0064030406 0.052186824 -0.027291412 0.014647955
0.06356415 0.072371386 0.08097212 0.012917504 0.024636172 -0.025228456 -0.026563909 -0.028421007
-0.013577179 0.05135647 0.012594379 0.10859192 0.11643893 0.05638516 0.01244531 -0.0031174042
0.01965063 0.023173282 0.0603208 0.10624797 0.08919143 0.05293516 -0.020976027 -0.010859432
0.08789937 0.05324929 0.107718915 0.096001044 0.117962636 0.031385355 -0.008020509 0.020089706
0.12080262 0.10772719 -0.016337775 0.027849104 0.018947888 0.046126805 0.085986465 0.012043108
-0.022180308 -0.046746004 -0.056817718 -0.05595978 0.05147374 -0.06291091 -0.019344512 0.017685512

fc4.bias f4 [3]
00000000: dab6 c33c d171 cd3d 8aff d0bc
0.023890901 0.100314744 -0.025512476
