experiments/experiment_9/best_model_1_9.pt (torch, 39119 bytes, 8 tensors)

conv1.bias f4 [50]
00000000: cad9 f1bc b7d9 e3bc 62a0 8c3c 6af1 f9bc
00000010: 36fe 96bc 89bd 023d 10cf fd3c fb05 f23c
00000020: 85bb 8fbc b204 02bd 525a 9cbc 6f9d f3bc
00000030: 91dc f0bc 4e3d f63c 68cf 4abc 54f7 fdbc
00000040: 353e d23c 2405 fc3c 7e23 95bc c83d b3ba
00000050: 167e 00bd 42bd fabc 6ea0 3c3c 6fc1 f6bc
00000060: 7b8c d4bc 55fc 693c ce55 f43c 643b fbbc
00000070: 7e45 01bd c6c7 d2bc 8c76 f9bc 9dbc f5bc
00000080: 062f fb3c 0d8c 003d 51da a0bc 2a47 ebbc
00000090: aff1 01bd 060e fe3c 2123 ff3c ed53 f63c
000000a0: 9bc7 abbc 52fb fcbc 35fc 013d 1366 02bd
000000b0: 5022 023d e633 fb3c 68c8 673c 9b18 023d
000000c0: 8adc 023d 7c27 903c
-0.029522795 -0.027813775 0.01716632 -0.030510623 -0.018431764 0.031919036 0.030982524 0.029543867
-0.017545471 -0.03174276 -0.019086037 -0.029738156 -0.02940205 0.03005853 -0.012378551 -0.031001724
0.025664428 0.03076417 -0.0182054 -0.0013675028 -0.031370245 -0.030607823 0.011512859 -0.030121533
-0.025945893 0.014281352 0.029826071 -0.030667968 -0.031560414 -0.025730025 -0.030452035 -0.029997164
0.030662071 0.031383563 -0.019635351 -0.028720457 -0.031724628 0.031012546 0.03114468 0.030069316
-0.020969203 -0.030881558 0.031734664 -0.031835627 0.031771004 0.030664396 0.014146902 0.031761747
0.031948604 0.017596953

conv1.lin.weight f4 [50, 116]
00000000: 02a8 1bbe 4908 8abc b2e9 193b 17db a0ba
00000010: 85d1 1e3e eafa 9a3d fb69 e5bd 4950 3abe
00000020: 8a27 c33d 618e 083e 8af9 893c 76b3 acbd
00000030: 5d63 df3d cba3 10be 99d7 e0bd 95bb 00be
00000040: d0ea dcbd f413 cdbd b47b f6bd 6101 673c
00000050: 11b7 cc3b 1b07 023e 72b6 213d 8ab6 563e
00000060: 5b44 09be 8b60 94bd 4a3a a63d accf 4e3d
00000070: a5ee 393e 6491 0e3d 6053 26be 4560 bebd
00000080: 9b82 f13d e3c5 03bd 98a9 103e 0661 a5bd
00000090: f8d9 17be c1ed 20be bdae 1e3e d5a6 25bd
000000a0: 9ae9 10be b8cf 493d e29d 01be 9a2e 853d
000000b0: 890c d23b 02cc 57bd c0d1 e93d c5c1 46be
000000c0: d00f 9cbd 1ce6 6dbd b029 5c3d dc35 ef3d
000000d0: 2fb5 303d 5cf8 04be 5d42 22be 7f04 0c3e
000000e0: df75 46be 7f99 f43d 973d 3b3e 7c7a fdbd
000000f0: 0e37 023e eb19 ca3d 5ee3 6fbc 79c7 923c
00000100: c759 16bd e83b 3a3d ced0 05be f41d 7e3d
00000110: ec73 6dbb 1ff1 1ebe 6c15 14bd f975 27bd
00000120: 0481 4e3c eb8a 223e d824 ad3b 5451 4d3e
00000130: 4081 2fbc 5042 05be 82cf 7bbd 936d c93d
00000140: a38c 483e fdfa e8bb bf96 82bd 23f4 583d
00000150: 1035 86bd 9963 2a3e fcf2 303e e1b6 093c
00000160: 352d 77bd df07 d9bd 6be6 2fbe b6c6 3abe
00000170: 8606 5cbd 5e08 2fbe 180d 0dbe bd33 4ebe
00000180: 8a74 3fbd 8ebd 3ebe 1ab3 15be c08e e5bc
00000190: 8be4 d33d b109 c13d 96d7 d43d 0e4a f83d
000001a0: 7f91 383e 128e 23be b126 bf3d 7c0f eb3d
000001b0: 146f 38be ae56 ce3d 90b8 943a 6aad 133e
000001c0: 2e12 09be eaff fbbd a58f 39be 6b70 cc3d
000001d0: 0147 bbbd 8c73 ad3c 40fa 0f3d 5892 b23c
000001e0: 4d94 b0bd 3c09 1fbc 56df 4c3e 0eda fcbd
000001f0: b38f 7f3d d778 553d a235 14bd b754 9b3d
00000200: 1971 1fbe 6038 993d 4492 533d 74b4 3cbc
00000210: d11d f4bc 3807 6f3d b089 73bd abb1 e3bc
00000220: 3362 42bd 9883 56bc b6d2 bc3d 396d 9abd
00000230: aab5 a43d 2dfe 3abe f7a2 da3d 9b71 54be
00000240: 3f00 ec3d 7cc6 92bd 1b58 f03d 7029 d1bd
00000250: f1bc b0bd 18c7 20be 81ac 3e3e 8b61 bc3d
00000260: 4b42 273e fac1 6d3c bec6 a5bc a7a8 533c
00000270: 7e6b 3f3d d1a7 9abd a7c5 fd3d 8015 2dbd
00000280: 6895 efbd 6cbf 48bd c875 513d 3a1c 68bc
00000290: e843 073e 8719 723b c501 0cbe c172 ee3d
000002a0: 922f fcbd 0851 4fbd 5c1a 0cbe ee12 cabd
000002b0: 4ad8 863d 1304 10be b522 83bd fef7 a4bc
000002c0: 0106 293d c647 243e ee31 8a3d 32f5 c8bd
000002d0: 5e2a 113e 723e 723d 02f1 0a3d fa8d a4bd
000002e0: 4b6e 0ebe 9c62 b73d e83b d43d 5f7a 593d
000002f0: 4759 0e3e 5380 5c3d c766 9ebc a04d 0ebc
00000300: 41c8 c2bd 5368 193e c60a e0bd 35bc 843d
00000310: b466 10be 7e08 83bd 3a92 4bbd 4273 33bc
00000320: 1aaa 223d 25d6 debd 5955 693d 28b0 22bd
00000330: 377b 843c 77d8 d53d ac04 32bd 5bf8 e3ba
00000340: 8ce3 0d3e fc68 83bd b533 1a3d 47af bebd
00000350: 8d5c 823d 8c93 a53d f221 39be b29f e4bd
00000360: ddae 203e 719d b3bc 5eee 9b3d 098a 1dbd
00000370: cef6 8e3b 5805 993c c9c0 793c d27d 1a3e
00000380: 718b c93d 314b a23d 3461 de3d 656f 6b3d
00000390: 5084 d93d e502 7bbb 6f9e 04be 50f0 593d
000003a0: 1598 16be 9f01 ffbb 4cda 383e b645 13be
000003b0: 6c33 283e 8033 9cbd e6ea ff3d 7b7c 9c3b
000003c0: 1f2b 433d d200 273d 1442 103e 681e 61bd
000003d0: dc50 1f3e c3d9 ffbd 53b7 3f3e 56e1 47be
000003e0: b388 093e c135 cc3d 7c77 223d a4d9 1b3e
000003f0: 86ef fb3d 7811 023d 89a4 b13d 58c7 6f3d
-0.15200809 -0.016849654 0.002348524 -0.0012272325 0.15509613 0.07567389 -0.11201855 -0.18194689
0.09529026 0.13335563 0.016842622 -0.08432667 0.10907624 -0.14124982 -0.10978622 -0.12571557
-0.107869744 -0.100135714 -0.12035313 0.01409945 0.006247409 0.12698023 0.039480634 0.2096807
-0.13404982 -0.072449766 0.081165865 0.05049102 0.18157442 0.034806624 -0.16242743 -0.09295706
0.11792489 -0.03217114 0.14127195 -0.080751464 -0.14829242 -0.15715696 0.15496345 -0.040442307
-0.14151612 0.04927036 -0.12657884 0.06503029 0.0064101857 -0.05268479 0.1141696 -0.19409855
-0.076202035 -0.058080778 0.053750694 0.11680195 0.04314154 -0.12985367 -0.15845628 0.1367359
-0.19380902 0.119433396 0.18285213 -0.12376878 0.12716314 0.09868225 -0.014641611 0.017917382
-0.036706712 0.045467287 -0.13067934 0.062040284 -0.0036232425 -0.15521668 -0.036153242 -0.040883992
0.012604002 0.15873305 0.005283933 0.20050555 -0.010711968 -0.13013577 -0.06147719 0.09835353
0.19584899 -0.0071099983 -0.06376409 0.052967202 -0.065530896 0.16639556 0.17280191 0.008405418
-0.060345847 -0.105972044 -0.17177741 -0.18239865 -0.05371716 -0.17093036 -0.13774526 -0.20136924
-0.046742 -0.18626997 -0.14619103 -0.02802217 0.103463255 0.094256766 0.10392682 0.121235
0.18024252 -0.15972164 0.09333552 0.11477563 -0.18011123 0.100751266 0.0011346508 0.14421621
-0.13385841 -0.12304671 -0.18121202 0.099823795 -0.09144402 0.021173261 0.035150766 0.021798298
-0.08622036 -0.0097067915 0.20007071 -0.12346278 0.0623929 0.052117195 -0.03618396 0.075845174
-0.15570487 0.07481456 0.05165316 -0.011517633 -0.029799374 0.058356494 -0.05945748 -0.02779468
-0.04745693 -0.013092898 0.092198774 -0.07540364 0.08042462 -0.18261023 0.10675614 -0.20746462
0.115234844 -0.07166764 0.11735555 -0.10212982 -0.08629788 -0.15700948 0.18620493 0.09198292
0.16333883 0.01451158 -0.02023637 0.012918628 0.046733372 -0.0755154 0.12391215 -0.042256832
-0.11698419 -0.04901068 0.051137716 -0.014166886 0.13209498 0.0036941485 -0.1367255 0.11642981
-0.12313761 -0.050614387 -0.1368193 -0.09866892 0.065842226 -0.14064054 -0.06403104 -0.020137783
0.04126549 0.16043004 0.067478046 -0.09812392 0.14176318 0.059141584 0.03392125 -0.080348924
-0.13909261 0.08954355 0.10362989 0.053095218 0.13901244 0.053833317 -0.019336117 -0.008685499
-0.09510852 0.14981203 -0.10939555 0.0648121 -0.14101678 -0.06398104 -0.0497 -0.010952773
0.039713003 -0.108806886 0.05696616 -0.039718777 0.016172035 0.10441678 -0.043461487 -0.0017392741
0.13856333 -0.064165086 0.037646968 -0.09310775 0.06365309 0.08084783 -0.18079355 -0.11163272
0.15691705 -0.02192566 0.07613824 -0.03846172 0.0043629175 0.018679306 0.0152437175 0.15087059
0.098410495 0.07924498 0.10858384 0.05747928 0.1062094 -0.0038301286 -0.12951063 0.053207695
-0.14706452 -0.0077821757 0.18052024 -0.14382061 0.16425866 -0.0762701 0.12495975 0.0047755814
0.047648545 0.040772267 0.14087707 -0.05496064 0.15558189 -0.124927066 0.18722276 -0.19519553
0.13431053 0.0997119 0.03966473 0.15219742 0.12301545 0.03175494 0.08673961 0.05853972

conv2.bias f4 [50]
00000000: ff31 5bbc f498 993c 8457 3ebc 1caf fc3c
00000010: 7f10 a4bc e2a1 83bc 3a3d f93c d3d1 8fbc
00000020: 29f7 f4bc f899 f5bc 2de4 ebbc 5a5b 773c
00000030: 6ed3 e43c 6509 8cbc 4cc1 ee3c 452d 66bc
00000040: 305f a23c 47ab a53c 5b2a d43c 77b0 a1bc
00000050: d405 8c3c 63a2 9abc 4d5e cd3c afd2 71bb
00000060: a4af 773c 630b 2cbb ea03 eb3c cee1 6d3c
00000070: e73c 87bc 7057 b9bc 8346 a73c a4e1 46bc
00000080: e9da 71bc 2bcd 9f3c e66c 1e3c e951 9c3c
00000090: 3f8c 99bc da22 8fbc 02a1 783c 7546 9ebc
000000a0: 194f 9ebc 86f0 0c3c ee54 53bc ab4f 953c
000000b0: c34c 6d3c 23a8 ffbb 6f9a 5f3c 75f0 703c
000000c0: 8a76 94bc 437a c3bb
-0.013378619 0.018749692 -0.011617545 0.030845217 -0.020027397 -0.016068403 0.030424703 -0.017556107
-0.029903011 -0.029980645 -0.028795326 0.0150974635 0.027932849 -0.017094323 0.029144906 -0.014048879
0.01982078 0.020223273 0.025899103 -0.019737465 0.017092623 -0.01887626 0.02506938 -0.003689926
0.01511756 -0.0026251904 0.02868839 0.014519168 -0.016508533 -0.022624701 0.020419365 -0.012138758
-0.014761665 0.019507011 0.009669518 0.019082027 -0.018743632 -0.017472673 0.015175106 -0.019320706
-0.019324826 0.008602267 -0.012898667 0.018226465 0.014483633 -0.007802026 0.01364766 0.014705767
-0.01812293 -0.0059655025

conv2.lin.weight f4 [50, 50]
00000000: 6540 473e 8e43 603e 3fa2 883d e2c7 b53d
00000010: d3e3 50be 4892 763d b8be e3bd 3722 e5bd
00000020: 491c c8bd b60e 503e 2722 013e c01d 2e3e
00000030: efdf 643e a8e0 e8bd c6a7 48be 4e40 96bd
00000040: 580b 24bc 1554 b73d ba6a efbd 3eaa 083b
00000050: ae85 703e 9951 6cbe fc25 0b3d 8f56 183e
00000060: 1076 93bd 7c37 833d 6b5a 763e 5a62 8cbd
00000070: d148 28be ce49 42be 669d 623e 7d91 3b3b
00000080: 1fa7 6c3e e879 fdbd 855b 653c 5a20 01be
00000090: d6c5 733d c717 613e 939b e7bd db3f 013e
000000a0: 1cec 5ebe bf5a de3d 359d 483c a294 d43d
000000b0: 87f9 80be 760c d5bc d18d 873d e9c3 4c3d
000000c0: 315d 5e3e 42f1 cabc 9454 db3d 0edf 2dbd
000000d0: 726b 1d3e 29bf 13be 7d4a 673d 7a13 0a3e
000000e0: 5355 53be 076a 16be d8d2 40be 00ab b33d
000000f0: 78d4 0bbe ff0a 383e 3ba6 e93d c101 7e3e
00000100: 328c 303e 0a36 1e3e 209b 60be 1f87 503e
00000110: 364b 1fbe 237c 6cbe 4142 33bd 9637 54be
00000120: 1b4d ac3d 25d3 db3d fed2 c8bc 5e2f 983d
00000130: 7e83 42be 65ff 183d f8c2 29bd d53e 38be
00000140: 912b a8bc 1823 22be a73f 6cbe f68a 01be
00000150: c5b2 553e c23f 4d3d edc3 353d 6a0e c5bd
00000160: 516c d6bd 1892 3d3e 7388 af3d c95b 093e
00000170: 92c5 10bd 9bdb afbd 994c 473e 6195 18be
00000180: 6a32 14bc 73fd 30be 04e4 1dbd 83ea dabc
00000190: 9c81 4fbe 5d04 3cbe f33c 4c3e b9b3 f43d
000001a0: ffd1 09bd 1588 17be 8c1f 9ebc 4beb 3cbe
000001b0: 3d8b f0bd b38b 45be e590 5ebe 96bd 24be
000001c0: 62c2 43be 0b3a 1a3e 0ab0 2f3c d5a6 d23d
000001d0: 77b6 4a3e 4e11 de3d b9b9 48be 299f d73d
000001e0: 04d7 bdbd 6e26 1f3c 97a1 7fbd 776b 483e
000001f0: 11bc 323d 2969 b8bd b2ad a53d faee 093d
00000200: f955 6fbd b8dc eebd aa9d 78bd 36df 173e
00000210: 2733 42be 9b13 643e 2c2c 08bd d4e5 e1bd
00000220: 7cf4 60be 7730 2d3d 73a7 07bc 6a9c a43d
00000230: 2b37 d7bc 3b43 8abd 65ac 15bd 9c45 533e
00000240: 14a1 b1bd d891 2dbe 891f 023e 398c 7c3d
00000250: bc7d 463e 860a ef3d e2cd a63d 6402 4d3e
00000260: 7a0c 7abd 53d0 93bd ffcc babd b4c8 9abd
00000270: c9b2 3e3e d507 553e 6ab6 3e3e 8e66 50be
00000280: 081c b6bd 967e 3fbe afc2 79be 71be e13d
00000290: f08d 893e 947c 4dbd 4a7b 1fbe a9c4 ac3d
000002a0: c7ce 263e 96e5 6b3e 73a4 df3d 1c71 203e
000002b0: 8cfe 45be 0239 973d 6c0f 0dbe 970c 8cbe
000002c0: 9a82 b63d c049 c53c b817 3a3c 3dc9 5fbe
000002d0: 8fcd 183e 2bfc 20bb 7781 333e 353c 1cbe
000002e0: 8bab 2dbe 2c15 1bbe 0abb e53b cac5 09be
000002f0: d1a4 81bd a2a3 e53c a122 2a3e 8a08 2a3e
00000300: 7955 573e 63d1 56be 996e 57be de09 173e
00000310: da72 23be 936a 5a3d 1f7d 31bb 453d 7e3e
00000320: c35c 20be 730c 44bd 4b0f 253e 8db7 8bbd
00000330: e1c0 d53d c55e 243e 7f57 123c 0889 0fbe
00000340: 093c f9bd 553a 1c3e bcba 963d c57c a13d
00000350: 316f 4ebc e081 77be 84f5 7cbe 66fc 1e3e
00000360: 061f 193e eb7e 1b3e 6e45 473e 3119 14be
00000370: 466c 33be f645 073e 5925 e1bd 3435 e13c
00000380: fdcf 8b3c 35c8 7cbd 14d2 153d fa9e 313e
00000390: 8778 fdbd 93b0 d8bd fdd0 113e 4b16 57be
000003a0: 29ef 213e 607e 6dbe 960f 4c3d 1658 2cbe
000003b0: fc3b 983d 0943 2a3e 1a8d 213e 0649 fdbd
000003c0: f23d 443e 17e3 d8bd a332 583c 99c2 3fbe
000003d0: 04da 6abd 417c 6a3d 1843 9bbd 8b09 10be
000003e0: 1963 323e 96f8 433e dbab b13d 7a67 31be
000003f0: 60ff b0bd 1e1c 513c c066 423e aa44 19be
0.19458158 0.2190077 0.06671571 0.08876015 -0.20399408 0.0601981 -0.11120361 -0.111881666
-0.0977102 0.20318112 0.12610684 0.17003536 0.22351049 -0.11370975 -0.1959525 -0.07336484
-0.01001247 0.08951584 -0.11690278 0.0020853425 0.23488495 -0.23078002 0.03397177 0.1487677
-0.07200253 0.06407067 0.24057929 -0.068546966 -0.16434027 -0.18973467 0.22130355 0.0028620653
0.23110627 -0.123767674 0.013998871 -0.12609997 0.059514843 0.21981727 -0.1130897 0.12622015
-0.21769756 0.10857152 0.012244512 0.10379912 -0.25190374 -0.026006918 0.06618846 0.049991522
0.21715237 -0.024773244 0.10709491 -0.04244905 0.15373018 -0.1442839 0.056467522 0.13483992
-0.20638017 -0.14688884 -0.1883043 0.0877285 -0.13655269 0.17972945 0.11408659 0.24805357
0.1724098 0.15450302 -0.21934175 0.20364045 -0.15556034 -0.2309423 -0.043764357 -0.2072433
0.08413144 0.10733632 -0.024514671 0.074309096 -0.18995473 0.03735294 -0.041445702 -0.17992719
-0.020528587 -0.158337 -0.23071156 -0.12650666 0.20868976 0.050109632 0.044376303 -0.0962189
-0.104698785 0.18512762 0.085709475 0.1341392 -0.035344668 -0.08586808 0.19462813 -0.14900734
-0.009045223 -0.17284183 -0.03854753 -0.026723152 -0.20264286 -0.1836104 0.19945125 0.11948342
-0.033647534 -0.14798005 -0.019302152 -0.18449132 -0.117453076 -0.19291572 -0.2173496 -0.16087946
-0.1911712 0.15061204 0.010723123 0.10285727 0.19796167 0.10843144 -0.19602098 0.10528404
-0.092695266 0.009713752 -0.062409963 0.19572245 0.043636385 -0.09004433 0.080897704 0.03367517
-0.0584316 -0.116631925 -0.060697235 0.14831242 -0.18964826 0.22273104 -0.03324525 -0.11030164
-0.21968263 0.042282548 -0.008279669 0.08037646 -0.026271423 -0.067511044 -0.03654136 0.20632023
-0.08673301 -0.16950166 0.12707342 0.061657164 0.19383901 0.11671929 0.08144738 0.20020443
-0.061047055 -0.07217469 -0.09121131 -0.07557812 0.18622889 0.20803769 0.18624273 -0.20351622
-0.08892065 -0.18700632 -0.24390672 0.11022652 0.26866102 -0.050167635 -0.15574375 0.084359474
0.16289817 0.23036799 0.10920038 0.15668148 -0.19335383 0.0738392 -0.13775414 -0.27353355
0.08911629 0.024083018 0.011358194 -0.2185411 0.14922164 -0.0024564366 0.17529856 -0.15257342
-0.1695997 -0.15144795 0.007010822 -0.13454357 -0.06330264 0.028032128 0.16614772 0.1660482
0.21028699 -0.20978312 -0.21038283 0.14749858 -0.15961781 0.053324293 -0.0027082635 0.2482806
-0.15660386 -0.047863435 0.16119115 -0.06822119 0.10437179 0.16051777 0.0089319935 -0.14017117
-0.12169654 0.15256627 0.073598355 0.07885126 -0.012599752 -0.24170637 -0.24703032 0.1552597
0.14953241 0.15185134 0.19460079 -0.14462735 -0.17521772 0.13210282 -0.109934516 0.02749119
0.01706695 -0.06171437 0.0365773 0.17345801 -0.123765044 -0.10580554 0.14239879 -0.21004598
0.15813889 -0.2319274 0.04981955 -0.16830477 0.07433316 0.16627134 0.15776482 -0.12367444
0.19164255 -0.10590189 0.0131956665 -0.18726577 -0.057336822 0.057247404 -0.075811565 -0.1406614
0.17420615 0.19137797 0.08675357 -0.1732463 -0.08642459 0.012763051 0.18984509 -0.149676

pool1.weight f4 [1, 50]
00000000: 074f f1bd fa6e 6d3b 4373 0abd 6390 c7bd
00000010: 2735 e9bd f663 833b b8ff ad3c 28bc 9c3d
00000020: 855b abbd bcaf b3bb ff9b dbbd 9539 21bd
00000030: eb12 14be 1db8 b93d 617c efbd 7daf d3bd
00000040: 6da6 43bd 72f1 a93d 11b6 abbd cdc9 b53d
00000050: 23f0 adbc b870 1bbd 51e9 ba3d e414 76bc
00000060: 1cf7 68ba 9fb4 b23c 217c b63d 7b3d e1bd
00000070: 66a5 eabd 3f5c 863c 1be9 f9bc 0daf 84bd
00000080: 598b 3f3d 91bf f83d e93a 59bd 56fd 49bd
00000090: 53fd e7bd 9108 713d 8ebd c13d b566 033e
000000a0: 166f 1ebe 4ce3 d4bd 8512 e63d d600 18be
000000b0: 6697 883d 7c94 143e a3da 923d bede d7bb
000000c0: bbd8 9b3c 213f 063e
-0.117826514 0.0036229477 -0.03380133 -0.097443365 -0.11387091 0.004009719 0.0212401 0.076530755
-0.08367065 -0.0054835957 -0.10723113 -0.039361555 -0.14460342 0.0906832 -0.11693645 -0.10336206
-0.047766138 0.08298005 -0.08384336 0.08876381 -0.02123267 -0.037949294 0.09126533 -0.015019629
-0.000888692 0.021814642 0.089103945 -0.109980546 -0.114573285 0.016401408 -0.030506661 -0.06478701
0.04676375 0.121459134 -0.053034697 -0.049313866 -0.11327615 0.05884606 0.09459983 0.12832148
-0.15472063 -0.10394916 0.11234001 -0.14844069 0.06669502 0.14509767 0.07170608 -0.0065878322
0.019024244 0.1311002

pool2.weight f4 [1, 50]
00000000: 5548 85bd 479b da3d 2e6e 7dbc 10f4 393d
00000010: 827e cbbd a76c 01be e843 253d a220 7bbd
00000020: d359 efbd a472 3bbd 4422 39bd 8359 0b3e
00000030: 8fb8 133c b73e 00be 59ea 1f3e 501c d4bd
00000040: a07a 7a3c 1d94 8d3c de7e 55bc 758b 15be
00000050: 03da e83d 066e a1bd 83cd 8b3c 5235 e63b
00000060: 8e00 9fbc 7420 da3c 24cf ac3d 7a6e f33d
00000070: f3a7 ddbd 4d80 a1ba 77e2 653c 9e0e 07be
00000080: f324 a0bd b66c 0f3e a7fa 063d acec f63d
00000090: c0af bebd a663 22be 10e4 43bd 428e 06be
000000a0: da05 f6bd ce9c 803d 0b98 c9bd 3160 e23d
000000b0: 7273 193e 21e1 783c 6c15 923d b751 8a3d
000000c0: 6571 f8bd fdb4 ffbc
-0.06507937 0.10674148 -0.015468163 0.04539877 -0.09936239 -0.12639104 0.040347964 -0.061310418
-0.116870545 -0.045763627 -0.045198694 0.13608365 0.00901617 -0.12523924 0.1561674 -0.10356963
0.015288025 0.01728254 -0.013030736 -0.1460398 0.113697074 -0.078823134 0.017065769 0.0070253992
-0.019409444 0.026626803 0.084379464 0.11886306 -0.108230494 -0.0012321562 0.014031044 -0.1318917
-0.078195475 0.14006314 0.032953884 0.1205686 -0.093108654 -0.15858325 -0.04782492 -0.13140205
-0.12012835 0.06279908 -0.09843453 0.11053503 0.14985445 0.015190394 0.07132992 0.06753867
-0.12131003 -0.031214232

fc4.weight f4 [3, 200]
00000000: f874 f9bb f794 e63b 8969 a23b 31a5 c6bd
00000010: ea9e 49bd 4809 93bb e373 c8bc 59fa f1bc
00000020: 705b f7bc 077c 63bd 5016 a8bd 9207 00bd
00000030: d5dc a3bd ea7c b63c 4620 b7bd c4fd 763c
00000040: 0f0f 86bd 276f 49bd 1eab 54bd 1c08 083d
00000050: 4a0b 81bc 8a24 c0bc 2748 05bd 582f b1bd
00000060: 73f9 5fbc c2df 043d 2624 9fbd c18c a4bd
00000070: c851 c33a 5cfb 363d 56ec 9abb 2891 e3bb
00000080: 53f1 d53c 9f2a f2bc ee85 61bd aa65 3dbd
00000090: 8570 eabc f116 bbbd 08ff b3bd d60e 27bd
000000a0: 93f2 bfbd fd57 babb 8b84 6abd 642e 023d
000000b0: 53d6 94bd d65b 14bc 7b5e 3fbd 2e4f 4c3c
000000c0: 7a14 05bd 393c ef3c d6f6 463d 0db7 92bd
000000d0: 1504 703d 3bf2 893c 0a9e 2f3c 9371 e63c
000000e0: 27fa 293d 4342 063d ef7d 633d 8d3d 7d3d
000000f0: 321d 97bc 3f38 4c3d f961 6d3d e11f 8f3d
00000100: a4a7 4b3d 7133 fcbc 942d 223d 4d22 c7bd
00000110: ba48 313c a386 07bd cbf0 583c 084b 4cbc
00000120: ae1b 65bd f070 33bd ef4e dc3c 8b73 a63c
00000130: 2cde c7bd 5451 43bc eafc 8a3d 8c90 2e3d
00000140: bcf3 563d 024e 1f3d 7c9f 02bd d8f7 913c
00000150: 1975 b9bd 2e03 df3c 66d6 8d3c 5b65 12bd
00000160: 341e 2dbb 2a44 95bd ba01 993d 4d27 283d
00000170: 9dca 5abd 321c 8b3d 5061 5bbd e005 cabd
00000180: 9796 f9bc b8dc 4fbc 8bfc 97bd f1a4 103b
00000190: 3bc9 4fbd dcf1 31bd 7d51 7cbd 1a78 b6bd
000001a0: 8356 84bd 692f a2bd b961 bcbd 677e b4bb
000001b0: cfca 1d3d be4c 62b9 eb93 1bbd e832 fb3b
000001c0: e1c7 8ebd 99df abbd 65fb 49bd 15b6 adbd
000001d0: d40a 0dbd 456b 83bd 23e9 bbbd 7fbd 87bc
000001e0: 09dc 14bd 67f3 e13c fd3e a1bc 4eb3 073d
000001f0: a6e9 a9bd bcab 253d ef76 55bc 1b4c 93bc
00000200: 4de6 92bd beb7 1a3d b0c2 59bd 27df aebd
00000210: 2185 91bd 514d ddba ccdc 04bb 3d6a 3cbd
00000220: 2ab9 bc3a 0f0c 50bd 3e36 9dbd bc83 cfbb
00000230: b1c1 5abc 7331 c8bc f789 61bd 4932 52bd
00000240: afb3 873c 9fa6 3cbd ddd0 233d 1bf8 88bd
00000250: 5219 3ebd 823d e43b 67b2 f5bc b002 eb3c
00000260: 612d 9a3a 0403 71bc 2c61 6abd 90a9 583d
00000270: 192a 81bc f2b2 8b3b 4e73 863d 06d7 473c
00000280: 673f 543d 92ae 6a3c dd3a 103b 0fd1 0f3d
00000290: 1d56 b0bd b370 d5bc ed8d a0bc be37 24bd
000002a0: 90cb 90bc 628a e33c 6c4c 703d 8ffa 733d
000002b0: abbd 81bd 3f4c d73c 00b3 95bd 2881 16bc
000002c0: c265 0ebd cb4f 353d eec4 0c3d 3606 4c3d
000002d0: 1e74 2cbd a09a 5f3d f0ff 8abb 3ea1 d8bb
000002e0: 11eb ae39 bd50 093d 54e7 1abc 4082 c1bb
000002f0: 4ccc 97bd 2620 a5bc 5cff 2d3d 78e5 42bc
00000300: 7f9e 23bd 476b 0f3c 7ea8 c1bd 90a2 4f3d
00000310: 3072 49bd 6b2c 173d 18bb 683d abe1 273b
00000320: 5d34 bd3d 3393 213d fda3 cb3d c89e 07bc
00000330: 9369 ad3d 2f85 d03d 0762 5d3d 2843 223d
00000340: 4ba4 613d 9a4a 3c3b 3e15 9c3d ac79 993c
00000350: 3629 e73c 6e8e 283d fb39 833d 2b2e f53c
00000360: 8297 9c3d bf2b 2c3d 26b1 723d 8083 ffbc
00000370: 759c 073d a65b 90bc 761c 6cbc 1265 25bd
00000380: b67e 8bbc e355 4a3d 155e 463c ce94 85bc
00000390: d197 8cbc cd5f a9bc 858b 643d 21ea 333d
000003a0: 7b21 af3d e970 cd3d 5721 873c 023f 3c3d
000003b0: 9fe5 1abd 8947 72ba 785b 083d a02c 273d
000003c0: 97f1 ed3c 58fd 0e3d a752 cc3d 11f4 20bd
000003d0: d0a3 9d3d 9ea6 8e3d 0014 d2bc a3bc c53d
000003e0: 2daf c93d b415 1f3d 9ffa c7bd dd2e f93c
000003f0: 9ba3 823c faea b2bd 7076 c2bd 9eb3 95bd
-0.0076128207 0.007036801 0.0049564284 -0.096994765 -0.049223818 -0.0044871904 -0.024469322 -0.02953832
-0.030194968 -0.055538204 -0.08207381 -0.03125722 -0.08001105 0.02227636 -0.089417025 0.015075151
-0.06545841 -0.04917827 -0.051921003 0.03321086 -0.015752453 -0.023454923 -0.032539513 -0.08651608
-0.013670313 0.032439955 -0.07770567 -0.08034659 0.0014901692 0.04467331 -0.0047278805 -0.006944794
0.026116049 -0.029561339 -0.055059366 -0.046239533 -0.028618107 -0.09135235 -0.08788878 -0.040785633
-0.09372439 -0.0056867586 -0.05725531 0.031782523 -0.072674416 -0.0090550985 -0.046720963 0.01247005
-0.03249023 0.029203521 0.048575245 -0.071638204 0.058597643 0.016839137 0.010718832 0.028130328
0.04149833 0.032778036 0.05554002 0.061826278 -0.018446539 0.049858328 0.057954762 0.06988502
0.04972042 -0.030786248 0.039594248 -0.09723339 0.010820562 -0.033087384 0.013241003 -0.012469061
-0.0559346 -0.043808877 0.026893107 0.020318767 -0.09759173 -0.011921246 0.06786521 0.04261832
0.052478537 0.038892753 -0.031890377 0.017818376 -0.09055538 0.027223196 0.017314147 -0.03574119
-0.0026415708 -0.07288392 0.074710324 0.041053105 -0.053415883 0.06792487 -0.0535596 -0.09864402
-0.030467315 -0.012686901 -0.074212156 0.002207097 -0.050729018 -0.043443546 -0.06160115 -0.08909626
-0.06461813 -0.07919199 -0.091983266 -0.0055082324 0.03852349 -0.00021581628 -0.037982862 0.0076659806
-0.069717176 -0.08392257 -0.049312014 -0.08481995 -0.034434155 -0.064169444 -0.09175327 -0.016569851
-0.036342654 0.027581884 -0.019683355 0.033129983 -0.08296518 0.04044698 -0.013028844 -0.017980626
-0.07172833 0.037772886 -0.053164184 -0.08538657 -0.071054704 -0.0016884004 -0.0020273207 -0.045999754
0.0014398445 -0.05079275 -0.076763615 -0.0063328426 -0.013351844 -0.024437642 -0.055063214 -0.051317487
0.016565172 -0.04605734 0.03999411 -0.06687947 -0.046410866 0.00696534 -0.029992295 0.028687805
0.0011762792 -0.014710192 -0.057221577 0.052896082 -0.015767144 0.0042632753 0.065649614 0.012197262
0.051818278 0.014323847 0.0022007741 0.035111483 -0.08610175 -0.026054716 -0.019598925 -0.040092222
-0.017675191 0.027775947 0.05866663 0.059565123 -0.063350044 0.026281474 -0.07309532 -0.009186067
-0.034765013 0.04426555 0.034367494 0.04981061 -0.042102925 0.05459082 -0.004241936 -0.0066110184
0.00033363004 0.033524264 -0.009454567 -0.0059054196 -0.074120134 -0.020156931 0.042479858 -0.01189553
-0.039946076 0.008753604 -0.094559655 0.05069214 -0.049181163 0.036907595 0.05681905 0.0025616686
0.09238503 0.03944702 0.09943388 -0.0082776025 0.08467402 0.10181653 0.054048564 0.039614826
0.055088323 0.002873099 0.07621239 0.018734775 0.028217893 0.041151457 0.06407543 0.029929241
0.07646085 0.042033907 0.059250973 -0.031190634 0.033108193 -0.017621826 -0.0144110825 -0.04037959
-0.017028194 0.049398314 0.012107392 -0.016306307 -0.017162235 -0.020675564 0.05579712 0.043924455
0.08551308 0.100313015 0.01649539 0.045958526 -0.03781664 -0.0009242227 0.033290356 0.040814042
0.029045863 0.034909576 0.09976702 -0.03929526 0.076972604 0.069653735 -0.025644302 0.0965512
0.09847865 0.038839057 -0.09764599 0.030417854 0.015947154 -0.087362245 -0.094952464 -0.0730965

fc4.bias f4 [3]
00000000: 244f 40bc 5979 8d3d 3cba 82bc
-0.011737619 0.06907911 -0.015957944
