experiments/experiment_9/best_model_2_9.pt (torch, 39119 bytes, 8 tensors)

conv1.bias f4 [50]
000000 99 6b 84 bc 86 40 ef bc 95 86 0e 3c e9 25 2f 3d
       -0.016164588 -0.029205572 0.008699079 0.042760763
000010 2d 1d e1 bc 06 e4 66 3d e4 ee 47 bd 03 97 76 bd
       -0.027479732 0.056369804 -0.04881181 -0.06020261
000020 dc 86 05 3d 70 bf 49 3b 97 8a d3 bd 1a 88 29 3e
       0.032599315 0.0030784272 -0.10329168 0.16555825
000030 d1 6c 55 bc ab 5f a9 bc e9 f8 3d bd 8b 6b 8a bd
       -0.013026432 -0.0206755 -0.046379957 -0.067587934
000040 6c f2 cc 3c 49 ae 47 3e cc dc ae bd 62 d9 af 3d
       0.02501794 0.19500078 -0.085382074 0.08586384
000050 f6 c4 a4 3d fa a4 86 bd 75 f8 de ba 66 16 23 bd
       0.0804538 -0.065744355 -0.0017011302 -0.039816283
000060 1f eb 29 bd 27 66 38 bd 6b d3 af bc eb 34 c0 3c
       -0.041483995 -0.045019295 -0.021463117 0.023462733
000070 9b 09 1b 3d d6 7e 7e 3d 21 a7 32 be 29 7f 3a 3d
       0.037850957 0.06213268 -0.17446567 0.045531426
000080 11 17 cf bc 83 53 b3 3d 15 a1 35 bc 67 a3 3a 3d
       -0.025279554 0.08756163 -0.011085768 0.04556599
000090 44 a6 bb 3c df 69 1f be 58 de 91 3d 3e b7 6b 3d
       0.02290643 -0.1556773 0.07122487 0.0575478
0000a0 6b 97 4e 3e 8f 66 9f bd af d6 2d bd 65 05 2a 3d
       0.20174949 -0.077832334 -0.042441066 0.04150905
0000b0 4f 00 b0 3c 76 a3 01 3d 0f f3 40 3d 0a 35 44 3c
       0.021484522 0.03165003 0.0471068 0.011975536
0000c0 53 5f 29 3d 8e c1 e6 3c
       0.041350674 0.028168466

conv1.lin.weight f4 [50, 116]
000000 aa 4a 83 3e 84 6e 71 be ae 42 1c 3e a2 27 7b 3e
       0.25642902 -0.23577315 0.15259811 0.24526837
000010 56 94 aa bd 2b 4c 66 be 96 72 d8 bd a9 c7 a4 3d
       -0.08329074 -0.22489993 -0.105687305 0.08045895
000020 eb a2 bd 3d 25 83 fb 3d 3d cb 8a 3e 60 3a a7 3d
       0.0925959 0.12280873 0.27108184 0.08165431
000030 91 07 18 be ea 8c 09 bd 3d 24 77 bd d8 fe b8 3d
       -0.14846636 -0.03358165 -0.060337294 0.090329826
000040 dd ae c1 be 30 3b 56 3c 1d 3c 78 bc 6b 0e 0b 3e
       -0.37828723 0.013075635 -0.015151051 0.13579719
000050 15 4e 24 be 3b 5f 0c 3c f4 51 0f 3e e7 30 3e 3e
       -0.16045411 0.008567627 0.13996106 0.18573342
000060 45 13 bf bd 52 19 55 3d 25 25 0d bd 1d d2 92 bd
       -0.09329847 0.0520261 -0.034459252 -0.07168982
000070 ce ef b8 3d de 19 b5 bc ef 51 a3 bd d7 3f 89 3c
       0.09030114 -0.022107061 -0.07974612 0.016754074
000080 44 96 9c be d1 ce 3a 3b 81 1b 07 be 5b b0 56 3e
       -0.30583394 0.002850462 -0.13194086 0.20965712
000090 db 78 ca bd e7 4e c3 3d c7 f6 2b 3e 99 31 9b be
       -0.098863326 0.09536534 0.16793357 -0.30311278
0000a0 aa 7e 84 3d a7 1c 8b 3d 85 42 d2 bd dc 7e 27 be
       0.06469472 0.067925744 -0.10266594 -0.16356987
0000b0 6b 83 47 3d 36 c3 0f be f7 96 b9 bd 7a b5 9b bd
       0.048709314 -0.14039311 -0.090619974 -0.07602973
0000c0 72 b7 26 3c 79 78 3f 3c 43 3d a7 3d 11 1b af bc
       0.010175573 0.011686438 0.081659816 -0.021375211
0000d0 ac d6 fc 3d 32 e4 63 3d dd e0 84 3e bd 23 6c be
       0.12345633 0.055637546 0.25952807 -0.23060508
0000e0 51 16 df bd 06 39 03 3e 07 be 33 be 63 64 b8 be
       -0.108929284 0.12814721 -0.17552958 -0.3601409
0000f0 f6 79 68 3e 4a 75 a2 bd 19 6c 89 bc c4 c1 a4 3e
       0.22702774 -0.07932527 -0.016775178 0.3217908
000100 6d cb 3b bc af 99 dc bd 6a f6 07 3e 94 b3 3c be
       -0.011462075 -0.107715 0.13277593 -0.18427879
000110 57 00 f0 bd 2e 6c 91 be 61 94 05 be c4 67 22 be
       -0.11718815 -0.28402847 -0.13044883 -0.15859896
000120 94 1c 2c be 9f 03 3f bc da a2 5a 3b ea a0 af 3c
       -0.16807777 -0.011658578 0.0033361227 0.021439034
000130 9c 67 dc bc b6 d3 04 be 43 b6 5b 3d b9 70 e4 3d
       -0.026904874 -0.12971386 0.053640615 0.11154313
000140 5d 6f a5 3d 32 10 cd 3d 82 4a a1 be ba b2 61 be
       0.080778815 0.10012855 -0.31502157 -0.22040835
000150 7c 8e 24 be 7c e1 16 be 12 12 ee 3d e2 ce 51 be
       -0.16069978 -0.14734453 0.116245404 -0.20489076
000160 c9 7f d0 3c fc b4 b3 3e d5 47 11 3b d5 8e cd bd
       0.025451558 0.35099018 0.002216806 -0.10037009
000170 c5 b9 55 3e af b2 c8 bd 73 d3 bd 3e ff 86 c7 3d
       0.20871647 -0.09799706 0.37075385 0.09742545
000180 36 66 65 be 6f 52 2c 3e a8 78 cf 3b 0e 58 f3 bd
       -0.22402272 0.16828321 0.006331522 -0.118820295
000190 bf 8d 14 bd cb 76 33 bc 36 6c 8b 3c b5 c9 1b 3e
       -0.036267992 -0.010953615 0.017019372 0.15213664
0001a0 d8 11 0e be 87 91 0f be 31 aa 83 be a5 41 65 3e
       -0.13873994 -0.14020358 -0.25715783 0.22388323
0001b0 8e 87 80 3e 90 84 c2 3e 7e 33 ea 3c 81 a1 41 3e
       0.2510342 0.37991762 0.028589007 0.18909265
0001c0 18 e9 14 3e 88 b8 16 be 34 67 46 bb c1 0f 16 bd
       0.14542043 -0.1471883 -0.0030273916 -0.036636118
0001d0 d0 66 08 bc e1 c5 0b bc 38 9d 9a 3d 5b f5 2c 3e
       -0.008325294 -0.008531065 0.07549518 0.1689047
0001e0 a2 be 65 3d c6 84 08 3c 59 b2 9d bd 2b 42 a2 be
       0.056090005 0.008332437 -0.07700033 -0.31691107
0001f0 e4 9d c2 3c 64 a3 b8 bd 38 8c a6 bd 38 ec 38 be
       0.023756929 -0.09015539 -0.08132213 -0.1805886
000200 aa 2b 6a 3e da a3 31 3b 21 e3 20 3e 91 a3 e4 3d
       0.22868219 0.002710572 0.15711643 0.1116401
000210 01 0a b1 3d 34 1a 6a 3d b5 fc 9a 3d cc f9 1b be
       0.08644486 0.057153895 0.07567731 -0.15232009
000220 ee 5c 76 be c2 cc 44 3e 6f fc 30 bd a5 ea 91 bd
       -0.24058887 0.19218734 -0.04320949 -0.07124833
000230 5f 43 aa be c9 62 cd 3d 53 62 c1 3d b1 f7 76 3e
       -0.33254525 0.100286074 0.09442582 0.24117924
000240 28 a4 2c be 6c 88 24 be 6b 79 af 3b 5e b0 a0 3d
       -0.16859496 -0.16067666 0.0053550503 0.07846139
000250 1e 20 d4 bd 1d ce f5 bb 71 7e 10 3e 78 9f 09 3e
       -0.10357688 -0.0075013773 0.14110734 0.13439739
000260 35 5a a8 bd b5 05 df 3c e2 47 1b 3e e7 ba 3c be
       -0.082203306 0.027224401 0.1516414 -0.18430673
000270 d7 fc 09 be a8 a9 7a be 60 9a 86 3e be fd a2 3b
       -0.13475357 -0.24478781 0.26289654 0.004974096
000280 e1 a4 bd bd 3b c4 36 bd a2 80 ea 3d 09 ac 43 be
       -0.09259964 -0.044620734 0.11450316 -0.19108595
000290 32 2a 4b 3e bb e6 37 3e c0 c3 c9 bd a4 55 c9 3d
       0.19840315 0.1795911 -0.098517895 0.09830788
0002a0 7e 11 fd bd 11 e4 c9 bb 99 4f a1 3d 11 89 58 3e
       -0.12356852 -0.006161221 0.0787651 0.21146037
0002b0 22 44 02 3e ff 4e 1e be 2f 1b 06 be a6 36 e1 bd
       0.12721303 -0.15459822 -0.13096307 -0.109967515
0002c0 f2 d5 87 3e bb 63 6c 3e 9e d5 c1 3d 37 58 6b be
       0.26530415 0.23084919 0.09464572 -0.2298287
0002d0 55 fd d7 bd ac d1 23 bd 14 3b bc bd 52 82 37 be
       -0.10546366 -0.03999488 -0.09190956 -0.17920807
0002e0 3b 8b b0 bd 22 cf 88 bd 52 d2 e5 bd 6f 11 7d 3b
       -0.08620306 -0.066801324 -0.11221756 0.0038615128
0002f0 c5 04 95 bd 30 45 42 bd 48 47 5f be 9c de 65 bd
       -0.072763 -0.047429264 -0.21804535 -0.0561205
000300 07 70 d6 3d 87 a2 16 bd 22 72 74 3c ce e0 7a 3e
       0.10470586 -0.036776092 0.0149197895 0.24499819
000310 09 75 b4 be ac 66 92 3e a6 82 b0 3b 9c 85 9d 3d
       -0.3524554 0.28593957 0.0053866683 0.076914996
000320 60 c3 7a 3c fd f0 37 be a4 b3 60 3e 6a 85 71 be
       0.01530537 -0.17963023 0.21943527 -0.2358605
000330 a1 f0 ba bd f2 65 c0 3b 21 d6 c8 3d 30 5d 24 3d
       -0.091279276 0.005871528 0.09806467 0.040127933
000340 5b e2 8f be b1 7b 40 3e f4 08 09 bd bb 2c 96 bd
       -0.28102383 0.18797185 -0.033455804 -0.073327504
000350 9e fc 5f 3e 79 ca 48 3d ae 7a aa be 05 24 6f be
       0.2187371 0.049021218 -0.33296722 -0.23353584
000360 ec ad 0d be dc c3 10 3e a7 13 af 3e 3c 22 7f 3e
       -0.13835877 0.14137214 0.3419468 0.24915403
000370 c0 bc 17 3d 79 2f 94 bd a3 67 05 bd 0a 59 e6 3d
       0.03704524 -0.07235617 -0.03256954 0.112474516
000380 b2 0f 84 bd f0 5e 44 bd 01 f9 31 bd ba 47 40 3e
       -0.06448306 -0.047942102 -0.04345036 0.18777362
000390 c0 15 8a 3d 43 62 2e 3e 5c 7f 96 3d ed 71 df 3c
       0.0674243 0.17029671 0.073485106 0.027276004
0003a0 2b 5d 00 3e dd 28 b5 3c e9 86 45 bd 2e f9 00 3e
       0.12535541 0.022114212 -0.048224363 0.12595055
0003b0 f6 12 8b 3d 21 92 dd 3c f9 2c 8d bd 1a a1 15 3d
       0.06790726 0.027047219 -0.068933435 0.03653059
0003c0 8e 25 9f bd 2c 3e 00 3e bd 8b ca 3d 10 fe 8a bd
       -0.07770835 0.12523717 0.09889934 -0.0678674
0003d0 35 4f 77 bd 5e ba 71 3d 9f 96 86 3e 88 b5 fd bd
       -0.060378272 0.059015624 0.2628679 -0.1238814
0003e0 cb ee e8 bd 94 ec e5 bd c1 65 3f bb 38 78 4d be
       -0.11373671 -0.11226764 -0.0029204937 -0.20065391
0003f0 6f 12 ca bd 93 e1 b8 bd b7 e9 4f be 01 73 10 3e
       -0.09866797 -0.090274 -0.20303999 0.1410637

conv2.bias f4 [50]
000000 81 45 43 bd f5 04 9b bd 86 44 4e 3e 28 4d 1f 3e
       -0.047673706 -0.07569305 0.20143327 0.15556777
000010 9d bc ca bc d1 3e 44 3e 3a 14 1f 3e 3a 8f 50 bd
       -0.024748141 0.19164588 0.1553506 -0.05091784
000020 5c 17 95 3d fe a7 58 bd a3 ea ee 3d a2 16 16 3e
       0.07279846 -0.052894585 0.11665847 0.14657071
000030 be 46 10 3e d0 e0 4a bd f1 06 a8 3c 3f 6f 84 bd
       0.14089486 -0.049530804 0.020511122 -0.06466531
000040 cc 17 ed bc 36 81 31 3e 85 ff de bd bd cd 34 3e
       -0.028942011 0.17334446 -0.1088858 0.17656608
000050 54 41 6b bd f0 78 99 3d 6e 80 c4 3c 5e 59 de 3d
       -0.05743535 0.0749377 0.023987021 0.10856889
000060 78 e6 5a bd 4c b7 82 bd 66 f2 d8 bd 88 07 11 3e
       -0.05344245 -0.06382617 -0.10593109 0.14163029
000070 b8 b8 f5 3d 7f fa 0e 3e 7f 93 22 bd 71 f9 1b 3e
       0.11998123 0.13962744 -0.039691444 0.15231873
000080 99 f7 9c bc 0f 16 13 3e e9 da 25 bd 99 b6 f7 3d
       -0.019161033 0.14363883 -0.040491972 0.120953746
000090 21 d9 5c bd b3 3b 0b bd a5 92 71 bd e6 e5 82 3e
       -0.053918008 -0.03399248 -0.05897774 0.25566024
0000a0 78 18 5e 3d 9e 13 2d 3e 31 3b 54 3e 5a 67 f2 3d
       0.054222554 0.16902015 0.20725705 0.11836119
0000b0 d0 4c 2b bd 46 51 e2 bc 49 cc 7f bd b8 dc d2 3d
       -0.0418213 -0.027626645 -0.06245068 0.10296005
0000c0 a6 92 12 3e 83 60 03 3d
       0.14313754 0.032074463

conv2.lin.weight f4 [50, 50]
000000 6e cc fc bd f7 63 19 bd d5 46 54 3d 26 48 5a 3e
       -0.12343679 -0.03744885 0.051825363 0.21316585
000010 f0 78 23 be a3 50 0b 3e 48 38 ad 3d 0b f7 34 be
       -0.15964103 0.13604979 0.084580004 -0.17672364
000020 f7 9f 3c 3d c0 fc 5e bd 79 90 6b be 58 2c 81 3d
       0.046050992 -0.05444026 -0.2300433 0.06307286
000030 f9 4b 82 3d 14 61 3e 3d bf 50 36 bd e5 cb 45 3d
       0.06362147 0.0464793 -0.0445106 0.048290152
000040 69 c3 1b 3e ca e7 ee 3c f5 3e 81 be 29 55 18 3e
       0.15211262 0.02916326 -0.25243345 0.14876236
000050 23 69 49 bd 06 cc 5e 3e 79 61 f8 3b 7d d1 2c bd
       -0.04917253 0.21757516 0.007579979 -0.04219197
000060 8e 0f 00 be ed 23 a6 3c 1a ce 1b bd 18 16 6e 3e
       -0.12505934 0.020280803 -0.03803835 0.23250616
000070 9c 1e 50 3e d4 4e 07 3d c9 39 51 3e 55 27 c0 bd
       0.20324177 0.03303416 0.204322 -0.09382502
000080 bc 56 b8 3c 50 21 94 3c 0e aa b1 bc bd ae 88 bd
       0.022502296 0.01808229 -0.021687534 -0.06673954
000090 8c c7 93 3d 8d 73 9c bd 3c c8 8e 3d 9f e4 74 3a
       0.07215795 -0.07639227 0.069717854 0.00093419285
0000a0 a2 5d 87 3e 89 32 3c be 7f a0 b9 3c fd e1 62 bd
       0.26438624 -0.18378653 0.022659538 -0.0553913
0000b0 2f 70 02 3e ae f2 01 3e e6 c2 2c 3e 41 13 d7 bd
       0.12738107 0.12690231 0.16871223 -0.10501719
0000c0 5a 55 4f bb 4b ab 53 bd 8f 4f 66 3d 73 53 83 be
       -0.0031636567 -0.05167703 0.056228217 -0.25649604
0000d0 59 b4 fb bd 65 33 78 3d 2e a6 ed bd 10 d3 3e 3d
       -0.12290258 0.06059589 -0.11603962 0.046588004
0000e0 ec c0 95 bd f8 2f 1d be de 18 99 3e e2 73 0a 3e
       -0.073121876 -0.1535033 0.29901785 0.13520768
0000f0 cd 78 86 be c8 8a b4 3d 42 7e 35 bd 75 3c ac bd
       -0.2626404 0.08815533 -0.044309862 -0.08409969
000100 d2 9f ce bc 52 10 f8 bd 14 2b 11 3e 06 64 88 3e
       -0.025222693 -0.12112488 0.14176589 0.26638812
000110 50 0c 77 3d 39 6a ef 3d 59 20 9e be 8b ad a6 3e
       0.060314476 0.11690182 -0.30884054 0.32554278
000120 d5 8e 28 be 44 c1 cd bd 28 1a 55 3c dc eb ec bc
       -0.16460736 -0.10046628 0.013006724 -0.02892106
000130 56 3e 33 be 11 a7 43 3e 0a 2e d3 3d 0e 68 3d 3e
       -0.17504248 0.191067 0.10311516 0.18496725
000140 7f 79 b3 3c 7c 6e 4d bc 39 49 cc 3e 94 d9 82 bd
       0.02190852 -0.012538549 0.39899614 -0.06389156
000150 0a 82 b7 bd 66 39 89 be 67 ec 5d 3e ca a2 a1 3c
       -0.0896035 -0.26801604 0.21672212 0.019730944
000160 3e 9b 8b be e7 b1 e8 bc 2d 39 b8 3e 01 b9 3e be
       -0.27266878 -0.028405143 0.35981122 -0.18625261
000170 7d 76 0c be b2 72 9d bd 75 d7 eb 3d 62 ad 21 3a
       -0.13717075 -0.07687892 0.115157045 0.00061674987
000180 b7 72 82 3e 78 19 51 3e 50 2f 23 3c 50 48 b8 be
       0.25478145 0.20419872 0.009960011 -0.3599267
000190 31 84 2d be 7a 1b 27 3e 73 fa 6b bd 24 84 ec bd
       -0.16944958 0.16319075 -0.057611894 -0.11548641
0001a0 ec 1a 30 3e 1e df e4 bc 7e d1 21 be 15 a0 41 bd
       0.1719777 -0.027938422 -0.15802571 -0.047271807
0001b0 b3 ab 44 bd f9 8b 55 be 26 09 a8 bd e0 7a 1c 3d
       -0.048015308 -0.20854177 -0.0820487 0.03820312
0001c0 61 71 ff 3d cb bc c3 3d bf ed 7f bd 1f d5 15 3b
       0.12472797 0.09557494 -0.06248259 0.0022862626
0001d0 bd 78 a1 bc 06 60 16 bd 1e 67 9f bd 8d 93 a9 bd
       -0.019710893 -0.03671267 -0.0778334 -0.08280096
0001e0 23 6f 94 3e e0 64 8d be 5c 9a 0e bd 43 26 50 3d
       0.2899104 -0.27616024 -0.034815177 0.05081774
0001f0 c6 0a 80 be 34 d4 ca 3c ed b9 9b 3d 85 77 6f be
       -0.2500822 0.02475939 0.07603822 -0.23385437
000200 7d 5c 03 3e e2 36 0e be b3 19 38 be ae 7b 97 be
       0.1282825 -0.13888124 -0.17978553 -0.29586548
000210 62 79 58 be c0 29 06 3e c7 d6 02 be 4b ca 19 3e
       -0.21140054 0.13101864 -0.12777244 0.15018575
000220 29 40 1d 3d 26 3d a4 be 98 bb cb 3e 09 bd 68 be
       0.038391266 -0.32077903 0.3979156 -0.22728361
000230 f4 19 0c bc 59 25 8d 3d 2b 68 d9 bc 09 92 a3 bc
       -0.00855111 0.06891889 -0.026538929 -0.019967096
000240 09 74 06 be 1a a6 a5 be 92 11 ba bc 32 e4 fd bd
       -0.13130201 -0.32353288 -0.022713456 -0.123970404
000250 15 ae 57 bd e0 24 9a 3d 43 93 8f be d0 33 1e 3d
       -0.052656252 0.075265646 -0.2804204 0.03862363
000260 f6 af 81 be 2d 7f 40 3e 4b 86 fe 3d f3 da cb bd
       -0.2532956 0.18798514 0.12427958 -0.099538706
000270 20 5a 98 be 8c bb 37 be c6 49 ca be 19 1a 42 3d
       -0.2975626 -0.17942637 -0.3950941 0.04738817
000280 b3 d9 cf bc 52 70 4d be 75 8d 57 bc 05 f5 d6 bd
       -0.025372362 -0.20062378 -0.013156285 -0.104959525
000290 95 73 16 bd 83 49 df 3c fc 14 e1 bd 3f 44 18 3e
       -0.03673132 0.027256733 -0.109903306 0.14869784
0002a0 24 f8 10 be fc 8a fc bd 45 26 62 3e 93 0c c5 be
       -0.14157158 -0.12331197 0.22084911 -0.38486156
0002b0 c7 60 7b bc 53 b9 12 3e d2 aa 78 be f3 4d 3f 3c
       -0.015342898 0.14328508 -0.24283913 0.011676299
0002c0 bb 49 49 be 68 8e 7e be a9 91 88 bc af d1 31 be
       -0.19657032 -0.24859011 -0.016671019 -0.17365144
0002d0 fd 78 43 3d 8e 1a e0 bc c0 24 8c bd 7b 00 03 3e
       0.047722805 -0.027356412 -0.06842947 0.12793152
0002e0 d3 3e 81 3c 33 03 a1 3d 59 ca 8a be 56 e9 12 be
       0.015777027 0.07861938 -0.27107504 -0.14346823
0002f0 67 f7 35 3e 6a da ff 3d d8 cf 37 3e 0f 93 08 be
       0.17770158 0.12492831 0.1795038 -0.13337348
000300 ef d4 a8 3d 15 03 26 3d a8 4a 68 be a5 d8 5b 3d
       0.08243739 0.040530283 -0.22684729 0.053673405
000310 ea ea b2 3d a5 74 82 be 74 91 2d be 7f c6 36 be
       0.087362126 -0.25479618 -0.16950017 -0.17849158
000320 ba 70 2a 3e a9 de 8b be 2f 0e 90 be b1 cf 3f 3e
       0.16644564 -0.27318314 -0.2813582 0.18731572
000330 eb 60 80 3d ac 27 56 3e 4d 58 3c 3e 2e f8 07 3d
       0.06268486 0.20913571 0.18393059 0.033195667
000340 e0 eb 28 bc 01 86 48 bd bc fc 3d bd 13 e2 28 3c
       -0.010310143 -0.04895592 -0.046383604 0.010307807
000350 6e b6 82 3d fe 27 75 3d e6 fc 9c 3c 3b 59 3b 3d
       0.06382452 0.059852593 0.01916356 0.045739394
000360 cc 80 1d 3e b2 c1 e3 bd 89 6f ec bd 6a b2 42 bd
       0.15381163 -0.11120929 -0.11544711 -0.04753343
000370 79 62 ac bd b9 49 14 3e 2e 7b 55 3c 22 ab 2b 3e
       -0.0841722 0.14481248 0.013029857 0.167645
000380 a0 6d 18 3e 2b dc 5a be 90 44 26 be a4 9f 54 3e
       0.14885569 -0.2137305 -0.16237092 0.20764023
000390 19 7d ff bd 15 49 14 3e b4 45 16 3d a0 aa 57 3e
       -0.12475032 0.14481004 0.036687568 0.21061182
0003a0 26 83 d7 bc a4 d1 63 be 2c 31 ad bd 7d c7 6b be
       -0.026307654 -0.2224794 -0.084566444 -0.23025317
0003b0 b5 23 93 3e 9a 40 e1 bc 62 52 b0 be 37 60 36 3e
       0.2873818 -0.027496625 -0.34437853 0.1781014
0003c0 24 94 7f 3e 2a a0 a0 bc d4 4a a4 bd 8f 63 1d bd
       0.24958855 -0.019607622 -0.08022085 -0.038425025
0003d0 28 87 01 3c 07 5c e7 3d d8 4f 8a bd 31 35 87 3e
       0.007905759 0.1129685 -0.0675351 0.2640777
0003e0 a9 67 37 3e 1c 2f 83 3d df e5 b3 bd 89 f7 7a 3d
       0.17910637 0.0640547 -0.08784079 0.061271224
0003f0 6f 1f 7d 3d 84 9f 93 3d 3c 53 09 3e b4 88 69 3e
       0.061797556 0.072081596 0.13410658 0.22806054

pool1.weight f4 [1, 50]
000000 2a 90 81 bd fa b9 2c bd 27 7f 24 bd cf 85 c2 3d
       -0.06326325 -0.04216955 -0.040160324 0.09498178
000010 88 5d 7f bd ea fe 24 3e f7 e7 24 be 0d 8d 08 be
       -0.062345058 0.16112867 -0.16104113 -0.13335057
000020 76 82 82 3d d3 c3 aa 3d ff 4a cf bd 28 05 0b bd
       0.0637254 0.08338132 -0.10121726 -0.033940464
000030 1c 75 c5 3d 10 28 81 bd 8f 4e b7 bd 05 dd 07 be
       0.096414775 -0.063064694 -0.08950531 -0.13267906
000040 60 76 67 3d 1f 66 32 3e 33 8c e7 bd ec 42 d2 3d
       0.056509376 0.17421769 -0.11306038 0.102666706
000050 85 66 a9 3c b0 ae 0e be 3d 77 a1 bd e7 05 ea bd
       0.020678768 -0.13933825 -0.07884071 -0.11426907
000060 ea c3 a7 bd b2 d4 2a be 0a aa ae bd 05 2b 62 3d
       -0.081916645 -0.166827 -0.08528526 0.055216808
000070 f3 65 22 3e 77 af a7 3d 98 67 47 be 8c 78 9b 3d
       0.15859203 0.08187764 -0.19473112 0.07591352
000080 c7 d5 6d bd 04 f5 5d 3c 7a e5 8f bd a8 77 66 bd
       -0.058065202 0.013547186 -0.07026191 -0.056266457
000090 ec 56 23 3d 12 11 2c be d3 1c c1 3d f4 54 c5 3d
       0.039877817 -0.16803387 0.09429326 0.09635344
0000a0 f7 c8 31 3e c0 5b ac bd 73 58 01 be e3 14 60 bd
       0.17361818 -0.084159374 -0.12631397 -0.05470742
0000b0 23 3e c4 3c 0e 62 df bc 36 70 06 3e ff 36 02 3d
       0.02395541 -0.027268436 0.13128743 0.03179073
0000c0 88 b8 e9 3d 59 15 3f bc
       0.1141215 -0.0116628045

pool2.weight f4 [1, 50]
000000 57 f1 a3 bc 5c 16 2d 3c 98 a8 0e be 84 21 25 be
       -0.02001254 0.010564413 -0.13931501 -0.16126066
000010 b7 df 0e 3c 44 81 36 be 47 55 97 bd 03 db a8 3d
       0.00872033 -0.17822748 -0.07389312 0.08244898
000020 d2 6e 0e bd ae 3a a4 3d fc e7 48 be eb d8 c2 bd
       -0.034773655 0.08019005 -0.19619745 -0.0951403
000030 fb 83 28 bd 4f 71 25 3d 06 87 d7 ba 4e 53 27 3e
       -0.04114149 0.040391263 -0.0016443438 0.16340372
000040 7c 44 88 3b d9 65 12 be 06 56 21 3e ac 1d 8d bd
       0.0041585546 -0.14296664 0.15755472 -0.06890425
000050 65 e4 c7 3d 18 44 ee bc 7e 26 c2 3c 3d 3c 44 bd
       0.0976036 -0.029085204 0.023699995 -0.04790901
000060 f7 69 24 3d 99 35 23 3e 9b 0f 26 3e 23 65 d9 bd
       0.04014012 0.15938415 0.1621689 -0.106149934
000070 c1 66 86 bd 14 45 c0 bd de e1 8f 3d 5e 05 cc bd
       -0.065625675 -0.093881756 0.070255026 -0.09961961
000080 0e 07 60 3d 1f a4 39 be d9 78 38 3c 57 8a dc bd
       0.054694228 -0.18129013 0.011259281 -0.10768574
000090 d2 96 5a 3d 0e 23 92 3d c8 17 6b 3d a3 8a 7a bd
       0.05336649 0.071355924 0.057395726 -0.06116737
0000a0 40 e1 24 bd c5 f9 33 bd aa 44 5a be 44 ae 00 be
       -0.040253878 -0.04393937 -0.21315256 -0.12566477
0000b0 46 c4 aa 3c cb 4d 35 3d c0 a7 46 3d 82 20 c9 bd
       0.020845544 0.044263642 0.048499823 -0.098206535
0000c0 7b 09 33 be 94 8f 19 39
       -0.17484085 0.00014644704

fc4.weight f4 [3, 200]
000000 c2 e5 a3 be 49 3b 51 3e e1 b4 34 be f1 8c 66 be
       -0.3201123 0.20432772 -0.17647125 -0.22514702
000010 47 e7 84 3d a9 ec 74 3e 1a 8f 42 3e 75 c3 a3 3d
       0.06489425 0.23918404 0.18999901 0.07996265
000020 17 65 46 3d 58 09 8e be b2 7a ec 3d 11 49 c1 3e
       0.04843625 -0.27741504 0.1154684 0.37751058
000030 02 f3 b5 3d ae e2 2f 3e e7 cd 0f be e8 99 64 3e
       0.08884241 0.17176315 -0.1404339 0.22324336
000040 3e e6 89 3e b4 9b e5 3e 3c cf 0f be bf ba b3 3e
       0.26933473 0.44845355 -0.14043897 0.35103413
000050 a9 d7 f2 3e 27 5a af bd 46 92 31 be 88 f6 68 be
       0.4743016 -0.08562117 -0.17340955 -0.22750294
000060 e8 98 22 3e 6f 46 cc bd 0e 1b 63 3e 42 d9 43 3e
       0.15878642 -0.09974372 0.2217829 0.19125846
000070 c4 8e 09 3c c3 ad 80 be 1e 1a 49 be b2 51 1c 3e
       0.008395854 -0.2513257 -0.19638869 0.1526554
000080 16 a8 45 be ab a6 ad be 4f 57 31 3c ec b6 99 be
       -0.19302401 -0.3391622 0.010824039 -0.3002237
000090 da 21 01 be d2 e7 d3 3d 98 e7 85 be 53 f0 99 be
       -0.1261057 0.103469506 -0.26153255 -0.30066165
0000a0 90 fa fe be 6b c4 b9 be 70 a0 28 3e 04 c2 7b 3e
       -0.4980054 -0.36282668 0.16467452 0.2458573
0000b0 53 33 e9 bd b9 8a e0 3e 84 fc 8b be ff a3 7e 3d
       -0.113867424 0.43855837 -0.27341092 0.062168118
0000c0 19 12 50 3e 52 07 75 3d eb 1c 65 be 5a 8f 03 3e
       0.20319404 0.059821434 -0.22374313 0.12847653
0000d0 e2 39 9c be f8 7c a4 bd db c6 28 3e bf dc a2 3d
       -0.3051291 -0.080316484 0.16482107 0.0795226
0000e0 55 2f ad 3a b6 91 1f be cf cc 43 be f2 50 66 be
       0.0013212959 -0.15582928 -0.19121097 -0.22491816
0000f0 a8 14 29 3e 7a 55 c2 3e 65 6b 7f 3d 24 fc f0 bd
       0.16511786 0.37955838 0.06235828 -0.11766842
000100 5b 84 8e be 3b 7c 83 bd a3 ee e4 3c 69 4c 6e 3e
       -0.27835354 -0.064201795 0.027945822 0.23271336
000110 39 e9 7c 3e 43 9e 2e 3e 02 78 78 3e 94 a3 b1 bd
       0.24698342 0.1705256 0.2426453 -0.08673778
000120 d5 2c 1e 3d 48 85 45 be d6 39 31 be bc 56 47 bd
       0.038616974 -0.19289124 -0.17307219 -0.0486667
000130 ec af bd bd 44 aa 06 be ff ea 72 bd 5e ed 1f be
       -0.0926207 -0.13150889 -0.05930614 -0.15617892
000140 3e 43 5f be a6 b9 36 3e af 2b 34 be da f2 8e be
       -0.21802995 0.17844257 -0.17594789 -0.27919656
000150 aa 67 a3 bd 50 8e 28 be 16 0b 04 be 57 c7 22 be
       -0.07978757 -0.16460538 -0.12894854 -0.15896355
000160 08 79 d0 3d 2e 9a 4f be d0 b9 26 be 81 fe 8b be
       0.10179335 -0.20273659 -0.1628182 -0.2734261
000170 5b 8b cb bd 8f d7 28 3e eb 1e 63 be 33 59 77 3e
       -0.09938689 0.16488479 -0.22179763 0.2415512
000180 97 48 5e bc e7 5f 84 3d 21 17 a9 3e 25 bb f8 bd
       -0.013567111 0.064636044 0.33025458 -0.1214507
000190 f1 a7 f1 bd 71 fc 43 be 28 53 8f 3e cc 2c 0e 3e
       -0.117996104 -0.19139268 0.2799313 0.13884276
0001a0 37 4a a8 bd 47 ab c7 3e db 5e 0c 3e 8c 21 24 bd
       -0.0821728 0.38997862 0.1370806 -0.040071055
0001b0 a6 cd 5d be bf cd 3c be a8 aa e5 3d 6a 69 6f 3e
       -0.2166048 -0.18437861 0.11214191 0.23380056
0001c0 f1 34 31 3e a4 2d 0f be 1b e7 2a be 3e 32 1c be
       0.17305352 -0.13982254 -0.16689722 -0.15253541
0001d0 7f 1e 84 be f3 2f 98 3e a7 15 de bd 9b e5 8e 3e
       -0.25804517 0.29724082 -0.108439736 0.2790955
0001e0 2c d1 15 be f6 ed 39 be 5c cb 32 bd 9d 8f b0 bd
       -0.14630574 -0.18157181 -0.04365097 -0.08621142
0001f0 1f 03 fb bc 6c 17 6c be 56 b8 1e bd 57 06 81 bd
       -0.030641137 -0.2305581 -0.038750015 -0.06300037
000200 6f df e0 3d 3a 3d 68 3e f3 77 ab bd 67 68 65 3e
       0.109801166 0.22679606 -0.08372488 0.22403108
000210 2b fc b3 bd 43 0f 8f 3e 56 c2 18 be f4 46 36 3e
       -0.087883316 0.2794133 -0.14917883 0.17800504
000220 50 f5 70 be 92 de db bd fe 64 63 be 7b 54 d6 3e
       -0.2353108 -0.10735811 -0.22206494 0.41861328
000230 47 9b b3 bd 80 a5 91 3e 0d 5a 43 3e ca 6a 43 3e
       -0.08769851 0.2844658 0.1907732 0.19083706
000240 48 84 24 bd 78 96 3b be 8e 84 82 bd 5e 59 66 3d
       -0.040165216 -0.18319118 -0.06372939 0.05623757
000250 15 00 66 3e 0e 1b 1a be 66 94 e9 bc 74 3c 2a bd
       0.22460969 -0.15049383 -0.028513145 -0.04156156
000260 a4 58 87 3d 22 b3 91 bd b6 92 94 bd 9c a1 74 3c
       0.06608704 -0.07114245 -0.072545454 0.014931109
000270 09 34 4c bd 7f c4 d2 bd f7 95 81 be 20 4e 53 be
       -0.049854312 -0.10291385 -0.25309727 -0.20635271
000280 46 c9 b6 3a 8a 84 91 3c e1 36 28 3d 97 a4 f5 bd
       0.0013945482 0.017763395 0.04106796 -0.11994284
000290 96 19 20 be af 63 ed bd 1b 0d 7f be 5b 5f 04 3e
       -0.1563476 -0.11591279 -0.24907343 0.12927
0002a0 9c 6d 10 be 1c be 9b bb dc cb 17 be aa 7b 1a be
       -0.14104313 -0.0047528874 -0.1482386 -0.15086237
0002b0 4a 3b cc bd f1 15 40 be 6e b3 a1 bd 28 b4 f0 bd
       -0.09972246 -0.1875837 -0.078955516 -0.11753112
0002c0 ae 2d f9 3d b2 48 6b be 16 60 af bd 97 8a b7 3d
       0.12166916 -0.2297695 -0.08563249 0.08961981
0002d0 27 14 54 be 51 29 17 3d 3e 29 2c bd 9f c3 df 3b
       -0.20710813 0.036904637 -0.04203152 0.00682874
0002e0 02 f4 5f bd 2e 28 d7 3d bd d8 46 be 65 95 23 be
       -0.054676063 0.105057105 -0.19418617 -0.15974958
0002f0 73 4c 0b be 02 0b c8 bc 70 a1 59 be f3 f4 9a ba
       -0.13603382 -0.024419311 -0.2125299 -0.0011822268
000300 78 9b 0e bd a7 3b 04 bd fe 55 a0 bd c3 92 de bd
       -0.034816235 -0.03228345 -0.07828902 -0.10867836
000310 75 ab 92 3d 12 1b b3 bc dc 1b a4 bc 29 ea 4a be
       0.07161609 -0.021863494 -0.020032816 -0.19815888
000320 5f f6 98 3e 17 4e 17 be bb 91 90 3b 8f 1b 72 3c
       0.29875466 -0.14775883 0.0044119037 0.014777078
000330 93 5b 17 be e3 85 8b bd 32 ac 09 be ff 80 03 bd
       -0.14781027 -0.06812646 -0.13444594 -0.032105442
000340 9c ca c3 3d e5 7e 09 3e 81 81 7d bd 6b 18 51 3c
       0.09560129 0.13427313 -0.061891083 0.012762169
000350 37 5a 81 be 78 1a 60 3c 90 61 ce 3d b0 a9 52 be
       -0.2526414 0.013678186 0.10077202 -0.20572543
000360 d0 83 15 be b6 91 88 be c6 5a ca 3d 82 d8 28 be
       -0.14601064 -0.2667367 0.09880595 -0.16488841
000370 8d ab 82 be 41 10 93 3d 0b cb 00 bc a3 33 cd 3c
       -0.25521508 0.071808346 -0.007860909 0.025049036
000380 db e7 9d bc 36 5b 8d 3d 7a 2e 10 be 06 9a bb 3b
       -0.019275596 0.06902163 -0.1408023 0.005725148
000390 54 28 b7 bd 14 82 8a be 17 31 25 3d c6 97 91 3d
       -0.08943239 -0.27052367 0.04033002 0.071090266
0003a0 b0 f8 88 3d a8 32 6e 3d 5c 16 e3 bd f1 fa ae be
       0.066880584 0.05815378 -0.11088249 -0.34175828
0003b0 26 1d 15 3e a1 ce 93 3d 8f c6 ae be d7 c6 b3 bd
       0.145619 0.07217146 -0.34135863 -0.0877816
0003c0 c5 ed 88 be 9e f4 74 be 6e bc 46 3d 7b 9e 1b be
       -0.26743904 -0.23921439 0.048519544 -0.15197174
0003d0 11 66 e5 bd 5e 01 31 be 35 48 8e 3c dc 25 16 3d
       -0.11201108 -0.17285678 0.017368415 0.0366572
0003e0 b4 5e a1 bd 54 c1 0a 3e 27 ca 8a 3e fc a8 79 bb
       -0.07879391 0.13550311 0.27107355 -0.0038095107
0003f0 32 2d 84 3d 08 71 bd bd 29 3b 31 be 64 9a 7b 3d
       0.06453933 -0.092500746 -0.17307724 0.061426535

fc4.bias f4 [3]
000000 58 2d a1 3d 6c c8 0a bc ca 4b ac bd
       0.07869977 -0.008470636 -0.08412893
