experiments/experiment_9/best_model_3_9.pt (torch, 39119 bytes, 8 tensors)

conv1.bias f4 [50]
-0.00026446368 -0.0043742503 -0.023556586 -0.036190838 -0.004830119 -0.010940342 -0.022810945 0.035193354
0.035967868 0.0120560955 0.0073857578 -0.013128071 -0.034691032 -0.0198546 -0.033263676 -0.0031011733
-0.0061021317 -0.03346541 -0.01961962 0.0008995154 -0.009972271 -0.0040596128 0.034737945 -0.01301236
-0.014809856 -0.00956366 0.034887455 -0.0040501044 0.035296403 -0.0057867314 -0.02353393 -0.013801767
0.011763801 -0.004793031 -0.013529437 0.034339238 0.003893525 -0.035362113 0.0078685265 -0.034766912
-0.017480318 -0.0018277129 0.02425086 0.010867862 -0.0034794847 0.033461258 -0.034461915 0.016844278
0.015118496 0.032172438
00000000: b7a7 8ab9 df55 8fbb bef9 c0bc d83c 14bd
00000010: fa45 9ebb 1f3f 33bc 05de babc e826 103d
00000020: 0b53 133d ee86 453c 3a04 f23b 1f17 57bc
00000030: 2f18 0ebd 1da6 a2bc 7e3f 08bd 0e3d 4bbb
00000040: 64f4 c7bb 0713 09bd 53b9 a0bc 75cd 6b3a
00000050: bc62 23bc 8006 85bb 6049 0e3d cb31 55bc
00000060: 0aa5 72bc e6b0 1cbc 26e6 0e3d bdb6 84bb
00000070: f692 103d 9f9e bdbb 3aca c0bc ce20 62bc
00000080: f5bc 403c dc0e 9dbb 92aa 5dbc 4da7 0c3d
00000090: 832a 7f3b ddd7 10bd feea 003c c067 0ebd
000000a0: e232 8fbc de8f efba bda9 c63c 1e0f 323c
000000b0: 1108 64bb ac0e 093d f027 0dbd 03fd 893c
000000c0: 91b3 773c 3fc7 033d

conv1.lin.weight f4 [50, 116]
0.13718648 0.112201534 0.07076982 -0.15441775 0.15917753 -0.12478813 -0.12962659 -0.2098572
-0.16448088 0.015624991 0.17983864 -0.03193834 0.16738631 -0.11346495 0.13141023 -0.146272
0.109638795 -0.02026254 0.09606773 0.12155114 -0.16713414 0.16865116 -0.006367832 0.02173841
-0.171292 -0.09332492 0.032733746 0.120436385 0.02748469 0.08468187 0.06665224 0.053858962
0.14083251 0.12146311 -0.00027918982 -0.03933013 -0.13384098 0.08569753 -0.08083895 0.21257514
-0.15087236 0.047136948 -0.15933813 -0.15426363 -0.067150466 -0.043400466 -0.14165987 0.14822842
-0.010698747 0.049875963 0.10798432 0.0064184167 0.019956412 -0.044869382 -0.09763596 0.07767132
-0.15918648 0.035555337 0.04985043 0.06260257 0.14645137 -0.12948324 -0.011909678 -0.011667126
0.032177236 0.09796616 -0.16359825 -0.04183196 -0.03828165 0.17720829 -0.07525374 -0.04323257
-0.0028346742 -0.1700632 -0.12627089 -0.011807442 0.18893276 0.012913663 0.16432244 -0.18826684
-0.108270764 -0.11026524 -0.033742316 0.10719078 -0.049128827 0.05742793 0.06632131 0.062989585
0.10346268 0.0083487565 -0.08248007 -0.16455321 0.119408734 0.02739653 -0.07763333 0.063285366
0.16294982 0.09643735 0.029742422 -0.12812303 0.059974883 0.13426507 0.014604161 0.18998615
-0.14940892 0.16299723 -0.039418258 0.13132028 -0.13203745 0.15300924 -0.009298066 0.011232733
0.1682259 0.16126359 0.12987158 -0.15357648 0.08533322 0.015101925 0.06865532 0.15677533
0.078319274 0.108181655 0.035504077 0.02634013 -0.05148447 -0.030171815 -0.20410001 -0.10662257
-0.15191522 -0.06871392 0.18027335 0.034250952 0.07982325 0.13525312 0.14274193 -0.16745216
-0.049795795 0.16252734 -0.0048663607 -0.13569498 -0.06961005 0.116287224 0.028941423 -0.060129046
-0.12902117 0.011884476 0.1578701 0.09643249 0.13866836 0.12990278 0.10908205 -0.11196324
0.14293341 -0.04530493 -0.009137903 0.14444996 0.12770168 0.0598756 -0.03796517 0.045798656
-0.14037853 0.045503534 -0.09639366 0.06259571 0.13501169 0.005911219 -0.048604287 0.11826506
0.14126378 -0.098528445 0.048141994 0.17820913 -0.1431814 0.056375396 0.14498654 0.0023478656
-0.12992465 -0.21494105 -0.10985282 0.16956238 0.13036098 0.12542573 0.014438706 -0.19227707
-0.14287129 -0.1599765 0.17480035 0.09523522 -0.045212388 -0.15190127 0.1570369 -0.011676602
-0.18368442 0.10002454 0.14840014 -0.15095057 0.115753345 -0.08229793 -0.15443799 -0.12887262
0.12018279 -0.13765334 -0.008358902 -0.034753613 -0.117339656 0.17299007 0.1653984 0.21635506
-0.14690113 -0.16522932 0.021167858 -0.033602383 0.05275849 0.2005948 -0.20451081 -0.08391133
-0.18251114 0.026366755 -0.13743241 0.011687683 0.059739508 0.010372141 0.16603565 0.09054877
0.014170328 0.07121377 -0.14565128 0.15894695 0.15944773 -0.14475474 0.12759298 -0.059126165
0.13844809 0.07651104 -0.17984211 0.14088725 -0.12568197 -0.015248019 -0.054943632 0.021870472
0.03978897 -0.11574401 0.090504855 0.14326495 -0.009538551 -0.13764028 -0.10210541 0.19985598
0.16133699 0.19512133 0.013778155 0.013266 0.04171105 0.03603545 0.14785616 -0.17265612
00000000: 9d7a 0c3e ebc9 e53d c4ef 903d b01f 1ebe
00000010: 6fff 223e eb90 ffbd d5bc 04be cee4 56be
00000020: ad6d 28be f6ff 7f3c 9f27 383e c7d1 02bd
00000030: 5167 2b3e 5060 e8bd 6790 063e 54c8 15be
00000040: 4e8a e03d a0fd a5bc 28bf c43d ceef f83d
00000050: 3625 2bbe e4b2 2c3e 3fa9 d0bb c014 b23c
00000060: 2c67 2fbe 2321 bfbd d213 063d 5aa7 f63d
00000070: 9327 e13c b06d ad3d f880 883d 379b 5c3d
00000080: 6636 103e a7c1 f83d 3960 92b9 a118 21bd
00000090: 9c0d 09be 3082 af3d e48e a5bd 4cad 593e
000000a0: 497e 1abe ac12 413d 8929 23be 49f7 1dbe
000000b0: 2f86 89bd b0c4 31bd 490f 11be 31c9 173e
000000c0: cc49 2fbc bd4a 4c3d e226 dd3d 9551 d23b
000000d0: a17b a33c f5c8 37bd 5df5 c7bd 2412 9f3d
000000e0: c801 23be 79a2 113d f72f 4c3d c735 803d
000000f0: 59f7 153e 4197 04be cf20 43bc 7927 3fbc
00000100: 47cc 033d 7ba2 c83d 4d86 27be fd57 2bbd
00000110: 38cd 1cbd 1776 353e a21e 9abd a314 31bd
00000120: f1c5 39bb 0c25 2ebe 284d 01be 0074 41bc
00000130: 9777 413e d493 533c 2444 283e 06c9 40be
00000140: 10bd ddbd bed2 e1bd 6235 0abd d786 db3d
00000150: 4f3b 49bd 8d39 6b3d 78d3 873d af00 813d
00000160: 3ee4 d33d 39c9 083c 50eb a8bd a380 28be
00000170: 918c f43d b06e e03c 39fe 9ebd c29b 813d
00000180: 51dc 263e f280 c53d 61a6 f33c af32 03be
00000190: 39a8 753d c87c 093e 4a46 6f3c bb8b 423e
000001a0: a7fe 18be bfe8 263e 0a75 21bd d378 063e
000001b0: d334 07be 74ae 1c3e ea56 18bc 7f09 383c
000001c0: 6943 2c3e 4822 253e 0efd 043e 2743 1dbe
000001d0: 2fc3 ae3d 106e 773c 299b 8c3d b689 203e
000001e0: db65 a03d 588e dd3d b96c 113d 42c7 d73c
000001f0: 61e1 52bd e22a f7bc 98ff 50be ef5c dabd
00000200: aa8f 1bbe e2b9 8cbd 9499 383e ba4a 0c3d
00000210: 5f7a a33d cb7f 0a3e f12a 123e 9478 2bbe
00000220: adf6 4bbd 916d 263e fe75 9fbb a0f3 0abe
00000230: b78f 8ebd ff27 ee3d 9016 ed3c e049 76bd
00000240: 201e 04be 1bb7 423c b3a8 213e 667e c53d
00000250: 14ff 0d3e 3c05 053e 6966 df3d fc4c e5bd
00000260: 235d 123e aa91 39bd 25b7 15bc b1ea 133e
00000270: 3bc4 023e 1e40 753d 5e81 1bbd 5f97 3b3d
00000280: 64bf 0fbe ea61 3a3d 0a6a c5bd 2e32 803d
00000290: 8140 0a3e e6b2 c13b 4a15 47bd f434 f23d
000002a0: 74a7 103e 48c9 c9bd 8a30 453d 747c 363e
000002b0: 259e 12be e3e9 663d 5a77 143e a6de 193b
000002c0: f80a 05be 8219 5cbe 84fa e0bd c3a1 2d3e
000002d0: 597d 053e 9a6f 003e 5390 6c3c 48e4 44be
000002e0: da4c 12be e1d0 23be ddfe 323e af0a c33d
000002f0: a030 39bd 028c 1bbe 48ce 203e 384f 3fbc
00000300: c517 3cbe abd9 cc3d 35f6 173e c992 1abe
00000310: 1710 ed3d d18b a8bd fe24 1ebe 2ff7 03be
00000320: 6522 f63d fff4 0cbe c7f3 08bc ce59 0ebd
00000330: c64f f0bd 4f24 313e 335e 293e 2e8c 5d3e
00000340: 406d 16be e031 29be 3768 ad3c a7a2 09bd
00000350: 4919 583d b968 4d3e 486b 51be b4d9 abbd
00000360: 33e4 3abe 18ff d73c 15bb 0cbe b27d 3f3c
00000370: 6ab1 743d eaef 293c 4005 2a3e a271 b93d
00000380: aa2a 683c 86d8 913d 9c25 15be fdc2 223e
00000390: 4446 233e 963a 14be bca7 023e 472e 72bd
000003a0: 56c5 0d3e d2b1 9c3d 8828 38be bf44 103e
000003b0: c6b2 00be d4d2 79bc 930c 61bd b429 b33c
000003c0: c2f9 223d 320b edbd 9c5a b93d 0cb4 123e
000003d0: 9547 1cbc 93f1 0cbe a41c d1bd 0ca7 4c3e
000003e0: 8635 253e e3cd 473e c5bd 613c a359 593c
000003f0: 35d9 2a3d e899 133d 9b67 173e c4cc 30be

conv2.bias f4 [50]
-0.034182616 -0.016946923 -0.030599795 0.03448553 0.0010197993 -0.03464026 -0.03302353 0.035337005
-0.03546722 -0.034679186 -0.034328114 -0.035314023 -0.03441333 0.034352873 -0.035078518 -0.034398332
0.034257606 0.034970548 0.03509672 -0.035434805 0.034855083 0.034662753 0.03530166 -0.03481829
-0.03185383 0.034177195 -0.03507993 0.0348777 0.033436924 0.034583375 0.03529343 -0.01711163
-0.035253827 -0.029824097 0.03518094 0.03357788 0.01536721 0.035073362 0.03477318 -0.03409652
-0.026920516 0.00077671604 -0.027677424 0.011868249 -0.034439374 -0.0012178582 0.03533108 -0.035019375
0.034298718 -0.030182824
00000000: 1203 0cbd 46d4 8abc 6cac fabc b340 0d3d
00000010: c9aa 853a f2e2 0dbd ae43 07bd 89bd 103d
00000020: 1346 11bd c30b 0ebd a39b 0cbd 70a5 10bd
00000030: fef4 0cbd 99b5 0c3d 7eae 0fbd 44e5 0cbd
00000040: b451 0c3d 473d 0f3d 94c1 0f3d 1624 11bd
00000050: 34c4 0e3d 88fa 0d3d 7998 103d a09d 0ebd
00000060: 2979 02bd 63fd 0b3d f9af 0fbd ebdb 0e3d
00000070: 28f5 083d 4ca7 0d3d d88f 103d b02d 8cbc
00000080: 5166 10bd aa51 f4bc e419 103d f688 093d
00000090: c0c6 7b3c 16a9 0f3d 526e 0e3d cba8 0bbd
000000a0: 6a88 dcbc 889c 4b3a c4bb e2bc 0b73 423c
000000b0: 4d10 0dbd 8aa0 9fba 53b7 103d 7a70 0fbd
000000c0: d07c 0c3d f841 f7bc

conv2.lin.weight f4 [50, 50]
0.0316661 -0.010486472 -0.086012065 0.009174793 -0.13729222 0.26431817 -0.12174827 0.06097054
0.04821756 0.051519167 0.12190284 -0.011666456 -0.12654468 0.109777145 0.10939351 0.116338074
0.18311206 0.12573229 0.026388148 0.00819959 0.151466 0.10565458 -0.18555783 -0.0077646403
-0.20547299 0.21454906 -0.055915628 -0.062316515 0.174591 0.2572196 -0.04285181 -0.15842637
0.20659305 -0.19653745 -0.19342096 0.0030545287 -0.18576933 -0.08162873 0.07044769 -0.07490181
-0.17265478 0.048154082 -0.17723191 -0.113071345 0.21560873 0.10826731 -0.2071807 -0.23031741
0.16079082 -0.15275523 0.1612164 0.022045707 -0.19230251 0.11907351 0.15233816 0.2244795
-0.047327183 0.18009928 0.15288424 -0.14308085 -0.060504474 -0.1641905 -0.06614429 -0.21801154
0.22044691 0.07021678 0.078112274 0.02489892 -0.20792814 0.17437977 -0.129104 -0.09344094
-0.18346548 -0.05812432 0.23497063 0.2605058 -0.0017396009 -0.080160275 -0.23554628 -0.12293976
-0.070523985 0.16238841 -0.08877786 -0.137951 -0.21321326 0.21417804 -0.1654299 -0.11147218
-0.028840266 -0.13394572 -0.18911903 -0.115514286 -0.18269873 0.23508008 -0.20444618 0.13768363
-0.05769386 0.033723928 0.18741567 0.21615992 -0.0670102 0.18891048 0.12243968 -0.1301092
-0.063747175 -0.032765377 -0.25258008 -0.23170803 -0.2040754 -0.09728906 0.19558361 -0.17385708
-0.007751931 0.087213635 0.1460562 -0.005759444 -0.021731535 -0.13041787 -0.18297794 0.065897524
-0.2031399 0.088917375 -0.09492219 -0.16752039 0.12042247 0.25868115 -0.16477361 0.26096094
0.052374642 0.049843732 -0.028028544 -0.1642576 0.04478522 -0.05445536 -0.2149454 -0.0036189288
0.05094899 -0.14524546 -0.21300873 0.118316874 0.0020849765 0.2273966 -0.23622173 0.05093528
0.19014542 0.17499064 0.19892752 0.22207206 -0.009332599 0.09519248 0.08986294 -0.18985546
0.1320536 -0.050787114 -0.1035147 0.12604985 0.071655564 -0.027685843 0.016210135 0.20525333
0.21944948 -0.17485231 0.12693821 -0.020803185 0.19988205 0.14601895 -0.17013133 -0.016606743
-0.09575619 -0.0011018974 0.19225314 0.1722005 0.05451924 -0.20440283 -0.15347843 0.043140538
-0.085702404 -0.088269666 0.26233014 0.15577643 -0.16202044 0.10073024 0.22376792 0.07461552
0.20721842 0.065591976 0.012733183 0.023522237 -0.028424995 -0.09310355 0.0817036 0.052085843
0.0068403706 -0.18977991 0.21026121 0.18392494 -0.20489328 -0.19074225 0.07621948 0.13971329
0.06010825 0.06786251 0.025075138 -0.2558498 -0.015543561 -0.04204091 -0.16258974 0.08811145
0.11283618 -0.18680197 -0.15126833 0.054136813 0.13387254 0.022946306 0.012624257 -0.21987593
0.19258404 -0.06726844 0.2080969 0.20832987 0.0007707844 0.0022829368 -0.12336236 0.12966526
0.17163512 0.16132376 -0.08354708 -0.043010775 0.054712787 -0.12169379 0.15789965 0.10472916
0.23315299 -0.020104192 -0.18878715 0.01302683 0.14543499 0.14097835 -0.11154719 0.07041384
0.019012915 0.012757561 -0.034419388 0.026604084 0.19462986 -0.026636532 0.062989295 0.10834309
-0.12815209 0.08045548 -0.085028924 -0.012603491 -0.101655945 -0.014412536 0.22816792 0.014424946
00000000: 50b4 013d 74cf 2bbc 1827 b0bd df51 163c
00000010: 5596 0cbe b654 873e 2857 f9bd 3fbc 793d
00000020: c77f 453d c305 533d 32a8 f93d aa24 3fbc
00000030: ee94 01be d7d2 e03d b409 e03d a842 ee3d
00000040: ba81 3b3e f7bf 003e f52b d83c 9357 063c
00000050: e719 1b3e 6e61 d83d df02 3ebe 866e febb
00000060: 8367 52be c0b2 5b3e c907 65bd 9a3f 7fbd
00000070: fcc7 323e 4ab2 833e 6185 2fbd 863a 22be
00000080: 218d 533e 1d41 49be 2510 46be 7d2e 483b
00000090: 513a 3ebe f72c a7bd e146 903d 1f66 99bd
000000a0: 6acc 30be 373d 453d 487c 35be f391 e7bd
000000b0: 89c8 5c3e 40bb dd3d 2d27 54be 54d8 6bbe
000000c0: 59a6 243e de6b 1cbe e915 253e 3399 b43c
000000d0: f3ea 44be d0dc f33d 89fe 1b3e f4dd 653e
000000e0: 26da 41bd f26b 383e b08d 1c3e c983 12be
000000f0: 8ad3 77bd 8e21 28be a876 87bd 6b3e 5fbe
00000100: d6bc 613e d1cd 8f3d 54f9 9f3d d2f8 cb3c
00000110: 1deb 54be 9c90 323e d733 04be f75d bfbd
00000120: 60de 3bbe c413 6ebd 249c 703e 0461 853e
00000130: 5203 e4ba 122b a4bd 0b33 71be d7c7 fbbd
00000140: e16e 90bd 2649 263e 2bd1 b5bd 0743 0dbe
00000150: 9454 5abe 7d51 5b3e 7566 29be 874b e4bd
00000160: 6c42 ecbc 1129 09be 6ba8 41be c192 ecbd
00000170: 6015 3bbe d5b8 703e 575a 51be f0fc 0c3e
00000180: 6650 6cbd 1a22 0a3d e5e9 3f3e 0759 5d3e
00000190: a53c 89bd c071 413e a8c1 fa3d 593b 05be
000001a0: e18d 82bd fd34 06bd 2d52 81be df44 6dbe
000001b0: 24f9 50be 7d3f c7bd 1247 483e 9707 32be
000001c0: e903 febb 109d b23d c28f 153e b8b9 bcbb
000001d0: 5506 b2bc 438c 05be 925e 3bbe 48f5 863d
000001e0: e803 50be 501a b63d 9166 c2bd 778a 2bbe
000001f0: 0ea0 f63d db71 843e 6aba 28be ac9c 853e
00000200: cb86 563d f128 4c3d 1e9c e5bc 2533 28be
00000210: b570 373d 950c 5fbd a61a 5cbe 8d2b 6dbb
00000220: e3af 503d 3abb 14be f61e 5abe 1e50 f23d
00000230: 1aa4 083b a8da 683e 1ce4 71be 83a1 503d
00000240: 7bb5 423e bf30 333e a8b3 4b3e dc66 633e
00000250: c2e7 18bc 46f4 c23d 100a b83d 7869 42be
00000260: 0f39 073e 2606 50bd 84ff d3bd 3613 013e
00000270: 27c0 923d 6ccd e2bc 1ecb 843c ee2d 523e
00000280: 5db7 603e 7c0c 33be 17fc 013e 716b aabc
00000290: e1ad 4c3e fe85 153e e836 2ebe dd0a 88bc
000002a0: d21b c4bd 8b6d 90ba 02de 443e 5455 303e
000002b0: 914f 5f3d fa4e 51be 7329 1dbe 22b4 303d
000002c0: be84 afbd bac6 b4bd 2350 863e db83 1f3e
000002d0: b0e8 25be a84b ce3d 6b23 653e 06d0 983d
000002e0: 1131 543e 1655 863d d79e 503c b5b1 c03c
000002f0: 89db e8bc 13ad bebd 3854 a73d f757 553d
00000300: 3025 e03b aa55 42be b74e 573e d256 3c3e
00000310: 8bcf 51be f051 43be f518 9c3d 0011 0f3e
00000320: 1134 763d 80fb 8a3d 606a cd3c bffe 82be
00000330: 6caa 7ebc 1733 2cbd ed7d 26be c773 b43d
00000340: a816 e73d 0449 3fbe 16e6 1abe 90be 5d3d
00000350: e215 093e e4f9 bb3c f9d5 4e3c 2827 61be
00000360: c034 453e 09c4 89bd 5b17 553e 6d54 553e
00000370: 770e 4a3a 539d 153b 68a5 fcbd f8c6 043e
00000380: 1ec1 2f3e 0e32 253e bb1a abbd 112c 30bd
00000390: 841a 603d 983a f9bd 72b0 213e 3e7c d63d
000003a0: a8bf 6e3e 8cb1 a4bc 6b51 41be 7c6e 553c
000003b0: e9ec 143e a15c 103e da72 e4bd 2235 903d
000003c0: f9c0 9b3c 1705 513c 58fb 0cbd cff0 d93c
000003d0: 0d4d 473e db34 dabc 8800 813d fbe2 dd3d
000003e0: 4d3a 03be d8c5 a43d a523 aebd df7e 4ebc
000003f0: fe30 d0bd 8f22 6cbc daa4 693e 9c56 6c3c

pool1.weight f4 [1, 50]
0.08330282 -0.060168564 -0.08891288 -0.04925277 -0.06893537 -0.015353361 0.016478287 0.030722782
0.012115524 0.10420396 0.10606416 -0.061878126 -0.043317672 -0.055179544 -0.0690373 -0.106317006
0.017969964 -0.013264184 -0.034598768 0.07615694 0.061236214 0.08191054 0.051754955 0.028314816
0.06436765 -0.096105725 0.0350725 -0.13413286 0.045215867 -0.13364998 -0.11947058 -0.15699233
0.04711821 0.081315495 -0.15676825 0.08134507 0.15445246 -0.003540489 0.037614644 -0.013784637
-0.13340005 -0.1003524 0.12065724 0.06396195 -0.14022905 0.072682835 -0.052380003 -0.026043741
0.08788749 -0.039020635
00000000: ab9a aa3d 5073 76bd f517 b6bd 46bd 49bd
00000010: fd2d 8dbd aa8c 7bbc 79fd 863c 58ae fb3c
00000020: 3180 463c e368 d53d 2b38 d93d eb73 7dbd
00000030: df6d 31bd f203 62bd 6e63 8dbd bbbc d9bd
00000040: bf35 933c 0552 59bc 70b7 0dbd 2bf8 9b3d
00000050: d3d2 7a3d b7c0 a73d 01fd 533d 79f4 e73c
00000060: 30d3 833d 14d3 c4bd 2fa8 0f3d 205a 09be
00000070: 4634 393d 8adb 08be feac f4bd 99c2 20be
00000080: 06ff 403d bd88 a63d db87 20be 3e98 a63d
00000090: c928 1e3e 8c07 68bb d011 1a3d f5d8 61bc
000000a0: 069a 08be 8f85 cdbd 251b f73d 7cfe 823d
000000b0: 3498 0fbe bdda 943d 6a8c 56bd af59 d5bc
000000c0: 5bfe b33d 1ad4 1fbd

pool2.weight f4 [1, 50]
-0.09158875 -0.0027524116 -0.04817369 0.09855088 -0.077236876 -0.1116973 -0.030827582 0.020477874
-0.013540582 -0.11738479 -0.08958194 -0.03658078 -0.11933283 0.10447985 -0.10712625 -0.14207153
0.045160208 0.16607852 -0.036619734 -0.118797466 0.08535189 0.0932169 0.16033223 -0.14103836
-0.12006456 0.101320416 -0.12887205 0.13886069 -0.025764996 0.06470477 0.035277717 -0.048501626
-0.07884593 -0.022113644 -0.003650922 0.12814157 -0.07379615 0.08938694 -0.033597715 -0.05885784
-0.025590274 -0.026174674 0.044544615 -0.04954847 -0.143163 -0.08543826 0.06498443 -0.013217448
0.03802564 -0.045055248
00000000: e292 bbbd ce61 34bb c651 45bd 0bd5 c93d
00000010: 5e2e 9ebd 8ec1 e4bd 208a fcbc 37c1 a73c
00000020: 51d9 5dbc 7067 f0bd bc76 b7bd bad5 15bd
00000030: c564 f4bd 88f9 d53d 0265 dbbd 337b 11be
00000040: e9f9 383d 7d10 2a3e 93fe 15bd 164c f3bd
00000050: f9cc ae3d 81e8 be3d 222e 243e 5c6c 10be
00000060: 68e4 f5bd 1481 cf3d 09f7 03be 7f31 0e3e
00000070: 1d11 d3bc ef83 843d 5e7f 103d a4a9 46bd
00000080: fa79 a1bd ac27 b5bc 4f44 6fbb 8b37 033e
00000090: 7022 97bd 8010 b73d c29d 09bd eb14 71bd
000000a0: b2a2 d1bc 456c d6bc 6a74 363d 56f3 4abd
000000b0: 5299 12be 41fa aebd 8f16 853d ff8d 58bc
000000c0: c6c0 1b3d da8b 38bd

fc4.weight f4 [3, 200]
-0.043818727 -0.017334113 0.017871594 0.025954986 0.036608398 -0.020173665 0.02285505 -0.093922704
-0.054252695 -0.07093733 -0.03108237 0.022824341 -0.049257115 -0.01519892 0.03351462 0.048964504
-0.046690177 -0.04625825 -0.094534375 0.046920337 -0.03150351 -0.0051963874 -0.05936488 0.0024925403
0.009628463 -0.08507135 0.010373735 -0.091734186 -0.0014060151 0.043215416 0.014955972 -0.08986432
-0.09735251 0.0017650706 -0.0045093354 -0.033090845 -0.02578168 -0.086051084 -0.08556244 -0.07047662
0.03605278 -0.09607145 -0.08632943 -0.09079827 -0.008018629 -0.030459285 0.0043426207 -0.0092724925
-0.09803287 -0.026903724 -0.016727043 -0.07797811 0.05307093 0.07632838 0.0065326043 0.04252257
0.056948192 -0.058281645 0.07298888 -0.01337322 -0.06761838 -0.0070813443 -0.01619632 0.02315939
0.03798425 -0.02485708 -0.0028349056 0.04676814 0.057979662 0.01183095 0.07706943 -0.027642619
-0.07393012 0.0013014369 0.084373616 0.10503147 -0.0074213673 -0.058661543 -0.03073779 0.08544837
0.04718847 -0.019969756 -0.067976646 -0.029431975 0.0033957441 0.043510593 0.0012288879 -0.019565424
-0.086421795 -0.05330475 -0.025970219 -0.002248918 0.008740869 0.03640029 0.048128486 0.056794852
0.05059728 -0.044577044 -0.08741687 -0.074913554 -0.005333295 -0.07622424 -0.04490627 0.05058521
-0.099898495 -0.07385952 -0.08878125 -0.062148374 -0.028128918 0.017506182 -0.019206172 -0.011572992
0.033995606 -0.06325473 -0.07244073 0.013234859 0.017251102 -0.09975872 -0.06288589 0.024827398
0.015771853 -0.067462996 -0.022377439 -0.06360431 -0.03988137 -0.038462963 0.003774359 0.007315128
0.035384867 -0.02521457 -0.07935412 -0.037663564 -0.033683192 -0.031589743 -0.033979572 -0.011032556
0.023285693 -0.067138575 -0.002510971 -0.0497829 0.042599253 -0.0849017 -0.064727016 -0.06822955
0.037281055 -0.02164827 -0.08633348 -0.049418725 -0.086245134 0.008204209 -0.07016772 -0.06760098
0.044505965 0.021516237 0.018455662 0.017319141 0.06518271 -0.028928153 -0.0113482075 0.008277531
0.09160938 0.033579566 0.06099935 0.045072254 0.032722343 -0.010931939 -0.016400293 -0.098401636
0.061979644 0.033867847 -0.083676904 -0.09696335 -0.035872012 0.06211735 0.006004337 0.03992038
0.04648434 0.008927137 0.01546073 -0.041094627 -0.01640186 -0.010869468 0.017288467 0.01729184
0.024227556 -0.013139269 -0.05985648 0.03633823 -0.0130743515 -0.014659347 0.020637143 0.02696052
0.08548679 -0.043392945 -0.015396675 -0.026890915 0.02233055 -0.007494554 0.01745044 0.043965846
-0.03034621 0.06079421 0.0053011286 -0.005046184 0.03006334 -0.0010873377 -0.03579374 0.0883276
0.08580146 0.06590494 0.02811368 0.04161838 -0.00090721285 0.01450382 -0.024754658 0.08540267
0.054323345 -0.02444167 -0.012143916 -0.035299554 -0.035399728 -0.012239163 0.043349028 -0.023472218
-0.032367222 0.022480015 0.04758402 0.08144682 0.104479514 0.09056445 -0.04015994 0.016695661
0.020244487 -0.032520812 0.030525612 0.097953826 -0.009288984 -0.0025457456 -0.011549343 -0.030468917
-0.012513817 0.03850229 0.07828524 -0.01743085 0.05057002 0.10392053 0.020988666 0.07268239
0.024786502 0.10488148 -0.025668317 0.054090038 -0.06815822 -0.025720887 0.0039378502 0.0029371688
00000000: 447b 33bd 4500 8ebc 7367 923c 8d9f d43c
00000010: b0f2 153d 3e43 a5bc 843a bb3c 8c5a c0bd
00000020: 1338 5ebd 9747 91bd 74a0 febc 1dfa ba3c
00000030: d4c1 49bd e404 79bc a046 093d 018f 483d
00000040: 333e 3fbd 4a79 3dbd 3d9b c1bd 8a2f 403d
00000050: d309 01bd 7546 aabb 9728 73bd e359 233b
00000060: b3c0 1d3c e339 aebd 99f6 293c 22df bbbd
00000070: 0a4a b8ba a602 313d e509 753c c90a b8bd
00000080: c160 c7bd f159 e73a 0cc3 93bb 448a 07bd
00000090: 1a34 d3bc 8d3b b0bd 5c3b afbd 0c56 90bd
000000a0: 14ac 133d 1cc1 c4bd 7ccd b0bd 72f4 b9bd
000000b0: 9160 03bc c085 f9bc 8b4c 8e3b a7eb 17bc
000000c0: 75c5 c8bd 3365 dcbc 2707 89bc fdb2 9fbd
000000d0: e760 593d 0e52 9c3d 750f d63b 252c 2e3d
000000e0: 8242 693d bcb8 6ebd 327b 953d 5a1b 5bbc
000000f0: 817b 8abd 9f0a e8bb 25ae 84bc c3b8 bd3c
00000100: 5f95 1b3d 13a1 cbbc d3c9 39bb f38f 3f3d
00000110: 157c 6d3d 9ad6 413c 94d6 9d3d c672 e2bc
00000120: ad68 97bd fa94 aa3a 13cc ac3d bd1a d73d
00000130: f12e f3bb 1647 70bd d1cd fbbc 8eff ae3d
00000140: b248 413d 9d97 a3bc 5737 8bbd 531b f1bc
00000150: 228b 5e3b 2a38 323d a312 a13a ab47 a0bc
00000160: e9fd b0bd 1556 5abd 7fbf d4bc 9562 13bb
00000170: dd35 0f3c 7818 153d 6022 453d b8a1 683d
00000180: 183f 4f3d 6b96 36bd 9e07 b3bd 476c 99bd
00000190: ecc2 aebb 741b 9cbd a3ef 37bd 7032 4f3d
000001a0: 9597 ccbd a943 97bd f2d2 b5bd 4b8f 7ebd
000001b0: 9e6e e6bc 2069 8f3c 4356 9dbc a69c 3dbc
000001c0: fa3e 0b3d b28b 81bd ce5b 94bd 06d7 583c
000001d0: 2f52 8d3c 4d4e ccbd 51ca 80bd d462 cb3c
000001e0: f933 813c 0a2a 8abd e450 b7bc fa42 82bd
000001f0: a65a 23bd 578b 1dbd 3c5b 773b beb3 ef3b
00000200: b9ef 103d c98e cebc 6a84 a2bd 1c45 1abd
00000210: 63f7 09bd 3f64 01bd 2a2e 0bbd e5c1 34bc
00000220: a3c1 be3c f37f 89bd 1a8f 24bb 27e9 4bbd
00000230: 8e7c 2e3d f1e0 adbd 998f 84bd efbb 8bbd
00000240: 05b4 183d b657 b1bc 9ccf b0bd 4a6b 4abd
00000250: 4aa1 b0bd f26a 063c 18b4 8fbd 6272 8abd
00000260: e34b 363d d242 b03c 5430 973c dfe0 8d3c
00000270: 837e 853d bcfa ecbc d5ed 39bc 7b9e 073c
00000280: b39d bb3d ba8a 093d 74da 793d af9d 383d
00000290: dd07 063d e01b 33bc e859 86bc cc86 c9bd
000002a0: 5ede 7d3d 03b9 0a3d cc5e abbd b994 c6bd
000002b0: 88ee 12bd c36e 7e3d 08c0 c43b 8d83 233d
000002c0: 5d66 3e3d 2043 123c 004f 7d3c d752 28bd
000002d0: 325d 86bc da15 32bc 8ba0 8d3c 9ea7 8d3c
000002e0: de78 c63c 1746 57bc 122c 75bd 65d7 143d
000002f0: ce35 56bc c22d 70bc 3a0f a93c 4fdc dc3c
00000300: b313 af3d cdbc 31bd 5642 7cbc 564a dcbc
00000310: 8fee b63c e094 f5bb 3af4 8e3c 8815 343d
00000320: 9d98 f8bc 5903 793d 17b5 ad3b 765a a5bb
00000330: 6547 f63c 0085 8eba 759c 12bd 1ae5 b43d
00000340: adb8 af3d 2bf9 863d a94e e63c 0978 2a3d
00000350: 06d2 6dba 6ea1 6d3c 48ca cabc 98e7 ae3d
00000360: 2882 5e3d e639 c8bc 47f7 46bc 4496 10bd
00000370: 4eff 10bd c586 48bc c08e 313d cf48 c0bc
00000380: 7e93 04bd 0228 b83c 76e7 423d 97cd a63d
00000390: 5bf9 d53d db79 b93d c07e 24bd 57c5 883c
000003a0: c4d7 a53c 8b34 05bd d910 fa3c 049c c83d
000003b0: d330 18bc 86d6 26bb 7539 3dbc f399 f9bc
000003c0: c106 4dbc 94b4 1d3d 0354 a03d 24cb 8ebc
000003d0: 8222 4f3d 49d4 d43d 6cf0 ab3c 81da 943d
000003e0: 100d cb3c 1acc d63d 5d46 d2bc 848d 5d3d
000003f0: 8996 8bbd 9cb4 d2bc 1509 813b 847d 403b

fc4.bias f4 [3]
-0.032313716 0.06147224 0.0034557476
00000000: 635b 04bd 51ca 7b3d d379 623b
