experiments/experiment_9/checkpoint_2_9.pt (torch, 39119 bytes, 8 tensors)

conv1.bias f4 [50]
000000 7d 3e 06 bd f4 66 de ba b7 5b 64 3d 5c 7f 0f 3e
       -0.032774437 -0.0016967938 0.05575153 0.14013427
000010 a0 13 25 bd fd 73 46 3e 8a af 1f be d5 f7 08 be
       -0.04030192 0.19380184 -0.15594307 -0.1337579
000020 5f b3 fa 3c c5 2b 3b 3d 1d 5e 3b be 74 43 19 3e
       0.030603109 0.04569604 -0.1829762 0.14967138
000030 db a6 a0 3d ad 51 bf bc 25 44 d2 bd 98 8f 20 be
       0.07844325 -0.023354376 -0.10266904 -0.15679777
000040 57 3e f5 3c 6c 4d b6 3e db 67 48 be 61 ce 16 3e
       0.029936953 0.35605943 -0.19570868 0.14727165
000050 f3 81 04 3e f6 af e1 bd 14 29 87 bc 32 37 bf bd
       0.12940197 -0.1101989 -0.01649908 -0.093366995
000060 0d 26 9a bd 2f 4f f5 bd 30 c1 43 bd a6 05 11 3d
       -0.07526789 -0.11977994 -0.04779166 0.035405777
000070 ed 4d 23 3e 02 3c 24 3e bf 8c 7d be 55 5e 70 3d
       0.15947695 0.16038516 -0.24760722 0.058683712
000080 d8 b6 7e bd d2 4c 02 3e 87 df 29 bd f0 46 8d 3d
       -0.062186092 0.12724617 -0.041472938 0.06898296
000090 63 4f ca 3c 4e 4c 86 be 56 fa f9 3d e3 31 fb 3d
       0.024696058 -0.2623009 0.12205951 0.122653745
0000a0 28 c5 9e 3e cb de 01 be a6 a5 fa bd 59 72 4e 3d
       0.31009793 -0.12682645 -0.12238626 0.05040202
0000b0 7d 58 eb 3c 71 a6 ea 3b 70 ea dc 3d 56 2a 45 3c
       0.028728718 0.0071609546 0.10786903 0.012034019
0000c0 13 fe ba 3d 46 02 8b 3d
       0.09130492 0.06787543

conv1.lin.weight f4 [50, 116]
000000 77 57 99 3e a3 16 84 be e8 2a 16 3e da 4a 8a 3e
       0.29949543 -0.2579852 0.14664805 0.27010232
000010 22 ec 6f bd 39 5b 84 be 8a 8d ab bd 0b ab 2a 3d
       -0.058574803 -0.25850847 -0.08376606 0.041667026
000020 04 a5 3d 3d 07 2b 1b 3e f7 93 88 3e a2 95 6a 3e
       0.04629995 0.15153132 0.26675388 0.22908643
000030 22 87 21 be f0 67 09 bd 73 a9 76 bd 8f d2 c6 3d
       -0.15774205 -0.03354639 -0.060220193 0.097081296
000040 bc 86 c5 be 1b cb e3 bb 51 1f c2 bc 5b 19 e3 3d
       -0.38579357 -0.0069517023 -0.023696573 0.110888205
000050 a1 a2 1b be f6 2f 78 3d e7 c3 da 3d d5 35 59 3e
       -0.15198757 0.060592614 0.10681897 0.21211942
000060 07 94 c3 bd 50 35 86 3d e8 d4 36 bd ab 1d 5e bd
       -0.09549718 0.06553137 -0.044636637 -0.054227512
000070 7f fa 95 3d ae 41 62 bb 14 e4 ac bd e1 88 17 3c
       0.07323169 -0.0034524011 -0.0844194 0.009248943
000080 5c 1a b3 be 9d 5e 74 3d b3 9c 0e be 48 cd 7f 3e
       -0.34981048 0.059660543 -0.13926964 0.24980652
000090 2a 75 cf bd 94 ce d4 3d 4c ba 36 3e e1 a6 c2 be
       -0.10129769 0.10390964 0.17844504 -0.38017944
0000a0 fa 8e d4 3d b6 0a da 3d 3a 9e c6 bd 17 9f 37 be
       0.10378833 0.10646574 -0.09698148 -0.17931782
0000b0 bf 43 9a 3d 96 87 02 be 0b f0 ad bd 21 b8 7d bd
       0.07532453 -0.12747034 -0.0849305 -0.061943177
0000c0 25 0c 81 bd 04 99 42 bc 4a 69 f8 3d ef f9 82 bc
       -0.063011445 -0.011877302 0.12129457 -0.015988318
0000d0 24 fc 82 3d c4 73 0c 3d 11 ae 90 3e 43 a8 76 be
       0.06395748 0.03429009 0.28257802 -0.24087624
0000e0 49 9b f5 bd 9c 3f 3c 3e c1 2b 57 be ff 6c d6 be
       -0.11992509 0.1838364 -0.21012785 -0.41880032
0000f0 9d 11 5c 3e 19 cd f1 bd f5 01 6c bc 20 a8 ab 3e
       0.21491094 -0.118066974 -0.0144047635 0.33526707
000100 07 f4 6a bd 53 40 ef bd 2c 85 01 3d 2f 01 4a be
       -0.05736163 -0.11682191 0.031621143 -0.19727014
000110 59 5e ef bd 86 03 9f be 04 0e 10 be 05 bf 49 be
       -0.11687917 -0.31057376 -0.14067847 -0.19701774
000120 77 ad 24 be 5c 4a 46 3a 07 e2 c2 3c 7b 01 3c 3d
       -0.16081797 0.0007564181 0.023789419 0.04589985
000130 de 54 37 bd 93 c7 00 be d4 02 cc 3c 78 94 ea 3d
       -0.04475867 -0.12576132 0.024903692 0.114540994
000140 51 17 e7 3d ad e1 00 3e a5 54 9e be c7 9f 6e be
       0.11283744 0.12586088 -0.30923954 -0.23303138
000150 4f d1 32 be a5 6d 3b be 20 cb 23 3e a2 d0 64 be
       -0.17462657 -0.18303545 0.15995455 -0.22345212
000160 95 3d 93 3d 6a bb c1 3e b1 52 0e bc 8e c8 62 be
       0.0718948 0.37838298 -0.008686707 -0.22146818
000170 68 a1 18 3e 16 e7 e5 bd 81 dd a6 3e f6 ae f6 3d
       0.14905322 -0.11225717 0.3259087 0.1204509
000180 8f 0d 88 be 24 33 f7 3d ff 83 91 bc e0 28 13 be
       -0.26572844 0.12070301 -0.017763136 -0.14371061
000190 a1 4d cf ba 18 cb c8 bb 21 55 ca bc 78 43 2e 3e
       -0.0015815982 -0.0061277263 -0.024698796 0.17017925
0001a0 02 f6 fb bd ee d5 04 be 54 00 7c be 4b c7 95 3e
       -0.12302782 -0.12972233 -0.246095 0.2925361
0001b0 e8 28 8b 3e 77 48 e2 3e a7 e8 be bc 48 80 2b 3e
       0.27179646 0.4419591 -0.023304297 0.16748154
0001c0 4e d6 0f 3e 19 5f 36 be d9 34 10 3b bd 39 ce bc
       0.14046595 -0.17809714 0.0022004156 -0.025174016
0001d0 3f 39 af bd 83 37 3e bc 0a d0 cf 3d d7 c4 70 3e
       -0.08555841 -0.011609915 0.10147102 0.23512588
0001e0 c0 bd 2a 3e ee a9 51 bd e6 4e 91 3c a9 80 b4 be
       0.16673946 -0.05118745 0.017737817 -0.3525441
0001f0 77 f1 f1 3d e5 f4 83 bd d2 ef 5c bd 61 69 4c be
       0.11813634 -0.06443194 -0.053939648 -0.19962074
000200 75 6c 82 3e ad 56 c3 3c d6 49 4b 3e 5f e0 d6 3d
       0.2547337 0.023845041 0.19852385 0.10492014
000210 92 f2 79 3d b1 12 c4 3d eb fb ec 3d 0a 94 5b be
       0.06102235 0.095738776 0.11571487 -0.21443191
000220 b9 03 93 be 7e 94 4d 3e 2c e4 59 bd 5a 0e 50 bd
       -0.28713778 0.20076177 -0.053196117 -0.050794937
000230 5d 9b c3 be 88 9c 21 3e ef ed 84 3d 94 7c 7f 3e
       -0.3820447 0.15782368 0.06490695 0.24949867
000240 f4 7e 49 be 6c 0f d3 bd 27 c4 88 bd 57 91 bb 3d
       -0.19677335 -0.10305676 -0.06678038 0.09158581
000250 05 2f f5 bd 3c 76 64 bd 25 de 10 3e 73 92 02 3e
       -0.11971859 -0.05577682 0.14147241 0.12751178
000260 f6 db 2c be 58 c8 7d 3d 13 52 01 3e 78 7c 1f be
       -0.16880783 0.06195864 0.12628965 -0.15574825
000270 dd 5f d6 bd 27 45 93 be 75 02 a8 3e f0 56 65 bd
       -0.10467503 -0.28763697 0.32814375 -0.055991113
000280 fe be 1e be d8 e6 39 3c a7 13 98 3d 50 ea 12 be
       -0.15502545 0.011346541 0.074256234 -0.14347196
000290 84 3f 8a 3e 01 e5 21 3e 85 82 10 be d6 b5 6a 3d
       0.27001584 0.15810014 -0.14112289 0.05730232
0002a0 56 26 06 be 9a 3a b9 bc 07 2b 2b 3d e9 12 09 3e
       -0.13100561 -0.022610951 0.04178908 0.1338612
0002b0 9e d8 1c 3e 1e bd 8f bd 3b c7 66 be 54 af ed bd
       0.15317008 -0.07018493 -0.22536938 -0.11605707
0002c0 71 07 98 3e d4 d5 a7 3e 0d fa 41 3e 97 97 55 be
       0.29693177 0.32780325 0.18943043 -0.20858608
0002d0 40 1a 9f bd ce e4 9a 3c 68 f3 cc bd e0 30 1e be
       -0.07768679 0.01890793 -0.100073636 -0.15448332
0002e0 54 ec e9 bd e5 93 6f bd 75 27 aa bd a0 4f f3 bb
       -0.11422029 -0.058490653 -0.08308307 -0.0074252635
0002f0 e6 1d 99 bd 2e 88 4e bd 0d 71 6f be 62 cf 52 bd
       -0.07476406 -0.05042284 -0.23382969 -0.051467307
000300 49 0d f0 3d 9b bf 3d bd 77 92 a8 3c 01 a2 8e 3e
       0.11721284 -0.046325307 0.020577652 0.27857974
000310 e7 ee e9 be 0e 0a c6 3e ad 20 a0 3d d3 ad 58 3d
       -0.4569008 0.38679546 0.078187324 0.052900147
000320 26 f6 5f 3d 48 21 6a be c0 d8 31 3e 64 ab 76 be
       0.054678105 -0.22864258 0.1736784 -0.24088818
000330 10 72 e0 bd b1 2d 26 3b 43 66 f4 3d 15 d2 b4 bb
       -0.10959256 0.0025356824 0.119335674 -0.005518208
000340 80 9f 7b be 6e f9 23 3e ea bc 33 bd 04 bb 03 be
       -0.24572563 0.16013119 -0.043881334 -0.1286431
000350 06 61 2f 3e 04 3d 0c bc fd 22 b0 be a9 48 77 be
       0.17126855 -0.008559469 -0.34401694 -0.24148811
000360 0e 83 d3 bd 42 fd 2d 3e fd 84 84 3e b7 0f 6f 3e
       -0.10327731 0.16991141 0.25882712 0.23345838
000370 aa 55 43 3d d5 7a 72 bd 12 0e 9e bd 72 5c af 3d
       0.047689117 -0.059199173 -0.077175274 0.085625544
000380 13 30 e5 bb ca b1 56 bd b3 04 37 be 35 45 87 3e
       -0.0069942563 -0.052415647 -0.17872886 0.26419988
000390 5e 41 33 3d 2c d2 5c 3e c7 d9 05 3e 04 03 5c bd
       0.04376351 0.21564549 0.13071357 -0.053713813
0003a0 92 11 30 3e 23 06 a8 bc 3f a9 f6 bc 24 67 52 3c
       0.17194203 -0.020510739 -0.03011 0.012841973
0003b0 7f e6 41 3e 77 ad c5 3d 0f 26 81 bc 84 6a 14 3d
       0.18935584 0.096522264 -0.015765218 0.036234394
0003c0 4f f8 9e bd 7b e6 14 3e 87 5b 94 3d ae 53 da bd
       -0.07762205 0.14541046 0.0724402 -0.10660492
0003d0 bf 7e cf bb e0 2e 71 3d 5f da 99 3e 92 43 48 be
       -0.006332248 0.058882594 0.30049416 -0.19557026
0003e0 16 cd 08 be 14 c9 3e be 21 69 1b 3c ef bf b9 be
       -0.13359484 -0.18631393 0.009485514 -0.36279246
0003f0 78 c2 97 bd d5 50 49 be 0c 5f 53 be bb 55 10 3e
       -0.07410139 -0.19659741 -0.20641726 0.14095204

conv2.bias f4 [50]
000000 e9 32 a4 bd a3 79 cc bd bb 60 a0 3e 49 e1 4e 3e
       -0.08017523 -0.09984138 0.313238 0.20203127
000010 21 c3 19 bd 01 91 8d 3e 47 e4 1e 3e 3f b5 ab bd
       -0.037539605 0.27649692 0.15516768 -0.08384179
000020 22 27 84 3c 2c be 95 bd 7c cf 26 3e 32 3d 5e 3e
       0.016131941 -0.07311663 0.16290087 0.21703032
000030 50 0f 84 3e 49 53 ac bd 11 e0 b8 bc 71 9a ab bd
       0.25792933 -0.08414323 -0.02256778 -0.08379067
000040 6a 7f 4b bd df 07 85 3e 11 64 05 be b6 a8 6d 3e
       -0.04968206 0.25982568 -0.13026454 0.2320889
000050 78 b6 af bd 73 9c 8e 3c 41 3f 8a bc cd d9 65 3d
       -0.08579725 0.017408585 -0.016875865 0.056115914
000060 7d 18 9f bd 2a e7 9f bd 12 39 f8 bd b7 d1 dd 3d
       -0.07768343 -0.07807763 -0.1212026 0.108310156
000070 1a f4 d5 3d 66 16 84 3e c2 8f 91 bd 07 83 61 3e
       0.10446949 0.2579834 -0.07107498 0.22022639
000080 b4 34 6d bd fd f1 4e 3e 02 e0 96 bd 68 f8 5a 3e
       -0.05791159 0.20209499 -0.07366945 0.21383822
000090 14 6e 9e bd f3 be 8a bd a5 6c b8 bd 90 5a b9 3e
       -0.077358395 -0.06774702 -0.09005097 0.36201906
0000a0 f3 34 04 bc 33 67 8b 3e ad 28 7c 3e e3 3f 2a 3e
       -0.008069265 0.27227172 0.24624892 0.16625933
0000b0 e3 87 8b bd 9c c6 4e bd f0 4f 8f bd 84 2f ae 3d
       -0.06813028 -0.050482377 -0.06997669 0.08505157
0000c0 dd df 5d 3e d0 51 3b bc
       0.21667428 -0.01143308

conv2.lin.weight f4 [50, 50]
000000 19 ff 63 be be f2 c7 bd 5b 3a 01 3d 26 84 4b 3e
       -0.22265281 -0.09763096 0.031549793 0.1987463
000010 f2 80 c5 bd a8 73 09 3e 14 43 11 3d 4e 07 56 be
       -0.09643735 0.13423026 0.03546436 -0.20901224
000020 80 12 ba 3d 32 57 ef bc 3d 13 2d be 4f 46 b6 3d
       0.0908556 -0.029216383 -0.1690187 0.08900129
000030 a5 0c df 3d 1d df 10 bd 1a 89 c8 bd 58 55 2d 3c
       0.10891084 -0.035369027 -0.09791775 0.01057943
000040 d1 f4 39 3e ca f0 65 3d 55 f0 34 be a0 01 66 3e
       0.18159796 0.056137837 -0.17669804 0.22461557
000050 1e af d4 bd 4d ae 61 3e ba d7 19 bc 2c c6 60 bd
       -0.103849635 0.22039147 -0.009389812 -0.05487649
000060 13 3b 1d bd f5 ec 0b bd 68 b3 ac bd 84 12 70 3e
       -0.038386416 -0.034161527 -0.084326565 0.23444563
000070 d1 62 5d 3e 88 de b7 3c 68 8e 40 3e 05 25 f2 bd
       0.21619727 0.022444978 0.18804324 -0.11823467
000080 13 e4 a4 3c ab 9b 49 bc 83 c6 3d bd c4 b0 db bd
       0.020128286 -0.012305181 -0.046331894 -0.10727075
000090 16 b8 86 3c 6b aa 50 3d b9 51 92 3c ff 86 6e 3d
       0.0164452 0.050943773 0.017861234 0.05823421
0000a0 3a d9 7b 3e 47 2a 3b be 26 85 60 bd 78 9b b4 bd
       0.24594584 -0.18277846 -0.05481448 -0.08818716
0000b0 d8 63 f8 3d da dc 04 3e cc f8 4e 3e ed ee ef bd
       0.12128419 0.12974873 0.20212096 -0.11715493
0000c0 79 92 58 3d 14 d9 fb bd d3 e3 46 3d b4 a4 9b be
       0.052874062 -0.12297264 0.048557114 -0.30399096
0000d0 0f fb 26 be 1f ae a3 3d 63 28 3d be b7 31 58 3c
       -0.16306709 0.07992195 -0.18472438 0.013195447
0000e0 92 0c 09 be e8 9e 3b be 14 92 bc 3e 2f b5 16 3e
       -0.13383701 -0.18322337 0.368302 0.14717554
0000f0 16 46 89 be cc 9c c5 3d ec 09 2b bd 26 8f 29 be
       -0.26811284 0.09649047 -0.04175751 -0.16558513
000100 2f 63 9d bc 6a a4 1b be ad 03 50 3e 8d 7b 8a 3e
       -0.019212333 -0.15199438 0.20313902 0.27047387
000110 f2 7b d3 3d e6 ae 2c 3e 9a 34 99 be cf fa 9f 3e
       0.10326375 0.16863593 -0.29922944 0.3124604
000120 ca e6 47 be 30 f8 bc bd 6d 59 cb 3d 88 84 3d bd
       -0.19521633 -0.092270255 0.09929166 -0.04626897
000130 b1 92 72 be 69 52 5b 3e e8 2f c6 3d c8 dd 38 3e
       -0.23688771 0.21418156 0.09677106 0.18053353
000140 f0 4f 1d 3d 00 93 0c 3d 6c 38 b8 3e de da 5f bd
       0.038406312 0.034319878 0.35980546 -0.054652087
000150 1a d1 dc bd af 39 86 be 0c d8 80 3e 5a 9f a2 3d
       -0.107820705 -0.26215884 0.2516483 0.0794055
000160 63 7c 87 be 97 29 1f 3e 0f ed b1 3e 93 50 2d be
       -0.26462087 0.15543209 0.34751174 -0.16925268
000170 99 da 20 be c8 1e 32 be 48 2f 19 3e f2 2d 2b 3d
       -0.15708388 -0.17394555 0.14959443 0.041791864
000180 08 91 8f 3e e8 e6 60 3e 73 18 0c 3d 91 86 1c bf
       0.28040338 0.21963084 0.034203004 -0.6114283
000190 1d 98 37 be 0e 3c 4e 3e 1f 93 90 bd 61 57 e9 bd
       -0.1792912 0.20140097 -0.07059311 -0.11393619
0001a0 13 97 2b 3e ec 41 01 3c ac 73 23 be 50 18 b6 bc
       0.16756849 0.007889252 -0.15962094 -0.02222839
0001b0 be 8e ac bd ee 41 54 be 24 ce b3 bd b6 64 48 3d
       -0.084256634 -0.20728275 -0.087795526 0.04892417
0001c0 00 54 f7 3d ed 7f e8 3d 0a 6a 3c bd 4b 28 12 3b
       0.120765686 0.11352525 -0.045999564 0.0022301849
0001d0 7c b7 72 bd b6 b0 8e bc a6 b5 0d be 67 b3 a4 bd
       -0.059257016 -0.017418247 -0.13838825 -0.08042031
0001e0 f5 3d ae 3e fc d9 a7 be 38 bc 9b 3c b9 99 8f 3d
       0.34031644 -0.32783496 0.019010648 0.07011742
0001f0 e1 69 a0 be 38 cb 11 3d 35 54 a8 3d 0a ad 86 be
       -0.3133078 0.035594195 0.08219186 -0.26303893
000200 af 68 00 3e be 22 00 be e0 a5 4b be 4c fb 95 be
       0.12539934 -0.12513253 -0.19887495 -0.29293287
000210 5b f4 83 be 77 be 29 3e fa 03 ea bd c5 5e 3f 3e
       -0.25772366 0.16576563 -0.1142654 0.18688495
000220 c7 5d fd b9 48 1e d1 be 56 86 d5 3e 2c b5 9a be
       -0.0004832579 -0.40843415 0.41704053 -0.30216348
000230 2b 71 02 bd 72 29 93 3d 9d a4 56 bc c4 07 0f bc
       -0.031846207 0.071856394 -0.01310077 -0.008729879
000240 f1 e8 29 be 0d 31 d2 be 9f aa 0e bd b7 ed dd bd
       -0.16592766 -0.41053048 -0.034830686 -0.10836356
000250 27 49 91 bd f0 90 05 3e 20 84 95 be cd c8 57 3d
       -0.07094031 0.1304357 -0.29202366 0.052681733
000260 37 43 83 be b8 38 3b 3e 4d c0 0a 3e d2 21 9f bd
       -0.25637218 0.18283355 0.1354992 -0.077701226
000270 de 20 96 be 5a 2b 2d be 21 67 d2 be cd 5d 40 3d
       -0.2932195 -0.16911069 -0.41094306 0.046964455
000280 9f 8e e2 bc 4d 43 4e be 4c 91 2f bc 0f 36 b5 bd
       -0.027655898 -0.2014286 -0.010715794 -0.088482015
000290 15 d1 10 bd 43 db d1 3c a0 52 08 be 97 08 1e 3e
       -0.035355646 0.025617247 -0.13312769 0.15432964
0002a0 7d 0c 26 be f0 c7 03 be 7e 55 79 3e c8 81 d0 be
       -0.16215701 -0.12869239 0.24349019 -0.40724015
0002b0 07 9b 25 3c b0 d1 16 3e 56 66 8e be 2e 1a 8a 3c
       0.010107762 0.14728427 -0.2781245 0.016858187
0002c0 50 c4 3e be 61 f6 82 be 10 fa c5 bb a3 93 2a be
       -0.18629575 -0.25578597 -0.0060417727 -0.16657881
0002d0 c4 99 2b 3d 28 c6 0d bd c1 04 bc bd 3e 33 12 3e
       0.04189469 -0.034612805 -0.09180594 0.1427736
0002e0 47 a8 ab 3c e9 d4 be 3d 0f 1d 90 be 83 fc 3b be
       0.020954264 0.09317953 -0.2814717 -0.18358044
0002f0 87 84 40 3e d4 e5 a4 3d f8 53 27 3e b7 58 09 be
       0.18800555 0.08051649 0.16340625 -0.13412748
000300 f8 9c 9e 3d c0 38 04 3d eb 77 75 be b2 b3 e2 3b
       0.07744783 0.032280684 -0.23971526 0.006918394
000310 5c 03 aa 3d 84 b4 7e be 09 b8 35 be c7 eb 14 be
       0.08301422 -0.24873549 -0.17745985 -0.14543067
000320 ec 20 23 3e 76 e7 88 be 5d 44 90 be 1a ef 48 3e
       0.15930527 -0.2673909 -0.28177157 0.1962246
000330 24 c0 3f 3d 7a 6f 37 3e c2 1e 2b 3e 7f e6 98 3c
       0.0468141 0.17913619 0.16710952 0.018664597
000340 46 7d d8 3c e1 eb 29 bd ad c5 1e bd 2d ef 35 3d
       0.026426923 -0.041484717 -0.038762737 0.04441755
000350 7c 54 83 3d d3 50 e5 3c 5b 3c db 3c d0 d3 07 3c
       0.064125985 0.027992642 0.026762178 0.008290246
000360 94 76 34 3e cd 5d d3 bd 60 ec d2 bd c1 07 47 3c
       0.17623359 -0.103206255 -0.10298991 0.012147845
000370 f0 c6 25 bd 9e 11 0d 3e 43 a8 ef bc eb 02 29 3e
       -0.040472925 0.13776252 -0.029255038 0.1650502
000380 b1 2e 20 3e c4 c5 57 be 5b 9d 3f be dd 1f 22 3e
       0.15642811 -0.21071535 -0.1871237 0.15832467
000390 f9 f8 e1 bd 92 64 07 3e 92 42 f2 3c 04 24 4c 3e
       -0.11033816 0.13221958 0.029572759 0.19935614
0003a0 29 4d 0c bd f7 fe 56 be bb da bc bd 9c 99 58 be
       -0.034253273 -0.20995699 -0.09221407 -0.21152347
0003b0 2c 61 86 3e f8 18 4c 3b 56 7c af be 27 36 02 3e
       0.2624601 0.0031142812 -0.34274548 0.1271597
0003c0 6a 6b 5e 3e 9d 6b 33 bc a4 cf 89 bd b6 d3 1c bd
       0.21720663 -0.01095095 -0.067290574 -0.03828784
0003d0 73 a8 8c bc d3 a6 11 3e d3 1b 54 bd 98 79 7a 3e
       -0.017170167 0.14223795 -0.051784348 0.24460447
0003e0 f4 30 32 3e 0e 6d 93 3c f0 29 d4 bd f3 9f b7 3d
       0.17401487 0.017996337 -0.103595614 0.08966055
0003f0 bb ad 54 3d 54 83 6d 3d ab 38 11 3e 0c bb 80 3e
       0.051923495 0.057986572 0.14181773 0.25142705

pool1.weight f4 [1, 50]
000000 f8 55 05 bd bd 92 f0 bc 51 74 a9 bb f1 96 01 3e
       -0.03255269 -0.029366845 -0.0051713367 0.12655236
000010 86 b9 89 bd fc d0 2f 3e d4 ba 12 be d0 6b f3 bd
       -0.06724839 0.17169565 -0.14329082 -0.11885798
000020 97 58 31 3d 83 d3 8f 3d 23 47 f2 bd 9f 4b 2c bb
       0.043297376 0.070227645 -0.118299745 -0.002629019
000030 d0 41 b6 3d 94 ed 7a bd c3 9a a8 bd d6 04 ed bd
       0.088992715 -0.06126173 -0.082326435 -0.11573188
000040 1b bb 7f 3d 91 49 52 3e f2 65 26 be bf c7 ea 3d
       0.062434297 0.20535876 -0.16249827 0.1146388
000050 63 6c 1c 3d 13 b5 04 be c3 8f b4 bd 6b 1a e2 bd
       0.038189303 -0.129597 -0.08816483 -0.11040195
000060 96 a1 9f bd a0 01 12 be ab 5b 83 bd 20 ee 76 3d
       -0.07794492 -0.14258432 -0.06413969 0.060285687
000070 2b 92 10 3e ff e5 f6 3d 2e 3b 4e be 32 25 bb 3d
       0.14118259 0.12055587 -0.20139763 0.09137954
000080 84 4d 2b bd ef dd 51 3d 55 92 c3 bd 1b 7e 9f bc
       -0.04182197 0.051237043 -0.09549395 -0.019469311
000090 71 61 12 3d d3 9a 43 be de 13 cb 3d 5d c0 b0 3d
       0.03573746 -0.1910203 0.09915899 0.086304404
0000a0 96 cf 5b 3e c0 3b cb bd 75 79 e7 bd b0 ce 17 bb
       0.21465907 -0.09923506 -0.11302463 -0.0023163967
0000b0 47 86 06 3d 8c 2c 25 bc c1 bc 06 3e e0 53 81 3c
       0.0328429 -0.010081422 0.13157941 0.015787065
0000c0 03 5d d0 3d a8 19 c3 3c
       0.101739906 0.023815945

pool2.weight f4 [1, 50]
000000 56 d9 de bb 27 aa 96 3c e9 6c 18 be 5a a9 1a be
       -0.006800811 0.018391682 -0.14885296 -0.15103665
000010 0a 88 a3 3c 9a 97 34 be 2a ba 97 bd ca fc b5 3d
       0.01996233 -0.17635956 -0.07408555 0.08886106
000020 e5 b9 ca bc e4 21 de 3d 28 1c 29 be 00 a4 f6 bd
       -0.024746845 0.10846308 -0.16514647 -0.12042999
000030 8d a4 81 bd 25 a4 6f 3d b5 08 af 3b d7 24 2e 3e
       -0.06330214 0.05850615 0.005341614 0.17006241
000040 d6 b2 90 3c 3a 9f 14 be 8a fd 26 3e dd 04 a8 bd
       0.0176634 -0.14513865 0.16307655 -0.082040526
000050 a9 e3 da 3d da f0 8e bc 78 b7 e1 3c b6 e3 1f bd
       0.10687954 -0.017448831 0.027553305 -0.03903552
000060 a1 bb 39 3d 2b 29 29 3e 81 d9 26 3e 7d cc c3 bd
       0.045344952 0.1651961 0.16293909 -0.095604874
000070 2a 00 7b bd 05 50 cc bd 6e 34 b4 3d e8 2d da bd
       -0.061279453 -0.099762 0.08799063 -0.10653287
000080 40 5f 8e 3d 4c 6d 33 be 7f 55 04 3d 41 33 e2 bd
       0.06951761 -0.17522162 0.032308098 -0.11044932
000090 5c 3e 7c 3d bc da a1 3d fb df 89 3d d9 40 a4 bd
       0.061582908 0.079030484 0.06732174 -0.08020181
0000a0 f7 ed ff bc af a9 71 bd 4d b3 4b be b8 1f 00 be
       -0.0312414 -0.058999714 -0.19892617 -0.125121
0000b0 e2 1a eb 3c c4 d5 54 3d a7 68 77 3d 9c 64 bc bd
       0.028699342 0.051961675 0.06040254 -0.09198877
0000c0 9f a7 37 be 1f 44 36 3c
       -0.17935036 0.01112464

fc4.weight f4 [3, 200]
000000 32 1d f0 be e6 98 8d 3e 7a 19 ca be b3 e1 aa be
       -0.46897274 0.27655715 -0.39472562 -0.3337532
000010 f9 3d d6 3d 7c 65 c2 3e f4 76 b0 3e a0 e7 f7 3d
       0.10461039 0.3796805 0.34465754 0.12104726
000020 2e 89 93 3d 28 4f c3 be 07 d2 36 3e 2c a9 09 3f
       0.07203899 -0.3814633 0.17853557 0.5377376
000030 bd d9 d6 3d 1b d8 7f 3e e6 e0 94 be 7c f8 8c 3e
       0.10490749 0.24984781 -0.29077834 0.2753333
000040 f6 a0 bc 3e 4a 13 24 3f 7f 1e 2e be 82 fe fd 3e
       0.36841553 0.6409193 -0.17003821 0.49608237
000050 9d fe 22 3f 8b e3 b1 bd ca 48 65 be 18 b8 a5 be
       0.6366976 -0.086859785 -0.22391048 -0.32367015
000060 84 ff 6f 3e c8 0c 08 be c8 6c c3 3e 2c 9a 89 3e
       0.23437315 -0.13286126 0.3816893 0.26875436
000070 a5 cf c0 3c da 54 ba be 0a 49 5e be 1d 91 38 3e
       0.023536513 -0.36392862 -0.2170755 0.18024106
000080 a6 4d 6b be 9f f5 e5 be 6e 89 77 ba 1a 3a d2 be
       -0.2297884 -0.44913957 -0.0009442781 -0.41059953
000090 e6 78 24 be a9 cb 1d 3e 31 9b a2 be 1b ff ec be
       -0.16061744 0.15409721 -0.31759027 -0.4628838
0000a0 96 ca 25 bf 48 b6 04 bf 47 74 59 3e b1 94 d1 3e
       -0.64762247 -0.5184064 0.21235763 0.40933755
0000b0 45 e0 3e be 09 4a 1b 3f 4f 9a a5 be 20 ff 80 3d
       -0.1864024 0.60659844 -0.3234429 0.06298661
0000c0 79 60 8e 3e f6 2c 51 3d 84 73 c3 be 99 58 2b 3c
       0.27807978 0.05106827 -0.3817407 0.010458135
0000d0 8c fc d0 be 57 7f b7 bd 2f 32 47 3e a5 bb 2e 3e
       -0.40817678 -0.08959835 0.19452737 0.17063768
0000e0 e7 94 8d 3d b6 d7 6b be 6f d5 61 be 6f 47 b8 be
       0.069131665 -0.23031506 -0.22054075 -0.35992
0000f0 8d 50 6e 3e 88 92 04 3f ab 36 40 3e 57 44 88 be
       0.23272915 0.5178609 0.18770854 -0.2661464
000100 15 2e cc be 4e ba e6 bd 95 08 26 3d a8 9d c2 3e
       -0.39878908 -0.112660035 0.04053553 0.38010907
000110 b9 cd 5e 3e b0 75 9d 3e cd ca c9 3e 0f f6 10 be
       0.21758164 0.3075385 0.39412537 -0.14156364
000120 7c e9 70 3d 10 97 7a be 88 36 82 be ae e8 42 be
       0.058816418 -0.24471688 -0.2543223 -0.19034073
000130 70 be 9a bd b7 61 24 be 05 c5 28 bd 32 3f 3f be
       -0.07555854 -0.160529 -0.041203517 -0.18676451
000140 f4 75 90 be c0 d9 58 3e 0b f7 a8 be c0 7e 94 be
       -0.2821499 0.21176815 -0.3300098 -0.29002953
000150 95 a3 06 bd b8 d0 16 be 3d e0 19 be ad e1 0c be
       -0.032870848 -0.14728057 -0.15026946 -0.13757963
000160 39 92 0e 3e 28 9e 76 be 08 cc 89 be 48 74 c9 be
       0.13922967 -0.2408377 -0.26913476 -0.39346528
000170 9f ec 02 be 06 50 73 3e 00 3e ae be 19 68 f7 3e
       -0.12785576 0.23760995 -0.34031677 0.48321608
000180 7c a0 91 3c 8a 1c b1 3c db ac c3 3e 45 bf 99 be
       0.01777672 0.021620054 0.38217816 -0.3002874
000190 b5 c9 63 be 00 df 9d be a7 88 16 3f 04 13 9f 3e
       -0.22244914 -0.30834198 0.58802265 0.31069195
0001a0 c0 15 08 be 20 dd 18 3f 3f 0c 1c 3e 25 1a 8b bd
       -0.13289547 0.5971241 0.15239047 -0.06792096
0001b0 e0 5a 93 be 6d 87 8c be 1b 90 88 3e 37 ee 00 3f
       -0.2878027 -0.27447072 0.26672444 0.50363487
0001c0 8b 31 e5 3e e4 88 5f be 27 0d 89 be 2c 79 4c be
       0.4476436 -0.21829563 -0.26767847 -0.19968098
0001d0 8b 43 c6 be 05 30 0f 3f b7 fe 25 be d8 ca e9 3e
       -0.38723406 0.55932647 -0.16210447 0.4566257
0001e0 f5 51 74 be f3 15 85 be c7 77 03 be a0 bd 17 be
       -0.23859389 -0.25993308 -0.1283866 -0.1481843
0001f0 04 84 9d bd d1 bf 97 be 66 f4 3b 3b f0 e1 bd bd
       -0.076911956 -0.29638532 0.0028679608 -0.0927161
000200 f0 34 cd 3d 9f cd fc 3e 55 5f 1c be 82 8a e5 3e
       0.10019863 0.49375626 -0.15270741 0.44832236
000210 68 cc 21 be 3d 8a e0 3e d1 50 7a be 1b 5b c7 3e
       -0.15800631 0.43855467 -0.24444892 0.38936695
000220 8e 86 a1 be 99 8b 27 be dd 95 9b be 9c 70 21 3f
       -0.3154797 -0.16361846 -0.30387774 0.63062453
000230 3f e2 33 be a9 e6 d9 3e 7f 89 c1 3e 11 56 c8 3e
       -0.17566775 0.42558792 0.37800214 0.39128163
000240 41 45 e7 bd be 21 83 be 06 11 59 bd 08 0f 86 3d
       -0.11292506 -0.2561168 -0.05299475 0.06545836
000250 7b fa 13 3f 2b 01 75 be d1 0d 06 be c5 7d 0d be
       0.5780408 -0.23926227 -0.13091208 -0.13817509
000260 96 65 00 3e 85 b3 87 bd 0e b5 0d be 8a 06 11 3d
       0.12538752 -0.066260375 -0.13838598 0.035406627
000270 d4 1e 5a bd ba de 0d be fe 95 a1 be 4f 36 da be
       -0.053252056 -0.13854495 -0.31559747 -0.4261956
000280 ea 1c b2 bc 08 94 47 3d c9 59 b8 3d 5e 70 a0 be
       -0.021742303 0.048725158 0.090015 -0.3133573
000290 14 c5 6d be 3d 4c 2d be 4a 9f e7 be 87 8c 32 3e
       -0.2321971 -0.16923614 -0.45238715 0.1743642
0002a0 68 bc 4b be 4d 6b 47 3d 92 36 9d be e8 6c 51 be
       -0.1989609 0.048686314 -0.30705696 -0.204517
0002b0 2f 7f ef bd 11 fd 5f be 5b 29 53 be 1c 41 30 be
       -0.1169418 -0.21873881 -0.20621245 -0.17212337
0002c0 b3 f2 f0 3d d6 11 92 be b7 bb fc bd 6d 6a 39 3e
       0.11765041 -0.28529233 -0.12340491 0.18107004
0002d0 f6 fb b8 be d8 59 97 3d 0f 4b 71 bd e3 c0 01 3d
       -0.3612973 0.07390183 -0.058909472 0.03167809
0002e0 7a cf 26 be 7d da fa 3d ae 58 ad be 35 94 55 be
       -0.16290084 0.122487046 -0.3385672 -0.20857318
0002f0 6b 24 75 be ec 22 95 3c 14 8b 8f be a3 aa 80 3b
       -0.23939674 0.018205129 -0.28035796 0.0039265915
000300 d3 db 16 bc f3 2c 65 bc 94 1a 22 be 5e 0f 5c be
       -0.009207684 -0.0139877675 -0.15830451 -0.21490237
000310 ff b7 8f 3d 8d 5f b0 3b 06 ea b8 3c a7 ff 95 be
       0.07017516 0.0053824843 0.022572529 -0.2929661
000320 90 ea fe 3e 17 a0 23 be 59 36 bd bd d8 c8 a1 bd
       0.49788332 -0.15979038 -0.092388816 -0.07899636
000330 f6 b7 48 be e1 f0 25 be 4b 71 30 be 40 63 85 3b
       -0.19601426 -0.1620517 -0.17230718 0.0040706694
000340 f6 2e c8 3d a5 96 35 3e a9 44 c0 bd 79 44 57 bd
       0.09774582 0.17733248 -0.09388096 -0.052555535
000350 06 30 bf be ed f0 cd 3c 6a f5 ae 3d f9 e7 76 be
       -0.37341326 0.025139296 0.08542903 -0.24111928
000360 b5 69 58 be f0 7e d9 be 9b 49 0e 3e 2f fc 83 be
       -0.21134074 -0.42479658 0.13895266 -0.25778338
000370 7f 30 be be b4 e9 b2 3d 66 0d 8b 3c f9 c9 4c 3d
       -0.37146375 0.087359816 0.016974162 0.049997304
000380 5d 38 34 bd 84 ca 04 3e cc d5 6f be a8 32 2d bc
       -0.043999065 0.12967879 -0.23421401 -0.010571159
000390 d9 fb b5 bd 43 e5 fa be e0 08 87 3d 2a 8f c2 3d
       -0.08885927 -0.49003038 0.0659349 0.09499963
0003a0 fd 49 11 3d 91 21 b3 3d 45 fd 23 be e8 8f 07 bf
       0.03547095 0.08746637 -0.16014583 -0.5295396
0003b0 81 d1 25 3e c2 f5 00 3d 47 b2 e9 be f0 9c 73 be
       0.161932 0.031484373 -0.45643827 -0.23790336
0003c0 24 ee d9 be 55 94 b9 be 5a dc bf 3d 5a a3 68 be
       -0.425645 -0.3624598 0.093682006 -0.22718564
0003d0 9d d0 4e be fb 45 93 be 05 0c 66 ba a5 2d 94 3d
       -0.20196767 -0.28764328 -0.0008775595 0.072352685
0003e0 71 7b 30 be 2c ba a5 3e 64 99 eb 3e dd b5 3d 3e
       -0.17234589 0.323686 0.46015465 0.18526407
0003f0 30 fd 40 3e 0f d8 14 be b8 5b 52 be 59 4b 35 3d
       0.18846583 -0.14535545 -0.205428 0.04426131

fc4.bias f4 [3]
000000 2a 16 96 3d 11 47 b7 ba 6c a1 b8 bd
       0.07328446 -0.0013982971 -0.09015164
