experiments/experiment_9/checkpoint_1_9.pt (torch, 39119 bytes, 8 tensors)

conv1.bias f4 [50]
000000 cb 60 20 3d 68 cc bc 3c 99 1e 2e be 32 1f 95 bd
       0.03915481 0.023046687 -0.1700386 -0.07281341
000010 8b 6b 7d bd 5c 88 92 bc b6 2b d9 39 49 94 4c 3d
       -0.06187014 -0.017887287 0.00041422033 0.049946103
000020 0a 57 30 be b9 c9 20 3e 89 aa 25 bb 8c 2c 5d 3d
       -0.17220703 0.15701951 -0.0025278649 0.05399756
000030 dc 7b 0e be 5f b0 9d 3d 8d ec 3b be 0d 60 c4 bd
       -0.13914436 0.07699656 -0.18351956 -0.09588633
000040 3f 39 29 bc ca 77 0e 3c 7b ca 99 bd 87 9b 07 3e
       -0.01032859 0.008695552 -0.07509323 0.13242923
000050 86 ba 79 bd 28 00 ef bc 06 6f 12 3e 87 f0 47 3e
       -0.0609689 -0.02917488 0.14300165 0.19525348
000060 fe b3 69 bd 37 49 fd 3d 51 0e 7f 3e 4b 37 41 be
       -0.05705642 0.1236748 0.24907805 -0.18868749
000070 1a 6f cf bd 9e e3 fc 3d 98 e9 e6 bc ba 59 27 3d
       -0.10128613 0.12348102 -0.028187558 0.040857054
000080 b2 f7 89 3e 14 7c 17 3d 4c 76 29 be e1 20 f3 bc
       0.2694679 0.036983564 -0.16549033 -0.029678764
000090 e5 e4 8a bd cc d7 bb 3d c9 69 c0 3d 16 f3 11 3e
       -0.067819394 0.09172019 0.09395177 0.14252886
0000a0 8a 3e f7 bd 27 89 04 be ff 0e b7 3d 01 f3 38 bd
       -0.12072475 -0.12942944 0.08938407 -0.04515362
0000b0 cd 2e 65 3d e4 be 72 3d 07 f2 a9 3d d2 f7 48 3c
       0.055952836 0.05926408 0.08298116 0.012266116
0000c0 52 44 66 3d 02 19 9d 3d
       0.0562175 0.076707855

conv1.lin.weight f4 [50, 116]
000000 ca 5c 8e bc ae f9 0b 3d d4 d0 58 be 8e 39 57 be
       -0.01737823 0.03417366 -0.21173412 -0.21018049
000010 13 dc 18 3e 81 fd 16 3e d2 e3 11 bd c2 aa 94 be
       0.14927702 0.14745142 -0.035617657 -0.29036528
000020 de 16 99 3e 7d 01 81 3e df 9c 1d be b3 cb cc bd
       0.2990026 0.25196448 -0.15391873 -0.0999979
000030 95 6b 54 3d 0f a7 86 be 5b ab a3 be 38 d2 66 be
       0.05186041 -0.2629933 -0.3196667 -0.2254113
000040 14 f5 28 bd 72 ef 99 be e7 96 fc bd ac bc 88 3d
       -0.04124935 -0.30065495 -0.1233347 0.06676611
000050 ea 9e 0a 3d 65 58 81 3d 8d c4 77 3e c0 64 9f 3e
       0.03384296 0.06315688 0.24196072 0.31131554
000060 4e ea 1f be b7 47 cf bc 33 fa 86 3e 58 42 7e 3d
       -0.15616724 -0.025302751 0.26362762 0.06207499
000070 ea 8e ca 3d 33 31 64 3e a0 f0 9e be 3d 8f 4c 3d
       0.0989054 0.22284393 -0.31042957 0.04994129
000080 8c e3 ba 3e 30 10 40 bd f8 87 4b 3e 18 a3 3e be
       0.3650173 -0.046890438 0.19876087 -0.18616903
000090 ed 71 34 be 5e d1 c5 bd e0 71 4a 3e 1f e7 03 be
       -0.17621584 -0.09659074 0.19770002 -0.12881134
0000a0 1c 86 bf bc 34 1f 87 3e 1b 5a f9 bd 6a e2 ae bc
       -0.023379378 0.26390994 -0.121753894 -0.021348197
0000b0 4f be e1 3d 69 43 62 3d 00 a2 b1 3c 31 ce 88 3d
       0.110226266 0.05524007 0.021683693 0.06679953
0000c0 3c 02 5d be 41 06 61 be c6 04 59 bd 0a df ac 3e
       -0.21582884 -0.21975042 -0.052983068 0.33763915
0000d0 24 8e b6 3d 91 38 72 be 8e fd e5 bd 89 78 cc 3b
       0.0891383 -0.23654391 -0.11230002 0.006239955
0000e0 44 c5 ac be fe 18 9c 3e b3 45 bd 3d 00 b8 02 3e
       -0.33744252 0.30487818 0.0924181 0.12765503
0000f0 bd 18 5e 3d e6 92 63 3c dc b7 af bd fe 19 2c bc
       0.05422281 0.013890004 -0.0857999 -0.010504244
000100 4a bd c6 bd 65 55 9c 3d f4 02 26 bd c5 a6 13 be
       -0.09704073 0.07633475 -0.04053016 -0.14419086
000110 91 a5 bf bd 2c 41 5a 3e 52 2d 4c be 4a 08 eb 3c
       -0.09357751 0.21313924 -0.19939163 0.028690476
000120 d7 15 d1 bc 35 a5 04 3c ef 4b ae bc e1 ea 00 3e
       -0.02552311 0.008096029 -0.021276442 0.12589599
000130 77 7b 73 3e 52 13 9f be a4 6c 12 be de b0 04 3e
       0.23777567 -0.31069428 -0.14299256 0.12958094
000140 a1 9b 31 3e f8 21 31 3d 30 ed 21 be 2e 31 af 3d
       0.17344524 0.043245286 -0.15813136 0.08554302
000150 55 4d 85 bd 54 51 22 3e 94 f6 fa 3d 04 00 0f 3e
       -0.065088905 0.15851337 0.12254062 0.1396485
000160 bf 14 00 3d f3 7a b8 bd 37 df 42 be eb 94 4c be
       0.031269785 -0.09007826 -0.19030462 -0.19978683
000170 60 4f 49 3d ce 10 0a be 49 6e 07 3d 7d c9 f3 bd
       0.049147964 -0.13482973 0.03306416 -0.11903665
000180 89 87 3b 3d 28 f8 23 be ca cc a0 bd ca 2e 8b be
       0.045783553 -0.16012633 -0.078515604 -0.27184135
000190 0a da 20 3e 75 f9 9b 3e 92 7a e5 3d 76 7e 6f 3e
       0.15708175 0.30463758 0.11205019 0.23388085
0001a0 b2 77 05 3e 20 e4 be bd 8b ac 53 3d 84 d5 4c 3d
       0.13033941 -0.09320855 0.05167822 0.050008312
0001b0 39 f0 24 be 91 4c fb 3c cd 9e e5 bc 72 b8 4d 3e
       -0.16107263 0.030676158 -0.028029824 0.20089892
0001c0 f9 db bd be e5 c6 d3 39 65 bb 73 be 19 fd 1e 3e
       -0.37081888 0.00040393244 -0.23801954 0.15526237
0001d0 2e cf 7e 3e 0c 1a 3a bd 89 48 27 3e ee b3 c0 3e
       0.2488372 -0.045434996 0.16336264 0.37637275
0001e0 45 d5 11 3e 0f 9a c4 be 12 1c 4c 3e 23 94 47 be
       0.14241512 -0.38398787 0.19932583 -0.19490103
0001f0 5a 0b 16 3f 88 ff 52 be 72 f3 1e bd f8 bd 47 3d
       0.5861107 -0.2060529 -0.038806386 0.048765153
000200 c9 46 80 be 9f 78 50 3e dd 1d 68 3e d9 0c 05 bd
       -0.25054005 0.20358513 0.22667642 -0.032482956
000210 ab 4c 9a 3c 80 0b 12 bd 01 7f 75 be 5d ed b8 bd
       0.018835386 -0.0356555 -0.2397423 -0.090296485
000220 65 22 82 bd 01 15 5d bd c1 2f 4b 3e d7 c7 0b be
       -0.063542165 -0.05397511 0.19842435 -0.13650452
000230 89 01 91 3e 83 bb 4b be db 4b ae 3c db 35 a8 3c
       0.28321484 -0.19895749 0.021276405 0.020533493
000240 4a 28 39 3e ca fd d1 3d 18 67 87 3e 13 73 23 be
       0.18081775 0.102534845 0.26445842 -0.15961866
000250 b9 25 f5 bc d8 da 77 be 23 32 08 be af e8 b2 3e
       -0.029925214 -0.24204576 -0.13300376 0.34943148
000260 dd 0d 92 3e 19 d4 68 be 67 56 49 be 20 99 52 3e
       0.28526202 -0.22737159 -0.19661866 0.20566225
000270 0c 47 37 be 80 b9 3f 3d 6a 12 1c 3e 20 73 09 3d
       -0.17898196 0.046807766 0.152414 0.033557057
000280 c5 06 2b be 55 2e 45 bd ea d0 ef 3d d7 df 54 be
       -0.16701801 -0.04813989 0.11709769 -0.20788513
000290 fa a4 a1 3d bf 71 8c 3c 83 11 4f 3b 4b 26 00 3e
       0.07892795 0.017144082 0.003159613 0.12514608
0002a0 11 23 5f 3d bd a1 00 3d 2a 35 63 be 06 7e 35 3d
       0.0544768 0.031404246 -0.22188249 0.04430964
0002b0 61 c0 59 be 2b 6b 3b 3d 62 2b 0b 3d 6f b8 c3 be
       -0.21264793 0.0457565 0.03397692 -0.3822665
0002c0 af 3d 36 3d 20 8d 90 3b 2d 3a c5 3d 36 f1 6b be
       0.04449242 0.0044113547 0.09630237 -0.23041233
0002d0 3e 06 b1 bd 89 b6 9b 3e c7 05 da bc c1 75 2a 3e
       -0.08643769 0.304127 -0.026614083 0.16646482
0002e0 17 29 7d 3d 7f 0a df bc a8 ea 4d 3e a3 d3 38 bd
       0.061806764 -0.027226685 0.20109046 -0.045123708
0002f0 33 28 2b 3e 58 3a 97 3e f7 4c dd 3d 4c 0a 69 3d
       0.16714554 0.295367 0.108056955 0.056894585
000300 9b c2 45 be 3b 13 b7 bc 68 70 c9 3d 80 62 e2 bd
       -0.19312517 -0.022348037 0.09835893 -0.11053944
000310 81 03 80 be 62 a5 34 be bc dd f7 bd 8c 4b f9 3d
       -0.25002673 -0.17641214 -0.12102839 0.121726125
000320 53 74 18 be 15 f2 00 be ff 08 fa bd d2 77 aa 3e
       -0.14888124 -0.12592347 -0.12208747 0.3329454
000330 a0 46 e8 bc cd 94 55 bc 10 8c dc 3d e6 de 46 3e
       -0.02835399 -0.013035965 0.10768902 0.19420967
000340 ed 49 67 be 9c 57 4d bd d6 8b ca 3e 2b b0 92 be
       -0.22586794 -0.05013238 0.3955981 -0.2865003
000350 7f d2 14 be 25 44 d6 bc ff 65 f4 be cf 9b 27 3d
       -0.14533423 -0.02615554 -0.47734067 0.040920075
000360 c1 87 9a 3e 74 67 b2 3c cb 7b 9b be bc 75 ce 3d
       0.30181697 0.021777846 -0.30367884 0.1008105
000370 60 f4 ef 3d ec 5d 65 3b 65 7a 7f ba 2e fb 12 3e
       0.11716533 0.0034998609 -0.0009745716 0.1435363
000380 3d 41 63 3e 7d ed 92 bd 08 d3 59 bd 5b 29 a8 3d
       0.22192855 -0.071742035 -0.05317977 0.08211013
000390 bf 65 e8 3b 08 3b ab 3d b3 4d d9 3d fa 99 cf 3d
       0.007092207 0.08360869 0.10610523 0.101367906
0003a0 0f 13 ae be ce b9 9d bd 8d 15 4a 3e 42 c9 67 be
       -0.33998916 -0.07701455 0.19734783 -0.22635368
0003b0 8c 50 68 3c 58 1c 39 3d cf 80 e7 3b 07 18 c2 3c
       0.01417936 0.045193046 0.0070649157 0.023693098
0003c0 4f d5 b8 bc 8f af 5a 3d 2d ef 20 bd 40 2e f1 3d
       -0.022562651 0.053390082 -0.039290596 0.117763996
0003d0 e5 96 86 3d 0d 67 17 be 97 55 c7 bc e3 37 2b be
       0.065717496 -0.14785405 -0.024332805 -0.16720538
0003e0 3c 63 96 3e 8b 42 c0 bb 1c 6e 06 3e 8e 59 0a 3e
       0.29372585 -0.0058673075 0.13127941 0.13510725
0003f0 0f fa 8f 3e 60 cf 1f bd 61 93 9c 3d e1 97 71 3e
       0.28120467 -0.039016128 0.07645298 0.23593093

conv2.bias f4 [50]
000000 fc 32 36 3e f6 8e ef 3d 3d e3 70 3e 98 5d 38 3e
       0.17792886 0.116971895 0.23524185 0.18004453
000010 f3 f0 78 3e f9 ba 72 3e 95 07 99 3e 54 70 9a 3d
       0.24310665 0.23704137 0.29888597 0.07540956
000020 66 d6 de 3d 94 64 a3 3d 7c 13 22 3e b7 dd 06 be
       0.10880737 0.07978168 0.15827745 -0.13170515
000030 4b 2c 87 3e c1 09 52 3e 33 0f 44 3d a1 e7 93 3e
       0.2640098 0.20511533 0.047866058 0.28887656
000040 b5 5c 1c 3e ff 0b be 3e 43 1f 94 3e 2a 15 16 3e
       0.1526974 0.37118527 0.289301 0.14656511
000050 51 7d 97 bc bc 6e 73 3e 96 24 95 3e 72 ca 66 bd
       -0.018492373 0.2377271 0.29129475 -0.05634541
000060 13 2a a0 3e b3 1a da 3b 3c b0 98 3d 6d 0b 08 be
       0.312821 0.006656015 0.07455489 -0.13285609
000070 ea 9e aa 3e fb aa fb 3d 41 6f 74 3e 62 a0 7a 3e
       0.33324367 0.12288471 0.23870565 0.24475244
000080 7a c3 54 3e 82 a1 56 3b 5a e0 71 3c 06 61 72 3b
       0.20777693 0.0032750075 0.014762962 0.00369841
000090 07 e1 6b 3e d2 3a 0c 3e bc e5 be 3e 49 76 af 3d
       0.2303506 0.13694313 0.37284648 0.08567483
0000a0 bd 14 19 3e 39 52 72 3c 8d fc 9c 3e d0 1f c4 bc
       0.14949317 0.014790111 0.3066143 -0.02394095
0000b0 4f 81 db bc a3 ac 26 be 66 68 f8 bb 36 a1 fe bd
       -0.026795058 -0.16276793 -0.0075808046 -0.12433092
0000c0 78 58 c8 3d 80 88 8f 3e
       0.09782499 0.2803383

conv2.lin.weight f4 [50, 50]
000000 6e de 14 3d 45 e7 93 3e 15 19 a1 3d 8d dc 95 3c
       0.036344938 0.28887382 0.07866112 0.018293643
000010 56 8c 04 be 0a f4 1c be a9 a8 7d be eb b0 92 bd
       -0.12944159 -0.15327469 -0.2477137 -0.07162651
000020 d5 3b 0d be 49 83 1c 3e fc 72 ce 3d 30 7f a8 3e
       -0.13792355 0.15284456 0.10080525 0.32909536
000030 0c d2 eb 3d c4 2b 94 bd 19 45 63 be 0c a3 c6 bd
       0.11514673 -0.0723491 -0.22194327 -0.096990675
000040 71 60 2c be 04 88 27 3e be 8c 8c be b2 f6 83 bc
       -0.16833664 0.1636048 -0.27451128 -0.016108844
000050 7c e9 97 3e 58 76 b1 be f8 b2 2a 3d fd c5 11 3e
       0.29670322 -0.34660602 0.041674584 0.14235683
000060 46 6d 2a bd f0 f5 57 3e 68 6a 7b 3e 65 cd 26 be
       -0.041608118 0.21089911 0.2455231 -0.1628929
000070 25 4d 37 be cc 27 be bd b9 3d 6e 3e 11 b6 b9 bd
       -0.17900522 -0.092849344 0.23265733 -0.090679295
000080 7f 32 81 3e 33 02 07 be b1 d6 f8 bd 28 60 77 be
       0.25233838 -0.13184433 -0.12150324 -0.24157774
000090 97 fc b1 3c be 88 e3 3d 51 f4 9d bd 99 43 c1 3d
       0.02172689 0.11110066 -0.07712615 0.09436721
0000a0 83 e0 ab be ef 48 05 bc 5d 93 20 be 32 f6 04 3d
       -0.33569726 -0.0081350645 -0.15681215 0.032461353
0000b0 ff b9 ac be 15 50 12 be ff 15 56 3e d3 d9 ee 3d
       -0.33735654 -0.14288361 0.20906828 0.116626404
0000c0 3e cc 1d 3e 4e 61 c1 3b 51 78 2f 3e b4 31 27 be
       0.15409943 0.005901492 0.17135741 -0.16327554
0000d0 2e 7f 58 3e 76 30 38 bc 50 5e 4b bd 49 68 c0 3e
       0.21142265 -0.011242023 -0.04965049 0.37579563
0000e0 8e 70 2f be be 55 8a 3d 1a c0 6b be 63 e7 9f bc
       -0.1713278 0.06754635 -0.230225 -0.019519513
0000f0 01 b6 6d be 0e 79 8f 3d 58 96 64 3d bb 25 bb 3e
       -0.2321396 0.07005511 0.05580744 0.36552224
000100 51 2d c2 3d f3 e6 ff 3c ce c8 34 3c b8 7b 4d 3e
       0.094813 0.031238055 0.011034204 0.20066726
000110 65 6a 55 3d 30 0d 42 be bd 72 10 be d6 78 9c bd
       0.05210342 -0.18950343 -0.14106269 -0.07640235
000120 5d f4 75 3d 61 99 56 bd 9e 4a f4 3b 35 35 8f bd
       0.060047496 -0.052392367 0.007455184 -0.0699257
000130 e6 6d 19 be 89 87 73 bd af 25 2e be bc 36 84 be
       -0.14983329 -0.05945543 -0.17006563 -0.2582301
000140 7a 17 27 be 07 7d a0 bd a8 3e 84 be 92 8e 68 3d
       -0.1631755 -0.07836347 -0.25829053 0.05677659
000150 9f 59 2d 3e 2a c8 14 3e 2a b7 0b be 7f 0a c2 3d
       0.16928719 0.14529482 -0.1364409 0.09474658
000160 25 6e 21 bc 22 20 45 3e 32 fe 51 3d d7 8d 07 3e
       -0.009852921 0.19250539 0.05126781 0.13237701
000170 35 30 07 3d 7b 31 15 be ee fc 9e 3e 09 e4 cd 3d
       0.03300496 -0.14569657 0.31052345 0.1005326
000180 25 da 2b 3b c1 cc 23 be 74 4d 45 3c de a9 26 3d
       0.0026222554 -0.15996076 0.012042392 0.04068934
000190 b3 f5 3d be 3d cf 99 be 1a 1c 40 3e 52 9b 79 3e
       -0.18550758 -0.30040923 0.1876072 0.24375656
0001a0 a6 fb bc bd d3 3e 4f 3e df cf 21 3c 94 b7 3c 3d
       -0.09227686 0.2023881 0.0098762205 0.04607351
0001b0 b8 af 54 be 29 19 2b be f4 d4 a8 be f9 7c 32 be
       -0.20770156 -0.16708817 -0.3297497 -0.17430486
0001c0 48 11 91 be 1e 4a 8f 3e 90 2e d6 3d 80 9f ca bd
       -0.28333497 0.27986234 0.104581 -0.098937035
0001d0 f7 ac b5 3e 5a cb 83 3e 4b 20 2a bc f6 42 2c 3e
       0.35483524 0.25741082 -0.010383676 0.16822419
0001e0 fd c2 ee bd 8c 3d 1b 3e 6b f1 69 bb 9f 02 d1 bd
       -0.11658285 0.15160197 -0.0035696875 -0.10205578
0001f0 30 07 f7 3d 25 18 48 be f4 e0 81 bb d0 6f a3 bd
       0.12061918 -0.1954046 -0.003963584 -0.07980311
000200 8c 01 23 be 7b 5c 87 be 82 f2 42 be ac 6f 13 3e
       -0.15918559 -0.26437744 -0.19037822 0.14398068
000210 16 64 ca bd 1c f0 cd 3e ad 05 e2 bc e9 50 ee 3d
       -0.09882371 0.4022225 -0.027590597 0.11636526
000220 84 a7 9a be f4 92 87 3e 82 d4 20 3e 1f 84 02 3e
       -0.3020593 0.26479304 0.15706065 0.12745713
000230 b0 6c c6 bd e6 88 33 bd 62 e4 a0 3d 3b e7 92 3d
       -0.09688699 -0.04383173 0.078560606 0.0717301
000240 b8 7b cb 3d 7b af b9 3d ae d1 50 3e 1f 1e 6c 3c
       0.09935707 0.09066673 0.20392486 0.014411478
000250 43 06 91 3e 0a 1a 84 3e 1e 12 5a 3d 6c c7 c1 bc
       0.2832509 0.25801116 0.053239934 -0.023654662
000260 31 85 40 bd 84 a8 97 3d b2 ab 24 be 64 a4 32 3e
       -0.04700202 0.07405189 -0.16081122 0.17445523
000270 ab dd 88 3e 09 4c c7 3e fb 24 d2 3d a1 cd 95 be
       0.2673162 0.38925198 0.1026096 -0.29258445
000280 31 9b 75 be 1d 8a 64 be 2b 28 9c be a9 2f 63 3e
       -0.23984982 -0.22318311 -0.30499396 0.2218615
000290 7d 8e a7 3e e0 7a 1e be 62 f3 b3 3d 99 94 2d 3e
       0.32725897 -0.1547656 0.08786656 0.16951217
0002a0 71 27 a4 3e 53 44 5c 3e 2a 98 0b bd 06 5e a3 3e
       0.3206134 0.21510439 -0.03408066 0.31907672
0002b0 ca a3 cb bd 08 17 0d be a8 7c cb bd 9f d2 98 be
       -0.0994335 -0.13778317 -0.09935886 -0.2984819
0002c0 0c c6 e4 3d de d4 e5 bc a3 84 d6 bd 02 bb bc be
       0.11170587 -0.028055605 -0.10474517 -0.36861426
0002d0 67 37 85 3c bc a4 b5 3d 2f fe 7a 3e 8f 59 a0 3d
       0.01626177 0.08869311 0.24511026 0.07829582
0002e0 e8 77 1c be 6a ac 1a 3b d4 5e 08 be b4 0d b7 3d
       -0.15280116 0.0023601302 -0.13317424 0.089381605
0002f0 1e 45 b0 3d ea a8 ad 3d f9 37 ff 3d 8e 22 f9 3d
       0.08606933 0.084794834 0.12461848 0.12164794
000300 61 8c 8c 3e ae 92 93 be fd ec 7f 3c cb e6 b2 3e
       0.2745085 -0.28822845 0.015620467 0.34941706
000310 1a e1 c1 bd e7 f1 cf bc 7e d5 16 3e 74 1e b9 3e
       -0.09466763 -0.025383903 0.14729878 0.36156046
000320 69 5b 6d be c8 69 9b 3d fb 6c 14 3e 4d 9d 13 be
       -0.23179401 0.075885355 0.14494698 -0.14415474
000330 24 a6 cd 3d 61 03 2d 3d ff 7e 21 bd 18 d9 1f be
       0.100414544 0.04223955 -0.039427754 -0.15610158
000340 48 4a 47 be 94 5c c6 3d 46 cb 1a 3d 72 d7 57 3e
       -0.1946193 0.096856266 0.037791513 0.2107828
000350 97 5a 90 bd bf ee 62 be 9c 85 96 be 3b f4 01 3e
       -0.07048529 -0.22161387 -0.2939881 0.12690823
000360 b3 8c 63 3c 85 04 37 3e af 1a c1 bc 22 bb eb bd
       0.013888526 0.17872818 -0.023572294 -0.11510302
000370 2f 86 c4 bd ea 6a 21 3c 0a 56 15 bd 8f c6 f3 3d
       -0.09595906 0.00985215 -0.036459006 0.119031064
000380 82 12 bb bc 30 5d ca 3d de d3 f3 3d 21 c6 d5 3c
       -0.022835974 0.09881055 0.11905645 0.026095452
000390 89 ff 84 bd d1 e5 b5 bc 73 75 1d 3e af 2f 79 be
       -0.06494052 -0.022204312 0.15376835 -0.24334596
0003a0 8d 56 7e 3e b0 d9 80 be e3 e5 64 bd 63 6f 49 be
       0.24837704 -0.25166082 -0.0558833 -0.19671397
0003b0 f5 02 6a 3d 5f 2f a9 3d e8 ab 3e 3e eb 4f 90 bd
       0.057131726 0.082609884 0.18620265 -0.07046493
0003c0 a3 dd aa 3d 0d 45 38 be 2a f9 fb bd 77 b2 4c be
       0.08343055 -0.17995091 -0.12303384 -0.19989954
0003d0 18 90 ee bd 90 43 92 bc 67 d4 31 b8 23 46 7c bd
       -0.116485775 -0.017854482 -4.2397904e-05 -0.061590325
0003e0 f0 c2 29 3e 04 ec 31 3e 48 20 d7 bd f4 9d 01 bd
       0.16578269 0.17375189 -0.10504204 -0.031644776
0003f0 24 07 dc bd b7 04 e2 bd dc e7 1f 3e 62 58 57 be
       -0.107435495 -0.110360555 0.15615791 -0.21029809

pool1.weight f4 [1, 50]
000000 c3 ce ac 3b a6 dd e5 3d ca fb 28 be 18 5a 1b be
       0.0052736714 0.11223917 -0.165023 -0.15171087
000010 53 ef c2 bd 38 5d 5f 3d de b5 66 3c 71 e6 c3 3d
       -0.09518304 0.05453226 0.014081446 0.095654376
000020 d6 f5 31 be 04 b0 9e 3d e8 4b 37 bd 47 13 ed 3a
       -0.17378935 0.07748416 -0.044750124 0.001808741
000030 22 66 f4 bd 25 06 84 3d 2e da 55 be 83 18 e6 bd
       -0.11933543 0.064464845 -0.2088401 -0.11235144
000040 62 18 37 bd d0 cc fe bb 82 ba 91 bd 06 a6 f6 3d
       -0.044700988 -0.0077758804 -0.07115652 0.12043385
000050 93 49 0c be 47 bc de bd 4a 37 27 3e fa 6d 97 3d
       -0.13699941 -0.10875755 0.16329685 0.07394023
000060 98 29 24 bd fb ef 72 3d 52 c2 35 3e f2 2e 31 be
       -0.04007873 0.059310894 0.17749909 -0.17303064
000070 27 bc 0d be 8c 9c 9b 3d dd ff 14 bd 34 9c 80 3d
       -0.13841306 0.07598218 -0.036376823 0.062797934
000080 c0 5d 18 3e d4 da 2a 3d 66 d7 1d be 60 4d 34 bd
       0.14879513 0.041712597 -0.15414199 -0.044019103
000090 13 cf 04 be 46 77 76 3d 30 26 0b 3e 74 8d 51 3e
       -0.12969618 0.06017234 0.13588786 0.20464116
0000a0 8a dc 11 be b1 5c 0d be 67 9a ed 3d 39 13 89 bd
       -0.14244285 -0.1380489 0.116017155 -0.066931196
0000b0 1f 3b 87 3d 68 43 17 3e 8a 27 7d 3d 22 08 27 bd
       0.06603073 0.14771807 0.061805286 -0.04077924
0000c0 aa 42 47 3d 40 71 c9 3d
       0.04864756 0.09836054

pool2.weight f4 [1, 50]
000000 3c 4d 0d be 08 93 83 3d 36 5c 18 3d 23 9f aa 3d
       -0.13798994 0.06424528 0.037197314 0.08331134
000010 27 72 69 bd 3c 6c a5 bd af 63 89 3c 19 cf 8f bd
       -0.05699363 -0.08077285 0.016771166 -0.070219226
000020 7c 42 a2 bd 4f ac f9 bd d4 70 33 be 61 8c 75 3e
       -0.07922837 -0.121910684 -0.1752351 0.23979332
000030 ea eb 9c bc 45 d7 ad bd e1 ce 26 3e 8d b4 c1 bd
       -0.019155461 -0.08488325 0.16289856 -0.094582655
000040 80 5e e3 bd 50 a0 2b bc 9e c8 5d 3d 94 e0 01 be
       -0.11102009 -0.010475233 0.0541464 -0.12683326
000050 e1 fa 2b 3e b2 3d b6 bc 76 e3 da 3c 27 7a 34 3e
       0.16794921 -0.022246215 0.02671979 0.17624722
000060 2d 22 10 3d 94 00 00 3e 4b 19 90 3d 75 3d 09 3e
       0.035188843 0.1250022 0.07036074 0.1340235
000070 0f 0a 16 bb e1 d5 12 be 5e b8 15 3c 40 f6 16 be
       -0.002289418 -0.14339401 0.009138195 -0.14742374
000080 73 fc 23 be 0d ee 32 3e 42 33 7d 3d d5 17 27 3e
       -0.1601427 0.17473622 0.06181646 0.16317685
000090 49 d2 87 bd df dd 59 be ec b4 89 bc 59 35 32 be
       -0.066319056 -0.21276043 -0.016809903 -0.17403163
0000a0 ee 3d 28 be db 8c eb 3d 9a d8 59 bd 25 12 41 3e
       -0.16429874 0.115014754 -0.053185083 0.18854578
0000b0 83 70 22 3e b9 d7 84 3e 7e 63 18 3e 40 76 11 3d
       0.15863232 0.25945833 0.14881703 0.035513163
0000c0 be bd 38 be a5 df 82 bd
       -0.18041131 -0.06390313

fc4.weight f4 [3, 200]
000000 37 2c f9 be 86 da 18 be c8 68 04 3d f4 db 5c be
       -0.48666546 -0.1492711 0.03232649 -0.2156828
000010 87 29 8b 3e fa 8a 07 be 71 68 2c be d9 0a 44 3e
       0.2718012 -0.13236609 -0.16836716 0.19144763
000020 02 cd 92 bd 64 52 26 bf ae 79 0f bf 6b 75 02 3f
       -0.071680084 -0.6496947 -0.56045043 0.50960416
000030 80 bd 8b 3c 71 fb c2 3e 1e 10 68 be 04 16 8a 3e
       0.017058134 0.3808246 -0.22662398 0.26969922
000040 c1 b9 89 be a2 7b 2c bd 68 2a f1 bd 36 4a 0f 3d
       -0.2689953 -0.042110093 -0.117756665 0.034982882
000050 78 5d 59 be 8e c0 d2 3d 05 34 3c be 81 ad 1a bf
       -0.21227062 0.10290633 -0.18379219 -0.60420996
000060 23 6b 39 3e 94 6e 07 3f 23 ec d7 be 77 f7 d5 bc
       0.18107276 0.52903104 -0.42172346 -0.026118977
000070 86 32 98 3e 3d f3 21 3f f8 6c e0 3e c2 ad 07 3f
       0.29726046 0.6326178 0.43833137 0.5299951
000080 b2 e8 26 3f a8 07 09 3e 9a e3 ff bd 26 b4 08 3a
       0.65198815 0.13381827 -0.124945834 0.00052148325
000090 08 0c 24 3e 8b 43 e5 be f1 73 2c be 7f f5 19 be
       0.16020215 -0.44778094 -0.16841103 -0.15035056
0000a0 52 e1 05 bd ab b5 3b bd 23 98 9f be 7b d6 ef bd
       -0.032685585 -0.04582755 -0.3117076 -0.11710831
0000b0 c5 39 26 be d5 90 b3 bd cc f1 b1 be 05 3f 85 3e
       -0.16232975 -0.08767859 -0.3475479 0.26024643
0000c0 a9 72 1b 3e 94 ad 8c 3e 0a 2d 90 be a4 16 17 3e
       0.15180458 0.2747618 -0.28159362 0.1475473
0000d0 a2 72 d4 3e 7c 89 9f bb b6 61 2a 3e 2a 28 9f 3d
       0.41493708 -0.0048686843 0.16638836 0.077713326
0000e0 0b f9 1e 3d 1b d9 1b 3d 42 1e 86 bd 15 31 80 be
       0.038811725 0.038048845 -0.0654874 -0.25037447
0000f0 9d 6a af bd ab 53 16 3f 94 1f 49 3e f1 de 18 3e
       -0.08565257 0.5872142 0.19640952 0.14928795
000100 e0 b1 34 ba 7d 6c 70 3e 28 a4 35 be b9 14 e1 bd
       -0.00068929605 0.23478885 -0.17738402 -0.10990281
000110 e3 0a cb be 1b 92 de be 15 80 1e 3e b7 44 b8 be
       -0.39656743 -0.43470845 0.15478547 -0.35989925
000120 79 a8 0b be 5e 16 00 bf 42 98 50 bd 9c 90 cb 3e
       -0.13638486 -0.5003413 -0.050926454 0.39758766
000130 1a ba bb be f4 3e d2 bd fa 61 62 3e 93 06 ec 3e
       -0.36665422 -0.102659136 0.22107688 0.46098766
000140 09 f2 1b 3f 1b be 28 3e 04 1f 3f 3e 4a 62 32 3c
       0.6091619 0.1647877 0.18664175 0.010887692
000150 3a b3 5b be 86 b2 09 be ef 31 c6 3d ff 50 d8 be
       -0.21455088 -0.13447008 0.09677493 -0.42249295
000160 e0 23 10 be 68 15 0c be 42 2a 48 3e e0 58 00 bc
       -0.14076185 -0.13680041 0.1954737 -0.007833689
000170 ff 71 ed bd c0 03 26 bd 85 f5 2f be 55 c8 93 be
       -0.11594009 -0.04053092 -0.17183502 -0.2886378
000180 1e 3f 23 be 09 47 b2 3d 68 3a 73 bd 07 2e 85 3c
       -0.15942046 0.08704955 -0.059381872 0.0162573
000190 38 d4 7b be a8 6b cf bd 64 40 ab be 5a 7a ac be
       -0.24592674 -0.10127956 -0.33447564 -0.33687097
0001a0 f8 d6 ee be 65 c0 f3 be 62 27 cb be bf de 6a be
       -0.46648383 -0.47607723 -0.39678484 -0.22936533
0001b0 96 4a 68 be 19 fa 9d be f2 ae 09 bf db ff 65 3d
       -0.22684702 -0.30854872 -0.5378257 0.056152206
0001c0 23 df cd be c0 25 e9 be 28 61 3c be ae 35 f5 be
       -0.40209302 -0.45536613 -0.18396437 -0.47892517
0001d0 f5 8c 18 be 3d 43 0a bf ea 14 eb be 59 1c 8a be
       -0.14897521 -0.5400885 -0.45914394 -0.26974753
0001e0 e5 d2 00 bd 6e af 93 be 74 e9 a1 be 63 bc c6 3d
       -0.031451125 -0.2884478 -0.31623423 0.09703901
0001f0 9d c6 c1 be b1 1c 99 bd 74 bd 97 bc 2e 1a 4b bd
       -0.37846842 -0.074761756 -0.018522955 -0.049585514
000200 ff 0a e2 be 29 4a 32 bd 1f a3 80 be f6 5d 05 bf
       -0.44149014 -0.043527756 -0.25124452 -0.520965
000210 52 e0 f1 be 4e 75 8a bc 6f 45 6f bd 1c b7 40 be
       -0.47241455 -0.016901638 -0.058415826 -0.1881985
000220 ec 8c ae be cf 34 bb bb 1d db d8 be ac 43 85 be
       -0.3409189 -0.0057130824 -0.4235467 -0.26028192
000230 49 7a ba be c3 0a 0e be 28 30 e7 be 11 c9 02 be
       -0.3642142 -0.13871293 -0.45153928 -0.12772013
000240 f8 3e a6 3d cb a5 11 3d 6f b5 a3 bd 40 4d b1 bc
       0.08117479 0.035558503 -0.0799359 -0.021643281
000250 da 7d 89 be 39 25 de be d7 59 9b be d1 12 de 3c
       -0.2685383 -0.43387774 -0.3034198 0.027108582
000260 2b 07 86 bc a4 f1 8c bc 59 74 a7 be b8 3a 0e be
       -0.01636084 -0.017205067 -0.32705954 -0.13889587
000270 24 78 0b be 3f a3 a5 be 44 73 95 bd fd 99 c1 be
       -0.13620049 -0.3235111 -0.07297376 -0.37812796
000280 a7 72 96 be df 28 95 3e 70 34 9d bd d1 f0 52 be
       -0.29384348 0.29132745 -0.07676017 -0.20599677
000290 5a 57 3d 3b 81 07 9b be ba 25 67 be f7 74 6b be
       0.0028891177 -0.30279163 -0.22572985 -0.22993837
0002a0 36 3c 25 be ac c9 79 be ed 26 d1 3e ac 10 54 be
       -0.1613625 -0.24393338 0.4085001 -0.20709485
0002b0 a3 e0 18 be c2 b6 b3 3e 1a 98 80 be 57 fd 23 3e
       -0.14929442 0.3510037 -0.25116044 0.1601461
0002c0 97 53 c8 3e f9 65 ad 3e 9c 08 63 be 3b a3 6a be
       0.39126274 0.3386686 -0.22171253 -0.2291383
0002d0 4b 43 d7 bd 62 6e 62 be 40 c1 a5 be 4c e9 85 3e
       -0.10510882 -0.2211242 -0.32374 0.26154554
0002e0 e6 7d 3d 3e 88 e5 5d 3e 56 f8 5b be 00 5b 93 be
       0.18505058 0.2166959 -0.21481451 -0.28780365
0002f0 6e d3 45 be 91 e7 b5 be 43 c5 a3 be 79 08 e2 3d
       -0.19318935 -0.35528234 -0.31986436 0.11036772
000300 b7 a3 64 be 4d 25 f3 3e 66 7b b4 3e 24 66 90 3e
       -0.22328077 0.47489396 0.35250396 0.28202927
000310 89 1d 7a 3e 16 11 9c 3e 9b 75 98 be fd 03 19 be
       0.2442533 0.30481786 -0.29777226 -0.14942928
000320 c6 8a b8 3d 8e af 92 be fb 2c 15 3e ca cd 20 bd
       0.09010844 -0.28649563 0.1456794 -0.039258756
000330 31 ea fd 3d 8e 45 9c 3e 68 3c 82 3e d3 ab fa 3c
       0.12398184 0.30521816 0.2543671 0.03059951
000340 3e ad f3 bc b9 69 ea be 45 18 28 be 48 40 9f be
       -0.029745694 -0.45783785 -0.16415508 -0.3110373
000350 eb c5 1f 3d aa 37 6d bd 87 ce e1 3d 64 c8 00 be
       0.03900711 -0.057914414 0.1102572 -0.12576443
000360 f5 0b dd 3d 75 e2 3f 3d d2 0f b3 3d 6a 42 a5 be
       0.10793296 0.046846826 0.08743252 -0.32277232
000370 86 24 e3 bd 13 37 a9 bd 00 de ff bd 6d fe 07 bf
       -0.11090951 -0.08262458 -0.12493515 -0.531226
000380 d7 99 44 be b8 89 14 be 3b 4d 42 be d0 e9 97 bd
       -0.1919931 -0.1450566 -0.18974774 -0.07417643
000390 63 51 15 be 0c 95 dc be 18 76 8d bd 1a cd 18 3c
       -0.14581828 -0.43082464 -0.0690729 0.009326244
0003a0 38 ae f0 bd 7c 62 3a 3d e6 93 f7 3c 52 c4 65 3e
       -0.117519796 0.04550408 0.03022189 0.22438172
0003b0 01 23 96 be 37 d8 12 3c 8e 58 21 3d 17 a9 32 be
       -0.2932358 0.008962682 0.039391093 -0.17447315
0003c0 a7 27 73 3d c6 eb 0c 3d 57 78 85 3d 62 c5 b3 be
       0.059363987 0.03440454 0.06517094 -0.3511153
0003d0 76 ea 64 3e 23 6e 17 3e 54 31 20 be b9 1d ff 3d
       0.22355065 0.14788108 -0.15643817 0.12456841
0003e0 7d 7a 06 3e 82 5c 1a be e4 6d db 3c a0 85 19 be
       0.13132663 -0.15074351 0.026785798 -0.1499238
0003f0 43 08 2f bd 46 9d 50 be 27 d7 98 bd 85 ad 18 3d
       -0.04273249 -0.20372495 -0.07462912 0.037274856

fc4.bias f4 [3]
000000 38 54 13 3d bc 06 91 3b 93 1c 32 3d
       0.03596899 0.0044258516 0.04348428
