experiments/experiment_9/checkpoint_4_9.pt (torch, 39119 bytes, 8 tensors)

conv1.bias f4 [50]
0	0xbd47c997	-0.048776235
1	0xbd53c831	-0.05170459
2	0x3d3be78d	0.04587512
3	0xbd2a0648	-0.041509897
4	0xbca926b1	-0.020648332
5	0xbd4d3f37	-0.050109114
6	0x3ce57544	0.028010018
7	0xbdb48d31	-0.088159926
8	0xbdd13de4	-0.10216883
9	0xbde99460	-0.114052534
10	0x3dc32684	0.09528831
11	0xbd9fb205	-0.077976264
12	0x3d64c603	0.0558529
13	0xbd310348	-0.04321602
14	0xbd1f4f40	-0.038893938
15	0x3df24255	0.11829058
16	0x3d86371d	0.06553481
17	0x3d612cb2	0.054974265
18	0xbd4ea47b	-0.05044983
19	0xbddae1f3	-0.10687628
20	0xbac93417	-0.0015350607
21	0x3d82392a	0.063585594
22	0xbdea8e8f	-0.11452972
23	0x3d45ccd1	0.04829103
24	0x3d9eb602	0.07749559
25	0xbdb4a740	-0.08820963
26	0x3cef9af2	0.029248688
27	0xbd8fa084	-0.07013038
28	0x3d155729	0.036460076
29	0xbdf058e2	-0.11735703
30	0xbc872a91	-0.01649979
31	0x3e76a7dc	0.24087471
32	0x3d10f01b	0.035385232
33	0xbd445005	-0.047927875
34	0x3d1d3f16	0.03839024
35	0x3cf1c389	0.029512184
36	0x3b81b4f1	0.0039583375
37	0xbda72eaf	-0.08163201
38	0xbd9c6a36	-0.07637446
39	0xbca6e9ad	-0.020375097
40	0x3d1480e2	0.036255725
41	0x3da2cf6b	0.07949718
42	0xbdb8db2e	-0.0902618
43	0xbd7c533a	-0.06160281
44	0x3dc7eadc	0.09761593
45	0xbccfa235	-0.025345901
46	0xbdd2c7f5	-0.10292045
47	0xbda2150d	-0.07914171
48	0x3dbd2639	0.09235806
49	0x3ded0a11	0.11574186

conv1.lin.weight f4 [50, 116]
0	0xbe5171e8	-0.20453608
1	0xbe22b4cd	-0.15889283
2	0xbae228a8	-0.0017254548
3	0xbdeef1cc	-0.11667213
4	0x3d93c92b	0.07216104
5	0x3c296b10	0.010340467
6	0xbd4bbbb6	-0.049739562
7	0x3e0aa4ff	0.13539504
8	0xbc1bac3a	-0.009501511
9	0xbd68db01	-0.056849483
10	0x3e19df94	0.15026695
11	0x3df7fea8	0.12109119
12	0x3db6974d	0.08915577
13	0x3eee64c6	0.4656126
14	0x3d51f7e4	0.051261798
15	0x3d8093e8	0.06278211
16	0x3e4708ad	0.19436903
17	0x3dbe55d8	0.09293717
18	0x3e7c6685	0.24648483
19	0x3d588ad0	0.052866757
20	0xbe26d365	-0.16291578
21	0xbe2775ac	-0.16353482
22	0xbe4cc2c6	-0.19996175
23	0xbe01ad41	-0.12663747
24	0xbe380267	-0.17969666
25	0x3ea30087	0.3183634
26	0x3d2d6ada	0.04233823
27	0x3bd9a3eb	0.006641855
28	0xbbed0472	-0.007233196
29	0xbe4049b3	-0.18778114
30	0xbe4465ac	-0.1917941
31	0xbd6990e1	-0.057022933
32	0x3cc7c543	0.024386054
33	0xbe13cbad	-0.14433165
34	0xbe52e22d	-0.20594092
35	0xbde3eb57	-0.11128872
36	0xbe1b842a	-0.15187135
37	0x3df123f3	0.11774435
38	0xbd8597de	-0.06523107
39	0xbd58e810	-0.052955687
40	0xbd46fef7	-0.048582997
41	0x3e99753b	0.29972252
42	0x3d8f0789	0.06983859
43	0xbd4354d5	-0.047688324
44	0xbdf5bd68	-0.11999017
45	0x3e7cd669	0.24691166
46	0x3d200b2e	0.03907316
47	0x3bc5e6ab	0.0060394607
48	0x3e54a933	0.2076767
49	0x3d88d0cc	0.0668045
50	0x3c03bbec	0.00804041
51	0xbe8430a0	-0.25818348
52	0x3e5008e5	0.20315893
53	0xbce5ed32	-0.028067205
54	0xbcfb0923	-0.030644005
55	0x3d5827f1	0.052772466
56	0x3ec4534b	0.38344797
57	0x3e6cc11e	0.23120543
58	0xbd99aa40	-0.07503176
59	0xbda7ac00	-0.08187103
60	0xbed269a5	-0.41096225
61	0xbe5db7e2	-0.21652177
62	0x3e6885c7	0.22707282
63	0x3df2761a	0.11838932
64	0x3d6291e8	0.05531493
65	0xbe1aa6d5	-0.15102704
66	0x3ded456b	0.11585506
67	0x3e6a3ed4	0.2287553
68	0x3e0f0285	0.13965805
69	0xbd2bfc15	-0.04198845
70	0xbde4ea92	-0.11177553
71	0x3e7bb9b8	0.24582565
72	0xbde66632	-0.11249961
73	0x3df562e5	0.11981753
74	0x3e3652c4	0.1780501
75	0xbe90afd7	-0.28259155
76	0x3bf08f01	0.007341266
77	0x3d1244e7	0.03571024
78	0x3d14c96a	0.036324896
79	0xbe565bc9	-0.20933451
80	0xbe3632c9	-0.1779281
81	0x3e861fd5	0.2619616
82	0x3a8228a5	0.0009930326
83	0xbdcd3fca	-0.100219324
84	0x3e9e71e1	0.30946258
85	0x3c215441	0.009846748
86	0x3ee85df4	0.4538418
87	0x3dfb2e7f	0.12264728
88	0xbe1701bd	-0.14746757
89	0xbe2b480b	-0.16726701
90	0x3d867f52	0.06567253
91	0x3e04e936	0.12979588
92	0xbe923bb6	-0.2856118
93	0x3ea5a151	0.32349637
94	0xbe6ca16e	-0.23108456
95	0x3d09cd2c	0.033642933
96	0x3eac3d06	0.33640307
97	0xbe47e5b9	-0.19521226
98	0xbc0ce7b7	-0.008600167
99	0x3d5665cc	0.052343175
100	0x3db93e49	0.09045083
101	0xbe4c739c	-0.19965976
102	0x3dabf325	0.083959855
103	0xbe779496	-0.24177775
104	0x3e87462b	0.2642072
105	0x3cec5d45	0.028853068
106	0xbd68f418	-0.05687341
107	0x3ab515ea	0.0013815735
108	0x3db5538e	0.088538274
109	0x3e512d21	0.20427372
110	0xbe5058fa	-0.20346442
111	0xbe093edb	-0.13402884
112	0xbf0c956a	-0.5491549
113	0xbceca660	-0.028887928
114	0xbe78aef9	-0.24285497
115	0xbe732081	-0.23742868
116	0xbd0d49af	-0.0344941
117	0xbe5bf8d2	-0.21481636
118	0xbd4e6a10	-0.050394118
119	0x3baf1b64	0.0053438414
120	0xbd838613	-0.06422057
121	0xbd73abcf	-0.05949002
122	0x3e3d1a25	0.18467005
123	0x3bee5e5c	0.007274432
124	0x3e8409b8	0.25788665
125	0xbda5fb97	-0.081046276
126	0x3e00ef92	0.12591389
127	0x3e9545b4	0.29154742
128	0xbe9c5e68	-0.30540776
129	0xbd92aa7f	-0.07161426
130	0xbe58a7f5	-0.2115782
131	0x3d84f20e	0.06491481
132	0xbdfec6e1	-0.12440277
133	0x3d49ebf1	0.049297277
134	0x3d834105	0.06408886
135	0x3e4c7677	0.19967066
136	0x3dc4efb4	0.09616032
137	0xbe866d9f	-0.2625551
138	0x3e0e18bc	0.13876623
139	0xbd41fceb	-0.047360342
140	0x3d8da848	0.06916863
141	0xbd913e73	-0.07091989
142	0xbddaf6d7	-0.10691612
143	0x3d91e0fe	0.07122992
144	0x3e08979a	0.13339081
145	0xbeab69ef	-0.33479258
146	0xbf05d4aa	-0.52277625
147	0x3dc6378f	0.09678566
148	0x3ee0a610	0.43876696
149	0xbe40e1a5	-0.18836077
150	0xbde80894	-0.11329761
151	0xbcfedf45	-0.031112323
152	0xbda2af89	-0.07943637
153	0x3d814024	0.06311062
154	0xbda733b9	-0.08164162
155	0xbdd0d9ab	-0.10197767
156	0x3e2b6c24	0.16740471
157	0xbea15e04	-0.3151704
158	0x3e4b8e92	0.19878605
159	0x3e43b4aa	0.19111887
160	0xbdfdd04c	-0.12393245
161	0xbe07a476	-0.1324633
162	0xbeadb46c	-0.33926713
163	0x3d74b439	0.059742186
164	0x3d90e996	0.07075803
165	0xbe1d37be	-0.15353295
166	0x3dd5f9f9	0.10448069
167	0xbe278568	-0.16359484
168	0x3cfcdb8f	0.030866412
169	0xbb1bb415	-0.002375846
170	0x3c45bc88	0.012068875
171	0x3db9787e	0.09056185
172	0x3db725d8	0.08942765
173	0x3cba863d	0.022769088
174	0x3e2c0332	0.16798094
175	0x3d94d685	0.07267479
176	0xbdd20531	-0.102548964
177	0x3dfe76a1	0.124249704
178	0x3e069919	0.1314434
179	0xbea0aa3f	-0.31379887
180	0xbe16ca66	-0.14725646
181	0xbd4fce02	-0.050733574
182	0x3e3c2eba	0.183772
183	0xbe8ab382	-0.2709008
184	0xbd264987	-0.040597465
185	0xbde5b912	-0.1121694
186	0xbe55b50c	-0.20869845
187	0x3e67408d	0.22583218
188	0xbca01143	-0.019539481
189	0xbdddd440	-0.10831499
190	0xbdda3b1a	-0.10655804
191	0xbe2af295	-0.166941
192	0x3e67b757	0.22628532
193	0xbe190a62	-0.14945367
194	0xbe6a89a8	-0.22904074
195	0xbd3b17d6	-0.04567703
196	0x3ce65824	0.0281182
197	0x3bff5b20	0.0077928454
198	0xbc472303	-0.012154344
199	0x3dde2693	0.10847201
200	0x3e88e30e	0.2673573
201	0x3d1f9965	0.038964648
202	0x3dde4053	0.108521126
203	0x3de7a32b	0.11310419
204	0x3d3e3ad8	0.046442837
205	0xbe2cfa89	-0.16892447
206	0xbcb1cd74	-0.021704413
207	0x3e471115	0.1944011
208	0xbd0d9208	-0.034563094
209	0x3e8c6796	0.2742278
210	0xbc8ff1f4	-0.017571427
211	0xbcd002b1	-0.025391908
212	0x3dfc5f01	0.12322808
213	0x3d3836d0	0.04497415
214	0xbce9c3a8	-0.028535679
215	0xbe3933cf	-0.1808617
216	0x3ebfd630	0.374681
217	0xbe4ce9ea	-0.20011106
218	0x3df326f8	0.11872667
219	0x3dfa9dae	0.12237106
220	0x3df7a4ae	0.12091957
221	0xbe90d80c	-0.2828983
222	0xbb6e1d38	-0.0036333334
223	0x3e4ed3d3	0.20197992
224	0xbe6a86c4	-0.22902972
225	0xbb2c542b	-0.0026295285
226	0x3ccc91f6	0.024971943
227	0x3e3d7016	0.18499789
228	0xbca0d234	-0.019631483
229	0xbe0fcffa	-0.1404418
230	0xbe2845ac	-0.16432828
231	0xbd914fa6	-0.0709527
232	0xbd567cd2	-0.05236513
233	0x3e808ef8	0.25109076
234	0x3d2be087	0.041962173
235	0x3e355122	0.17706731
236	0xbddcff8f	-0.107909314
237	0x3e2a0d97	0.16606747
238	0x3daca549	0.08429963
239	0x3e0869be	0.13321587
240	0xbd94b918	-0.07261866
241	0x3e910399	0.28323057
242	0xbe25928c	-0.16169184
243	0xbe23641b	-0.15956156
244	0xbc5117d7	-0.0127620315
245	0xbe5151ba	-0.20441332
246	0x3e8eae1d	0.27867213
247	0xbe3f6f18	-0.18694723
248	0x3dd7ef06	0.10543637
249	0xbe3a5419	-0.18196143
250	0xbe1ecd98	-0.15508115
251	0xbe98e72b	-0.29863867
252	0x3e06c105	0.13159569
253	0xbdbcbad3	-0.092153214
254	0xbc9b0431	-0.018922897
255	0x3d99aa8f	0.075032346

conv2.bias f4 [50]
0	0xbd872de6	-0.06600551
1	0xbd0efa30	-0.034906566
2	0x3cfb557a	0.030680407
3	0xbdf9467a	-0.121716455
4	0xbd816815	-0.0631868
5	0xbd28e459	-0.041233394
6	0x3c5d2605	0.013497834
7	0xbc8d7279	-0.017266499
8	0xbe1ce3f8	-0.15321338
9	0xbc0d8124	-0.008636747
10	0xbd9d4f76	-0.076811716
11	0xbc69abc6	-0.014262145
12	0x3e2ff566	0.17183456
13	0xbda3f280	-0.080052376
14	0x3d86de76	0.065854
15	0x3e1872c8	0.14887536
16	0x3cf8959a	0.030344773
17	0x3cead14c	0.028664254
18	0x3d8812c9	0.06644208
19	0x3e1ba21c	0.15198559
20	0x3d2d080c	0.042244002
21	0xbe124b96	-0.14286646
22	0xbcb42de8	-0.021994546
23	0xbccc9483	-0.02497316
24	0xbe1d85ff	-0.15383147
25	0xbdad5b75	-0.0846471
26	0xbca29444	-0.01984609
27	0xbc99af37	-0.018760307
28	0xbe21b699	-0.15792312
29	0x3bf979f1	0.0076134135
30	0xbd03d5be	-0.032186262
31	0x3e96734e	0.29384845
32	0xbe4946ba	-0.19655886
33	0x3d9c3f5c	0.07629272
34	0x3db04f16	0.086088344
35	0xbceaf279	-0.028680073
36	0x3cbe879f	0.023258029
37	0xbc7c8c83	-0.01541436
38	0xbd81c50b	-0.06336411
39	0x3e4c7c3b	0.19969265
40	0xbd990dda	-0.07473345
41	0xbd41e2e8	-0.047335535
42	0x3e4a2621	0.19741108
43	0x3e0715a0	0.13191843
44	0xbe1aada4	-0.15105301
45	0xbc273fe7	-0.010208107
46	0xbd7ae014	-0.061248854
47	0xbe3f50f4	-0.18683225
48	0xbd944e09	-0.072414465
49	0xbdf5bcd9	-0.119989105

conv2.lin.weight f4 [50, 50]
0	0x3d3f00c7	0.0466316
1	0xbbe72111	-0.0070535024
2	0x3e1d2815	0.15347321
3	0x3d02ad50	0.031903565
4	0xbe8b884e	-0.2725243
5	0x3e5e2e62	0.21697381
6	0x3de46e17	0.111538105
7	0xbccf5eee	-0.02531382
8	0x3dd1d243	0.10245182
9	0xbdab4066	-0.083618924
10	0x3d5b32e6	0.053515337
11	0x3d678077	0.056518998
12	0x3dc227ea	0.09480269
13	0x3ddf70e2	0.109102026
14	0xbcbfd466	-0.02341671
15	0xbe2373e0	-0.15962172
16	0xbd70cb3c	-0.05878757
17	0x3e2b7288	0.16742909
18	0xbd29e03b	-0.04147361
19	0x3e84cd6c	0.25937974
20	0xbd60ee20	-0.054914594
21	0xbda3480f	-0.079727285
22	0x3dac76f8	0.08421129
23	0x3ea1130d	0.31459847
24	0xbe48b0fb	-0.19598763
25	0xbdd261b6	-0.10272543
26	0xbd33d664	-0.04390563
27	0x3e8e3f99	0.27782896
28	0x3d3a024c	0.045412347
29	0x3e91882c	0.28424203
30	0xbcaaebc1	-0.02086437
31	0xbe18bc21	-0.14915515
32	0xbe9ff1ff	-0.31239316
33	0xbdebba1e	-0.115101084
34	0xbc7558ac	-0.014974754
35	0x3de8eef5	0.113737024
36	0x3dcf3ecd	0.101194
37	0xbe62e54b	-0.22157781
38	0x3d8760ef	0.066102855
39	0xbd8243ab	-0.06360563
40	0x3e051af7	0.12998568
41	0xbdc2c829	-0.09510834
42	0x3dece49f	0.115670435
43	0x3d8c950d	0.06864367
44	0xbde07f7d	-0.109618165
45	0x3d4c97a4	0.049949303
46	0xbe1541d1	-0.14575888
47	0x3de64e8c	0.112454504
48	0xbdd24b09	-0.10268218
49	0xbe737051	-0.23773314
50	0xbecaada8	-0.39585614
51	0x3e8863c4	0.26638615
52	0xbde4c110	-0.11169636
53	0x3ed155d3	0.4088579
54	0x3ea7b175	0.32752576
55	0x3d4c722a	0.049913563
56	0x3efa3626	0.48869437
57	0x3e12e32c	0.14344472
58	0xbe604f43	-0.21905236
59	0xbea02d36	-0.31284493
60	0xbe033593	-0.12813406
61	0xbe0360ac	-0.12829846
62	0x3eaebbdd	0.34127703
63	0xbb95a637	-0.0045669335
64	0x3da524f2	0.080636874
65	0xbd716b92	-0.058940478
66	0x3f106de6	0.5641769
67	0x3e996453	0.29959354
68	0x3e96ec93	0.29477367
69	0xbf14e9bd	-0.58169156
70	0x3b4a25a4	0.003084519
71	0x3e7d016f	0.24707578
72	0xbbe73b6b	-0.0070566437
73	0xbe9ba2e2	-0.30397707
74	0x3e8c6f5a	0.27428705
75	0x3c19fc20	0.00939849
76	0x3ddc9ed9	0.10772485
77	0xbd929a67	-0.07158356
78	0xbe64504e	-0.22296259
79	0xbe60453a	-0.21901408
80	0x3e3062b9	0.1722516
81	0x3ec11ff4	0.3771969
82	0x3ea2d0bc	0.31799877
83	0x3ce4f7aa	0.027950127
84	0x3cc2be70	0.023772448
85	0x3d3a921b	0.045549493
86	0xbccf264a	-0.025286812
87	0x3e9ed05c	0.3101834
88	0xbe0460c8	-0.12927544
89	0x3e3e482e	0.18582222
90	0x3e3d357e	0.18477437
91	0x3ebd79e7	0.37007067
92	0xbd3da427	-0.046299126
93	0xbe7bd2ac	-0.24592084
94	0x3deb80c1	0.11499167
95	0xbe691c43	-0.22764687
96	0xbe5c3381	-0.21504022
97	0xbe0b0a2b	-0.13578098
98	0x3da69e08	0.08135611
99	0x3ed2c59e	0.41166395
100	0xbd61181d	-0.054954637
101	0x3ece22a5	0.40260807
102	0xbe5ac10f	-0.21362709
103	0x3eb099c2	0.34492308
104	0x3df3dddb	0.1190755
105	0xbb9bf174	-0.004759008
106	0x3e94d566	0.2906906
107	0xbdf05933	-0.117357634
108	0x3c0a8a9e	0.0084559005
109	0xbd9a30d0	-0.075288415
110	0xbeba5703	-0.3639451
111	0x3dd38a72	0.10329141
112	0x3d2a69e4	0.04160489
113	0x3dcf7900	0.10130501
114	0xbe8d32a1	-0.2757769
115	0xbb812092	-0.0039406503
116	0x3ec326cc	0.38115537
117	0xbe0d7de0	-0.13817549
118	0x3e2cf199	0.16889037
119	0xbec1c874	-0.37848246
120	0x3d699247	0.057024267
121	0x3debae69	0.115078755
122	0x3d5fe505	0.05466177
123	0xbe73fdf4	-0.23827344
124	0x3e9a933c	0.30190456
125	0xbd296671	-0.04135746
126	0xbdd6d60e	-0.104900464
127	0xbd5c823f	-0.05383515
128	0xbdff06f1	-0.12452496
129	0xbe0cbf18	-0.13744771
130	0x3e5f8b34	0.21830446
131	0x3ec1a6ec	0.37822664
132	0x3ec72ec7	0.38902876
133	0xbb0606f7	-0.0020450929
134	0xbe252dc2	-0.16130736
135	0xbddc0e14	-0.10744873
136	0xbdc9ced1	-0.098539
137	0x3e079cec	0.13243455
138	0x3e121c88	0.14268696
139	0x3e53b789	0.20675482
140	0x3dfd33f7	0.12363427
141	0x3e9e883f	0.30963323
142	0x3d34a901	0.044106487
143	0x3da36599	0.079783626
144	0x3e98a4d1	0.29813245
145	0xbe4cbccf	-0.199939
146	0x3d9dcc52	0.07704987
147	0xbeb5f447	-0.3553793
148	0x3eb7fa8c	0.3593334
149	0x3ed9f5d3	0.42570361
150	0xbebd2090	-0.36938906
151	0xbe8c25c2	-0.27372557
152	0x3eb30431	0.34964135
153	0xbe597c63	-0.21238856
154	0xbe8a3d19	-0.2699974
155	0x3e82a197	0.25513908
156	0x3d37e68d	0.044897605
157	0xbe7bdb77	-0.24595438
158	0xbeae965c	-0.3409909
159	0x3d669a1e	0.05629932
160	0x3da7d495	0.08194844
161	0xbd73d9ec	-0.059534
162	0x3dc33abe	0.095326886
163	0x3e7fdee5	0.24987371
164	0x3d8e7775	0.06956378
165	0xbeb8e77b	-0.36114106
166	0x3eab6f87	0.33483526
167	0xbdc641e0	-0.096805334
168	0x3e5410f0	0.20709586
169	0xbdd3ddbb	-0.10345026
170	0x3ec1ffcf	0.3789048
171	0x3df6e4b6	0.12055342
172	0xbd6f0fd0	-0.05836469
173	0x3ebc88d3	0.3682314
174	0xbebc8ba1	-0.36825278
175	0x3e60d5ab	0.21956508
176	0x3b7eed8b	0.003889891
177	0x3dbb4a56	0.09145038
178	0x3e0ddcb1	0.13853718
179	0x3ea03ed7	0.31297943
180	0xbe9a62c1	-0.30153468
181	0xbe63833a	-0.22218028
182	0x3e71cb89	0.23612799
183	0xbe55a86a	-0.20865026
184	0x3d84fd87	0.06493669
185	0x3e73545c	0.2376265
186	0xbd8578db	-0.06517192
187	0xbe309e26	-0.17247829
188	0xbe1d9024	-0.15387017
189	0xbdb154e6	-0.08658771
190	0xbd886b8c	-0.06661138
191	0x3e6d668d	0.23183651
192	0x3dde6932	0.10859908
193	0xbebb508b	-0.36584887
194	0xbddefb1d	-0.1088774
195	0x3e841e15	0.258042
196	0xbced6663	-0.028979486
197	0xbe0611e7	-0.13092767
198	0x3e0820d8	0.13293779
199	0x3d1fdee2	0.039030917
200	0xbf0368a1	-0.51331526
201	0x3da08abb	0.07838961
202	0x3e5c7c9a	0.21531907
203	0x3e70fec2	0.23534682
204	0x3dcd7f6f	0.10034072
205	0x3e40c83b	0.18826382
206	0x3eac104f	0.33606192
207	0xbe0ac91e	-0.13553283
208	0xbd801a21	-0.06254984
209	0xbe83eacd	-0.25765076
210	0x3d5e3020	0.054245114
211	0x3d876c58	0.06612462
212	0x3ee65b2b	0.4499143
213	0x3d41f167	0.04734936
214	0xbe84ad6e	-0.25913566
215	0xbe034539	-0.12819375
216	0x3eb12264	0.3459655
217	0x3d35959e	0.04433214
218	0x3ea0275f	0.31280038
219	0xbe6b1d32	-0.22960356
220	0xbe059714	-0.13045913
221	0x3ec41dd5	0.3830401
222	0xbd8ff9ab	-0.07030042
223	0x3c6e4e3e	0.014545022
224	0x3e8e36ed	0.2777628
225	0x3d727b8b	0.05919985
226	0x3d23b42a	0.03996674
227	0xbe3bf84a	-0.18356434
228	0xbdfeea92	-0.124470845
229	0xbe0a217a	-0.13489333
230	0x3d08e619	0.033422563
231	0x3e07fb2a	0.13279405
232	0x3d095601	0.033529285
233	0x3dc23de8	0.09484464
234	0x3c077cc4	0.008269493
235	0x3d2f3129	0.042771492
236	0xbda64d6e	-0.08120237
237	0x3e54249c	0.2071709
238	0xbda0d996	-0.07854001
239	0xbdfc551b	-0.1232092
240	0x3e843bba	0.25826818
241	0x3eb3b442	0.35098463
242	0xbde9dfab	-0.114196144
243	0xbe966867	-0.29376528
244	0x3e890969	0.26764992
245	0xbe08c8ac	-0.133578
246	0xbafdc86f	-0.0019362102
247	0xbe393117	-0.18085133
248	0x3acbb9e3	0.001554307
249	0x3da60f8d	0.08108435
250	0xbee89cac	-0.4543203
251	0xbea8c9af	-0.32966372
252	0x3e976299	0.29567412
253	0xbde9ae62	-0.11410214
254	0x3e2ce332	0.16883543
255	0x3dad355a	0.08457442

pool1.weight f4 [1, 50]
0	0xbe05f1b0	-0.13080478
1	0xbdd2ff9a	-0.103026584
2	0x3d7925df	0.060827132
3	0xbddfc198	-0.10925597
4	0xbcbad948	-0.022808686
5	0xbdc0b3d7	-0.09409302
6	0x3dc5a1ae	0.096499786
7	0xbdc70c35	-0.09719125
8	0xbe1b099e	-0.15140387
9	0xbe34d77f	-0.1766033
10	0x3cb282be	0.021790858
11	0xbd507d4e	-0.05090075
12	0x3e306941	0.17227651
13	0xbd73548d	-0.059406806
14	0xbd7fd37f	-0.062457558
15	0x3e0e44f4	0.13893491
16	0x3dc934e8	0.09824544
17	0x3dd9fd86	0.10644059
18	0xbc96c3d3	-0.018403923
19	0xbe2c07e0	-0.16799879
20	0xbc9972ad	-0.01873144
21	0x3e545d1c	0.20738643
22	0xbdd016d1	-0.10160602
23	0x3d481e03	0.048856746
24	0x3cc6af24	0.024253435
25	0xbe33b0c1	-0.17547895
26	0x3d3dadfe	0.04630851
27	0xbd437e1a	-0.04772768
28	0x3c3ab58b	0.011395822
29	0xbbfdcb7d	-0.007745205
30	0xbdd1f216	-0.10251252
31	0x3e31d8a5	0.173678
32	0x3d4ce2de	0.050021045
33	0xbdbc5301	-0.09195519
34	0x3c8645ac	0.016390644
35	0x3dacb03f	0.08432054
36	0x3c10d37e	0.008839486
37	0xbe060321	-0.13087131
38	0xbe2624bd	-0.16224952
39	0xbd51f306	-0.051257156
40	0x3d7d4f2b	0.06184308
41	0x3dd097fc	0.10185239
42	0xbe22aee7	-0.15887032
43	0xbe001d84	-0.1251126
44	0x3da92e6e	0.08260809
45	0xbcf16924	-0.02946908
46	0xbdc49d60	-0.096003294
47	0xbe275f1d	-0.16344877
48	0x3e30bed9	0.17260303
49	0xbc753ee5	-0.0149686085

pool2.weight f4 [1, 50]
0	0xbdb89609	-0.09012992
1	0x3db59270	0.08865821
2	0x3c8d93c5	0.017282376
3	0xbdbcf9e8	-0.09227353
4	0x3d61ad73	0.055097055
5	0x3c38cf27	0.011279858
6	0x3db1f5d7	0.08689468
7	0x3d0ef942	0.03490568
8	0xbe5f0549	-0.2177936
9	0x3c370a8e	0.01117195
10	0xbd2e8d40	-0.042615175
11	0x3d122730	0.035681903
12	0x3d6bd2c8	0.057574064
13	0xbd3687dc	-0.04456316
14	0x3d717f82	0.05895949
15	0x3d728a0e	0.05921369
16	0x3d8f1c73	0.06987848
17	0x3c84b2f7	0.016198618
18	0x3dcd2d45	0.100184
19	0x3dc52095	0.09625355
20	0x3d9776c1	0.073956974
21	0xbe11b0f2	-0.14227656
22	0x3d4391d9	0.047746513
23	0xbd7a80d2	-0.06115801
24	0xbd2629f6	-0.04056736
25	0xbd98b94b	-0.07457217
26	0x3d368e21	0.04456914
27	0x3cc489a5	0.023991415
28	0xbdabb827	-0.08384734
29	0x3d8d531c	0.069006175
30	0x3caed0b5	0.021339754
31	0x3e853377	0.26015827
32	0xbe5a1028	-0.21295226
33	0x3df983f1	0.12183369
34	0x3dc1a272	0.09454812
35	0xbddb4c6c	-0.10707936
36	0x3cc055fd	0.023478502
37	0x3c3ae512	0.011407154
38	0xbe0612fa	-0.13093176
39	0x3e995c46	0.29953212
40	0xbe2af97e	-0.16696736
41	0xbc91e313	-0.017808473
42	0x3e77dbee	0.2420499
43	0x3de1862c	0.110119194
44	0xbda81d30	-0.08208692
45	0x3c39d59e	0.011342434
46	0xbcc30fc0	-0.023811221
47	0xbd99f5b4	-0.07517567
48	0x3b998b76	0.0046858145
49	0xbd331932	-0.0437252

fc4.weight f4 [3, 200]
0	0xbe8dbb21	-0.2768183
1	0x3e4839db	0.1955332
2	0xbe7459d9	-0.23862399
3	0x3dcc6b1a	0.099813655
4	0x3dbab017	0.09115618
5	0xbe0e270f	-0.13882087
6	0x3e5079d7	0.20358978
7	0x3e5e26b3	0.2169445
8	0xbe2935b0	-0.16524386
9	0xbdcb6e56	-0.09933154
10	0xbe9c2e71	-0.30504182
11	0x3e040ffb	0.12896721
12	0x3e2d88a0	0.1694665
13	0x3e0f52c9	0.13996424
14	0x3e2712f3	0.16315822
15	0xbdf90e59	-0.1216094
16	0x3e444103	0.19165425
17	0x3d89efa2	0.067351595
18	0x3d588f80	0.052871227
19	0xbd240e8c	-0.040052935
20	0xbe123fd7	-0.14282165
21	0x3d1f5bc5	0.038905878
22	0x3dce14bf	0.10062551
23	0xbe999cfe	-0.30002588
24	0x3e8915d6	0.26774472
25	0xbda5d6ab	-0.08097585
26	0xbc91165d	-0.017710859
27	0xbd10ad2b	-0.035321396
28	0xbe4e17d2	-0.20126274
29	0xbe44f234	-0.19233018
30	0x3e56c1b6	0.20972332
31	0x3e57426b	0.2102143
32	0x3e2b680b	0.16738908
33	0x3e1af545	0.15132625
34	0xbdbc78a9	-0.092027016
35	0xbe4ae5b9	-0.19814195
36	0xbe2ed3a8	-0.17072928
37	0x3e388406	0.18019113
38	0x3e2c0e7e	0.16802403
39	0x3e2720b6	0.16321072
40	0xbe5da5ab	-0.21645229
41	0x3cf8ca55	0.030369917
42	0x3e4aeef6	0.19817719
43	0x3d9c8894	0.07643238
44	0x3de6f085	0.11276344
45	0xbe115546	-0.14192685
46	0xbd81df5a	-0.06341429
47	0xbddbe0b0	-0.10736215
48	0x3d428d12	0.047497816
49	0x3e1d4081	0.15356638
50	0xbe5cc64e	-0.21560022
51	0x3e0fd87f	0.1404743
52	0xbdd9f321	-0.10642076
53	0x3dda1491	0.10648454
54	0x3df4ff36	0.1196274
55	0xbdc39110	-0.09549153
56	0x3df08ce8	0.11745626
57	0x3e2f5ed6	0.17126021
58	0xbd9da7ce	-0.07698022
59	0x3ce9d281	0.028542759
60	0xbe6af862	-0.22946313
61	0x3d02fc07	0.031978633
62	0x3e07fa56	0.1327909
63	0x3d8bbb4a	0.06822832
64	0x3c7945b9	0.015214377
65	0x3cbdb608	0.023158088
66	0x3e9ca29a	0.30592805
67	0xbd55b88d	-0.052177954
68	0x3d8c9116	0.068636104
69	0xbe4d0fa4	-0.20025498
70	0xbe38ecb4	-0.18059045
71	0x3af99a88	0.0019043246
72	0x3d974c56	0.07387607
73	0xbe9b7653	-0.30363712
74	0x3eb16471	0.34646943
75	0x3db400e0	0.087892294
76	0xbdc40c1c	-0.09572622
77	0xbc27a1d8	-0.010231458
78	0xbe0ae215	-0.13562806
79	0xbdaa259c	-0.08307955
80	0x3dca3373	0.098730944
81	0x3e7b464b	0.24538533
82	0x3e35decf	0.17760776
83	0x3e242b66	0.1603218
84	0xbda955bc	-0.08268306
85	0xbd8852e2	-0.06656434
86	0xbcf342d5	-0.029694954
87	0x3d56928e	0.05238586
88	0x3cd419d2	0.025891218
89	0x3e69fbc6	0.2284995
90	0xbdd5abcb	-0.104331575
91	0x3dfeff67	0.12451058
92	0x3da7aafe	0.08186911
93	0xbd03f156	-0.032212578
94	0x3e08cc4d	0.13359185
95	0xbdc91cd0	-0.09819949
96	0xbc7951fb	-0.0152173
97	0xbe1bb976	-0.15207466
98	0x3d730b3a	0.05933688
99	0x3e406a6a	0.18790594
100	0xbe366d32	-0.17815092
101	0x3e8bf9c6	0.27339
102	0x3ed44f58	0.41466784
103	0xbe796ff0	-0.24359107
104	0x3df63c32	0.120232
105	0xbdae511e	-0.085115656
106	0xbd9271c3	-0.071506046
107	0xbe3947cf	-0.18093799
108	0x3c03eec2	0.00805253
109	0x3e85a076	0.26098984
110	0xbeac1ad0	-0.33614206
111	0xbe55befd	-0.20873637
112	0xbf0ab216	-0.5417799
113	0xbe3781a1	-0.17920543
114	0xbe7721e4	-0.24134022
115	0xbecd4eb7	-0.40099117
116	0x3e8adaf4	0.27120173
117	0x3ce6ab18	0.028157756
118	0xbea1eb42	-0.316248
119	0xbea3117e	-0.31849283
120	0xbeb3b42c	-0.35098398
121	0xbe7ea281	-0.24866678
122	0xbe0cd324	-0.13752419
123	0xbded9ffa	-0.11602779
124	0xbe5c586d	-0.21518107
125	0xbe9fb9fb	-0.3119658
126	0x3eaa94b0	0.33316565
127	0xbde18915	-0.110124744
128	0xbec2ee92	-0.3807264
129	0x3e9dc40e	0.3081364
130	0xbe39211b	-0.18079035
131	0x3e378699	0.17922439
132	0xbe7c5a24	-0.24643761
133	0xbe059e36	-0.13048634
134	0xbe8c8287	-0.27443334
135	0xbe0b2ca0	-0.13591242
136	0x3e889b7d	0.26681128
137	0xbe350612	-0.17678097
138	0xbe74fc05	-0.23924263
139	0x3dd34bcb	0.10317191
140	0x3dd6d4b8	0.10489792
141	0xbddcacb3	-0.10775127
142	0x3e3b494b	0.18289678
143	0xbec11f4d	-0.37719193
144	0xbe1e2b53	-0.15446214
145	0xbe88fa03	-0.26753244
146	0xbe57455a	-0.2102255
147	0xbe0397ce	-0.12850878
148	0xbdf75d6b	-0.12078365
149	0xbeb73873	-0.35785255
150	0xbe5408ab	-0.20706432
151	0x3eccb7ec	0.3998407
152	0x3ead489c	0.3384446
153	0xbb44b2ba	-0.0030013756
154	0x3e8ea19e	0.2785768
155	0x3da15d6f	0.07879149
156	0x3d3e53dd	0.046466697
157	0xbe697689	-0.22799124
158	0xbcf8290a	-0.030293006
159	0x3e8e8a37	0.27839825
160	0xbf293c0b	-0.66107243
161	0xbd942cc0	-0.07235098
162	0xbe4ef71e	-0.20211455
163	0xbda7f5e9	-0.082012005
164	0xbda40103	-0.080080055
165	0xbea7b5cc	-0.32755888
166	0x3eb5d927	0.35517237
167	0x3e63bb83	0.22239499
168	0xbe651e64	-0.22374874
169	0xbe60a9d3	-0.21939783
170	0xbeae3adf	-0.3402929
171	0xbd25b775	-0.04045816
172	0xbd88a1e3	-0.066715024
173	0x3c933697	0.017970366
174	0xbe3fa393	-0.18714742
175	0xbe5a792e	-0.21335289
176	0x3ef20509	0.47269467
177	0x3d749d0c	0.059720084
178	0xbe221581	-0.15828516
179	0x3ec81406	0.39077777
180	0xbd4efdd8	-0.050535053
181	0x3dbb2b14	0.09139076
182	0xbc858004	-0.016296394
183	0x3d57fcca	0.052731313
184	0xbe199307	-0.14997493
185	0xbcfda5b8	-0.03096281
186	0x3e2f9fe9	0.17150845
187	0x3c9c2835	0.019062141
188	0xbd71603f	-0.058929678
189	0x3e397143	0.18109612
190	0x3ba477e2	0.005019174
191	0x3dc87e0a	0.09789665
192	0x3da99990	0.08281243
193	0xbeb7251b	-0.35770497
194	0xbe0f2a50	-0.13980985
195	0xbe695975	-0.22788031
196	0x3c08cc0d	0.008349431
197	0xbdd44ae4	-0.10365847
198	0xbd1a0dac	-0.037610695
199	0xbe7174cc	-0.2357971
200	0xbde6714f	-0.11252081
201	0xbe16d836	-0.14730915
202	0x3da5020c	0.08057031
203	0x3cfa35a0	0.030543149
204	0xbdafbbf1	-0.08580769
205	0x3df5583f	0.11979722
206	0xbdcd268d	-0.100171186
207	0xbd7b48bd	-0.061348666
208	0x3dabc1f4	0.08386603
209	0x3d8941ad	0.0670198
210	0x3db4f549	0.08835847
211	0xbd8fbc38	-0.07018322
212	0xbd62b3a4	-0.0553471
213	0xbdd16368	-0.10224038
214	0xbddeb97d	-0.10875223
215	0xbe5ce5ef	-0.21572088
216	0xbdde9174	-0.10867587
217	0xbc2ec233	-0.010666418
218	0x3b6a03e0	0.0035707876
219	0x3db82593	0.08991542
220	0x3e3deb61	0.18546821
221	0x3c95bd99	0.018278884
222	0xbd1caf12	-0.038252898
223	0x3d3b61f0	0.045747697
224	0xbe0350a3	-0.12823729
225	0x3d7e2be3	0.062053572
226	0x3db44889	0.088028975
227	0x3de5038e	0.11182319
228	0x3e166ffb	0.14691155
229	0x3e2aadef	0.16667913
230	0xbe0e246b	-0.1388108
231	0xbe4c5281	-0.19953348
232	0x3c50dd89	0.012748131
233	0xbc815ffb	-0.015792837
234	0x3e232a02	0.15933993
235	0x3df25616	0.11832826
236	0x3e2159c3	0.15756898
237	0xbd2a89c8	-0.041635305
238	0xbdea95bf	-0.11454343
239	0xbd8a9e40	-0.06768465
240	0x3e229dc0	0.1588049
241	0x3db82dbf	0.089931004
242	0xbe1649e6	-0.14676628
243	0xbd4eb26b	-0.05046312
244	0xbc463217	-0.012096903
245	0x3daf425a	0.085575774
246	0x3ccaaaae	0.02473959
247	0xbd52280a	-0.051307715
248	0xbdcee956	-0.10103099
249	0xbe4fbc0e	-0.20286581
250	0xbd88071d	-0.06641982
251	0xbd66e934	-0.056374744
252	0x3dd5624b	0.104191385
253	0xbd9571f3	-0.07297125
254	0xbcf2ae4c	-0.029624127
255	0x3e1ff871	0.15622117

fc4.bias f4 [3]
0	0x3cbce7a7	0.02305968
1	0xbce53060	-0.027977169
2	0x3e235fa9	0.1595446
