experiments/experiment_9/checkpoint_3_9.pt (torch, 39119 bytes, 8 tensors)

conv1.bias f4 [50]
0	0x3dc8098e	0.097674474
1	0xbd8381a9	-0.06421215
2	0xbdd1b8d1	-0.10240329
3	0xbc9ec27a	-0.019379843
4	0xbcdc1986	-0.02686764
5	0xbdb969ee	-0.090534076
6	0x3db8a034	0.09014931
7	0xbcf92139	-0.03041135
8	0xbd82a5af	-0.06379258
9	0x3cc3afef	0.023887603
10	0x3d49dcc3	0.0492828
11	0xbcf4473f	-0.029819129
12	0x3c1efd6d	0.009703976
13	0xbd7c57c6	-0.061607145
14	0x3c147ddd	0.009063211
15	0xbdf212b1	-0.11819971
16	0x3d907673	0.070538424
17	0xbcfa9328	-0.030587748
18	0xbdb9ffef	-0.090820186
19	0x3e083d55	0.13304646
20	0x3e951633	0.291185
21	0x3db0ff66	0.086424634
22	0x3d5b0607	0.053472545
23	0x3d95f3a1	0.07321859
24	0x3e760589	0.24025549
25	0xbc0a2f4b	-0.008434127
26	0x3d00d654	0.0314544
27	0xbdde5629	-0.108562775
28	0x3d4f9f32	0.05068893
29	0xbd7ae7a0	-0.06125605
30	0xbe35a132	-0.17737272
31	0xbd843233	-0.06454887
32	0x3cab81f9	0.020936
33	0x3cc7bbff	0.024381636
34	0xbd635357	-0.0554994
35	0x3d17eb42	0.037089594
36	0x3d399798	0.045310587
37	0x3d00f058	0.03147921
38	0x3e112e8c	0.14177912
39	0xbe82349a	-0.25430757
40	0xbdb5ee5d	-0.08883355
41	0x3b9e3625	0.004828232
42	0x3d81c754	0.06336847
43	0x3e8cd429	0.27505615
44	0xbe43d6e6	-0.19124946
45	0x3cc9de96	0.02464227
46	0xbe5a4d36	-0.21318516
47	0xbd4986c2	-0.04920078
48	0x3d4bc05a	0.049743988
49	0xbc53bd8a	-0.012923608

conv1.lin.weight f4 [50, 116]
0	0x3deb5af8	0.1149196
1	0x3ebb38fa	0.36566907
2	0x3e4a9b9c	0.19785923
3	0xbeb4379c	-0.35198677
4	0x3e889c34	0.26681674
5	0xbe92f49f	-0.28702256
6	0xbdab4b09	-0.08363921
7	0xbe91a85b	-0.28448758
8	0xbf0b0571	-0.5430518
9	0x3e61998a	0.22031227
10	0x3eb8e21b	0.36110005
11	0x3e72b92d	0.23703451
12	0x3e6a0c3b	0.22856228
13	0x3da2557f	0.07926463
14	0x3ea53059	0.3226345
15	0x3cafdc7e	0.021467444
16	0x3c97125c	0.018441372
17	0xbdefe9f9	-0.117145486
18	0xbeabb43f	-0.33535954
19	0x3ea22c1d	0.3167428
20	0xbdf1ffca	-0.11816366
21	0x3e60cd62	0.21953347
22	0x3d21bbfb	0.039485913
23	0xbe8b985c	-0.27264678
24	0xbe4afb03	-0.19822316
25	0x3c43d06f	0.01195155
26	0xbdeaa088	-0.114564
27	0x3e232467	0.15931855
28	0x3e09d367	0.1345955
29	0x3d49f4c1	0.04930568
30	0xbb94c9d5	-0.004540662
31	0x3e9f1380	0.31069565
32	0xbe1011c7	-0.14069282
33	0x3e8575d2	0.26066452
34	0x3dd59e5d	0.10430596
35	0x3d17e531	0.03708381
36	0x3e187f76	0.14892372
37	0x3dddf705	0.10838131
38	0xbe49f876	-0.19723687
39	0x3e0df776	0.1386393
40	0xbe690041	-0.22754003
41	0x3df89bb6	0.121390745
42	0xbe780620	-0.24221087
43	0xbe6bece6	-0.23039588
44	0xbd13fbb5	-0.03612872
45	0x3c6409c6	0.013918346
46	0xbd9f1b7a	-0.077689126
47	0x3ec848af	0.39117953
48	0xbdde613e	-0.10858391
49	0x3e1ee12f	0.15515588
50	0xbd7b35cb	-0.061330598
51	0x3dd3f42d	0.10349307
52	0x3e40f538	0.18843544
53	0x3db94dc3	0.09048035
54	0x3ccbfd2b	0.024900993
55	0x3d032fbb	0.03202794
56	0xbd0d3a04	-0.034479156
57	0x3da00ee5	0.07815341
58	0xbdc85537	-0.097818784
59	0x3da603b6	0.081061766
60	0x3e94c4a3	0.29056272
61	0x3e109986	0.14121065
62	0xbd711d4c	-0.05886583
63	0xbe24324f	-0.16034816
64	0x3c300bb3	0.010744977
65	0x3e56d379	0.20979108
66	0xbe87c59b	-0.26517949
67	0xbde43f00	-0.11144829
68	0xbce14e0f	-0.027503042
69	0x3e4d5550	0.20052075
70	0xbae6fce1	-0.0017622971
71	0x3bca0cdf	0.006166085
72	0x3cb994a3	0.022653883
73	0xbe8f65b3	-0.28007278
74	0x3d99d873	0.075119875
75	0x3d2e9645	0.042623777
76	0x3e82e688	0.25566506
77	0xbe3a372a	-0.18185106
78	0x3e52ad11	0.20573832
79	0xbedf7a10	-0.43647814
80	0xbdfeb04e	-0.12435971
81	0x3d7b0f9f	0.061294194
82	0xbe3cedf5	-0.18450148
83	0x3bf2a24e	0.007404602
84	0xbebb7aa9	-0.3661702
85	0xbd93afce	-0.072112665
86	0x3dcfbc87	0.101433806
87	0x3db0d5e8	0.086345494
88	0x3e48a8d2	0.1959565
89	0xbd184807	-0.037178066
90	0xbebe16a1	-0.3712664
91	0x3b7382f8	0.003715692
92	0x3e93631f	0.2878656
93	0xbc7e5014	-0.015522022
94	0x3d9d8304	0.07691005
95	0x3e5b3a90	0.21409059
96	0xbc511385	-0.0127610015
97	0x3e1aecd3	0.15129404
98	0x3e957840	0.29193306
99	0x3c825d0d	0.01591351
100	0x3df234b3	0.11826458
101	0x3ea81562	0.32828814
102	0xbc84b670	-0.016200274
103	0x3c4cecb4	0.012507606
104	0xbd86bf77	-0.06579488
105	0xbb8993c6	-0.004198524
106	0xbd3561f0	-0.044282854
107	0x3e5ac2bb	0.21363346
108	0xbc3e663d	-0.011621055
109	0x3ead64e2	0.3386603
110	0x3c8777c3	0.016536599
111	0xbd389fc3	-0.045074236
112	0x3e04eef7	0.12981783
113	0x3ea4fd5b	0.32224545
114	0x3e734410	0.23756433
115	0x3d13a2fd	0.03604411
116	0x3dccfec8	0.10009533
117	0xbc3b7f4b	-0.011443923
118	0xbbb4e89e	-0.005520894
119	0x3e39a0d0	0.18127751
120	0x3da7e562	0.08198048
121	0xbd433442	-0.04765726
122	0x3d9652b4	0.07339993
123	0x3e10f7cc	0.14157027
124	0xbd88fcaa	-0.06688817
125	0xbea628e3	-0.3245307
126	0xbe704c39	-0.23466577
127	0xbde14dda	-0.11001177
128	0xbecdf2a4	-0.40224183
129	0xbe4c665c	-0.19960922
130	0x3ddf8926	0.10914831
131	0xbd47feae	-0.048826866
132	0xbb2389b1	-0.0024953897
133	0x3e3b9fe3	0.1832271
134	0x3d8f344c	0.06992397
135	0x3c8a20fd	0.016861433
136	0x3d91ebf7	0.07125085
137	0x3e0933cf	0.1339867
138	0x3e07a550	0.13246655
139	0x3cfee783	0.031116253
140	0xbe061781	-0.13094904
141	0x3d33e4d0	0.043919384
142	0xbe2904e3	-0.1650577
143	0xbe832f9d	-0.25622264
144	0xba084199	-0.0005197763
145	0x3c512035	0.012764026
146	0x3d95d80a	0.07316597
147	0x3d4f4422	0.050602086
148	0xbb8559a8	-0.0040695257
149	0x3e0b5e1e	0.13610122
150	0x3e401a5b	0.18760054
151	0xbe2b7646	-0.16744336
152	0x3e243f6e	0.16039822
153	0xbe2ff027	-0.17181455
154	0xbded529c	-0.11588022
155	0x3ed04843	0.4068013
156	0x3e78c37e	0.24293324
157	0xbdac53ce	-0.08414422
158	0x3e23f38c	0.16010875
159	0x3d344624	0.044012204
160	0xbedc93d0	-0.43081522
161	0x3df8d0d9	0.121492095
162	0xbea04167	-0.31299898
163	0xbca15cdb	-0.019697597
164	0x3ee82015	0.45336977
165	0xbcddfa52	-0.027096901
166	0xbdf5fec2	-0.12011482
167	0x3d75d30a	0.060015716
168	0x3e2bdb22	0.16782811
169	0xbe7237ad	-0.23654051
170	0xbdb57664	-0.08860472
171	0x3e3f8176	0.18701729
172	0x3c655df5	0.013999452
173	0xbdc7ec5a	-0.09761877
174	0x3e6d9eed	0.23205157
175	0x3e3e8a25	0.18607385
176	0xbe843b67	-0.2582657
177	0xbea7b83e	-0.32757753
178	0x3e4129f8	0.18863666
179	0x3eac7296	0.33681172
180	0x3e4788b9	0.1948575
181	0x3e1c9192	0.15289906
182	0x3e0503d0	0.12989736
183	0xbe0d8ca3	-0.1382318
184	0xbd84f533	-0.064920805
185	0xbe83166b	-0.2560304
186	0x3daafaea	0.08348639
187	0x3e45074d	0.19241066
188	0xbdc5e390	-0.09662545
189	0xbd43a7c6	-0.047767423
190	0xbd690a81	-0.056894783
191	0x3d0ad767	0.03389683
192	0xbe507dae	-0.20360443
193	0xbd8b1a75	-0.06792156
194	0x3ebb1b18	0.36544108
195	0xbc45c638	-0.012071185
196	0x3e71f4fb	0.23628609
197	0xbe986ee3	-0.297721
198	0xbe30ab92	-0.17252949
199	0xbe173071	-0.14764573
200	0x3d781209	0.060564075
201	0xbe268db4	-0.16264993
202	0xbe0d8d3f	-0.13823412
203	0xbe3f6ef1	-0.18694665
204	0xbe7ff117	-0.24994312
205	0x3dac7046	0.08419852
206	0x3e26a0cb	0.16272275
207	0x3eb32e20	0.34996128
208	0xbd4778e7	-0.048699286
209	0xbea61559	-0.32438162
210	0x3e00cab1	0.1257732
211	0xbd28a594	-0.041173533
212	0x3e8a8eb1	0.2706199
213	0x3dd5fa09	0.10448081
214	0xbe80c817	-0.25152656
215	0xbe55248d	-0.20814724
216	0xbe582a8c	-0.2110998
217	0x3c75d543	0.015004459
218	0xbe12b275	-0.14325888
219	0x3db842d3	0.08997121
220	0xbe5bbfc2	-0.21459869
221	0x3c548b07	0.0129726
222	0x3eac8034	0.3369156
223	0xbd85119e	-0.06497501
224	0xbd3e8f81	-0.046523575
225	0x3caf31ad	0.021385992
226	0xbd113f07	-0.0354605
227	0x3e6b72f9	0.22993077
228	0x3e26aeaa	0.16277567
229	0xbec6b926	-0.38813132
230	0x3e5aef2c	0.213803
231	0xbe23c787	-0.15994082
232	0x3e02cce0	0.12773466
233	0x3c759c77	0.014990917
234	0xbdc4237c	-0.095770806
235	0x3dd2d9c7	0.10295444
236	0xbcd52da1	-0.026022734
237	0x3e2d4a58	0.16922891
238	0xbe3604b5	-0.17775233
239	0x3dc97eae	0.09838615
240	0x3e1ef944	0.15524775
241	0xbe99759b	-0.29972538
242	0x3d8699f7	0.06572335
243	0x3ddbd283	0.10733511
244	0x3dc392a4	0.09549454
245	0xbe59b807	-0.21261607
246	0xbe593f01	-0.2121544
247	0x3def68d4	0.11689916
248	0x3e0f212f	0.13977502
249	0x3eb0c1f9	0.3452299
250	0x3d3ca701	0.046057705
251	0xbd11a2c7	-0.035555627
252	0x3de0176f	0.109419696
253	0x3e6f76ce	0.23385164
254	0x3dbab452	0.091164246
255	0xbd628f0d	-0.055312205

conv2.bias f4 [50]
0	0x3e88b227	0.2669842
1	0x3ea8ddf2	0.3298183
2	0x3ee92da2	0.45542628
3	0xbe1dd7d8	-0.15414369
4	0x3ec27a61	0.37983993
5	0x3e2ed896	0.17074808
6	0x3e38ce83	0.18047528
7	0x3e173bd6	0.1476892
8	0x3df38758	0.11891049
9	0x3decf762	0.11570622
10	0x3efc1eb3	0.49242172
11	0x3e619c90	0.2203238
12	0x3de96f82	0.113982216
13	0xbd3ce3e5	-0.046115775
14	0x3e7a9f8a	0.24474922
15	0x3e000be0	0.1250453
16	0x3e31cd5e	0.17363498
17	0xbca12cc2	-0.019674663
18	0x3ed0fbda	0.40817147
19	0x3de40aff	0.1113491
20	0xbc0a750a	-0.008450756
21	0xbd20b74e	-0.039237313
22	0xbca4b733	-0.020106887
23	0x3e13ad67	0.14421616
24	0x3ea14865	0.31500545
25	0xbd73d341	-0.05952764
26	0x3e0d1fae	0.13781616
27	0x3c06a475	0.008217921
28	0x3e6499ac	0.22324246
29	0x3e03fc2c	0.12889165
30	0x3e68a962	0.22720864
31	0x3db21969	0.08696253
32	0x3db8462f	0.089977615
33	0x3ed0b163	0.40760335
34	0x3e394b01	0.18095018
35	0xbd8a3da9	-0.06750042
36	0x3e89fe4a	0.2695182
37	0x3e067fe7	0.13134728
38	0x3e66aedb	0.2252764
39	0x3e2cc159	0.16870631
40	0x3e4210a2	0.18951657
41	0x3ecfe045	0.40600792
42	0xbe07a0b5	-0.13244899
43	0x3ea09207	0.3136141
44	0x3d882221	0.066471346
45	0x3eb78019	0.35839918
46	0x3d258928	0.040414006
47	0x3d8d17d9	0.06889314
48	0x3db753db	0.08951541
49	0x3e6227d9	0.22085513

conv2.lin.weight f4 [50, 50]
0	0x3dda7ced	0.10668359
1	0x3d3565b2	0.044286437
2	0xbdd3e499	-0.10346336
3	0xbd2a9b41	-0.041651968
4	0xbd73eaa7	-0.059549954
5	0x3ea11180	0.31458664
6	0x3d5ad5da	0.0534266
7	0xbdb137d7	-0.08653229
8	0x3d3a0ef3	0.045424413
9	0x3ce516b7	0.027964933
10	0x3e4058b9	0.18783845
11	0x3d8e48d5	0.06947485
12	0xbe391569	-0.18074574
13	0x3e1b795a	0.1518301
14	0x3e82fe22	0.25584513
15	0x3dc7a2e8	0.09747869
16	0x3cbfc9f1	0.023411723
17	0xbdc307cd	-0.09522972
18	0xbceaf681	-0.028681995
19	0x3e3dc380	0.18531609
20	0x3d7c1365	0.061541934
21	0x3d30ac62	0.043133147
22	0xbe1828fb	-0.14859383
23	0x3db804c9	0.08985288
24	0x3d72924d	0.059221555
25	0x3e003dcd	0.12523575
26	0xbd5c31ce	-0.053758435
27	0xbd63000a	-0.05541996
28	0x3e30d805	0.17269905
29	0x3e78ac6b	0.24284522
30	0xbdcea830	-0.10090673
31	0xbeaa29d6	-0.33235043
32	0x3e00821f	0.12549637
33	0xbd924ba1	-0.07143331
34	0xbe1ae983	-0.1512814
35	0xbc0c59d9	-0.008566343
36	0xbe56d262	-0.20978692
37	0xbe43e056	-0.19128546
38	0x3e45c327	0.19312726
39	0xbdbb2c5e	-0.09139322
40	0xbe233fbb	-0.1594228
41	0x3dd2cbc1	0.10292769
42	0xbe1a87a0	-0.150908
43	0xbd50a42b	-0.050937813
44	0x3dd66f64	0.10470465
45	0x3dd3b4a4	0.10337189
46	0xbe9bb559	-0.30411795
47	0xbe9b08bd	-0.30280104
48	0x3d4b3c53	0.049618077
49	0xbd00f5ae	-0.0314843
50	0x3e7b98f0	0.2457006
51	0xbdebb250	-0.1150862
52	0xbea7a979	-0.32746485
53	0xbdd1b121	-0.10238863
54	0x39cc9cdd	0.00039026784
55	0xbdfffa36	-0.12498896
56	0xbe1688e0	-0.14700651
57	0x3e9b1e96	0.30296773
58	0xbdf5d714	-0.120039135
59	0x3d8e4587	0.06946855
60	0x3c8b9329	0.017037945
61	0xbeea0dff	-0.45713803
62	0x3e2f4409	0.17115797
63	0xbeecb35c	-0.4623059
64	0xbd875627	-0.06608229
65	0xbe14c77f	-0.14529227
66	0x3eb66f72	0.356319
67	0x3db1b4c2	0.08677055
68	0xbec5da93	-0.3864332
69	0xbcf1e4bf	-0.02952802
70	0x3e762972	0.24039248
71	0x3e1164f2	0.14198664
72	0xbdb301f5	-0.08740608
73	0xbe819bf6	-0.253143
74	0x3e1d7d49	0.15379824
75	0x3e112e91	0.1417792
76	0xbd8eab2c	-0.06966242
77	0xbed8f354	-0.42373145
78	0xbdaab8d1	-0.08336032
79	0xbe926b0d	-0.28597298
80	0xbe0eb4ab	-0.13936107
81	0x3e59e34d	0.21278115
82	0xbd37ebec	-0.044902727
83	0x3ac9029b	0.001533586
84	0xbef0a2ca	-0.46999198
85	0x3ed5b639	0.41740587
86	0x3e1094f1	0.14119317
87	0x3e0535dd	0.13008828
88	0x3d850686	0.06495385
89	0xbee4d106	-0.44690722
90	0xbeb92bec	-0.36166322
91	0xbeb48cac	-0.35263574
92	0x3e4a791c	0.19772762
93	0x3f21db04	0.63224816
94	0xbeb24e5b	-0.34825405
95	0x3e7c5527	0.24641858
96	0xbe863bf9	-0.2621763
97	0xbda86c35	-0.08223764
98	0x3f0785d5	0.52938586
99	0x3e3f300d	0.18670674
100	0x3e821003	0.2540284
101	0x3e95f2da	0.29286844
102	0xbe30196a	-0.17197195
103	0xbe8c6606	-0.27421588
104	0x3bd7cb45	0.006585511
105	0xbdfd621d	-0.12372229
106	0xbe7b4437	-0.2453774
107	0xbd99074a	-0.074720934
108	0xbe7273c0	-0.23676968
109	0x3e1e98c8	0.15487969
110	0x3ec65b95	0.38741747
111	0xbdd2ae43	-0.10287144
112	0xbe80b5d0	-0.25138712
113	0xbe19cc3d	-0.15019317
114	0x3dc30e25	0.09524182
115	0xbe2ae32f	-0.16688226
116	0x3dc1dd44	0.09466031
117	0xbc8257f3	-0.015911078
118	0xbcb7c65c	-0.022433452
119	0x3ec553b6	0.3854043
120	0xbe82186a	-0.2540925
121	0x3e72ace7	0.2369877
122	0x3e112093	0.14172582
123	0xbe295dd6	-0.16539702
124	0x3ec710f2	0.38880116
125	0xbd14d70d	-0.0363379
126	0xbd07deed	-0.033171583
127	0x3da03749	0.07823045
128	0x3e9776cb	0.2958282
129	0xbe1ef8d0	-0.15524602
130	0xbec7cd38	-0.39023757
131	0xbecec868	-0.40387273
132	0x3e9111e4	0.28333962
133	0x3e1596fc	0.14608377
134	0xbec6fd56	-0.38865155
135	0x3de400ea	0.11132987
136	0x3dba0f1f	0.09084915
137	0xbeaddd30	-0.33957815
138	0x3def326e	0.116795406
139	0xbe109056	-0.1411756
140	0xbe1aa73d	-0.15102859
141	0x3e1a2556	0.15053305
142	0xbcd05fa8	-0.025436237
143	0x3e633ac1	0.22190382
144	0x3cdd244e	0.02699485
145	0x3ebe1501	0.371254
146	0xbe2a4e5f	-0.16631459
147	0x3daa4f71	0.083159335
148	0x3e18638c	0.14881724
149	0x3eb2dc12	0.34933525
150	0x3df14e5c	0.11782524
151	0xbdd01182	-0.10159589
152	0x3e1c2f38	0.15252388
153	0xbd8da80e	-0.069168195
154	0xbe067cd8	-0.13133562
155	0x3e1b7b6c	0.151838
156	0xbe013696	-0.12618479
157	0x3e768fab	0.24078242
158	0xbd42df6a	-0.047576346
159	0x3ebf26b7	0.37334225
160	0x3e6190b6	0.22027859
161	0xbe28526a	-0.16437688
162	0x3e35db7a	0.17759505
163	0xbe4d0f5d	-0.20025392
164	0x3d158e18	0.036512464
165	0x3e60da5d	0.21958299
166	0x3bc13df2	0.005897277
167	0x3e3a0882	0.18167308
168	0x3db50e7b	0.088406526
169	0xbd5585e4	-0.05212964
170	0x3e1dee78	0.15423
171	0x3e2a6ac8	0.16642296
172	0x3e255783	0.16146664
173	0xbe58422b	-0.21118991
174	0xbe95d792	-0.2926603
175	0xbd09ccda	-0.033642627
176	0xbc650c94	-0.01398005
177	0xbd8c7e22	-0.068599954
178	0x3eaa3ba1	0.33248618
179	0x3bdefc3b	0.0068049706
180	0xbe14126d	-0.14460154
181	0x3e380282	0.17969707
182	0x3ef0db4b	0.47042307
183	0x3dc2d84f	0.09513914
184	0x3e21de63	0.1580749
185	0x3d95ea7a	0.073201135
186	0x3da77ae6	0.08177738
187	0x3b1395d3	0.0022519722
188	0xbe119acf	-0.14219211
189	0xbaccdda5	-0.001563002
190	0x3dea09af	0.11427628
191	0xbd4f0fd8	-0.05055222
192	0xba8d448f	-0.0010777878
193	0xbe2446ab	-0.16042583
194	0x3e6b9555	0.23006184
195	0x3e9e0f54	0.3087107
196	0xbe130164	-0.14355999
197	0x3d50c840	0.050972223
198	0x3e653be7	0.22386132
199	0x3e0e6909	0.13907255
200	0x3e84b94c	0.2592262
201	0x3e6c6777	0.23086344
202	0xbe4bcb9a	-0.19901887
203	0xbef4198f	-0.4767575
204	0x3bb6d538	0.005579617
205	0xbe32877c	-0.17434496
206	0xbdfd2550	-0.123606324
207	0x3e94f463	0.29092702
208	0x3d8610f4	0.06546202
209	0xbd5718c0	-0.052513838
210	0x3ca2ace1	0.019857826
211	0x3e1ce3d7	0.15321289
212	0xbe030e0f	-0.12798332
213	0xbe0088de	-0.1255221
214	0x3d9ee3ad	0.077582695
215	0xbeb1cdf2	-0.34727436
216	0x3e6cc520	0.23122072
217	0xbc6eb2e2	-0.014569016
218	0x3ec6b140	0.38807106
219	0x3ef37765	0.47552028
220	0xbe02b999	-0.12766112
221	0x3de2b7ec	0.110702366
222	0x3dfea9e2	0.12434746
223	0x3e2cd1f0	0.1687696
224	0x3ed1fdbc	0.41013896
225	0xbd49b1a3	-0.049241673
226	0x3e43408e	0.19067594
227	0xbc97d8b9	-0.018535959
228	0x3e8b59d2	0.27216965
229	0xbea6f2e7	-0.32607195
230	0xbe836216	-0.2566077
231	0xbe237f74	-0.15966588
232	0x3edaa444	0.4270345
233	0x3ce40647	0.027835025
234	0xbe93a2bb	-0.2883509
235	0x3d9d3e94	0.076779515
236	0x3e15abfa	0.14616385
237	0xbd306170	-0.043061674
238	0x3deb536f	0.11490523
239	0xbdef974c	-0.116987795
240	0x3c4bb67b	0.012433643
241	0x3d28a084	0.041168705
242	0x3d8a8b84	0.06764892
243	0x3e3024ba	0.1720151
244	0x3d776d27	0.06040683
245	0x3e80becc	0.25145566
246	0xbe43a8b8	-0.1910733
247	0xbd2457d6	-0.04012283
248	0x3cc78a29	0.024357872
249	0x3ebb04dc	0.36527145
250	0xbdaafde6	-0.083492085
251	0xbc4517b5	-0.012029578
252	0xbdeef64c	-0.11668071
253	0xbcfd5ebe	-0.030928966
254	0x3ea961c8	0.33082414
255	0x3d46a71c	0.04849921

pool1.weight f4 [1, 50]
0	0x3dff2c6e	0.12459646
1	0xbdb2c648	-0.087292254
2	0xbd986bb4	-0.07442418
3	0xbb90735b	-0.0044082827
4	0xbda9186f	-0.082566135
5	0x3c24298c	0.010019671
6	0x3e1b8d33	0.15190582
7	0x3caa8034	0.020813085
8	0xbd6f389d	-0.0584036
9	0x3e160c34	0.14653093
10	0x3d3d9a64	0.046289816
11	0xbe0c9e74	-0.1373232
12	0xbda1131a	-0.078649715
13	0xbdfe92cc	-0.12430343
14	0xbc02eb08	-0.007990606
15	0xbde64727	-0.1124404
16	0x3d819ad0	0.06328356
17	0xbb692239	-0.0035573377
18	0xbd44cbb3	-0.048045825
19	0x3df0af65	0.11752204
20	0x3e12c117	0.1433147
21	0x3dd83f6b	0.10558971
22	0x3d9db366	0.07700233
23	0x3e5143f4	0.20436078
24	0x3e289553	0.16463213
25	0xbdd4b61f	-0.10386299
26	0x3d87d3f3	0.06632223
27	0xbdccf938	-0.10008472
28	0x3d69634f	0.056979474
29	0xbdaff4aa	-0.08591588
30	0xbdd2d1a4	-0.10293892
31	0xbdb4c6ad	-0.08826957
32	0xba670d4c	-0.0008813932
33	0x3d7325bf	0.05936217
34	0xbde90ae2	-0.11379029
35	0x3c83e8f3	0.01610229
36	0x3db9e173	0.09076204
37	0x3d78d9ce	0.06075459
38	0x3c69a363	0.014260146
39	0xbded05d4	-0.11573377
40	0xbe1c6c3f	-0.15275668
41	0xbd615b72	-0.05501885
42	0x3dcb1cd9	0.09917612
43	0x3e0fe652	0.14052704
44	0xbe2653ab	-0.16242854
45	0x3d5d70a6	0.054062508
46	0xbe043358	-0.12910211
47	0xbe08a0b8	-0.1334256
48	0x3e097486	0.13423356
49	0xbcbb9b67	-0.02290125

pool2.weight f4 [1, 50]
0	0xbd41f8df	-0.047356483
1	0x3cf105f0	0.029421777
2	0xbc1ff8dc	-0.009763923
3	0x3e12dd74	0.1434229
4	0xbbe714a1	-0.0070520197
5	0xbe67b633	-0.22628097
6	0x3ce414ff	0.027842043
7	0x3dbb0d69	0.09133417
8	0xbe0553f0	-0.13020301
9	0xbde0b5b8	-0.1097216
10	0xbd1abbeb	-0.03777687
11	0x3d0a78e9	0.033806715
12	0xbe166619	-0.14687385
13	0x3e191285	0.14948471
14	0xbe0dce28	-0.13848174
15	0xbe4dd85f	-0.2010207
16	0xbd42c694	-0.04755266
17	0x3e4e46c0	0.20144176
18	0xbe0ed265	-0.13947447
19	0xbe248f63	-0.16070323
20	0x3dd07acc	0.10179672
21	0x3df047d4	0.1173245
22	0x3e2a3054	0.16619998
23	0xbe45e246	-0.19324598
24	0xbd811aec	-0.06303963
25	0x3e2c32ad	0.16816206
26	0xbe4bc7ed	-0.19900484
27	0x3db3781f	0.08763146
28	0xbcb9111f	-0.022591172
29	0x3d2382d4	0.03991969
30	0xbca53d90	-0.020170957
31	0x3d674beb	0.056468885
32	0xbe417361	-0.1889167
33	0xbdc74246	-0.097294375
34	0xbe1a259d	-0.15053411
35	0x3e327127	0.17425977
36	0xbd9d3f29	-0.076780625
37	0x3d05514d	0.032548238
38	0x3bcad417	0.006189834
39	0xbe56f31d	-0.20991178
40	0xbd2096df	-0.039206382
41	0xbcc19dd0	-0.023634821
42	0x3e1aab97	0.15104519
43	0xbd31fbbd	-0.043452967
44	0xbe22a3fa	-0.15882865
45	0xbdf08001	-0.11743165
46	0x3d8dcee5	0.069242276
47	0x3dd70c94	0.10500446
48	0x3d1f9d24	0.03896822
49	0xbe1c3f87	-0.15258609

fc4.weight f4 [3, 200]
0	0x3ed5e425	0.41775623
1	0xbe8d8b4b	-0.27645335
2	0x3ed40b67	0.4141495
3	0x3eef9ef1	0.4680095
4	0x3ed144da	0.40872842
5	0x3eadd4e1	0.33951476
6	0x3ef0f123	0.47058973
7	0xbe05e96b	-0.13077323
8	0xbd07e9f6	-0.033182107
9	0xbdefb2e0	-0.117040396
10	0x3cba4660	0.022738636
11	0x3e2bfac6	0.16794881
12	0xbf0a80da	-0.5410286
13	0x3e56157b	0.20906632
14	0x3ee8e96f	0.45490596
15	0x3e85de4e	0.26146168
16	0xbefff1d8	-0.499892
17	0x3e4963e0	0.19667006
18	0x3b856cf2	0.004071825
19	0x3edfd070	0.43713713
20	0xbef1935e	-0.47182745
21	0x3cbabc8e	0.022794988
22	0xbd55e92b	-0.05222432
23	0x3ef0005b	0.4687527
24	0x3ee57040	0.44812202
25	0x3d81c53a	0.06336446
26	0x3e280bd0	0.16410756
27	0xbdc28be5	-0.09499339
28	0x3b3a4ba1	0.0028426426
29	0x3c6322ff	0.013863324
30	0x3e9085cd	0.28227082
31	0xbea158b5	-0.3151299
32	0xbea4f4ba	-0.32217962
33	0x3e9514ed	0.29117528
34	0x3e407e14	0.18798095
35	0xbd84b82a	-0.06480439
36	0x3d4ea6cc	0.05045204
37	0xbf1439b0	-0.57900524
38	0xbf008e5a	-0.5021721
39	0x37aa4971	2.0299778e-05
40	0x3e42b3c9	0.19013895
41	0xbe9fcac2	-0.3120938
42	0xbe1acdeb	-0.15117614
43	0xbe948737	-0.2900941
44	0x3ce60dd2	0.028082762
45	0xbd913d7b	-0.070918046
46	0x3e8323f6	0.25613374
47	0xbc82aefb	-0.015952578
48	0xbeea028c	-0.45705068
49	0xb8d602e4	-0.000102048536
50	0x3ed1dce7	0.40988848
51	0xbefe253b	-0.4963778
52	0x3e14a190	0.14514756
53	0x3ee3a383	0.44460687
54	0x3e1e0f43	0.1543551
55	0x3e152a96	0.14567026
56	0x3f1518f6	0.5824121
57	0x3b8ee7c4	0.0043611247
58	0x3df34108	0.11877638
59	0xbd25fe3f	-0.04052567
60	0xbe97b446	-0.29629725
61	0xbeaab2f9	-0.3333967
62	0xbed9d261	-0.4254332
63	0xbe247678	-0.16060817
64	0x3e8a8723	0.27056226
65	0xbe4ab40c	-0.19795245
66	0xbf0572b6	-0.5212816
67	0xbcab4ead	-0.020911539
68	0x3e22f38f	0.15913223
69	0x3ef25177	0.47327778
70	0xbe84fff6	-0.25976533
71	0x3d176cff	0.03696918
72	0xbd6a2a01	-0.057168964
73	0x3f0334f7	0.5125269
74	0x3eca3f29	0.39501312
75	0x3cc25f10	0.02372697
76	0xbcc00c6f	-0.023443429
77	0xbdec6422	-0.11542536
78	0xbd8728f2	-0.065996066
79	0x3ddbfd08	0.10741621
80	0xbd08b63d	-0.03337692
81	0x3945e836	0.0001887389
82	0xbee1545f	-0.44009683
83	0x3e73b94d	0.23801155
84	0xbd4a641a	-0.04941187
85	0x3e0e1c09	0.13877882
86	0x3d43b30b	0.04777817
87	0xbe872c17	-0.26400825
88	0xbeee977f	-0.46599957
89	0xbd843b23	-0.06456592
90	0xbe21f72b	-0.15816943
91	0xbe88ccdb	-0.26718792
92	0x3d8c1805	0.06840519
93	0xbe5b9d53	-0.21446733
94	0xbc189f1f	-0.009315281
95	0x3d5d3060	0.054001212
96	0x3e784f9d	0.2424912
97	0xbed7dc9f	-0.42160508
98	0xbec7a790	-0.38995028
99	0xbd2ace7c	-0.041700825
100	0xbe7aa8c4	-0.24478441
101	0xbf097314	-0.5369122
102	0xbf0441a9	-0.5166269
103	0xbb835a28	-0.00400855
104	0xbf157538	-0.58381987
105	0xbe57d623	-0.2107778
106	0xbecd639d	-0.4011506
107	0xbebc4b84	-0.36776364
108	0xbe8bb6e8	-0.27287984
109	0x3d2ae89a	0.041725732
110	0xbf272c72	-0.65302193
111	0xbedc3918	-0.4301231
112	0x3b6631a3	0.00351248
113	0xbde3272c	-0.11091456
114	0xbf22e9e4	-0.6363814
115	0x3de1100e	0.1098939
116	0xbde50715	-0.111829914
117	0xbe8831a7	-0.26600382
118	0xbf034d79	-0.5129009
119	0xbd3f6b0d	-0.04673295
120	0xbddc41f5	-0.10754768
121	0xbe3ec93c	-0.18631452
122	0xbe3aba86	-0.18235216
123	0xbe5935f9	-0.21211995
124	0xbea7719e	-0.3270387
125	0xbd4f50f9	-0.05061433
126	0x3ddae4c2	0.10688163
127	0xbdd89189	-0.10574634
128	0xbe4c02a4	-0.19922882
129	0xbe80aba5	-0.25130954
130	0xbe85a3b8	-0.2610147
131	0xbe34caf1	-0.17655541
132	0xbe35406a	-0.17700353
133	0xbf342850	-0.7037401
134	0xbe29b917	-0.16574512
135	0xbe0b29a3	-0.13590102
136	0xbe83d821	-0.2575083
137	0xbea073c6	-0.31338328
138	0xbe8c4fdd	-0.2740468
139	0xbd89cb3f	-0.06728219
140	0xbe00cd8f	-0.12578414
141	0xbeeead3b	-0.4661654
142	0xbe8c86c4	-0.27446568
143	0xbece55e2	-0.40299898
144	0x3dab8fe0	0.08377051
145	0xbeb1f448	-0.34756684
146	0xbe4eaf90	-0.2018416
147	0xbe7c9036	-0.24664387
148	0xbe9272e3	-0.28603277
149	0xbea939f2	-0.3305202
150	0xbe2d4a20	-0.16922808
151	0xbea793f1	-0.32730058
152	0xbe0c50d8	-0.13702714
153	0x3e0dbe66	0.13842162
154	0xbe397d3e	-0.18114182
155	0xbd2b032d	-0.041751076
156	0xbde23f6e	-0.110472545
157	0xbe3db742	-0.18526939
158	0xbe24f48e	-0.16108915
159	0xbd8290ac	-0.0637525
160	0xbe192531	-0.14955594
161	0xbe1490b4	-0.14508325
162	0x3c77a89c	0.015115883
163	0x3e3d8aa5	0.1850992
164	0xbe0ff812	-0.14059475
165	0xbdd63382	-0.10459043
166	0xbe1ef116	-0.15521654
167	0xbe340078	-0.17578304
168	0x3d1984d4	0.03748019
169	0xbdcbdf18	-0.09954661
170	0xbdf706bd	-0.12061832
171	0xbd35f47d	-0.044422615
172	0xbd95812d	-0.07300029
173	0xbccd757f	-0.02508044
174	0xbdf46720	-0.11933732
175	0x3e79c2bb	0.2439069
176	0x3d129398	0.035785288
177	0xbd48d3c4	-0.04903008
178	0xbd59131b	-0.052996736
179	0xbe90180c	-0.28143346
180	0xbe37a046	-0.17932233
181	0xbe5e9320	-0.21735811
182	0xbda007b1	-0.07813967
183	0xbd9827a9	-0.074294396
184	0xbd95c871	-0.07313622
185	0x3d05723a	0.032579638
186	0xbe474e34	-0.19463426
187	0xbddd9054	-0.10818544
188	0xbdf1d50e	-0.11808215
189	0xbbed4aab	-0.007241567
190	0xbdae4ea3	-0.085110925
191	0xbe408a14	-0.18802673
192	0xbd4c1da0	-0.04983294
193	0xbd9337a7	-0.07188349
194	0xbdcc54c4	-0.09977105
195	0xbdcb0254	-0.099125534
196	0xbcdad3ad	-0.026712263
197	0xbe0437e4	-0.12911946
198	0xbdbd4957	-0.09242504
199	0xbd0b56e8	-0.034018427
200	0xbe2ba390	-0.16761613
201	0x3ebd5d5b	0.36985287
202	0xbd80de89	-0.06292445
203	0xbe355b8b	-0.17710702
204	0xbdadbc65	-0.08483199
205	0xbd8199a7	-0.06328135
206	0xbe9d8dde	-0.307723
207	0x3e1e93d6	0.15486082
208	0x3e7010a1	0.23443843
209	0x3e4cb6a7	0.19991551
210	0xbd18205f	-0.037140246
211	0xbdab194b	-0.083544336
212	0xbe892f47	-0.26793882
213	0xbc7bec15	-0.015376111
214	0xbe6906b0	-0.22756457
215	0xbc5ba040	-0.013404906
216	0x3e43777c	0.19088548
217	0xba42251d	-0.0007406043
218	0x3cb278e2	0.021786157
219	0xbe92e1b9	-0.28687838
220	0xbece8130	-0.40332937
221	0xbe405d2d	-0.18785544
222	0x3dfbbf5a	0.12292357
223	0xbe8a2d94	-0.26987898
224	0xbec26087	-0.3796427
225	0xbe0b7a3a	-0.13620844
226	0x3dad49cd	0.08461342
227	0x3d767dea	0.060178675
228	0x3e08a607	0.13344584
229	0x3e3d34ee	0.18477222
230	0xbe2b8fb3	-0.16754036
231	0xbdcb72ce	-0.09934007
232	0x3b6996ae	0.003564279
233	0xbdad71e0	-0.084689856
234	0xbd6fa5c1	-0.058507685
235	0x3d9d8c57	0.07692783
236	0xbe093986	-0.1340085
237	0xbe6f955b	-0.23396818
238	0xbdb9198a	-0.09038074
239	0xbd8f1ead	-0.06988273
240	0xbdd9291b	-0.10603543
241	0x3e99339b	0.29922184
242	0x3de0704a	0.109589174
243	0xbc7de57e	-0.01549661
244	0x3da2c137	0.07947009
245	0x3e6aec53	0.22941713
246	0xba258131	-0.00063135015
247	0x3ccc72d8	0.024957106
248	0x3cc4ffe8	0.024047807
249	0x3dd312b8	0.10306305
250	0xbe649134	-0.22321016
251	0x3edc32a3	0.43007383
252	0x3e00f99d	0.1259522
253	0xbc9a0935	-0.018803218
254	0x3e5b00b3	0.21386985
255	0x3e39b302	0.18134692

fc4.bias f4 [3]
0	0xbd960b69	-0.07326395
1	0xbd3668fe	-0.044533722
2	0x3e356c53	0.17717104
