experiments/experiment_6/best_model_2_6.pt (torch, 39119 bytes, 8 tensors)

conv1.bias f4 [50]
0	0x3d6b5790	0.057456553
1	0xbc918ede	-0.01776832
2	0x3d11b172	0.035569616
3	0xbd042dae	-0.032270126
4	0x3dbc3ff7	0.09191888
5	0x3ca341fb	0.019928923
6	0x3d0967e8	0.03354636
7	0xbb30aaa5	-0.002695718
8	0x3d19abee	0.03751748
9	0xbc471197	-0.01215019
10	0x3d1405dd	0.036138404
11	0xbc6cba1b	-0.014448668
12	0xbc0b1c01	-0.008490563
13	0xbcf40d3a	-0.029791463
14	0xbcf969ce	-0.03044596
15	0xbc6e97c5	-0.014562552
16	0xbd1d40de	-0.03839194
17	0x3b86dfc7	0.004116032
18	0x3d2767e9	0.04087058
19	0x3af8cdb4	0.0018982203
20	0x3cb8a06a	0.022537429
21	0x3d2a74d5	0.041615326
22	0xbcd68d30	-0.02619037
23	0x3cd3d0e4	0.025856443
24	0x3d14a575	0.036290605
25	0x3d01cf44	0.031691805
26	0x3bb933cf	0.005651928
27	0xbc105f35	-0.008811762
28	0xbc8366a4	-0.016040154
29	0x3caa75b5	0.02080808
30	0xbcec833e	-0.028871175
31	0x3c30420d	0.010757935
32	0x3cdad551	0.026713045
33	0x3ccd73b2	0.025079582
34	0xbcf3e9a5	-0.029774496
35	0x3cc922fb	0.024552813
36	0xbc5f3c7b	-0.0136252595
37	0x3c05353c	0.008130368
38	0xbc899ec1	-0.016799333
39	0xbc971b31	-0.018445583
40	0xbac1d353	-0.0014787711
41	0xbcecdbc2	-0.028913382
42	0xbc1c206a	-0.0095292125
43	0xbcc63e09	-0.024199503
44	0x3c32490e	0.010881675
45	0x3ccf34d6	0.025293749
46	0xbd06b3d8	-0.032886356
47	0xbc059cd9	-0.008155071
48	0x3d04322a	0.032274403
49	0x3c082081	0.008308531

conv1.lin.weight f4 [50, 116]
0	0xbd00c0e1	-0.031433944
1	0x3e8037b6	0.25042504
2	0xbe30168a	-0.17196098
3	0x3d518d10	0.05115992
4	0xbdde052c	-0.1084083
5	0x3d4a97f6	0.049461327
6	0x3da8396a	0.08214076
7	0x3e83c556	0.25736493
8	0xbe062160	-0.13098669
9	0x3e1b380f	0.15158103
10	0x3d9ecc0d	0.07753763
11	0x3d63c1b3	0.055604648
12	0x3de8b4e7	0.113626294
13	0xbda2baeb	-0.07945808
14	0xbe738cfc	-0.2378425
15	0x3dc02b98	0.09383315
16	0xbd2c94a1	-0.04213393
17	0x3df221d3	0.11822858
18	0xbcc90592	-0.024538789
19	0x3dc3dde5	0.095638074
20	0x3de37a10	0.11107266
21	0x3d8c813a	0.068605855
22	0x3d9687e6	0.07350139
23	0xbe3c5908	-0.18393338
24	0x3b98f46e	0.00466781
25	0xbe2e9673	-0.1704958
26	0xba90ab88	-0.0011037448
27	0xbd591745	-0.053000707
28	0x3c257331	0.010098265
29	0x3dcabc0d	0.09899149
30	0x3dbc4431	0.09192694
31	0xbdc417c6	-0.09574847
32	0xbd3f66f4	-0.046729043
33	0xbb1be4cc	-0.0023787497
34	0x3e509c46	0.20372114
35	0xbe504f6b	-0.20342796
36	0x3beee197	0.007290076
37	0x3da7017f	0.08154582
38	0xbc771b17	-0.015082142
39	0x3c8d06b1	0.017215105
40	0x3daa85f8	0.08326334
41	0xbb0a1cc1	-0.0021074268
42	0x3e38b83b	0.18039028
43	0xbd301383	-0.042987358
44	0xbdb11775	-0.08647052
45	0x3d96d10c	0.07364091
46	0x3e33842c	0.17530888
47	0x3c33f162	0.010982843
48	0xbe723b29	-0.2365538
49	0x3e8724b0	0.26395178
50	0xbddadd2f	-0.10686719
51	0xbce5cc5a	-0.028051544
52	0x3e663526	0.22481212
53	0xbe1e7899	-0.15475692
54	0xbde1a770	-0.11018264
55	0x3e4085ba	0.18801013
56	0x3d97d796	0.07414167
57	0x3dd8a34a	0.1057802
58	0xbde0fd04	-0.10985759
59	0xbe016870	-0.12637496
60	0xbe223e12	-0.1584399
61	0x3de09abe	0.10967015
62	0xbe69cbd6	-0.22831663
63	0x3dd102f4	0.102056414
64	0xbcf57a18	-0.029965445
65	0xbdbdd2e3	-0.09268739
66	0x3d36ef71	0.044661943
67	0x3e1fac28	0.15593016
68	0x3e0e99de	0.13925883
69	0x3dc32a9f	0.09529614
70	0xbe679b88	-0.22617924
71	0xbe1abb31	-0.1511047
72	0xbdf9fcf2	-0.122064486
73	0xbd6a5c4e	-0.057216935
74	0x3e65e462	0.22450402
75	0x3de47999	0.111560054
76	0xbc1f0f1e	-0.009708194
77	0x3dc14408	0.09436804
78	0xbdee191e	-0.116258845
79	0xbe7fb6f3	-0.24972133
80	0x3d80e052	0.06292786
81	0xbe673328	-0.22578108
82	0x3e45b7b3	0.19308357
83	0x3e06a328	0.13148177
84	0x3e3b6c87	0.18303119
85	0x3e77a1e1	0.24182846
86	0xbe682f2d	-0.22674246
87	0xbd6d3d26	-0.057919644
88	0xbe041c4b	-0.12901418
89	0xbe3cff8b	-0.18456857
90	0xbe6c463d	-0.23073669
91	0x3e44c4ac	0.1921565
92	0x3d02bbc9	0.031917367
93	0xbe3f87dc	-0.1870417
94	0xbe620b04	-0.22074515
95	0x3e7564f4	0.23964292
96	0xbe370fdf	-0.17877148
97	0x3e2b7003	0.16741948
98	0x3da33275	0.07968608
99	0xbda368f0	-0.079789996
100	0x3df76a28	0.120807946
101	0xbd8a816b	-0.06762966
102	0x3c9cb0ea	0.019127328
103	0x3e03476f	0.12820219
104	0xbd4eaa83	-0.05045558
105	0x3e3e6438	0.18592918
106	0x3e560389	0.20899786
107	0x3e225e09	0.15856184
108	0x3d5191cc	0.051164433
109	0x3dfdbe2f	0.1238979
110	0x3dbe7fe7	0.09301739
111	0x3e223a38	0.15842521
112	0xbde9c6bf	-0.11414861
113	0xbe37b30e	-0.17939398
114	0xbcf22ecb	-0.029563328
115	0xbc86a80f	-0.016437558
116	0x3d6a95d2	0.057271786
117	0xbde1bab1	-0.11021937
118	0xbe0aca4c	-0.13553733
119	0x3de5a8b7	0.112138204
120	0xbda3395f	-0.07969927
121	0xbbd447ff	-0.006478309
122	0xbe2e6cb9	-0.17033662
123	0x3c6fa24a	0.014626095
124	0x3e2a3f6f	0.1662576
125	0x3d63115c	0.055436477
126	0x3dd967f2	0.10615529
127	0xbca5b263	-0.020226663
128	0x3d5bda22	0.053674825
129	0x3db85403	0.09000399
130	0xbe58c32e	-0.21168205
131	0xbd73311f	-0.059373017
132	0xbe2d4ef8	-0.16924655
133	0x3d1cb508	0.038258582
134	0xbe0787f9	-0.13235463
135	0x3e310d91	0.17290331
136	0x3e067fa9	0.13134636
137	0xbdbf320a	-0.09335716
138	0xbe3429d0	-0.17594075
139	0x3e20d52c	0.15706319
140	0x3d8a76f8	0.06760973
141	0x3e17b132	0.14813688
142	0x3df4fb47	0.1196199
143	0x3e4e41c3	0.20142274
144	0x3d954a9f	0.072896235
145	0xbddbf2ff	-0.10739707
146	0x3df19a05	0.11796955
147	0xbd27af83	-0.040938865
148	0xbe71d235	-0.23615344
149	0x3d285ccf	0.041104134
150	0xbe4be39b	-0.19911043
151	0xbe23f86a	-0.16012731
152	0x3dba8e48	0.09109169
153	0xbba62d2a	-0.005071302
154	0xbdd65687	-0.104657225
155	0xbd68317d	-0.05668782
156	0x3e0bbff3	0.13647442
157	0xbd216ffe	-0.039413445
158	0xbe40cff3	-0.18829326
159	0xbdd30ed0	-0.1030556
160	0xbdc81eab	-0.097714745
161	0xbc2043e2	-0.0097818095
162	0x3dd3a44d	0.10334072
163	0x3dbe9768	0.09306222
164	0xbccb455b	-0.024813345
165	0xbde1b2c8	-0.11020428
166	0x3e84f327	0.2596676
167	0xbe1a1dd1	-0.15050437
168	0x3e1e49ce	0.15457842
169	0x3d5e8564	0.05432643
170	0xbe09a077	-0.13440119
171	0xbdf96c36	-0.12178843
172	0x3e2320f6	0.15930542
173	0x3e29d48f	0.16584991
174	0xbdbacb71	-0.091208346
175	0xbe4a68cd	-0.19766541
176	0xbd58587e	-0.052818768
177	0x3dc4139e	0.09574054
178	0x3cb15be6	0.021650266
179	0xbe5281e3	-0.2055736
180	0x3d234138	0.03985712
181	0x3bf5ab03	0.007497193
182	0x3d112054	0.03543122
183	0xbe32fc45	-0.17479046
184	0x3e466f77	0.19378458
185	0xbd826458	-0.06366795
186	0x3e1fa812	0.15591457
187	0xbd3c759a	-0.04601059
188	0x3e3e694d	0.18594857
189	0x3de972fe	0.11398886
190	0xbd46b78f	-0.0485149
191	0x3cb4e5cc	0.022082232
192	0x3e326593	0.1742156
193	0x3dc9225a	0.09821005
194	0x3e4a9d3f	0.19786547
195	0xbe065354	-0.13117725
196	0x3db9c1dd	0.090701796
197	0x3e222239	0.15833367
198	0xbdbc4e95	-0.09194676
199	0x3cbedd26	0.023298811
200	0x3dff60f5	0.12469665
201	0xbe08d016	-0.13360628
202	0x3d32a1bc	0.043611273
203	0x3dd1528a	0.10220821
204	0xbd87e68b	-0.066357695
205	0xbe30ab16	-0.17252764
206	0x3d4a7877	0.04943129
207	0xbd601a09	-0.05471233
208	0xbcbc830c	-0.023011707
209	0x3e3c3bd9	0.18382205
210	0x3dcdd3be	0.10050152
211	0xbe47c7e8	-0.19509852
212	0xbe0ce109	-0.13757719
213	0xbd3a7cb1	-0.04552907
214	0x3d8cf33a	0.06882329
215	0x3e0b944f	0.13630794
216	0xbd94fa96	-0.07274358
217	0x3dedeaef	0.11617076
218	0x3d8ba92d	0.06819377
219	0x3d4be1c4	0.049775854
220	0x3dab1928	0.083544075
221	0x3da1f753	0.079085015
222	0xbdfb5995	-0.12272946
223	0x3de8fdc1	0.11376525
224	0x3e06dbf8	0.13169849
225	0xbd964a1c	-0.07338354
226	0xbe0f39bf	-0.13986872
227	0x3e14f4bd	0.14546485
228	0xbdf41b9c	-0.119193286
229	0xbd73b099	-0.05949459
230	0xbbb10f87	-0.0054034623
231	0xbe1c695a	-0.15274563
232	0x3ce2e338	0.027696237
233	0x3e1eda6a	0.15513006
234	0xbe1d68d4	-0.1537202
235	0x3e0acbbf	0.13554285
236	0x3c9fe59a	0.019518662
237	0x3bdac337	0.0066761035
238	0x3d93738d	0.07199774
239	0x3e5a4dc9	0.21318735
240	0xbd80f689	-0.06297023
241	0x3dd3ac49	0.10335595
242	0x39e4a496	0.00043610175
243	0x3dd913d5	0.10599486
244	0xbd4ef74a	-0.050528802
245	0x3c8f40e1	0.017486991
246	0x3da06ac7	0.07832866
247	0x3db64941	0.08900691
248	0xbe81afad	-0.25329342
249	0xbdf1db2c	-0.11809382
250	0x3db5605d	0.088562705
251	0x3c9e8aef	0.019353358
252	0x3d6d8d5e	0.057996146
253	0x3e1eaa77	0.15494715
254	0xbbab16be	-0.005221217
255	0xbe1bd1e5	-0.15216787

conv2.bias f4 [50]
0	0x3c4f8d22	0.012667926
1	0x3cff636e	0.031175341
2	0x3d0b7dac	0.034055397
3	0xbcad4026	-0.021148752
4	0x3c3badba	0.011454994
5	0x3d62e31b	0.055392366
6	0xbc21d3ee	-0.009877188
7	0xbccb56a3	-0.024821585
8	0x3ce84a6d	0.028355801
9	0xbd423661	-0.04741514
10	0x3d192d83	0.03739692
11	0x3d1d33f4	0.038379624
12	0x3d11a36c	0.035556242
13	0xbcbe263a	-0.023211587
14	0x3d107ddc	0.03527628
15	0xbd003fd4	-0.03131087
16	0x3d74b9b3	0.05974741
17	0x3cdf804b	0.027282855
18	0x3d0b2c5f	0.033977862
19	0x3cf9616b	0.03044196
20	0xbcb90444	-0.022585042
21	0x3cdac959	0.026707338
22	0x3d0473ca	0.032336988
23	0x3ce27ca0	0.027647316
24	0xbd1bcb7a	-0.038035847
25	0x3d24b5c7	0.04021242
26	0xbcc81cdb	-0.024427822
27	0x3d05b169	0.032639895
28	0x3c6f2019	0.014595055
29	0xbd13124a	-0.035906114
30	0x3c05db72	0.008169996
31	0xbcdb6fc1	-0.026786687
32	0x3d55927a	0.052141644
33	0x3d06c7ed	0.032905508
34	0xbc88893e	-0.016667005
35	0x3c42d4e2	0.0118915755
36	0x3cc35004	0.023841865
37	0x3cb0fc16	0.021604579
38	0xbcd6438f	-0.026155261
39	0xbcc88c34	-0.024480917
40	0xbce113e7	-0.02747531
41	0x3cfb0f38	0.030646905
42	0x3c2dc661	0.010606379
43	0xbd0da5a1	-0.034581784
44	0x3d0a9a64	0.033838645
45	0x3d1f42e2	0.038882144
46	0x3c2e546a	0.010640243
47	0x3c12f33b	0.0089691235
48	0xbce7e1b9	-0.028305875
49	0x3c405f52	0.011741476

conv2.lin.weight f4 [50, 50]
0	0xbc9cadd3	-0.019125855
1	0x3d1e03d6	0.038577877
2	0xbc1fafff	-0.009746551
3	0xbe35b7cb	-0.17745893
4	0x3d6093bd	0.054828394
5	0x3b323fba	0.0027198629
6	0x3d6d2e2b	0.057905357
7	0xbdc5ac89	-0.09652049
8	0xbe505169	-0.20343556
9	0x3e42fbad	0.19041319
10	0x3e2f1bb5	0.17100413
11	0x3e1b3178	0.1515559
12	0x3d2063f5	0.039157826
13	0xbe4c77b1	-0.19967534
14	0xbcb35355	-0.021890322
15	0xbe7a5a13	-0.24448423
16	0x3e18ae17	0.1491016
17	0x3e157036	0.14593586
18	0xbe25d97f	-0.1619625
19	0xbe4bd7d7	-0.19906555
20	0x3e04b064	0.12957913
21	0xbe436bff	-0.19084166
22	0xbe1e1751	-0.15438582
23	0xbe111f2a	-0.14172044
24	0x3d42ea1b	0.04758654
25	0xbc46fde6	-0.012145495
26	0xbe143fa2	-0.14477399
27	0x3df68958	0.12037915
28	0x3e4eb548	0.20186341
29	0x3e91b964	0.28461754
30	0x3e8c0b8d	0.27352563
31	0x3d4b385b	0.04961429
32	0xbe6912e6	-0.22761115
33	0x3ea1f3f9	0.3163145
34	0x3c177995	0.009245296
35	0xbe2fb7dd	-0.17159982
36	0x3c8ba9cb	0.017048737
37	0xbd79b763	-0.060965907
38	0x3dbdc43a	0.09265943
39	0x3e50373e	0.20333573
40	0x3de28cff	0.11062049
41	0xbbbea1cf	-0.005817629
42	0x3d77e94e	0.06052523
43	0xbcfdb562	-0.03097028
44	0x3bfb633f	0.007671743
45	0xbe29c401	-0.16578676
46	0x3d141bb0	0.036159217
47	0x3c93ba59	0.018033193
48	0xbe4f2f2d	-0.2023284
49	0x3e258790	0.16164994
50	0x3e6fe1b5	0.23425944
51	0xbde51696	-0.111859486
52	0xbe9368d2	-0.2879091
53	0x3c1e2e27	0.009654558
54	0x3e91a5eb	0.28446898
55	0x3e8345ce	0.25639194
56	0x3e63f18f	0.22260116
57	0xbe150910	-0.14554238
58	0xbd8f54c1	-0.069985874
59	0xbe96133d	-0.29311553
60	0xbcb2a992	-0.021809373
61	0x3dadc676	0.08485119
62	0xbe135a95	-0.14390023
63	0x3e20ebd9	0.15714969
64	0xbdfd4535	-0.12366716
65	0xbdf137c1	-0.11778212
66	0x3db92ce6	0.09041767
67	0x3e9869f0	0.29768324
68	0xbde6a21b	-0.11261388
69	0x3e08715a	0.1332449
70	0x3d9bcc7a	0.0760736
71	0xbd093d99	-0.03350601
72	0xbe92bee4	-0.28661263
73	0x3e9333b8	0.28750396
74	0x3e858365	0.2607681
75	0x3e079a26	0.13242397
76	0xbd766840	-0.060158014
77	0x3e12bc4e	0.14329645
78	0x3d656e9d	0.056013692
79	0xbe2de0f1	-0.1698034
80	0xbdf6a6e5	-0.12043551
81	0xbdf46797	-0.11933821
82	0x3e292dc5	0.16521366
83	0x3e801f62	0.25023943
84	0x3ea2c158	0.31788135
85	0xbe4f9404	-0.20271307
86	0xbd81da94	-0.063405186
87	0x3e8190c8	0.25305772
88	0xbd7339fc	-0.05938147
89	0xbd9c25f1	-0.07624424
90	0xbe13c53f	-0.14430712
91	0x3e80581b	0.2506722
92	0xbdb5646d	-0.08857045
93	0x3e6a2ea6	0.22869357
94	0xbe403e75	-0.18773825
95	0xbe63beeb	-0.22240798
96	0x3d572b72	0.052531667
97	0xbe72d192	-0.23712757
98	0x3e3b2467	0.18275605
99	0xbe9c0d31	-0.30478814
100	0xbcec0898	-0.028812692
101	0x3d6bed53	0.057599377
102	0xbe2a8992	-0.16654041
103	0x3dfd7ed3	0.123777054
104	0x3de31f25	0.11089925
105	0x3e49efd1	0.19720389
106	0xbe470d9c	-0.19438785
107	0x3e876a5e	0.2644834
108	0x3e9007be	0.28130907
109	0x3dca595a	0.09880324
110	0x3e81895d	0.25300112
111	0xbe8a96c9	-0.27068165
112	0xbd1a8f0e	-0.037734084
113	0x3d45cf86	0.048293613
114	0x3e4f4b73	0.20243625
115	0xbe867734	-0.2626282
116	0x3e47ac44	0.19499308
117	0x3e439cc9	0.19102778
118	0x3c81f3e2	0.015863363
119	0x3e239897	0.15976177
120	0x3d5aa061	0.053375605
121	0xbe2ec1ff	-0.17066191
122	0xbdbc5b23	-0.091970704
123	0x3e4e9535	0.20174105
124	0xbd74340b	-0.059619945
125	0x3dc6cfb4	0.09707585
126	0x3e2e2669	0.1700684
127	0x3cc09745	0.023509631
128	0xbe12f3c1	-0.14350797
129	0x3d9d1144	0.07669309
130	0x3d851bea	0.06499465
131	0x3d4f23fc	0.050571427
132	0xbe92a02d	-0.2863783
133	0x3e60dce0	0.21959257
134	0xbea5055a	-0.32230645
135	0x3df53ae4	0.11974123
136	0xbe36aee3	-0.17840151
137	0xbe1cdb91	-0.15318133
138	0xbe8501fd	-0.2597808
139	0xbe2a5f59	-0.16637935
140	0xbe30ee2c	-0.17278355
141	0x3ca4d268	0.02011986
142	0x3d961482	0.0732813
143	0xbe0cded7	-0.13756882
144	0xbe4fc3b3	-0.20289497
145	0x3e9733f3	0.29531822
146	0xbd91fd3c	-0.07128379
147	0xbe22a735	-0.15884097
148	0xbd5cd17b	-0.053910714
149	0x3db91d2c	0.09038767
150	0xbc25b577	-0.010114065
151	0x3d06e54c	0.03293352
152	0xbdc52036	-0.096252844
153	0xbcd963dd	-0.026536876
154	0xbe534df6	-0.20635208
155	0x3e0aa4f0	0.13539481
156	0xbe4f182e	-0.20224068
157	0x3d70eea3	0.05882133
158	0xbe3b55a2	-0.18294385
159	0xbe5e76b6	-0.21724972
160	0xbd63fd1a	-0.0556613
161	0xbdc76609	-0.097362585
162	0xbdb4ef12	-0.088346615
163	0x3e6af9a1	0.22946788
164	0x3e6525b4	0.22377664
165	0x3e55814c	0.20850104
166	0xbe1c64ce	-0.15272829
167	0x3e09a908	0.13443387
168	0x3db65895	0.089036144
169	0x3e8cca50	0.27498102
170	0x3e47d969	0.19516529
171	0xbe1703c6	-0.14747533
172	0xbd2eab08	-0.042643577
173	0x3e52dfc1	0.20593168
174	0xbe66c4af	-0.22535966
175	0xbe52f567	-0.20601426
176	0x3cfa33bf	0.030542253
177	0x3e798db9	0.24370469
178	0x3e4f22d2	0.20228127
179	0x3e2e6f72	0.170347
180	0xbe5517e0	-0.20809889
181	0xbd84990d	-0.064745046
182	0xbe0263a3	-0.12733321
183	0xbdc27748	-0.09495407
184	0xbd06e28a	-0.03293089
185	0xbe0e02fd	-0.13868327
186	0xbe2c1a70	-0.1680696
187	0xbda41461	-0.080116995
188	0x3e375237	0.17902456
189	0x3e038176	0.12842354
190	0x3d477541	0.048695806
191	0x3dd4372e	0.10362087
192	0x3e1c1bb9	0.1524495
193	0x3e965bbd	0.29366866
194	0x3e044a7b	0.12919037
195	0x3db3021c	0.08740637
196	0x3c8c8674	0.017153956
197	0x3da56bbb	0.080771886
198	0xbb033b6c	-0.0020024432
199	0xbdbde955	-0.0927302
200	0xbb5f5e43	-0.0034083284
201	0xbd66f539	-0.056386206
202	0xbe75c3c6	-0.24000463
203	0x3e15bfbc	0.14623922
204	0x3cdcf249	0.026971
205	0x3e836853	0.2566553
206	0xbe523751	-0.20528914
207	0x3c69befd	0.014266727
208	0xbc492434	-0.012276698
209	0xbd579419	-0.05263147
210	0xbe7a5fd5	-0.2445062
211	0xbdb2b499	-0.087258525
212	0x3d8b332d	0.067968704
213	0x3e64ba32	0.22336653
214	0x3d2ec0bb	0.04266427
215	0x3dd5bafc	0.10436055
216	0xbe840cd0	-0.25791025
217	0x3e21f45c	0.15815872
218	0x3d9e76b3	0.07737484
219	0x3e668902	0.22513202
220	0xbd5182cf	-0.05115014
221	0x3e8cdbb4	0.2751137
222	0x3d1c2e5b	0.038130146
223	0x3d44ff42	0.048094995
224	0xbb85b527	-0.004080433
225	0xbdae82d9	-0.08521051
226	0xbc274913	-0.010210293
227	0xbca5c2b4	-0.020234443
228	0x3db2ed67	0.08736687
229	0xbe8c95ba	-0.27457982
230	0xbe6c9053	-0.2310193
231	0xbe422191	-0.18958117
232	0x3e0ec17e	0.13940999
233	0x3e4b3597	0.19844662
234	0xbdecf1d6	-0.11569564
235	0xbe3794e6	-0.17927894
236	0x3d88b02a	0.06674226
237	0xbea8989a	-0.32928926
238	0x3e4fcca2	0.20292905
239	0xbe1de23a	-0.1541833
240	0x3e20971a	0.1568264
241	0x3d2627e7	0.040565398
242	0x3db902cc	0.090337366
243	0x3e35b0d5	0.17743237
244	0xbddc1d6a	-0.10747798
245	0xbd9a8d3c	-0.075464696
246	0xbe11a004	-0.14221197
247	0xbd4d896d	-0.050179888
248	0xbd6a693a	-0.057229258
249	0xbe438f10	-0.19097543
250	0x3ddd7ea3	0.1081517
251	0x3e47ca07	0.19510661
252	0x3b56a8cb	0.0032754417
253	0x3ddbc4f1	0.10730923
254	0xbe8230a1	-0.25427726
255	0xbe1be655	-0.15224583

pool1.weight f4 [1, 50]
0	0xbcbb1c8b	-0.022840759
1	0xbde8cb62	-0.11366917
2	0x3d5f1d27	0.05447116
3	0xbdd3d5bd	-0.10343502
4	0xbca0f10a	-0.019646186
5	0x3e13c557	0.14430748
6	0x3d5898cd	0.052880097
7	0x3d998715	0.07496468
8	0x3d5034a9	0.05083147
9	0xbdb874ab	-0.09006628
10	0x3d943aa5	0.07237748
11	0xbe1f8527	-0.15578137
12	0xbd9b35cc	-0.0757862
13	0xbdf60417	-0.12012499
14	0xbe1be347	-0.15223418
15	0xbce2910a	-0.02765705
16	0x3c764789	0.015031704
17	0x3e392875	0.1808184
18	0xbd469fc0	-0.048492193
19	0xbddd35ad	-0.108012535
20	0x3deaffea	0.11474593
21	0x3bcb8eac	0.006212076
22	0xbde4ffa6	-0.111815736
23	0x3d3da67a	0.046301343
24	0x3db041a3	0.08606269
25	0x3d325e05	0.043546695
26	0x3cb76588	0.022387281
27	0x3de534d1	0.111917146
28	0xbdb7ebf6	-0.08980553
29	0x3d594d9f	0.05305254
30	0xbde0e1be	-0.10980557
31	0x3cd42395	0.025895873
32	0xbb999e1b	-0.004688037
33	0x3d3d1a14	0.04616745
34	0xbd918928	-0.071062386
35	0xbcd9b937	-0.026577575
36	0xbdddf514	-0.108377606
37	0x3e2c1c95	0.16807778
38	0x3d944ca9	0.07241184
39	0xbcbdec6d	-0.023184026
40	0x3a199e69	0.0005860092
41	0xbd3b9213	-0.045793604
42	0xbc9b0d42	-0.01892722
43	0xbdda258a	-0.10651691
44	0xbbc71c1a	-0.006076348
45	0x3d7c282a	0.06156174
46	0xbdcd753c	-0.10032126
47	0x3d9e8552	0.077402726
48	0xbd89e9db	-0.067340575
49	0x3c5acbf7	0.013354293

pool2.weight f4 [1, 50]
0	0xbd0bc686	-0.034124874
1	0x3e0bc5fd	0.13649745
2	0x3e02f33e	0.12788102
3	0xbde713b6	-0.112830564
4	0xbd4c3846	-0.049858354
5	0xbd8a2509	-0.06745345
6	0x3c93b765	0.018031785
7	0xbde3584e	-0.11100827
8	0x3ddab44a	0.10678919
9	0x3dc02699	0.09382362
10	0x3de29bd8	0.11064881
11	0xbd4ffe99	-0.050779913
12	0x3db12f14	0.086515576
13	0xbe30257f	-0.17201804
14	0x3e016a87	0.12638293
15	0xbd3f18bb	-0.046654444
16	0x3da468ae	0.080277786
17	0x3da9123e	0.082554325
18	0x3dd69763	0.104780935
19	0x3e2e7007	0.17034923
20	0xbdd7b4df	-0.10532545
21	0x3e0ca48c	0.13734645
22	0x3da2c16c	0.079470485
23	0x3da811a0	0.08206487
24	0x3db756bb	0.089520894
25	0x3d918eba	0.07107301
26	0xbdcb7ac6	-0.099355265
27	0x3d87f64c	0.06638774
28	0x3d2cb55a	0.042165138
29	0xbcdd35a7	-0.027003122
30	0xbc1bd953	-0.009512263
31	0xbde95be9	-0.113944836
32	0xbc1b1b82	-0.009467008
33	0x3d15e715	0.03659733
34	0xbe1c4aaa	-0.15262857
35	0xbd80a397	-0.06281202
36	0x3dd83ca4	0.10558441
37	0x3dfc3007	0.12313848
38	0xbd8fa978	-0.070147455
39	0xbe1da2c0	-0.15394115
40	0xbdd63725	-0.10459737
41	0x3d7ffbfa	0.062496163
42	0xbc887ec5	-0.01666201
43	0x3bc3cb7e	0.005975186
44	0x3d5a75eb	0.05333511
45	0x3d360727	0.044440415
46	0x3dcae6a3	0.09907272
47	0xbd1ed7c6	-0.038779996
48	0xbbec2852	-0.007206955
49	0xba8d54be	-0.0010782701

fc4.weight f4 [3, 200]
0	0x3baa3bfe	0.00519514
1	0xbd381834	-0.044944957
2	0xbda302a2	-0.079594865
3	0xbd069ceb	-0.032864492
4	0xbd4165ca	-0.047216214
5	0xbc81d908	-0.015850559
6	0xbddbda88	-0.10735041
7	0xbdcd9ffc	-0.1004028
8	0xbdbfff6a	-0.09374888
9	0x3d734ef3	0.059401464
10	0xbd778975	-0.060433824
11	0xbdd28c15	-0.10280625
12	0xbdc3472b	-0.095350586
13	0x3d7a15e1	0.06105602
14	0xbc0e2cf0	-0.008677706
15	0xbd2e941f	-0.042621728
16	0xbd6250f3	-0.05525298
17	0x3d203a5d	0.03911816
18	0xbc021fb3	-0.007942128
19	0xbda15ab0	-0.078786254
20	0xbe07e4a3	-0.13270812
21	0x3bf67e35	0.0075223693
22	0xbe127b3d	-0.14304824
23	0x3d84aae6	0.06477909
24	0xbd8aca97	-0.06776922
25	0xbd9ae17e	-0.075625405
26	0x3d978037	0.07397502
27	0x3d2f258e	0.042760424
28	0xbda6e01c	-0.08148214
29	0xbc6082c3	-0.013703051
30	0xbd6ad359	-0.057330463
31	0xbda325f3	-0.079662226
32	0xbd176a61	-0.036966685
33	0xbd7b04a9	-0.06128374
34	0x3dcb7ba1	0.0993569
35	0xbd8ec212	-0.0697061
36	0xbd9f2ac9	-0.077718325
37	0x3c210f51	0.009830312
38	0xbc95526f	-0.018227784
39	0xbdb1fa53	-0.08690324
40	0xbe2bc631	-0.16774823
41	0x3d6f30ac	0.058396026
42	0x3c48bdc8	0.012252279
43	0x3c0063f7	0.0078363335
44	0xbbb4465e	-0.0055015525
45	0xbd0dd105	-0.034623165
46	0x3d9690a4	0.07351807
47	0xbd716f72	-0.058944173
48	0xbd96dba3	-0.07366111
49	0xbbaaf2ce	-0.005216933
50	0x3d33a1de	0.04385554
51	0x3b354f4c	0.0027665673
52	0xbd2a53a2	-0.041583665
53	0xbd1e65cd	-0.038671304
54	0xbbc34b50	-0.0059599057
55	0x3d3d3126	0.04618945
56	0x3cde8ae8	0.027165845
57	0xbd757910	-0.059929907
58	0xbd1bc01c	-0.038025007
59	0x3d3eee5d	0.04661404
60	0xbca8c4d3	-0.020601666
61	0x3d7449d5	0.059640724
62	0xbda9e081	-0.08294774
63	0xbc0962af	-0.008385344
64	0x39f16030	0.00046038767
65	0xbcf5abde	-0.02998918
66	0xbdec58a7	-0.115403466
67	0xba9e2673	-0.0012065902
68	0xbd1b2c44	-0.037884012
69	0x3cf1fa26	0.029538225
70	0xbdec60bf	-0.1154189
71	0x3cef2ab8	0.029195175
72	0xbb55fe33	-0.0032652735
73	0x3d9ab8d1	0.07554782
74	0xbbeb5b7a	-0.0071825357
75	0x3d0b33c8	0.03398493
76	0x3d2875b5	0.04112788
77	0xbac41b5b	-0.0014961766
78	0xbd20d8ea	-0.039269365
79	0xbcd18ccd	-0.025579834
80	0x3d67a97f	0.05655813
81	0x3d15a317	0.036532488
82	0xbd8758d3	-0.06608739
83	0xbdfb8a55	-0.12282244
84	0x3cd037d7	0.025417252
85	0xbcf880f2	-0.030334923
86	0x3d77fa0d	0.0605412
87	0xbbba72c1	-0.0056899493
88	0xbdc41bf2	-0.09575643
89	0xbdb13bbd	-0.08653972
90	0x3d7e4f51	0.06208736
91	0x3d21696d	0.039407182
92	0xbd56db1c	-0.052455053
93	0x3cbc7c77	0.023008568
94	0xbd09f8e1	-0.033684615
95	0xbc3fe052	-0.011711197
96	0x3e0435b6	0.12911114
97	0xbd8c1dbb	-0.06841608
98	0x3cf1adc6	0.029501807
99	0xbd46f930	-0.048577487
100	0xbae3cd84	-0.0017379974
101	0x3e0ed053	0.13946657
102	0xbe0ab8e0	-0.13547087
103	0x3e058516	0.1303905
104	0x3dcc2e23	0.099697374
105	0xbdfc5b96	-0.12322156
106	0x3db28c81	0.08718205
107	0xbd45f30c	-0.04832749
108	0xbdbb1bcd	-0.09136162
109	0x3e03438b	0.12818734
110	0xbdba373a	-0.09092565
111	0xbddf5a53	-0.109059
112	0x3d891b9e	0.06694721
113	0xbd78f839	-0.0607836
114	0xbd817fc1	-0.06323195
115	0x3ca40f63	0.020026868
116	0x3e10301b	0.14080851
117	0xbd620ef1	-0.05519003
118	0xbdb1d5df	-0.08683371
119	0x3c293555	0.010327657
120	0x3da71b41	0.08159495
121	0xbd8ac293	-0.06775393
122	0xbe04af17	-0.12957416
123	0xbcdafb3c	-0.026731126
124	0x3e0b9f77	0.1363505
125	0x3e037fb5	0.12841685
126	0xbdb522f2	-0.08844556
127	0xbdbb29a3	-0.09138801
128	0x3d8388bf	0.064225666
129	0x3d82eb32	0.06392516
130	0x3d828b53	0.0637423
131	0x3d2f4929	0.04279438
132	0xbdcc9f8c	-0.09991369
133	0xbda7260d	-0.081615545
134	0xbd3bb39f	-0.045825597
135	0xbe2ad6f5	-0.16683562
136	0x3d909a98	0.070607364
137	0x3e036ee3	0.12835269
138	0xbe093ff7	-0.13403307
139	0xbd401e04	-0.046903625
140	0xbd1a6550	-0.037694275
141	0xbd518c54	-0.051159218
142	0xbdc2e29c	-0.095158786
143	0xbda71d7c	-0.081599206
144	0xbdaf24c2	-0.08551933
145	0x3d8e33b5	0.06943456
146	0x3d4cd2b9	0.05000565
147	0xbd997f2d	-0.0749496
148	0x3d474a87	0.04865506
149	0xbccaa104	-0.024734981
150	0x3d3cc76f	0.046088632
151	0x3dcf6f2c	0.10128626
152	0xbdb105c1	-0.086436756
153	0x3ba126dd	0.004917963
154	0xbd0f8ebb	-0.035048228
155	0xbc8a0251	-0.016846808
156	0x3e03586c	0.12826699
157	0x3c51a0ee	0.012794716
158	0xbd52153c	-0.051289782
159	0x3da91171	0.0825528
160	0x3cd8d868	0.026470378
161	0xbd7560a5	-0.05990662
162	0x3c65e29c	0.014031079
163	0x3c9cb689	0.019130008
164	0xbd0542df	-0.032534476
165	0x3d9e7212	0.07736601
166	0x3d9d1ef4	0.076719195
167	0xbd1e5749	-0.03865746
168	0x3d0a0e10	0.033704817
169	0x3c9de916	0.019276183
170	0x3dd031db	0.10165759
171	0xbcd388b9	-0.02582203
172	0x3d15df78	0.03659007
173	0xbd9fbf13	-0.078001164
174	0x3d0bd3c2	0.034137495
175	0x3dcd9d37	0.10039752
176	0xbd10d69e	-0.035360925
177	0xbd66010e	-0.05615335
178	0xbcc75fa7	-0.024337603
179	0xbd7a862d	-0.061163116
180	0xbd63e41b	-0.05563746
181	0x3d18a987	0.03727105
182	0x3d3b3fbb	0.045715075
183	0xbdc13ac4	-0.09435037
184	0x3c5b68d7	0.013391695
185	0xbdea2663	-0.11433103
186	0x3d5d7bd7	0.05407318
187	0x3e09be9c	0.13451618
188	0x3c01fc2a	0.007933656
189	0xbd1b34eb	-0.037892263
190	0x3db5858b	0.08863362
191	0x3ccc92ce	0.024972346
192	0xbaa21a82	-0.0012367519
193	0x3d46a2e4	0.04849519
194	0xbd596876	-0.053078137
195	0x3d4f2a70	0.05057758
196	0x3dc75843	0.097336315
197	0xbd85ee20	-0.06539559
198	0x3b99ac4d	0.0046897293
199	0xbd4e3ca3	-0.050350796
200	0x3dfa2eba	0.12215944
201	0xbb7b6e06	-0.003836514
202	0x3df2a4bb	0.11847826
203	0xbc1d31d5	-0.0095944
204	0x3e0d374c	0.13790625
205	0x3db208e6	0.086931035
206	0x3dd0262d	0.101635315
207	0xbc28077a	-0.010255689
208	0x3dbb5ec9	0.09148938
209	0x3d8fd223	0.07022502
210	0x3dd8ea51	0.10591567
211	0x3d3612a9	0.04445139
212	0x3d753692	0.059866495
213	0xbc96d65a	-0.018412758
214	0x3d15817e	0.036500446
215	0x3e03c4c2	0.12868026
216	0x3c9f8bf5	0.019475916
217	0xbd0d7a95	-0.03454073
218	0x3df60fcc	0.12014732
219	0x3d96fa54	0.07371965
220	0x3cd20047	0.025634898
221	0x3d990d48	0.07473236
222	0xbd1b3639	-0.037893508
223	0x3d004b29	0.03132168
224	0x3d69b7bd	0.057059992
225	0x3dca7c76	0.0988702
226	0x3b93ad79	0.0045067635
227	0x3ceac3b3	0.02865777
228	0x3decb769	0.1155842
229	0x3da25085	0.07925514
230	0x3d1405fb	0.036138516
231	0xbd08d4d0	-0.03340608
232	0x3c5699c1	0.013098181
233	0x3d3d068f	0.046148833
234	0xbce66723	-0.028125351
235	0x3d4c9427	0.049945977
236	0x3d80beda	0.06286402
237	0x3dfadc65	0.12249068
238	0xbd93255a	-0.071848586
239	0x3de21b64	0.110403806
240	0x3be99679	0.0071285334
241	0xbbf13e82	-0.007362188
242	0x3c902d0f	0.01759961
243	0x3c194eb8	0.009357147
244	0x3e134ac7	0.14383994
245	0x3ded652c	0.11591563
246	0xbd337a92	-0.043818064
247	0x3da40b51	0.08009971
248	0x3ddaab45	0.10677198
249	0x3cbd5fdb	0.023116997
250	0x3d3d632c	0.046237156
251	0xbd5d5764	-0.05403842
252	0x3d752ebd	0.059859026
253	0xbd42c96f	-0.047555383
254	0xbd32bc84	-0.043636814
255	0xbcc293c9	-0.02375211

fc4.bias f4 [3]
0	0xbdc50015	-0.09619156
1	0x3d461973	0.048364114
2	0xbdadc762	-0.08485295
