experiments/experiment_6/best_model_3_6.pt (torch, 39119 bytes, 8 tensors)

conv1.bias f4 [50]
000000 7a 5e b7 3c 03 3e 1d bc cc 2d bc bc cd e8 ba bc
       0.022383917 -0.009597304 -0.022971056 -0.022816086
000010 6e 76 bb bc 05 17 98 3c 1d ec ba bc 95 ed bb 3c
       -0.02288362 0.018565664 -0.022817666 0.022940436
000020 7f 4d bc bc 0f 1a ba 3c e6 e2 b1 3c 82 7f b8 bc
       -0.022986172 0.022717504 0.021714639 -0.022521738
000030 82 e3 bb bc f8 82 ba 3c e5 a2 bd bc 9e b8 a3 bc
       -0.022935633 0.022767529 -0.023148963 -0.019985493
000040 bf dc b9 bc 5c 89 b8 bc 17 f0 b7 3c 70 90 b3 3c
       -0.022688268 -0.022526436 0.022453351 0.02191946
000050 d3 fe b7 3c d3 c0 bd bc 2f ea c2 bc 9f 71 b8 bc
       0.022460377 -0.023163235 -0.023793308 -0.022515116
000060 e9 89 bb 3c aa fd b9 bc 2f d1 ba bc 17 d1 c0 3c
       0.02289291 -0.022703964 -0.022804825 0.023537202
000070 66 bc b7 bc e1 2c 65 bc 93 b7 bc 3c ac 54 bc bc
       -0.022428703 -0.013987751 0.023036754 -0.022989593
000080 80 a6 9c bc 2f 00 be bc 6a fe bb bc 8e 3f b8 3c
       -0.019122362 -0.023193447 -0.022948463 0.022491243
000090 87 c6 b9 3c 80 b3 b3 bc e1 3e b7 3c 80 72 bc bc
       0.022677673 -0.021936178 0.02236885 -0.023003817
0000a0 93 8f b8 3c 23 f3 b8 3c f0 5b ba 3c e7 64 bb bc
       0.022529399 0.022576874 0.022748917 -0.022875262
0000b0 d8 8b b4 bc 01 de a2 bc 92 44 bd 3c 08 2b 40 bc
       -0.022039339 -0.01988125 0.023103986 -0.011729009
0000c0 24 02 bc bc 93 67 bb 3c
       -0.02295024 0.022876536

conv1.lin.weight f4 [50, 116]
000000 ab 9c f6 3d 4f 52 1e 3b 55 ff c7 bb e1 a9 27 be
       0.12041601 0.0024157946 -0.006103436 -0.16373397
000010 c6 a9 f6 3d 6b 9a 9d bc 2b 5b d8 bc 63 38 0a 3e
       0.120441005 -0.019238671 -0.02641066 0.13498072
000020 72 5b b2 bc b0 45 b2 3d 84 0c 97 bd d4 1e bb 3d
       -0.02177212 0.08704698 -0.07375434 0.091367394
000030 08 87 57 be 8f 34 3f 3e 81 60 8a 3d 93 6c 22 bd
       -0.21047604 0.18672393 0.06756688 -0.039654326
000040 ac 02 b7 bd 43 dc 00 3c 98 58 82 bd 92 b6 b2 bd
       -0.089360565 0.0078650145 -0.06364554 -0.08726229
000050 65 60 1f 3e 99 d0 07 3e 8e 34 16 be 26 36 22 3d
       0.15564115 0.13263167 -0.14668486 0.03960242
000060 7b f1 26 be a8 a9 e5 bd 72 97 05 3e 7d 37 db bc
       -0.16303055 -0.11214 0.13046053 -0.026759857
000070 6c 3b 38 bc 19 cd 8e 3c a5 ed 9d bc 34 9d 21 be
       -0.011244636 0.017431783 -0.019278357 -0.15782624
000080 de 0c f8 3d 92 68 03 bd 65 b2 43 3d 24 dd 13 bd
       0.12111829 -0.032082148 0.047777552 -0.036099568
000090 62 81 20 3e 67 c0 4c 3d ea c6 89 3d 78 9f 68 bd
       0.15674356 0.049988177 0.06727393 -0.056792706
0000a0 f6 8c 15 be d5 8a 06 3e ed 3f 9e 3d 4d a7 e8 3c
       -0.14604554 0.13138898 0.077270366 0.028400088
0000b0 e5 bc 9d bc 69 bd b0 3c b0 d6 ba 3d 36 7e c4 bd
       -0.019255111 0.021574693 0.0912298 -0.09594385
0000c0 cb 79 db bd 59 c6 24 3e cd 37 1e 3e 59 03 d9 bd
       -0.107165895 0.16091289 0.15450974 -0.10596342
0000d0 d3 2d 14 bd 43 83 06 be 3c 5a 0d be b2 d1 4d bc
       -0.036176514 -0.1313601 -0.13803953 -0.012562202
0000e0 f5 d5 0e bc 43 1f c8 bd c1 bb 2b 3d a5 83 2f 3e
       -0.0087180035 -0.09771588 0.041927103 0.17140062
0000f0 72 be 38 3d fc c1 7a bd d7 52 42 3e a6 50 86 bc
       0.045103498 -0.061220154 0.18976913 -0.016395878
000100 a3 27 7a 3c a4 d0 17 3e b7 db 21 3e 46 93 ee bc
       0.015268239 0.14825684 0.15806471 -0.02912296
000110 b7 98 3e 3e e3 78 7d bd f4 44 db bd 57 24 39 3e
       0.18612944 -0.061882865 -0.10706511 0.18080269
000120 6a e3 80 bd 05 d4 77 bd 4f a1 05 3d 95 fa 4f bd
       -0.06293376 -0.060504932 0.03262454 -0.050776083
000130 e8 7e 06 3e 91 1f 0a bd d0 ca 2f be a2 74 1d 3e
       0.13134348 -0.03372151 -0.1716721 0.15376523
000140 94 e6 90 bc 2f c3 24 be 8f 87 42 3e 2e c3 17 3e
       -0.017688073 -0.16090082 0.18997024 0.14820549
000150 e0 7e 88 3d 64 1a 64 bd c9 a3 85 bc 99 9e fd 3d
       0.066648245 -0.05568923 -0.01631345 0.12383766
000160 b0 8c 16 be 05 37 01 3e b6 0f 2b 3e bc b6 49 be
       -0.14702106 0.12618645 0.16705212 -0.19698614
000170 c9 8e 35 3a a1 48 9c bc e4 93 26 3b 96 34 4f 3d
       0.00069258787 -0.0190776 0.002541774 0.05058726
000180 1c 51 08 3e 46 2c fd bd 08 3f fe 3d a9 f3 7d bd
       0.13312191 -0.1236196 0.12414366 -0.06199995
000190 bd 21 e8 bd 7e 3d 82 3d 50 81 02 be 3b f8 d7 3d
       -0.1133456 0.06359385 -0.12744641 0.10545393
0001a0 76 a5 e4 3d ac 22 b8 bd 5b 28 05 be 82 bb 0c 3d
       0.11164372 -0.08990988 -0.13003676 0.03435851
0001b0 ed d6 d3 3d 55 a5 e2 bd 87 e7 ca 3d 7a d4 83 bc
       0.10343728 -0.11066691 0.099074416 -0.016092528
0001c0 30 05 08 be 33 01 48 3e ae 9b b2 bd cb 76 5d 3d
       -0.13283229 0.19531707 -0.087211 0.054068368
0001d0 df b1 3b 3e 4d 1f ec bc 2c 33 05 be a9 5c 3a be
       0.18329571 -0.02882352 -0.13007802 -0.1819941
0001e0 f8 08 0e be a2 17 9a 3d 86 6d d5 3c 26 e9 73 3d
       -0.13870609 0.07524039 0.026053201 0.05954852
0001f0 16 5a 50 be 7f 6c 96 bd 77 da e8 bd b7 98 0b 3d
       -0.20346865 -0.07344913 -0.11369794 0.034081187
000200 2e 87 3e bc c5 0d 12 3d 23 3c 42 3e 6c 3d 25 3e
       -0.011628909 0.035657663 0.18968253 0.16136712
000210 e4 be ed bc 48 44 f2 3d 31 1d e8 bd d5 2f 5f 3d
       -0.029021688 0.1182943 -0.11333693 0.054488976
000220 29 97 73 3d 83 9c 4a 3e fb 5b 30 3e 09 20 e2 bc
       0.05947033 0.19786267 0.17222588 -0.027603166
000230 94 d6 cb 3d 6f 97 42 3e c9 38 47 bd e4 fe af 3c
       0.09953037 0.1900308 -0.04863814 0.021483846
000240 59 04 1c be a3 7b 14 be 48 b0 24 be 3a e5 23 3e
       -0.15236033 -0.14500289 -0.16082871 0.16005412
000250 61 75 f2 3d 56 4e fa 3d dc c1 d7 3d 5e 86 b1 bd
       0.118387945 0.12221973 0.105350226 -0.08668207
000260 29 e6 49 3e 43 72 c2 3c 10 30 e8 ba cb 12 ae bd
       0.19716705 0.023736125 -0.0017714519 -0.08499678
000270 ce ea d3 bc 19 13 7c bd d8 60 16 be e0 3e c8 3d
       -0.0258688 -0.06154165 -0.1468538 0.097776175
000280 80 90 b6 bd 8d 7f 99 3d 02 3c ef bd 21 6e 19 3e
       -0.0891428 0.074950315 -0.116813675 0.14983417
000290 75 72 29 be 06 aa 08 3e 91 81 ac bd 71 05 01 3e
       -0.16547568 0.13346109 -0.0842315 0.12599732
0002a0 c1 2b 2b be 3e 95 0e bc ce b2 4e 3e e3 85 08 3e
       -0.1671591 -0.008702574 0.20185396 0.13332324
0002b0 ee c4 0a 3d af af 1a 3c af 1b ae 3d 7a 22 0b bc
       0.033879213 0.0094413 0.08501374 -0.008492107
0002c0 c9 64 04 be df a1 3d be c0 5d f0 3d 7a 4d 89 bd
       -0.12929071 -0.1851878 0.117366314 -0.067042306
0002d0 59 52 33 3e 10 84 47 be d6 92 b3 3d 1e 40 1f be
       0.17511882 -0.19483972 0.08768241 -0.15551803
0002e0 3e 2f 8b 3d 4f d1 db 3d 64 f4 a0 bd 6f e8 b9 3c
       0.0679612 0.10733282 -0.07859114 0.02269384
0002f0 21 a0 e2 bd 96 f2 e5 3d 88 d2 e6 3d 8b a6 04 3e
       -0.110656984 0.1122791 0.112706244 0.12954156
000300 2d 57 52 3d 98 be 32 be 91 6e 3c be 09 f1 2c be
       0.05135267 -0.17455518 -0.18401553 -0.16888823
000310 69 34 09 bd ea d9 b2 bd 0e d0 21 3e 8f 44 d4 bd
       -0.033497248 -0.0873297 0.15802023 -0.10364639
000320 4c 83 7c bd 65 a8 dd bc d1 4a c0 bd d5 a1 ff bc
       -0.061648652 -0.027057836 -0.0938927 -0.031205097
000330 0f fb 09 3d d4 da 5d 3d e0 11 10 3d 7e 6e cd 3d
       0.033686694 0.05416377 0.035173297 0.1003084
000340 fb 93 39 be 7f 00 41 be 72 9f 94 3d d9 93 32 3e
       -0.18122856 -0.18847845 0.07256974 0.17439212
000350 51 04 47 3e 97 c3 2f 3e 44 55 a5 3d da 57 b4 3d
       0.1943524 0.17164455 0.08072904 0.08805819
000360 a9 45 4a bd 83 c3 00 3e bd fd 38 3e 72 34 df bd
       -0.04938284 0.12574582 0.18065543 -0.10898675
000370 b3 f1 e8 3d 5d 9d 1f 3d 07 24 1c be dd 93 80 3c
       0.113742255 0.038968433 -0.15248118 0.015695507
000380 a9 ba 08 be 59 37 3f be b8 8f 25 bc 06 94 78 3d
       -0.13352455 -0.18673457 -0.010105066 0.06068804
000390 79 8e 0a be 90 02 5c bd 37 40 05 3e 4e d3 36 3e
       -0.13530912 -0.05371338 0.13012777 0.17854044
0003a0 1a be b9 3d 6e 88 07 be d3 a6 e9 bd 4f 1d d7 35
       0.09069462 -0.13235638 -0.11408772 1.6027278e-06
0003b0 7b c4 4c be 1a c8 14 be 31 cf c0 bd 03 24 d7 bd
       -0.19996826 -0.14529458 -0.094145186 -0.105049156
0003c0 f1 97 7a 3d aa 02 07 3e 38 ca fc 3d c3 41 88 bd
       0.06118006 0.1318461 0.12343258 -0.06653168
0003d0 28 55 8d bc 14 b2 08 bd 74 54 48 be cb d3 d9 bc
       -0.01725252 -0.033372954 -0.19563466 -0.026590249
0003e0 25 70 61 bd 8e 93 16 bb 96 45 3d 3d 68 4d 63 bd
       -0.05503859 -0.0022976133 0.04620894 -0.055493742
0003f0 b0 9f c3 bd 5f ba 16 be 40 8f bd 3d 02 cd e5 bc
       -0.09551942 -0.14719532 0.092558384 -0.028051857

conv2.bias f4 [50]
000000 b1 41 3e bc 12 5b af bc b4 bb 4a bc 15 24 ae bc
       -0.011612342 -0.02140573 -0.0123738535 -0.02125744
000010 06 1e b3 bc e4 7c 43 bc 68 cc ad bc 51 f2 ae 3c
       -0.021864902 -0.011931632 -0.021215633 0.02135578
000020 e9 80 b1 3c 30 94 9f bc 61 77 98 bc f7 de ad bc
       0.021667914 -0.019479841 -0.018611612 -0.021224482
000030 82 c6 aa 3c 7b b2 4c 3c bf 17 1d bc 93 a7 b0 3c
       0.020846609 0.012493725 -0.009588181 0.02156428
000040 8b d3 69 3c d0 a6 17 3c 73 27 b7 3c 31 d5 b1 bc
       0.014271627 0.00925608 0.022357678 -0.021708103
000050 c1 9c af 3c ea 5e 54 bc 51 5c af bc a2 a4 b4 3c
       0.02143705 -0.012962082 -0.021406325 0.02205116
000060 31 d5 b1 3c db 25 af 3c ff e0 ae bc d1 ad af 3c
       0.021708103 0.021380356 -0.02134752 0.021445187
000070 8f 3d b1 3c 5b 74 03 bc f3 c9 ad 3c ab ec af 3c
       0.021635799 -0.008023347 0.021214461 0.021475157
000080 5d a2 aa bc 7b a2 af 3c 86 82 ab bc 29 8a b4 3c
       -0.020829374 0.021439781 -0.020936262 0.022038536
000090 7e 12 b4 bc 98 aa ae bc d7 ff aa 3c bf f0 4a bc
       -0.021981474 -0.02132158 0.020873947 -0.0123865
0000a0 d5 a5 3b bc b9 26 ad 3c d6 96 b1 bc 1e 96 2c bb
       -0.011453112 0.021136628 -0.02167837 -0.0026334594
0000b0 7e 59 b4 bc f6 15 4a 3b 0a 85 b2 3c af 8b 40 3c
       -0.02201533 0.0030835844 0.021791954 0.011752053
0000c0 8c 09 b2 3c fa 0e bd bc
       0.021733068 -0.02307843

conv2.lin.weight f4 [50, 50]
000000 d9 93 31 bd ec 47 52 be 7f 2b 36 bc b2 d2 61 be
       -0.04335389 -0.20535249 -0.011118769 -0.2205303
000010 55 d7 0f be 25 e6 1e be 71 d5 49 be 2b 49 52 3d
       -0.14046986 -0.1551748 -0.19710328 0.05133931
000020 7e 9f f9 3d cf 5f 22 3d c4 ea eb bd 94 bf 09 3e
       0.12188624 0.03964215 -0.11519387 0.13451988
000030 e2 34 4f 3e f7 17 88 3d a9 ac 16 3e f9 99 d3 3c
       0.20235017 0.06645196 0.14714302 0.025830256
000040 5c 67 12 bb d2 64 e2 3c 73 09 00 be 34 d6 23 3e
       -0.002233944 0.027635965 -0.12503605 0.15999681
000050 cf 87 ee bd 10 52 ad 3c 69 4e 79 3e a6 e2 15 3e
       -0.11646997 0.021157295 0.24346317 0.14637241
000060 1c 29 16 be ad 71 62 3e 40 07 1c be 0b f6 3a be
       -0.1466412 0.22113676 -0.1523714 -0.1825792
000070 a7 5b 32 be 4a df ff 3d bd 91 05 3e 6f c9 0e be
       -0.17417775 0.12493761 0.13043876 -0.13944028
000080 17 6d 5a ba 55 8a d9 bd 95 88 5c bd 91 87 14 be
       -0.00083322957 -0.10622088 -0.053841192 -0.1450484
000090 fa 0d 4d 3e 65 37 89 3d ca 37 57 3e 29 cc 65 bc
       0.20024863 0.06700019 0.21017376 -0.014025726
0000a0 91 c9 0f 3c 86 cb d4 bd 27 2d 67 be ea 8f c3 3d
       0.0087760845 -0.103903815 -0.22575818 0.09548934
0000b0 32 6d 2f be 1e be 64 3d c6 d3 df 3a 90 71 07 3d
       -0.17131498 0.055845372 0.0017076663 0.033067286
0000c0 d1 c7 df 3c bf b5 6f be 48 bb 5e 3e ae 82 7a bd
       0.02731696 -0.23409174 0.2175113 -0.061159782
0000d0 2e cb 0b be e6 5b 6d 3c 11 a7 3b 3e ce f1 c0 ba
       -0.13651726 0.014487242 0.1832545 -0.0014720501
0000e0 54 d9 00 3e cd b4 94 bd 45 f4 6b 3e 11 0e cd 3d
       0.12582904 -0.072610475 0.230424 0.100124486
0000f0 a6 8f f4 3b 80 73 e2 3b 1b 8f 7c bd ee ed 3c 3d
       0.0074634133 0.0069107413 -0.061659914 0.046125345
000100 50 c4 bf bc cf f0 3d 3d 26 4e 15 3c f9 a3 0e 3d
       -0.023409039 0.04637223 0.00911287 0.034824345
000110 ba d0 1e bc c1 e5 f9 b9 f4 70 9d bc b4 0e 40 be
       -0.009693319 -0.0004766416 -0.0192189 -0.18755609
000120 a1 8b 47 3e 92 f4 11 3d 03 cd 51 3e e7 87 8e bd
       0.19486858 0.03563363 0.20488362 -0.06959515
000130 c5 0e 31 3e 58 4d 26 be 82 ed 15 be 44 c1 00 3e
       0.1729079 -0.16240442 -0.14641383 0.12573725
000140 9f dd 4e 3e 13 d0 ca bd 04 20 63 be b2 1f 24 3e
       0.20201729 -0.09902968 -0.22180182 0.16027716
000150 c8 41 48 bd 6d 26 f2 bc b4 0c 1f 3e fc d8 80 3d
       -0.04889086 -0.029559338 0.1553219 0.062913865
000160 e8 ef 95 3d 13 3b 40 be 25 1c 9d 3c 06 d8 1e 3e
       0.07321149 -0.18772535 0.01917846 0.15512094
000170 88 75 68 be 3a bf f4 3b 79 75 fe bd e3 7c 92 3c
       -0.22701085 0.007469085 -0.1242475 0.017881816
000180 59 52 28 bd 7c c5 5c 3a 1a 45 2d be 0a 3b fd bd
       -0.041094158 0.00084217614 -0.16920891 -0.123647764
000190 76 08 91 bd 1b 8e df 3d 06 6d c2 bd e5 64 46 be
       -0.07081692 0.10915776 -0.09493451 -0.19374426
0001a0 fb 8f 2b be a4 45 d2 3d 61 72 a5 3d 03 64 3a 3e
       -0.16754143 0.10267189 0.08078457 0.18202214
0001b0 74 53 ff 3d f0 4a c2 bc d4 ba 4b bd 14 00 00 be
       0.12467089 -0.023717374 -0.04973872 -0.1250003
0001c0 88 75 4e 3e 17 2f 1e be 09 a9 02 3e ca e1 5b bd
       0.20162022 -0.15447651 0.12759794 -0.053682126
0001d0 2a 56 45 3e 3d 7f 5d 3d 25 d0 b6 bd 72 63 64 3e
       0.1927115 0.054076422 -0.08926419 0.2230356
0001e0 a5 18 18 be f7 71 96 bd fe 8e 1f be f3 0e a8 3d
       -0.14853151 -0.07345956 -0.15581891 0.08205976
0001f0 5f 65 ed 3d 7e bf 28 be 63 aa 6b be 21 e8 c2 3d
       0.115916006 -0.16479298 -0.23014216 0.09516931
000200 0d e4 6b 3d 1c 35 32 3d 75 92 fb 3d 73 a5 b2 3d
       0.057590533 0.04350768 0.12283794 0.08722963
000210 e9 3d 46 bd d8 0a 88 bc 0a d1 ae 3d f3 fb 32 be
       -0.048398886 -0.016606733 0.08535965 -0.17478923
000220 47 cc b2 3d 08 28 32 3e cd 23 01 be 36 99 95 3d
       0.08730369 0.17398083 -0.12611313 0.07304613
000230 b2 cd 46 3e af d0 6c be 3e ff b7 bd dc 50 68 3e
       0.19414404 -0.23126481 -0.089842305 0.22687095
000240 d3 6a 8a bd 9e 39 64 3e a0 c6 4d be 49 db 0a bd
       -0.06758656 0.22287604 -0.200953 -0.033900533
000250 42 5b d2 bd 9a 05 36 be 3c 79 24 bd 3b 9c 90 bc
       -0.10271312 -0.17775574 -0.04015468 -0.017652621
000260 e0 a1 48 3d 1a 37 7f 3d 07 79 3a bc be 88 04 be
       0.0489825 0.06230841 -0.011381394 -0.12942788
000270 c3 4c 04 bd ba ce 22 3e bd 1c dd bd 9a 2c a7 3c
       -0.03229977 0.15899172 -0.10796497 0.02040701
000280 3f eb 7e bd d0 82 11 bd 5e f5 7a 3e f9 ba d9 3d
       -0.062236067 -0.035525143 0.24507663 0.10631365
000290 ad 77 5d 3e 84 1f 1c be 6d 2b 1b be f9 49 5d bd
       0.21627684 -0.15246397 -0.15153284 -0.054025624
0002a0 f0 da 0d bc ea 8b ec 3d 7e 50 22 be 30 8c 0a be
       -0.008658156 0.11550124 -0.15851018 -0.1353004
0002b0 34 3c 8f 3d 2a 01 53 be 35 84 d3 3d ec 4f 13 3d
       0.06993905 -0.20605913 0.10327951 0.03596489
0002c0 96 84 a4 bc 04 a5 a9 bc 89 b5 9d 3d a1 6c 4f be
       -0.020082753 -0.020708568 0.07700641 -0.20256282
0002d0 26 8b 26 3e 4d 69 56 bc 08 ae 41 3d 74 3f 0a be
       0.16264018 -0.013086629 0.04728511 -0.13500768
0002e0 4f 2b 1c 3e 23 1f ea bd 62 7d f3 bd bf 99 0b 3e
       0.15250896 -0.1143172 -0.11889149 0.13632868
0002f0 ec a0 44 bb 2d 07 b9 bd 62 0e 16 be f9 ed 55 3e
       -0.0030003143 -0.09034572 -0.14653924 0.2089156
000300 f4 c9 25 3d 24 a8 9d 3d 09 dc 12 be c5 30 60 be
       0.0404758 0.07698086 -0.14341749 -0.21893604
000310 a7 1e 15 be c8 ec 41 be 55 5f 1e be 83 9d 5d bd
       -0.14562474 -0.18937981 -0.15466054 -0.054105293
000320 97 97 d6 3d 8c 71 2b 3e 15 84 4a 3d 52 52 b2 3d
       0.10478132 0.16742533 0.04944237 0.087071076
000330 b7 07 e0 3d 63 67 b8 3d f1 98 2d 3e 2b 9e 65 bd
       0.109389715 0.090040945 0.16952874 -0.056059044
000340 4f b0 24 be 8f 32 6e 3e 79 1a a1 bd fd e7 5f 3d
       -0.16082881 0.23261474 -0.078663774 0.0546646
000350 50 16 0e 3e a3 99 1a be 69 11 10 bd c9 05 0e 3e
       0.13875699 -0.1509767 -0.035172854 0.13869394
000360 00 a2 57 bc ac 0d 15 3e 9e 81 a7 3d 33 9b 03 3e
       -0.013161182 0.14555997 0.081790194 0.12852173
000370 bf 3c 66 3e 14 71 4a bd 70 12 16 be 16 d3 8c bd
       0.2248411 -0.049424246 -0.14655471 -0.06876199
000380 fd 00 ce bd 9a 1f 54 be 5b 3a 71 3e 82 cc 47 bd
       -0.10058782 -0.2071518 0.23557417 -0.04877902
000390 d3 c8 26 bd 62 cc 7a bd 2f 3e 17 3d 3e c9 2d 3e
       -0.040718865 -0.06123007 0.036924537 0.16971299
0003a0 1c 1c e6 3d 0e ea 26 3e 4d c0 c2 3d 0d 8d 07 bd
       0.1123583 0.16300222 0.09509335 -0.0330935
0003b0 af 88 4c 3e 49 4e 57 3d 0e e3 43 3e 5b 66 38 3e
       0.19974016 0.052564893 0.19129583 0.18007796
0003c0 a2 a0 71 3e 83 46 44 3e 8d 3e f1 bd 6d e9 73 3d
       0.23596433 0.19167523 -0.11779509 0.059548784
0003d0 36 d9 2b 3e 08 ad 08 3d 5e 76 2e 3b eb d2 1d bd
       0.16782078 0.03336814 0.0026620845 -0.038531225
0003e0 05 f7 09 3e fb 0d 40 be 72 83 51 3b ea 3d d9 3d
       0.13473137 -0.18755333 0.0031969217 0.10607512
0003f0 49 38 4a be cb ea 3f 3e c8 94 3d 3e 38 d9 34 3e
       -0.19748034 0.1874191 0.18513787 0.17660987

pool1.weight f4 [1, 50]
000000 f9 a6 9d 3d d6 b8 8e bc f6 06 f6 bd 60 a2 85 bd
       0.07697863 -0.017422121 -0.120130464 -0.06525111
000010 6d 72 80 bd bc 76 85 bc c3 80 00 bc c8 37 68 3d
       -0.06271825 -0.016291969 -0.007843199 0.056693822
000020 7a bd a4 bd 5c 09 a2 3d 32 5f e7 3d 62 82 e6 bd
       -0.08043952 0.079119414 0.11297454 -0.11255337
000030 fe 99 f6 bd 74 fc 9a 3d 53 c7 ff bd 43 f7 38 3c
       -0.120410904 0.07567683 -0.1248919 0.011289421
000040 ee ff a9 bd 95 62 df bd ab d9 22 3d 5c f1 29 3c
       -0.08300768 -0.10907475 0.039758366 0.010372486
000050 27 75 8a 3d e9 63 80 bd 5a e5 d9 bc 99 3a 07 be
       0.06760626 -0.06269056 -0.026598621 -0.13205947
000060 e3 47 f6 3d 56 0b 0e be 2f 25 08 be 14 99 b3 3d
       0.1202543 -0.13871512 -0.13295434 0.08769432
000070 84 8c 8a bd 1b fb 84 3c 47 f5 8f 3d d0 f8 7f bd
       -0.067650825 0.016233018 0.07029205 -0.062493145
000080 f4 87 2a bd 53 5f 82 bd c3 05 c4 bd 06 26 90 bc
       -0.04163356 -0.06365838 -0.095714115 -0.017596256
000090 eb fd 9a 3d d2 d6 c8 bd 0b 34 01 3e 8d 84 05 be
       0.07567962 -0.09806599 0.12617509 -0.13038845
0000a0 49 9d e9 3d 73 c4 36 3d b0 38 09 3d 7f 66 e4 bc
       0.11406953 0.044620942 0.033501327 -0.027880905
0000b0 6c c6 ca bd ef 2c a1 bc 47 54 5f bc 17 1d 63 bd
       -0.09901127 -0.019674746 -0.013630933 -0.055447664
0000c0 e5 db 5d bd 78 02 d5 3d
       -0.054164786 0.104008615

pool2.weight f4 [1, 50]
000000 4d 91 36 bd 39 85 57 bd 88 a7 b6 bd 59 c8 5f bd
       -0.044572163 -0.052617285 -0.08918673 -0.054634426
000010 46 0c 33 bc d2 dc df bd b8 2e fe bd e4 87 08 3e
       -0.010928219 -0.1093079 -0.12411255 0.13333088
000020 df 76 d4 3d ba 4c 2b 3d 72 17 38 bd 4b 6d 0b be
       0.10374235 0.04182122 -0.044944234 -0.1361591
000030 af 61 fb 3d 65 f1 df 3d 68 3b eb bc 4b 68 4c 3d
       0.12274491 0.10934714 -0.02871485 0.04990415
000040 6b 3f 12 bd e7 27 37 3d 9a 09 2e 3d 0a 7d 05 be
       -0.03570501 0.04471579 0.042489626 -0.1303598
000050 9c 3e 1d 3e da a5 50 bd 75 f4 0f be 09 cc 32 3b
       0.15355915 -0.05093942 -0.14058097 0.002728226
000060 fb 08 8c 3d 53 7f b2 3d 22 42 fb bd 94 32 97 3d
       0.068376504 0.087156914 -0.12268473 0.07382694
000070 37 e6 07 3e ce a5 8e bd ac 5f 82 3d c0 25 be 3d
       0.13271414 -0.069652185 0.06365904 0.09284544
000080 5d 5a 21 be 9e 93 06 3e 82 c7 bc bc 11 a5 80 3d
       -0.15757127 0.13142249 -0.023044351 0.06281484
000090 36 7a 24 bd ce 33 04 be 22 dd 8d 3d a7 4a bd bd
       -0.040155612 -0.12910387 0.06926943 -0.092427544
0000a0 94 69 c4 3c 49 01 d7 3d d3 c1 db bd e2 55 8c 3d
       0.023976125 0.10498292 -0.107303284 0.06852318
0000b0 e4 2b 91 ba fa b6 92 bd b0 79 8c 3b 51 b9 d5 3d
       -0.0011075702 -0.07163806 0.004286967 0.10435737
0000c0 4d d0 ca 3c e0 c0 88 3c
       0.024757529 0.016693532

fc4.weight f4 [3, 200]
000000 1d 4c 85 bd bd 9e bb bd fe 6d b5 bc 48 40 81 bd
       -0.06508658 -0.09161136 -0.022147175 -0.06311089
000010 82 8b 87 bd 16 00 bb bd a8 cb d3 3c 3a ed 36 3c
       -0.06618406 -0.09130876 0.025853947 0.011164958
000020 5a 57 ac bd d0 70 da 3c b8 fd 94 bd 86 de 4d 3c
       -0.084150985 0.026665121 -0.072749555 0.012565261
000030 69 22 8b bd 13 26 a4 3b f2 6c 3b 3c ff 45 3f 3d
       -0.067936726 0.0050094216 0.011439549 0.046697613
000040 14 bd 96 3c 7d bf 28 bd 1f 47 79 bd be 59 b3 3c
       0.018400706 -0.041198242 -0.060858842 0.021893378
000050 7b c3 23 3d ed 0e 1d 3d 18 26 20 3c fc b0 c6 bc
       0.039981347 0.038344312 0.009774707 -0.024254315
000060 84 91 77 ba 70 0a bb bc 99 71 98 bd 67 76 82 bd
       -0.0009443986 -0.022832125 -0.07443542 -0.0637024
000070 a7 06 10 bd 9d 4b c2 bc 0c 53 84 bd 29 66 a4 3c
       -0.035162594 -0.023717696 -0.064611524 0.020068245
000080 80 10 0a 3d b8 25 bf bc f4 ea 63 bc bd 44 61 bd
       0.033707142 -0.023333415 -0.013910998 -0.054997195
000090 48 ef a6 bd c5 98 87 bd 6b 7d 30 bd 47 e5 38 bd
       -0.08151108 -0.06620935 -0.043088358 -0.04514053
0000a0 31 97 26 bd bf cd 35 3d 4b ca 86 bd e4 49 a7 bd
       -0.04067153 0.044385668 -0.06581553 -0.081683904
0000b0 3d 84 18 bd d3 15 1a bd 2a 1b 1f 3b 30 63 a7 bd
       -0.037235487 -0.03761847 0.0024277666 -0.081732154
0000c0 e5 87 a3 bd 85 e2 87 3c 4f aa 88 bd 0d 30 2b bd
       -0.07984904 0.016587505 -0.06673109 -0.04179387
0000d0 ff 4b fa 3c ca 10 ac bc d9 db e3 bc 10 5d ce bc
       0.030553816 -0.0210041 -0.027814792 -0.02519086
0000e0 40 89 d0 3c d9 be 4d 3d c4 5c 8b bc 4f 3e 99 3c
       0.02545607 0.050230835 -0.017012008 0.018706469
0000f0 38 31 4d bd 54 5c bb 3d b5 2d cf bc 3a 54 c3 3c
       -0.050095767 0.091484696 -0.02529035 0.023843873
000100 09 19 76 bc b2 d3 02 bd b5 7d 17 39 33 71 ba bc
       -0.015020617 -0.03194017 0.00014447312 -0.022759056
000110 f3 83 bf 3b 12 48 55 bc 96 95 5f bd e1 ab 77 3b
       0.005844587 -0.013017671 -0.054586016 0.0037791657
000120 bf 03 86 3c b8 5b 4f bc 42 61 a4 bd 3b 31 0e 3d
       0.016359208 -0.012656145 -0.08026363 0.03471492
000130 68 bf 12 3d 80 5d 8a bd b0 01 65 3d 24 64 ec 3c
       0.03582707 -0.06756115 0.055909812 0.028856345
000140 e9 88 44 bd 1c c1 15 bd f6 b9 05 bd 0c 99 b6 3d
       -0.04798213 -0.036561117 -0.03264805 0.0891591
000150 22 11 aa 3c 13 7b 1a 3d 48 fd 03 3d dc f5 14 3d
       0.020760123 0.03771503 0.03222397 0.036367282
000160 d9 cd d4 3c 14 4f 3d 3d f7 71 0b 3d 16 a1 f1 3c
       0.025977062 0.046217993 0.034044232 0.029495757
000170 7c d4 7f bd cc cb 87 3d 70 c1 62 bd 4b 49 2b bd
       -0.0624585 0.06630668 -0.055360258 -0.041817944
000180 32 c9 3b bd 1f 01 82 3d 0f 30 a8 3d 67 fb 17 3c
       -0.04584617 0.0634787 0.082122914 0.009276248
000190 a8 37 82 3d 31 7a 36 3b 05 00 4b bd ed 2d e6 bb
       0.06358272 0.0027843828 -0.049560566 -0.0070245177
0001a0 81 50 11 3d 24 35 86 bd 05 a1 9c 37 77 1b 0f bc
       0.035477165 -0.065531045 1.867163e-05 -0.0087345755
0001b0 04 9b 97 bd 67 32 cf bc 05 fa f4 bc 69 25 65 bd
       -0.07402614 -0.025292588 -0.029904375 -0.05594388
0001c0 f9 5a 9a bc bf 2c 04 bc 99 e2 3f bc e2 76 47 3d
       -0.018842207 -0.008067309 -0.01171174 0.04869736
0001d0 68 f3 8f bd 1a 43 3f bd 7e f2 3d bd 7f d5 9c bc
       -0.07028848 -0.046694852 -0.046373837 -0.019144772
0001e0 b7 83 ce 3c d3 0e ac bd 86 cf 89 bd aa 60 1b bc
       0.02520929 -0.08401265 -0.06729035 -0.009483496
0001f0 fe 50 8c bd a8 97 a1 bd 72 01 37 bd c7 df 3f bd
       -0.068513855 -0.07890254 -0.044679113 -0.04684427
000200 7a a1 e9 bc ab 63 6c bd 23 80 b4 3c 0e 35 85 bd
       -0.02851938 -0.05771224 0.022033757 -0.0650426
000210 06 00 9a bd c7 91 a1 bc 34 4e 91 bc 50 1a a5 3c
       -0.07519536 -0.019722832 -0.017737485 0.020154148
000220 07 cc 90 bd dd e1 62 3c 18 f3 f3 3c bf 05 0a bd
       -0.07070165 0.013847795 0.029779002 -0.033696886
000230 01 e6 68 bc fb 1e 5b 3c 20 e3 d4 3c f8 6e 56 bd
       -0.014214993 0.013374086 0.025987208 -0.05235192
000240 de d1 24 bd 7c 17 97 bd e4 a0 65 3d e4 83 23 bd
       -0.040239207 -0.07377526 0.05606164 -0.039920703
000250 c1 fc 80 bd 6a e0 38 3d ba 17 b1 bc 1e 4d 40 3d
       -0.06298209 0.045135893 -0.021617759 0.046948545
000260 4b 1b 2e bd 35 9b a6 bb 14 08 03 3d 59 7f 6a 3c
       -0.042506497 -0.00508442 0.031990126 0.014312589
000270 53 06 b5 bb ee ee c3 bc 90 3b fe bc 6e da bf 3c
       -0.0055244355 -0.023917641 -0.031034261 0.023419585
000280 99 a4 1c 3a 5e ee 1c bd cf 43 fb bb 64 79 05 bd
       0.00059754547 -0.038313262 -0.0076679955 -0.03258647
000290 67 54 35 bd f4 65 4c 3d b9 3a 59 3d ab b1 23 bc
       -0.044269945 0.049901918 0.053034518 -0.00999109
0002a0 bc 32 70 bd a7 88 e8 bc 5a 13 b1 bc 7a 62 37 bd
       -0.058642134 -0.028385473 -0.021615673 -0.04477165
0002b0 77 14 89 3c c3 1f 05 3d fc be 6f bd 76 b6 8c bd
       0.016733391 0.032500993 -0.058531746 -0.06870739
0002c0 08 fb 40 3d d1 e8 d5 bc fd 0e 4b bd 9f 6a 01 3d
       0.047114402 -0.026111992 -0.04957484 0.031595822
0002d0 73 6e 27 bb e0 bf 43 bd bf c5 44 3d b5 35 3d 3d
       -0.002554801 -0.047790408 0.048040148 0.046193797
0002e0 c6 09 b5 3c a8 6f 2d bd b0 07 be 3c 4a 4a 9c 3c
       0.022099387 -0.04234281 0.023197025 0.019078393
0002f0 2e 68 28 bd f7 f8 1f bd 8c 4f 8e bd 5a fb 24 3d
       -0.04111498 -0.03905579 -0.06948766 0.04027877
000300 c4 c3 3a 3d 69 01 9b bc 18 dd 1e bd 05 15 a5 bd
       0.045596853 -0.01892157 -0.03878507 -0.0806065
000310 63 80 80 bd ae 15 93 bd 8f 94 3c bd 5e 27 96 3c
       -0.06274488 -0.071818694 -0.046040114 0.018329319
000320 38 e8 2d bd c2 ba c5 3c 5c a7 37 bd a7 f9 0b bd
       -0.04245779 0.024136905 -0.04483734 -0.034173634
000330 9a 29 3d bd 40 a4 64 3d 5b cd 32 3d ed b2 94 3d
       -0.046182252 0.055820704 0.043652873 0.0726069
000340 7f 9c 56 bc b0 67 bd 3d 02 92 ed bc 7d 40 27 3d
       -0.013098835 0.092482924 -0.029000286 0.040832985
000350 da eb 28 bd c1 93 89 3d 07 46 46 3d e2 b5 02 bd
       -0.04124055 0.06717635 0.048406627 -0.03191174
000360 fa c3 37 3d f6 f5 69 3d 86 a2 0e 3d aa af 1c 3d
       0.044864632 0.057119332 0.034822963 0.038253464
000370 ee 26 96 3d 7e e8 bd bc b2 6c 3a bd cb 39 8b 3d
       0.07331644 -0.02318215 -0.045513816 0.067981325
000380 32 f8 be 3d e9 1a b6 3c c3 38 e3 bc 3f 5c 03 3d
       0.09324683 0.022229629 -0.027737027 0.032070395
000390 b6 7f 3c 3d 82 64 32 bd df 85 bb 3d 6d c8 80 bb
       0.046020232 -0.043552883 0.09156393 -0.0039301426
0003a0 8b 65 21 ba 7a 2d 7c 3c c2 bc 1c bd 63 ac 68 3d
       -0.00061567937 0.015391702 -0.03826595 0.056805026
0003b0 43 fe ef 3a 6e 02 d1 3b 2c 00 17 3c 30 4d c9 3c
       0.0018310029 0.0063784635 0.00921635 0.024572939
0003c0 36 87 93 bc 63 e5 25 3d a0 35 9d 3d be 81 0c bd
       -0.01800881 0.040501963 0.07676244 -0.03430342
0003d0 24 77 6e 3d 38 76 12 bd 03 b0 bd 3d 9e da 3d 3d
       0.05821909 -0.035757273 0.09262087 0.046351068
0003e0 2a 51 10 bd 11 74 a9 3d a4 73 7d 3b 1b 58 7a bd
       -0.035233654 0.08274091 0.0038673664 -0.06111918
0003f0 bd 7a 25 bc 6a 29 00 3d a4 88 7e bd 55 a5 9a bd
       -0.010100064 0.031289496 -0.06214203 -0.07551066

fc4.bias f4 [3]
000000 6f 37 92 3b 92 5a 1b bd 7c 9e 10 3c
       0.0044621746 -0.03792817 0.008826848
