experiments/experiment_6/best_model_4_6.pt (torch, 39119 bytes, 8 tensors)

conv1.bias f4 [50]
000000 eb 5d d8 3c f7 37 e7 3a bb 99 a0 3c 05 18 39 3d
       0.026411971 0.001764058 0.019604554 0.045188922
000010 33 4b fd bc bf 97 3a 3d 8b 3a a4 bb 7b 54 33 bd
       -0.030919647 0.045554873 -0.0050118617 -0.04378174
000020 fc 19 fc bc 28 1a 31 bd 3e 56 a2 bc 34 8a fb 3c
       -0.030774109 -0.043237835 -0.019816514 0.030705549
000030 de c4 39 3d 9c e9 35 3d ae 5e f9 3c 11 69 38 bd
       0.045353763 0.04441224 0.030440655 -0.045022074
000040 27 e1 06 3d 42 13 f8 3c 11 34 f5 3c b8 52 01 bd
       0.032929566 0.03028262 0.029932054 -0.031573027
000050 a2 a5 33 bd 92 1e 4c 3c c2 b4 39 bd c0 9f 38 3d
       -0.04385913 0.01245846 -0.0453384 0.045074224
000060 d1 fe 31 bd 29 0f 3d 3d fd ca 32 bd 6b d2 32 bd
       -0.043455902 0.046157036 -0.043650616 -0.0436577
000070 5b 68 38 3d e9 44 3d 3d b9 6b 3b 3d 59 fc e3 3c
       0.045021396 0.046208296 0.04575703 0.02783029
000080 c6 3d 1e bd 2a ae 36 3d 38 9f 3a 3d 8b ec 04 3d
       -0.03863313 0.04459969 0.045562 0.032452147
000090 28 b5 36 3d 91 b8 bd bc 3b a4 3e 3d 8e c3 0c 3d
       0.044606358 -0.023159297 0.04654334 0.034366183
0000a0 5a fc 08 3d a1 62 39 bd 3b 26 36 bd 14 72 3d 3d
       0.033443786 -0.045260075 -0.044470053 0.04625137
0000b0 0c 11 da bc 96 a1 36 bd cd ce 34 bd ed b5 db bc
       -0.026619457 -0.044587694 -0.044142533 -0.026820147
0000c0 77 30 e9 bc d2 59 35 bd
       -0.028465493 -0.044275112

conv1.lin.weight f4 [50, 116]
000000 48 df e2 bd 46 f8 90 3d 0b 68 30 3e 33 94 7e 3d
       -0.11077744 0.070786044 0.17227189 0.062153053
000010 08 b2 dd bb 0e 40 10 3e 62 3c 1c bc 3a 63 d4 bd
       -0.0067656077 0.14086935 -0.009535881 -0.103704885
000020 68 22 c2 bd a1 50 58 3d 13 db d9 bd 88 95 8d 3d
       -0.09479219 0.05281127 -0.10637488 0.069132864
000030 c4 b9 fa bd be 67 32 3d 6e d6 17 3e f1 5c 32 bc
       -0.12242463 0.043555968 0.14827892 -0.010886417
000040 b9 fb ca 3c ad b8 0f bd 6b de 20 3e ff 8d 36 3e
       0.024778234 -0.03508823 0.15709846 0.17827605
000050 12 6f fe bd f4 ce b2 bb b4 f4 68 3c 25 81 5e 3d
       -0.12423529 -0.0054567996 0.014218498 0.05432238
000060 c6 79 09 be a6 0c 08 be d1 20 64 bd 7e c2 cc bd
       -0.13425359 -0.13286075 -0.05569536 -0.09998034
000070 32 26 53 3d 96 d8 0d 3e b7 40 8d 3d ee e9 84 3d
       0.051550098 0.13852152 0.06897109 0.06489931
000080 7b f3 68 3d 6f 85 bf bc e2 09 9b bd 2a 9f 5e 3d
       0.056872826 -0.023379056 -0.07570244 0.05435101
000090 8f f7 d5 3d 99 dd 60 3d 67 f4 e7 3d b2 94 59 3e
       0.10447609 0.054898832 0.11325913 0.21248129
0000a0 96 f0 d8 bd db cd 96 bd 89 13 96 3c 53 3c 8f 3c
       -0.10592763 -0.073634826 0.018319862 0.01748482
0000b0 81 eb a3 3d 23 f2 1e be f5 49 0e 3e 3e 7f 2b bb
       0.08003903 -0.15522055 0.138954 -0.0026168372
0000c0 8d d4 e2 bd ac a9 0e 3c 22 fa e2 bd 4d 60 b7 3d
       -0.11075697 0.008707445 -0.11082865 0.08953915
0000d0 82 30 c0 bd c2 52 a9 bd 1c 66 0c bd 96 71 34 3e
       -0.09384252 -0.08267738 -0.034277067 0.17621455
0000e0 1b 83 06 3e bb a1 3d 3e 3d 0c 26 be 77 81 b5 3d
       0.1313595 0.18518727 -0.16215606 0.08862584
0000f0 86 b8 d1 bd 86 0c 19 3e 64 8b e6 3d be c6 eb 3d
       -0.10240273 0.14946184 0.112570554 0.115125164
000100 ae ca f2 bd 25 10 77 bd 87 cc 2d 3d db 53 1d 3e
       -0.11855064 -0.06031813 0.04243138 0.1536402
000110 b0 e9 31 3e 21 91 47 3d 59 d5 17 3e 98 3f e8 3d
       0.17374301 0.04872239 0.1482748 0.113402545
000120 db 61 6e bd 0a fd f9 3d d1 f0 f7 bd a7 5c 09 be
       -0.05819879 0.122064665 -0.12106479 -0.1341425
000130 fb 47 14 be 98 9c bd 3d e4 e6 64 bd ab f0 a0 bd
       -0.14480583 0.092583835 -0.055884257 -0.07858404
000140 ba 8f 18 bd 15 a6 8a bd f1 0c cc 3d fe 26 3d bb
       -0.037246443 -0.06769959 0.09963406 -0.0028862352
000150 af c2 3c bd 58 08 d4 bb 0f 79 c6 bc 38 29 36 bd
       -0.046084102 -0.006470721 -0.024227647 -0.044472903
000160 9a 0f 83 bd df 13 60 3d 27 3c aa bd f3 95 f7 bd
       -0.0639946 0.05470645 -0.083122544 -0.120891474
000170 02 e2 7b 3d bb e4 01 bd 6d d1 4d 3c 1a 88 38 3e
       0.061494835 -0.031712275 0.012562138 0.18020669
000180 a0 bb 34 be 7e f5 b2 bd b6 f7 db bd 11 a9 23 be
       -0.17649698 -0.0873823 -0.107406065 -0.15982462
000190 9b c8 00 3e e8 c4 9e 3d d9 fb 32 3d a8 c2 db 3d
       0.12576525 0.07752401 0.043697212 0.10730487
0001a0 08 65 89 bb ee 6d f7 3c a2 b4 5a bd 45 1a 97 3c
       -0.004192952 0.030203786 -0.05339492 0.018445143
0001b0 74 80 37 3d a5 68 45 3e a2 e7 35 3d 8a 69 43 3d
       0.044800237 0.192782 0.044410355 0.04770807
0001c0 15 74 00 be f1 e3 01 3d da 29 2d 3d 68 f2 1a 3d
       -0.12544282 0.031711522 0.04227624 0.037828833
0001d0 3b f3 49 be 60 3b f6 3d 6a df eb 3d f0 21 ed ba
       -0.19721691 0.12023044 0.11517222 -0.0018091779
0001e0 75 92 5c 3d 32 92 88 3d 05 32 f1 3a ed 02 22 3e
       0.05385061 0.066685095 0.0018401748 0.15821429
0001f0 c6 ad 38 be 7a b0 b3 3d 92 ce 37 be 33 b6 eb 3d
       -0.1803504 0.087738946 -0.17949894 0.11509361
000200 e8 73 9c bd 4d 68 c5 3d e8 34 00 3d 3c d3 a0 3c
       -0.07639295 0.096390344 0.031300455 0.019631974
000210 55 b5 89 bd 2c 8a ee 3d 06 aa 86 bd f1 28 53 be
       -0.067240395 0.11647448 -0.06575398 -0.20621087
000220 35 88 90 bd c2 3b 80 3d fb d2 52 3e d0 44 d7 3d
       -0.070572294 0.06261398 0.20588295 0.10511172
000230 e1 40 34 3e 3b 73 39 be 53 bf 24 3d 67 bf 06 3e
       0.17602874 -0.18110363 0.040221523 0.13158952
000240 02 a2 96 bd 4d 4f bc bd 74 59 36 be 63 25 d1 bd
       -0.07355119 -0.09194813 -0.17807561 -0.10212209
000250 df ab a2 3c 06 47 eb 3d 32 1d 74 bd 3c 0e ad 3c
       0.019857345 0.11488156 -0.059598155 0.021124952
000260 d0 dd 10 be 7a 5d 59 bd a4 83 e6 bd 53 e6 f1 bd
       -0.14147115 -0.05306766 -0.11255577 -0.11811509
000270 40 b5 46 3e 5a fe f2 3c 77 54 26 be 7f 88 0f be
       0.19405079 0.0296623 -0.16243158 -0.14016913
000280 da 51 69 bd a6 7b 42 3e 13 10 4a 3d bd 46 20 3e
       -0.056962825 0.1899248 0.049331736 0.15651985
000290 81 d6 99 bb ec 36 8c 3c a0 d2 d3 bd b8 8b ac bd
       -0.0046947603 0.017116033 -0.10342908 -0.08425087
0002a0 b4 aa 01 3e 03 52 be bc 9f 69 05 be 2c 52 fa bd
       0.12662774 -0.023232466 -0.13028572 -0.12222704
0002b0 62 0c 5c 3e 94 2c a4 bc 5e 46 8e bd e1 db b6 3d
       0.21489099 -0.020040788 -0.06947015 0.08928657
0002c0 19 05 47 bc 64 bb 29 3e b5 b1 87 bd 7d f0 85 3d
       -0.0121472115 0.1657539 -0.06625692 0.0654001
0002d0 de 22 25 be 93 28 18 3d d8 28 a9 3c 8c 4e 77 3d
       -0.16126582 0.03714807 0.020649359 0.060377643
0002e0 ed 0d ec bd 16 b1 be 3d bd 58 ed bd fa 10 08 bc
       -0.11526094 0.0931112 -0.11589191 -0.008304829
0002f0 db dd d1 3d 04 82 70 bd 33 ac 37 be 17 e0 ee bd
       0.10247394 -0.058717743 -0.17936783 -0.116638355
000300 a3 75 8e 3d 18 c9 f7 3d b8 83 18 bc e5 cd bd 3d
       0.06956031 0.120989025 -0.009308748 0.09267787
000310 ac 82 0b 3e b9 b7 8f 3d b1 36 ea 3d 47 d5 bb 3d
       0.13624066 0.07017464 0.11436213 0.09171539
000320 2d b7 14 3e 6c 49 45 bd 71 95 fa 3d 68 3d 46 be
       0.14523001 -0.048165724 0.12235535 -0.19359362
000330 15 ae fe bd 29 19 8f 3d 7d 14 0d be 6f 00 0a bd
       -0.12435547 0.06987221 -0.13777347 -0.03369182
000340 d6 9b 6f 3d 70 50 9c 3d 5d d0 a0 3d cd 00 54 3d
       0.058498226 0.0763253 0.07852242 0.051758576
000350 fd 77 02 be 26 6b f4 3d 07 49 0c be a6 66 f0 3d
       -0.12741084 0.119344994 -0.13699733 0.11738329
000360 23 e4 fd 3d 38 a4 11 3e 24 1f 9f bd be 66 2d be
       0.12397029 0.142228 -0.077696115 -0.16933724
000370 1b fe 2d 3e 6d 70 1a 3c b2 0f c3 bd a2 75 e6 bd
       0.16991465 0.009426218 -0.09524478 -0.112529054
000380 f4 02 9b bd ab 47 d9 3d a5 47 59 3d f4 06 ca 3d
       -0.07568923 0.10609373 0.05304684 0.098646075
000390 51 3f e0 3d 1b 30 9d 3d 39 3f 79 bd dc ea 5a be
       0.10949577 0.07675191 -0.06085131 -0.21378654
0003a0 e4 9c 26 be d3 ad 4c be 7f 20 09 be 71 c6 64 bd
       -0.16270787 -0.19988184 -0.13391303 -0.05585331
0003b0 1c 6d ba 3c 3c cf 7d 3c ee d7 22 3e b0 74 90 bc
       0.022757106 0.015491303 0.15902683 -0.017633766
0003c0 01 24 8b 3b b3 d3 01 3b 11 fe cb 3d 06 f9 4f 3d
       0.0042462354 0.001981002 0.09960569 0.050774597
0003d0 b7 29 1d 3d 74 6a 24 bd 88 e1 96 3d 0f 17 78 3d
       0.03836986 -0.040140584 0.073672354 0.060568865
0003e0 5f 93 e0 bd c9 04 98 bd 60 ef 25 be f9 91 21 bd
       -0.10965609 -0.07422788 -0.16204596 -0.03944585
0003f0 d6 4c 7a 3c 91 b9 82 3d bf 9a aa 3d 03 10 75 3c
       0.015277108 0.0638305 0.08330297 0.014957431

conv2.bias f4 [50]
000000 3f aa 8c 3c 43 fe a1 3c 79 2a 37 3d 34 28 a0 3b
       0.017171023 0.019774562 0.04471824 0.004887605
000010 49 02 bf bc 53 6b ea bb 7d c4 1c 3d af b5 03 bd
       -0.02331652 -0.0071539073 0.038273323 -0.03215569
000020 dd 7b 86 3c 45 b0 2f bd 8c 3f 03 3c 76 90 9b 3c
       0.016416484 -0.042892713 0.008010756 0.018989783
000030 25 a0 f1 3b e8 d0 d7 38 c0 25 07 bc 8f 6a 29 bc
       0.007373827 0.00010290911 -0.008248746 -0.010340347
000040 00 d3 dd bc eb 4d 2d bd 3d b6 5a 3b 3e 0a 19 bc
       -0.027078152 -0.042310636 0.0033372783 -0.009340821
000050 84 45 a0 bc 25 bf 8e 3c 1f b3 bf 3c f7 f9 aa bc
       -0.019564398 0.01742513 0.023400841 -0.020871146
000060 25 0d 5e bc 0a 60 97 bc 32 cc d2 bb 8f b9 6c ba
       -0.013552939 -0.018478412 -0.0064330334 -0.0009030336
000070 a7 75 75 3c 6a db 50 bc 27 7c bc 3b bc 4c 4f 3b
       0.014981664 -0.012747625 0.005752105 0.003163143
000080 5f a4 1f bc cd 7f 32 bc ed 13 6e ba fe 74 ae 3c
       -0.009743779 -0.010894728 -0.00090819487 0.02129602
000090 8c e5 55 3b 27 00 37 bb 9b 2a 7d bc 6d c6 8c 3c
       0.0032638041 -0.0027923675 -0.0154520525 0.01718446
0000a0 34 55 82 3b 6e 12 a6 bb d5 8d 50 3c 71 94 42 ba
       0.003977442 -0.005068115 0.012729128 -0.0007422632
0000b0 8c 0f 68 bb 09 d6 5e 3c 45 f7 0a bc 09 42 45 3a
       -0.0035409657 0.013600835 -0.008481805 0.00075247936
0000c0 a5 9c 0a 3d 3d 91 44 3b
       0.033840794 0.0029993795

conv2.lin.weight f4 [50, 50]
000000 1a 33 69 3d fc f8 30 3d 9c 63 9a 3d 21 27 57 3e
       0.0569335 0.0432062 0.0753853 0.2101102
000010 52 b2 52 3d 67 88 e4 bd 24 c1 e2 3c e2 50 18 3e
       0.05143959 -0.11158829 0.027679987 0.14874604
000020 46 ff 3a 3e 49 1b 1f 3e d5 e0 c4 3d 00 45 4f 3e
       0.18261442 0.15537752 0.09613196 0.20241165
000030 d7 b1 ac 3c 29 63 16 be 53 af 6a be 3b 2d 4e be
       0.021080894 -0.14686264 -0.22918443 -0.20134442
000040 f1 5b 40 be 81 e8 55 3e 73 c8 5e 3e b7 61 63 be
       -0.18785073 0.20889474 0.21756153 -0.22205244
000050 9a 5f 22 be 3c 9a 08 be 7f 1a 3b be 02 f7 de bd
       -0.15856782 -0.13340086 -0.18271826 -0.10886957
000060 fa 00 44 bd 9a 3c 0e be 3e 5b 2a 3e 6f 12 8e bc
       -0.047852494 -0.13890305 0.16636369 -0.017342774
000070 91 32 df 3d 50 2d cf bd c9 6c dc bd d1 c8 e5 3d
       0.10898317 -0.101160645 -0.107629366 0.11219943
000080 ca bb 02 3e 4f 83 6e be d8 c0 eb 3c 85 c0 f0 bc
       0.12766948 -0.23292278 0.028778479 -0.029388675
000090 95 f7 b0 3d 5e cf 47 3e 01 d2 83 3e 0c 36 ab bd
       0.086409725 0.19512698 0.25746158 -0.08359918
0000a0 30 ad 06 3e 4e 5e 79 3d 43 d5 a2 b9 0e 8f e9 3d
       0.13152003 0.06088095 -0.0003105794 0.11404239
0000b0 f9 04 8d 3e d8 3b 26 3e 8a 51 fd 3c d6 64 25 be
       0.27542856 0.16233766 0.03092267 -0.16151747
0000c0 42 e5 4b 3e 9e cc 94 bc 6f 8e 4d be b7 55 e2 3d
       0.19911674 -0.018163975 -0.20073865 0.11051505
0000d0 d6 5d 48 be 16 d2 94 bc 33 dc 03 be 70 c5 16 be
       -0.19567046 -0.018166583 -0.12876968 -0.14723754
0000e0 9c 32 c9 3d 40 98 a3 bd bf 1f ab 3d 02 34 58 bc
       0.09824106 -0.07988024 0.083556645 -0.013195993
0000f0 46 07 90 bd 28 67 e9 bd 0d 41 5d 3d b2 9c e1 bd
       -0.07032637 -0.113966286 0.054017115 -0.110162154
000100 a6 40 cd bd 03 91 42 3e c0 cf 86 3e 5b b6 0f be
       -0.10022096 0.1900063 0.26330376 -0.14034407
000110 2c 3a 30 3e 05 bb 33 3e b7 95 8d 3d 80 1d c9 bd
       0.17209691 0.17551811 0.069133215 -0.0982008
000120 0a 38 62 3e c5 c9 3b 3e 73 ad ee 3c a8 dd 2b 3e
       0.2209169 0.18338688 0.029135441 0.16783774
000130 08 40 07 3e 1a a5 63 3e ae 03 51 3e 0b fa 74 3e
       0.1320802 0.2223095 0.2041156 0.23923509
000140 df fc 6d 3e 44 17 ad bd 52 c8 02 be 57 48 c8 bd
       0.23240994 -0.08451703 -0.12771729 -0.09779423
000150 be e2 f5 3c 86 7b 73 bd f7 a2 63 be 16 f3 30 3e
       0.030015346 -0.059443973 -0.22230135 0.1728023
000160 80 82 24 be ba 49 2b be ef 03 6e bd 55 fd 01 3d
       -0.16065407 -0.16727343 -0.05810922 0.031735737
000170 cc 78 bf 3d ea 8a 14 bd 75 d9 85 bd c6 82 c8 3d
       0.09349212 -0.03626529 -0.06535617 0.09790568
000180 de cc a4 3c 2b a4 42 3e 4d 0d 5b 3e 22 d3 13 be
       0.02011722 0.19007938 0.21391793 -0.1443601
000190 bc f0 f0 3d 28 30 a4 3c ff 8c 8e 3b 0c 53 16 3e
       0.117646664 0.020042494 0.004350304 0.14680117
0001a0 cc a3 1c 3e 80 f3 dc bd 50 ff 76 be 7d bd 47 3e
       0.15296859 -0.107886314 -0.24120831 0.19505878
0001b0 0b c0 b2 bd e8 e5 37 bc 2a cd 45 be 57 8a 43 3e
       -0.087280355 -0.0112242475 -0.19316545 0.19095741
0001c0 8b 71 70 39 8b 74 32 3e b6 a9 9b 3d b0 b4 60 be
       0.00022930482 0.1742727 0.07600729 -0.21943927
0001d0 f3 82 23 be d8 77 42 3e 41 fc 18 be ee 6d 62 3e
       -0.15967922 0.1899103 -0.14939977 0.22112247
0001e0 83 fb 20 be 7e d4 1f be fd ec 43 3e cb e1 07 be
       -0.15720944 -0.15608403 0.19133373 -0.13269727
0001f0 7f a8 d4 bc e0 e2 4c 3e f7 d2 e0 3d 7a c5 6b 3e
       -0.025959251 0.20008421 0.10977738 0.2302455
000200 f2 b2 99 3d d7 c5 d3 3c bc 4d 45 be 92 30 c7 3d
       0.07504834 0.025851173 -0.19267935 0.09726061
000210 93 09 09 be 18 74 45 3e 22 6f d9 3d 76 4e 81 3d
       -0.13382559 0.19282568 0.106169 0.06313793
000220 c4 f9 16 be e4 06 6d be 1a d2 0a be ca cd c1 bd
       -0.14743716 -0.2314716 -0.1355671 -0.09463079
000230 a4 cf 84 bd 9c b8 78 bd 18 3c b1 bd 24 7b 27 bd
       -0.06484917 -0.060722932 -0.0865404 -0.04088892
000240 c2 8e 39 3e 6f 18 7b bd fc bb 32 3e 35 de 50 be
       0.18120864 -0.0613026 0.17454523 -0.20397265
000250 ab be 2d 3d f9 6d 26 be 50 7e b9 bc 45 ca d8 3d
       0.042418163 -0.16252889 -0.022643238 0.10585455
000260 fd a4 26 be e6 f5 50 3e 43 1d 51 be d8 8a 7c 39
       -0.16273876 0.20406303 -0.20421319 0.00024084316
000270 c0 39 5a be ef 07 c7 3d 19 29 11 be 46 e6 34 3e
       -0.21311092 0.0971831 -0.14175834 0.17665967
000280 df 1b 7a be 1b fc a9 bd fb f0 65 bc be 7f 63 3e
       -0.24424694 -0.083000384 -0.014034505 0.22216699
000290 db 98 d9 bd 7f dc 6d 3e b1 0d 9b 3d ba da 2e be
       -0.10624858 0.23228644 0.07570971 -0.17075625
0002a0 9b fb b4 bd 11 54 03 bd 01 0c 2d 3e 0d 69 f7 3c
       -0.088370524 -0.032062594 0.1689911 0.03020146
0002b0 22 0e 2e be 3a 86 34 3d 32 2e 97 bc da 71 1b be
       -0.16997579 0.04407332 -0.018454645 -0.1518015
0002c0 db 50 39 3e 9d 59 65 bd 62 02 bf bc e8 3d 05 be
       0.1809725 -0.055993665 -0.023316566 -0.13011897
0002d0 02 8b 10 bd ce 59 26 be 59 97 1b bd a4 c5 95 bd
       -0.03528882 -0.16245195 -0.037986133 -0.073130876
0002e0 4a 93 32 3e 01 09 84 3c d1 ae c1 bd 77 43 ce bd
       0.17438999 0.016117575 -0.09457172 -0.10071462
0002f0 66 6f f1 3d 50 ae 51 be ff 69 eb 3c c0 ed 17 3e
       0.11788826 -0.20476651 0.028737066 0.14836788
000300 fa 17 73 be db ae 5d 3e 1b 64 b8 3d 4f eb c6 bd
       -0.23739615 0.21648733 0.090034686 -0.0971285
000310 8b 2b 12 bc 5c a7 37 3d 39 d0 02 3e 49 a1 5a bd
       -0.008921514 0.04483734 0.12774743 -0.05337647
000320 3a 2f 70 3e a0 13 5d 3c 42 9b 4a be fc 2c 33 3e
       0.23455516 0.0134934485 -0.19785789 0.17497629
000330 19 13 34 be cc 11 40 bd a0 24 21 3e 19 fa 2a 3e
       -0.1758541 -0.046891972 0.15736628 0.16696967
000340 ff f0 33 bd 19 b3 ac bd 68 66 8f 3d a7 da 1e 3d
       -0.043931004 -0.08432598 0.07001954 0.038782742
000350 8d 16 53 3e ca 43 85 3d 5b 9b e6 bc 73 d3 6d be
       0.20614071 0.0650707 -0.028150251 -0.23225193
000360 d0 73 51 3e c2 aa f7 bd fa 49 21 3e 82 54 04 be
       0.20454335 -0.12093116 0.15750876 -0.12922862
000370 18 0f 4c be e7 b9 fd bd 99 44 03 be 9f 55 ed 3c
       -0.19927633 -0.12388974 -0.12819137 0.028971491
000380 cd 09 59 3d 9d d6 85 3d fe d3 1f 3e 13 24 23 bc
       0.052987862 0.06535075 0.15608212 -0.009957331
000390 9f ae ac bc 57 05 c1 bc be b7 ca 3c e1 41 34 bd
       -0.02107936 -0.023562117 0.024745818 -0.04400814
0003a0 cd e3 a8 bd 38 aa 09 be dd ea 0b 3e 1d 9d 16 3e
       -0.082465746 -0.1344384 0.13663812 0.14708371
0003b0 5d fa 21 be 3c 83 fb 3d 73 a9 4b 3d c9 b6 41 be
       -0.15818162 0.1228089 0.049722146 -0.18917383
0003c0 7a 9e 70 3e 0a b0 26 3e 82 03 cb 3d 84 27 2b be
       0.23497954 0.16278091 0.099127784 -0.16714293
0003d0 ee 35 3f 3c 0b 04 0c 3e 90 71 27 3e fd ab a1 bc
       0.011670573 0.13673417 0.16351914 -0.01973533
0003e0 a2 39 81 bb f5 40 47 be 76 23 bc bb e7 9f c0 bd
       -0.003943638 -0.19458373 -0.005741532 -0.09405499
0003f0 0f 58 25 3e a7 eb 01 be ae 88 b1 bd ac d2 44 3d
       0.16146873 -0.1268755 -0.08668648 0.048052475

pool1.weight f4 [1, 50]
000000 2a 07 5c 3d 1e 7c 86 bc 4f f0 d9 3d 47 98 13 3e
       0.05371777 -0.016416606 0.10641538 0.14413558
000010 63 e1 e5 bd 58 5b d7 3d 4b 6b 0b bc e1 14 3a bd
       -0.1122463 0.10515469 -0.008509467 -0.045430068
000020 0d 0d 09 bd 2f d4 da bd 0e 3e 1b bd d4 cf 84 bc
       -0.03345971 -0.10685002 -0.037900977 -0.016212381
000030 02 df 1f 3e 5a 63 92 3d b0 b3 04 3e 80 71 0e be
       0.15612414 0.07147856 0.1295917 -0.13910484
000040 41 f0 d6 3d 3e 10 62 3d 63 42 8e 3d d2 a4 a1 bd
       0.104950435 0.05519127 0.06946256 -0.07892765
000050 54 bb c6 bd e5 76 d9 3c d1 a4 de bd aa 48 d5 3d
       -0.09703699 0.026545951 -0.1087128 0.1041425
000060 fd 38 af bd 1e 1d ad 3d 5e ad 99 bd 29 4d 83 bd
       -0.085557915 0.08452819 -0.0750377 -0.064112015
000070 eb aa 07 3e e8 da 47 3d 22 31 a5 3d ae ba 5e 3d
       0.13248794 0.04879275 0.08066012 0.05437725
000080 b9 5d a5 bd 58 ce 17 3d 2d 6d 05 3e ed 02 b4 3d
       -0.08074517 0.03706202 0.13029929 0.087896205
000090 12 a0 c0 3d 57 55 8a bd 14 61 9d 3d 7e a1 f9 3c
       0.09405531 -0.067545585 0.07684532 0.030472513
0000a0 22 ec 04 3e b3 e0 0d be 6b 37 13 be 23 81 8a 3d
       0.12980703 -0.13855247 -0.14376609 0.06762912
0000b0 74 79 e2 bd 3d 13 d4 bd 6c be 1a be 5d be b0 bd
       -0.110583216 -0.10355232 -0.15111703 -0.08630059
0000c0 68 b4 9a bd 55 61 a1 bd
       -0.07553941 -0.07879893

pool2.weight f4 [1, 50]
000000 a6 77 79 3d f3 2d 26 bd d1 e1 0c 3c dc 15 d4 bc
       0.06090512 -0.040571164 0.008598761 -0.02588933
000010 16 1a 8b 3d 40 10 3f 3d 3b ca 26 bc 99 a8 6e bb
       0.06792085 0.046646357 -0.010180051 -0.003641641
000020 6d 49 b5 bd c8 ed f0 3c df 86 62 3c 42 88 92 3b
       -0.088518955 0.029410258 0.013826101 0.0044718096
000030 de c1 00 ba 4b 6d 02 be 51 02 f2 bc c7 74 f8 bb
       -0.0004911701 -0.12737004 -0.02954212 -0.0075822803
000040 83 43 9c bb 43 4a 1d bc 97 fe 1d be 2d 2c 0c 3e
       -0.00476879 -0.009600225 -0.1542915 0.13688727
000050 64 5e 3e bb 4a b2 c1 bd 07 f5 31 bc e4 10 d0 3d
       -0.002904796 -0.09457834 -0.010861642 0.10159472
000060 1c 48 72 3d 30 4f 78 3d 3d 0b a3 3d fb 29 df 3d
       0.0591508 0.060622394 0.07961128 0.10896679
000070 a5 c2 e3 bd f8 0d a3 3c ce b8 d0 bc 0f 87 ba 3d
       -0.1112111 0.019904122 -0.025478747 0.09107792
000080 11 cc 06 bd 25 48 b4 3d dc a5 16 3d 22 da c1 bd
       -0.032909457 0.08802823 0.03677927 -0.09465434
000090 48 7c 13 3d 31 b4 bf bd 79 c5 ba 3c 11 13 89 bd
       0.036007196 -0.09360541 0.02279924 -0.0669309
0000a0 bd 48 b2 bd 0c fe ec 3c e4 af 0c be b5 f0 f6 3d
       -0.0870528 0.028929733 -0.13738972 0.1205763
0000b0 7d 7d 33 3d 67 a4 51 bd d9 85 1f 3c a2 8a af bd
       0.043820847 -0.051182177 0.009736502 -0.08571364
0000c0 cc 4a 09 bd f1 ec b1 bd
       -0.033518597 -0.08687771

fc4.weight f4 [3, 200]
000000 d7 ff 97 3c 89 39 9e bd c4 9e c8 3c 23 fd 2f bd
       0.018554611 -0.07725818 0.024489768 -0.04296602
000010 67 54 65 bd 2f af 8b bd 28 89 cf bd e2 a2 97 3c
       -0.055988695 -0.06820523 -0.10133582 0.018510286
000020 99 70 b6 3a 58 d5 db bc 71 ef 91 3c 2a d4 5a bd
       0.0013919055 -0.026835129 0.01781437 -0.05342499
000030 97 2a 1a bd 4e 05 80 3c 33 20 17 bd d9 44 c3 bc
       -0.037638273 0.01562753 -0.036895942 -0.02383654
000040 a6 e4 0a bd 2d 7f 83 3b 08 48 c1 bd b7 81 83 bd
       -0.033909462 0.0040129633 -0.09437567 -0.064212255
000050 33 bd 2f bd 6d bc c3 bd 36 03 96 3c ec 88 ce 3c
       -0.042905044 -0.09557424 0.018312078 0.025211774
000060 79 29 66 bd f7 c9 3a bd 24 62 d7 bd 70 15 e2 bd
       -0.056191895 -0.045602765 -0.10516766 -0.11039245
000070 97 0d 7a 3c 6c ee 4a bd 65 de 05 bd a5 cd 28 3c
       0.015262029 -0.049543783 -0.032682795 0.010302936
000080 bb 62 4a bd a6 f5 82 bc 82 6e c1 bd 28 3b 38 bc
       -0.049410563 -0.015986275 -0.09444906 -0.011244573
000090 f6 32 a4 3c 4a 67 89 bd 9d 42 9c bd a6 56 b5 bd
       0.020043831 -0.06709154 -0.07629893 -0.088544175
0000a0 c0 65 56 3c f6 d9 6f 3c 5e 02 43 bd 2c 12 c5 bd
       0.0130857825 0.014639368 -0.04760968 -0.09622607
0000b0 29 9f be 39 d1 b6 d6 bc c5 1a eb 3c 5a ba 3a bd
       0.00036358208 -0.02621022 0.028699288 -0.045587875
0000c0 47 a7 51 3c 56 57 76 bc 48 a3 f8 bb 5c 1b be bc
       0.01279623 -0.015035471 -0.007587824 -0.023206405
0000d0 80 d3 33 bd a1 f5 b1 bd 1e b6 10 3c 01 d4 6a 3d
       -0.043902874 -0.08689428 0.008832483 0.05733109
0000e0 15 73 b2 3d 8d 10 ac 3b d1 53 c4 3d 59 2b 0f 3d
       0.087133564 0.0052509964 0.09586299 0.03495345
0000f0 bc d2 82 3c ec dd a6 bc 9f e1 91 bd e7 3e 9f 3c
       0.015969627 -0.020369492 -0.07123112 0.019439174
000100 70 68 64 bd f3 fc e3 3c a8 45 5c bd ad 52 94 bc
       -0.05576366 0.027830577 -0.053777367 -0.01810583
000110 41 fb d4 bd f3 01 c7 3d 45 2a 1a 3d dc 86 b1 3b
       -0.103994854 0.09717169 0.037637968 0.005417688
000120 96 12 b3 ba 9a c9 9d bd 63 35 ca 3d f3 a0 f6 bc
       -0.0013662155 -0.07704468 0.09873464 -0.030106043
000130 a3 43 89 bc 42 04 61 3d da b3 2b 3c 07 a2 ec bc
       -0.016755885 0.0549357 0.010479892 -0.028885854
000140 6b 4f e7 3c b9 46 62 3d 26 8e 1d bd 86 76 71 3d
       0.028236112 0.055243228 -0.03846564 0.058950923
000150 09 92 b0 bd 90 13 33 bd d3 5c e0 bd d3 d3 64 3d
       -0.08621604 -0.043719828 -0.10955205 0.055866074
000160 4d d3 c8 3c 9d 73 a1 38 18 27 b0 bd 6b e7 a8 3d
       0.024514819 7.698613e-05 -0.086012065 0.082472645
000170 4e 0b 84 3d bd 08 2d 3d 7a 77 c5 3c de 54 84 3d
       0.06447469 0.04224466 0.024104822 0.064615
000180 3a 76 82 bc 83 77 df 3d e0 4d 61 3d c9 98 8b 3d
       -0.015925515 0.10911467 0.055005908 0.06816251
000190 40 bc 2c 3d 74 98 7f 3c 74 54 96 bc be e4 31 bd
       0.042171717 0.0156003125 -0.018350817 -0.043431036
0001a0 68 bd ff bb 63 22 fc bb af aa 1e bd b5 bb f6 bc
       -0.0078045614 -0.007694529 -0.038736995 -0.030118803
0001b0 f2 9c 3c bd 22 1c ce bc df 1a 9f bd 95 0f 5b 3d
       -0.046048112 -0.0251599 -0.07768797 0.053481657
0001c0 30 3c af bb 44 f1 83 bd ac 36 02 3c 47 ff 1c 3d
       -0.005347751 -0.06442502 0.007947605 0.03832939
0001d0 89 ad 97 3b 91 0d c4 bc 89 f0 81 bd ce 74 23 3d
       0.0046288413 -0.02393225 -0.063447066 0.039906316
0001e0 6f a0 e0 3c c5 a8 60 bd 5c f4 03 ba 0d 5e 59 bd
       0.02742025 -0.05484845 -0.0005033666 -0.05306821
0001f0 89 1a 57 3d 79 7d 22 bd eb 1a bd 3c 92 c4 03 3d
       0.05251554 -0.03967044 0.023084125 0.032169886
000200 91 d1 aa 3c 3b 8c 9c 3d 7d 87 a2 bb fa c8 ca 3c
       0.020851882 0.07643934 -0.004959999 0.024754036
000210 b6 ad 3f 3d ec 35 7e bd 94 d1 73 3d 9d ae 85 3c
       0.046796523 -0.062063143 0.05952604 0.016318614
000220 3b 51 7e 3d 60 4b 51 bd c8 67 0f 3d f6 7d 26 bd
       0.062089186 -0.051097274 0.035011083 -0.04064747
000230 ae 43 4e bd e9 f8 95 bd ce 61 c0 3c 2a 93 2f 3d
       -0.050357513 -0.073228665 0.023484137 0.042864956
000240 65 c2 54 3d 37 68 13 bc 29 7d ed bc 14 94 d9 3c
       0.0519432 -0.008997015 -0.028990345 0.026559867
000250 2e 7b e6 bc e2 04 30 3d 30 e2 39 3d af e6 92 b9
       -0.028134909 0.042973407 0.045381725 -0.00028019163
000260 d3 30 b9 3d f5 e0 a7 3d 05 70 3a bc e7 38 07 bd
       0.090425156 0.08197204 -0.011379247 -0.03301325
000270 c6 13 b5 3d e0 2d 23 bd dc 73 09 bd 1e 1c 36 bd
       0.08841662 -0.03983867 -0.033557758 -0.04446041
000280 31 49 1d 3b 5f 8a 62 3d d7 77 3b 3c 29 b9 63 3d
       0.0023999924 0.055307742 0.011442146 0.055596504
000290 39 4a 54 3d 58 0f c6 bd 0f 23 72 bd ba df 8c 3b
       0.051828597 -0.09670895 -0.059115466 0.004299131
0002a0 48 1a d5 bb d6 4a f4 3c 0a 1f b6 bc 3a 49 d6 3c
       -0.006503377 0.02982084 -0.022231597 0.026157964
0002b0 73 fa 0d 3d 1b 54 56 bd 43 6f 01 3c bf 20 fd bc
       0.034662675 -0.052326303 0.007900062 -0.030899404
0002c0 a7 e4 98 3b 33 5d c3 bd 81 7e 0f 3d cd 09 fc 3a
       0.0046659294 -0.09539261 0.035032753 0.0019228995
0002d0 b9 78 b4 bc 88 b7 6d 3d 01 a0 a4 3c fe da 56 bb
       -0.022030221 0.058036357 0.020095827 -0.0032784338
0002e0 7e 29 53 bd 22 ac 22 3d f1 5e 8b 3d 65 7e a1 bd
       -0.051553242 0.03971494 0.06805218 -0.07885436
0002f0 41 c1 28 bd f9 31 d8 bb 1f 2b 77 bd d1 5e 1a bd
       -0.041199926 -0.006597754 -0.060343858 -0.03768808
000300 ca f5 d8 3c 99 d4 4d 3d 01 aa f9 3b 98 f4 99 3d
       0.026484389 0.050251577 0.007619143 0.07517356
000310 8e 3b 1d bd f6 19 15 3d 90 13 4c 3d 7f d2 1a bd
       -0.038386874 0.03640171 0.049823344 -0.0377984
000320 98 ad cb 3c bf 5b 54 3d 49 1e da bc e5 14 90 3d
       0.02486305 0.05184531 -0.02662577 0.07035235
000330 6a 82 07 3d 73 fe a5 3d 02 2f a6 bc 6c 4a 22 3c
       0.033083357 0.08105173 -0.020286087 0.009905439
000340 30 49 94 3d 18 75 cb 3c 49 77 bb 3d 16 8f 4d 3d
       0.07240522 0.024836108 0.09153611 0.050185286
000350 a6 30 e2 3d 30 e8 bf 3d 59 3d 18 3d 0d c0 6d bc
       0.11044435 0.09370458 0.03716788 -0.0145111205
000360 50 bc 43 3d 58 8e 84 3d 24 50 2a 3c 63 56 8e 3c
       0.04778701 0.064724624 0.010395084 0.017375177
000370 90 63 d4 3c 2d 42 2c 3d ec d7 34 3d cb c3 d4 3d
       0.025926381 0.042055298 0.04415123 0.10388907
000380 28 e3 02 3d 5f 14 bb 3d 26 d4 35 3c ac 58 64 bc
       0.031954914 0.09134745 0.011097943 -0.013937157
000390 7c 02 cc 3d b3 88 8a 3d ea 90 cc 3d bd 87 ec 3b
       0.09961411 0.067643546 0.09988578 0.0072183297
0003a0 54 0e 5e 3d 93 a1 4a 3d bb 11 ad 3c ee e7 47 3d
       0.054212883 0.049470495 0.021126619 0.04880517
0003b0 a8 ac 97 3d 75 5d 1d 3d ea bf e6 3d 0f 28 fc 3c
       0.074059784 0.038419206 0.112670735 0.03078082
0003c0 08 8a 8a 3d 72 85 5d 3c a8 8e eb 3c 8a e0 d0 3d
       0.067646086 0.013520585 0.028754547 0.101990774
0003d0 d7 ba ad 3d ef f1 d2 ba 54 09 8b 3d 4d c7 de 3d
       0.084829025 -0.001609383 0.067888886 0.10877857
0003e0 dd e1 95 3d 92 c0 0f 3d 2f f5 ad 3d 5a 30 19 3d
       0.073184706 0.03509576 0.08494031 0.037399627
0003f0 0c dd 5d 3d e3 bd a6 3d e2 ad a3 bc 8e 75 95 3d
       0.054165885 0.08141687 -0.019980375 0.072978124

fc4.bias f4 [3]
000000 8e aa 7a bd 15 fc 8d bc 0d 6d 8e bd
       -0.06119781 -0.017332116 -0.069543935
