experiments/experiment_6/best_model_1_6.pt (torch, 39119 bytes, 8 tensors)

conv1.bias f4 [50]
00000000: bea9 ed3c 63bd 3b3d 98d4 fabc 5371 623c
00000010: f1b8 2ebd ccc9 33bd 1ef1 b9bc 9154 32bd
00000020: 1b70 603c 1438 823c e5b3 033d 9eb6 a83c
00000030: 6533 40bd 3681 323d 6e41 3ebd cfbf 323d
00000040: 056e cfbc dfce 683c b0fa 3d3d 364e 00bd
00000050: 94c4 eabb 085d 21bc 9849 b73c 3aae 99bc
00000060: a379 28bd 52fe bfbc 77aa 39bd 232f 0d3d
00000070: 7110 203d 8f7d ff3c 66ea de3c ed8f 3d3d
00000080: 411e de3c 3851 3b3d eb0c 79bc c22d 26bd
00000090: fb25 debc 9b96 d7bc c9c2 babc 98e7 023c
000000a0: 2689 fabc e1e2 f93c 7689 7e3c d750 afbc
000000b0: 449e f4bc 7855 3c3d 1f39 82bc 685b 3fbd
000000c0: e580 3dbd bfb6 61bc
0.029011603 0.04583491 -0.03061895 0.013820964 -0.042656843 -0.04389362 -0.022697981 -0.04353768
0.013698603 0.01589588 0.032153983 0.020594891 -0.046924014 0.043580256 -0.046449117 0.043639954
-0.025321016 0.014209478 0.046381652 -0.031324588 -0.007164547 -0.009848841 0.02237396 -0.018759836
-0.041131627 -0.023436699 -0.045328584 0.03446878 0.03907818 0.0311878 0.02721138 0.046279836
0.027114036 0.045731753 -0.015200834 -0.04057098 -0.02711772 -0.026316931 -0.022797959 0.007989787
-0.030582976 0.030503692 0.015535703 -0.021400852 -0.029860623 0.045979947 -0.015896378 -0.04671803
-0.0462655 -0.01377648

conv1.lin.weight f4 [50, 116]
00000000: e2b1 323e 3225 e0bd c2b4 10be 4964 883d
00000010: 23c7 b9bc b3a8 7f3d b9bf f43c 65c3 cabd
00000020: f34b a03c 9d01 103d 4e22 10be cd10 34bd
00000030: 7203 9a3d b625 28be cd48 12be 8c29 b8bd
00000040: 335c a93c 4431 3fbd 1eca 9b3d 7523 dd3d
00000050: 0fe0 8c3d 5411 cebd 0dbd b93d c5f1 88bc
00000060: a1c8 22bd f328 2dbd bc4d 613c 66e0 5bbd
00000070: b38f c3bd 2157 523e 9e22 213e fac5 1cbe
00000080: 431f 12bc f75c 1d3d 662d 4abd 1e06 31bd
00000090: 4c0b 273e 6e52 2abe 9e96 32be 00f3 253e
000000a0: cd72 f8bc 5b8f 893d 1b97 263e da12 4bbe
000000b0: a433 07be f4a7 bebd 0a2c 34bd 7a78 333e
000000c0: bf04 2ebd e55a c6bd 08a6 393d 2403 7cbd
000000d0: 74ca 153e bee7 21be a917 523e b57e 043e
000000e0: 52d9 593a bf1b 58bc 0471 1b3e 0e88 cb3c
000000f0: 8413 1ebd c2ea 123e 554b 2dbe ac68 1f3e
00000100: b845 3fbd f07c be3d f399 30bd af0c 133e
00000110: 3be8 133e c870 edbd 036d 0fbe 1692 56bd
00000120: 6b06 773c 5a96 413e 9d22 743d 1045 5d3e
00000130: b252 393e e168 333e 41fc 01bd d9c4 c0bd
00000140: 7386 553c e6fa 5e3d faad 31be c963 26bd
00000150: cea8 bd3c c8d7 e5bb ec5a 223e fd18 b5bd
00000160: 32d9 113e 2daf e13d 1e37 d3bb e0d5 223e
00000170: a5b4 213e e9e6 16be 1ed4 90bd fb66 5e3e
00000180: 1353 5f3e c7db 34be f041 b93d b458 c3bc
00000190: a2ab b5bd c8ee 4ebe 2fe2 dc3c 9e9a b43d
000001a0: e0ad d2bd aa1d 17bd 0094 a73d 9a89 c2bd
000001b0: 924b 29be 8155 afbc dd51 3fbe 6255 cabd
000001c0: 5538 04be 50fb 393e 2d16 a93a 1ab0 373e
000001d0: 8fd1 de3d eb77 0c3e 710b b83b b7d6 123e
000001e0: c7dc 33be 9292 8ebd 3eb4 ebbd fb6f ffbd
000001f0: 3c4e c3bd 279a 373e b1c5 fb3d 07fd 8fbd
00000200: 69c5 5f3e d546 c2bd 50c1 903d a267 40bc
00000210: 99b8 9ebc 773c 0ebd e6c5 05bd 4ba9 60bd
00000220: 5278 593e b9c8 b2bd 0f20 463e c6dc 04bc
00000230: 33b0 523e 7660 e4bd 10d7 2e3e fe83 293e
00000240: 0eba 87bd 769f 69be 563a 193e da1e 1e3d
00000250: 5bb3 60bd 32b1 0bbe ad76 133e 5dc9 483e
00000260: 0367 1abd 9872 583e 957f 07ba 9a8c c6bd
00000270: de50 00bd 062b 3ebe bd9f 033e 0ac2 0ebe
00000280: 4a13 e1bd 9804 303e e1ec d8bd 5e63 e03d
00000290: 32f4 96bd 9cd2 f4bd 1a57 9ebd 81d4 28be
000002a0: a1f6 82bc 8898 c63d 3095 2abd 371d 083d
000002b0: 517a af3d c08c 21be 37f5 cf3d 44cd da3d
000002c0: 2841 353e 6cba a3bd f3b8 2e3e 80e1 abbd
000002d0: dad8 49bd 89f0 943d f355 083d 183e 393e
000002e0: d1a9 81bd fcc8 e5bd 18da 8bbd 76a4 c43d
000002f0: 5c36 10be b537 b53d 284f daba 0a88 0f3e
00000300: c387 9c3d f9ce 9a3d a1a2 e7bc 77c9 833d
00000310: 345a 473e c9cd df3c 93e3 053d b309 05bd
00000320: b8e6 2bbe 3924 68bc c945 0f3e 389c 423e
00000330: 3aec 2abe c488 1bbe 5bac 0fbe 257b 253e
00000340: e771 603d ff4b cebd 0551 81bd c353 8dbd
00000350: 5bcf ebbd 26f8 90bd ba57 b4bd 7699 533e
00000360: 5cc1 ac3d a08a 31be f067 933d 7a53 ccbb
00000370: f4a2 803d bb97 26be 188e 323e 4b11 05be
00000380: 9d96 cfbc bf0d 8c3d 0d31 a73d b02a c63d
00000390: b7c9 13be c63d 19be d8d1 03be 1a7e 5abe
000003a0: 7dc1 32be 055d eabd c8e7 cfbc ade4 b4bc
000003b0: db2b 17be 350c 2cbd fc6a ecbd 7926 253e
000003c0: 532b 05be 4f15 2bbe ea27 1d3e cfb7 30be
000003d0: ef85 53be 09f5 d53d 3bce 16be 28ad 023e
000003e0: 6123 9a3c 12d2 be3d de0f 1b3e 7059 0ebe
000003f0: 4655 34bc 6918 4cbe db82 3d3e 4df3 cbbd
0.1745067 -0.109445944 -0.14131454 0.06659753 -0.022677964 0.062416743 0.029876577 -0.0990055
0.019567465 0.03515779 -0.14075586 -0.043961335 0.075201884 -0.16420636 -0.14285584 -0.089922994
0.020673847 -0.046677843 0.0760691 0.107977785 0.06878673 -0.10061899 0.09069262 -0.016716847
-0.039742116 -0.04227538 0.0137514435 -0.0536808 -0.09548893 0.2054105 0.15735862 -0.15309897
-0.008918586 0.038418736 -0.0493597 -0.043218724 0.16312903 -0.16633007 -0.17440268 0.16205978
-0.030328179 0.06716796 0.1626858 -0.1983141 -0.13203293 -0.09309378 -0.04398731 0.17526427
-0.042484995 -0.096853055 0.045324355 -0.061526433 0.14628011 -0.15811059 0.20516838 0.1293896
0.00083102763 -0.013190209 0.15179831 0.02484515 -0.03859283 0.14347365 -0.16923268 0.15567273
-0.04669735 0.09301174 -0.043115567 0.14360307 0.14444058 -0.11593777 -0.14006428 -0.052385412
0.015077214 0.18905011 0.059603322 0.21608377 0.18097952 0.17520477 -0.03173471 -0.09412546
0.0130325435 0.054438494 -0.17351523 -0.040622506 0.023151781 -0.0070142485 0.15854996 -0.08842657
0.1424301 0.1101974 -0.0064457795 0.159019 0.15791567 -0.14736523 -0.07071708 0.21718971
0.21809034 -0.17661963 0.0904578 -0.023846008 -0.08870627 -0.20208275 0.026963321 0.088185534
-0.1028707 -0.036893524 0.08182526 -0.09498902 -0.16532734 -0.021403076 -0.18683572 -0.09879567
-0.12912114 0.18162274 0.0012900286 0.17938271 0.10879814 0.1371762 0.0056165983 0.1433972
-0.17564689 -0.0696155 -0.11508988 -0.124725305 -0.095364064 0.17929898 0.12293566 -0.07030683
0.2185265 -0.094861664 0.070681214 -0.011743458 -0.019375132 -0.034725633 -0.032659434 -0.05484895
0.21237305 -0.08729691 0.19348167 -0.008109277 0.20575027 -0.11151211 0.17074227 0.16554257
-0.06627284 -0.22814736 0.1496366 0.03860364 -0.054858547 -0.13641813 0.1440074 0.19608064
-0.037695896 0.21137464 -0.00051688525 -0.09694786 -0.03132712 -0.185711 0.12853904 -0.13941208
-0.10990007 0.17189252 -0.10592056 0.10956453 -0.07370795 -0.11954233 -0.07731457 -0.16487314
-0.015986742 0.09697062 -0.041646183 0.033230986 0.08568252 -0.15776348 0.10154193 0.106836826
0.17700636 -0.079945415 0.1706274 -0.0839262 -0.04927907 0.07272441 0.033285093 0.18090093
-0.06331218 -0.11219975 -0.068287075 0.09601681 -0.14083236 0.08848516 -0.001665567 0.14016739
0.07643082 0.07559008 -0.02827579 0.06434911 0.19468004 0.027319806 0.032687735 -0.032479953
-0.16787231 -0.014168792 0.13991465 0.19004905 -0.16691676 -0.1518889 -0.14030592 0.16160257
0.054796126 -0.10073089 -0.063142814 -0.06900742 -0.11514159 -0.070785806 -0.08805795 0.2066401
0.08435318 -0.17338037 0.07197559 -0.006235537 0.06281081 -0.16268818 0.17437017 -0.12994878
-0.025340373 0.06838559 0.081636526 0.09676111 -0.14432417 -0.14964971 -0.12873018 -0.21337166
-0.17456622 -0.11443523 -0.025379077 -0.022081697 -0.14762823 -0.04200383 -0.11543843 0.16127957
-0.13004808 -0.16707347 0.15347257 -0.17257617 -0.2065656 0.10447127 -0.14727108 0.12761366
0.018815698 0.093174115 0.15142772 -0.13901305 -0.011006659 -0.19931187 0.18506949 -0.09958515

conv2.bias f4 [50]
00000000: 5a8f 38bd 5d9d 1dbd 90f2 0d3d 21a8 3d3d
00000010: 4bce 213d eab0 ffbc c524 24bd 31c0 34bd
00000020: 9a36 c4bc 90c1 37bd f239 353d 0980 3b3d
00000030: fcd4 393d 92f4 e9bc caaf 1b3d 395d 25bd
00000040: 36fe 3b3d 0a58 22bd 8718 343d 1ff2 203d
00000050: 8026 87ba 9d38 1ebd e77c 3b3d f1e7 26bc
00000060: bbc1 183d c7f8 343d 0fc0 8d3c 7ad9 3abd
00000070: 6696 13bd b859 3a3d 7d49 2b3d 40ef 373d
00000080: 056f 043d ef20 3d3d c1dc 383d e574 35bd
00000090: 7322 e33c a9b6 3abd 2b17 37bd 0802 3b3d
000000a0: 1cdc 3d3d f463 3abd 709e ca3c 0083 343d
000000b0: 09ac 35bd 4203 abbc 152d 3c3d ead4 343d
000000c0: 6142 a53b 9edd 38bd
-0.045058586 -0.03848015 0.034655154 0.04630292 0.039503377 -0.031212289 -0.04007413 -0.0441286
-0.023951817 -0.04486233 0.044244714 0.0457764 0.045369133 -0.028559003 0.038009442 -0.040372107
0.04589673 -0.03963474 0.043968704 0.039293405 -0.0010311157 -0.03862821 0.045773413 -0.010187135
0.03729413 0.044182565 0.017303495 -0.045617558 -0.036032103 0.04549572 0.04181813 0.0449059
0.03233244 0.046173986 0.045132402 -0.044300932 0.027726388 -0.045584355 -0.04469983 0.045656234
0.04635249 -0.04550548 0.024733752 0.044070244 -0.04435352 -0.020875577 0.04594143 0.044148363
0.0050433134 -0.045133226

conv2.lin.weight f4 [50, 50]
00000000: 40ec 4bbe 33ed 6ebe 8e0d ad3d 6f46 453e
00000010: aa31 b43d e547 313e 6bdf 4abb a42f 653e
00000020: 5df0 03bc c5fb 20be cc4c f73d 6e7e 5cbe
00000030: 6bf7 b03d c1c4 0ebd 5337 a3bd 3e2a 633e
00000040: 1409 01be 33e3 2a3e 0b49 363e 9d2b 08be
00000050: 7d52 5f3d ae12 433e d54a 1e3e 2d82 4cbc
00000060: b731 e4bd 5355 9e3d 0261 80bd 6f7a 27bd
00000070: b6d0 dbbd c036 293e 1b81 423e f09e 8dbe
00000080: c74e 27be d3b8 23bd 9d1a 653a 0424 32be
00000090: ecc6 2ebe 6396 06bd 43ed 19bd 486f 183e
000000a0: 9098 4b3e ebe8 d43c bd9f 643d 6d31 56be
000000b0: c99c 8abc 80a7 413c 71ec 42be 85bf df3d
000000c0: abc1 d23d c5af 863c 21bc 2c3d 135d 363d
000000d0: ab91 343e 38ed 76bd 21f7 01be 3d44 2dbe
000000e0: f8e1 0f3e a5c9 5cbe 2a90 6b3e 4570 1b3e
000000f0: ff89 69be 0944 8abc 73ed 0bbe a081 1f3e
00000100: 486c da3d 8177 663e c0a7 ef3d daa9 823e
00000110: f64f ecbd 58bf e03d 1a30 c73d 70e5 f7bb
00000120: 50f4 98bd b914 d13c e003 cd3d f002 3bbe
00000130: c8ac 8c3e 128f 573d ac13 38bd ca26 ec3d
00000140: 5c18 eebc feaa 7dbe 24f6 383e b31f 63be
00000150: 03be a53c d712 7c3e 04e6 163e d2e2 ecbd
00000160: 68b1 023e 2846 673d 31d6 f4bd 2567 2dbe
00000170: 13eb 3ebc f91a 3bbc 7915 a63b fd65 92bc
00000180: 84cb 273d 4fb6 82bd 79bd 263e 22b7 553e
00000190: 71ed 6f3e bb3c 983d fc2e 43be 0943 553d
000001a0: ac89 7bbd 8a65 46bd 4b1d e6bd 6b50 03bd
000001b0: ebcf 06be 8b92 2c3e b0ec 3dbd 1eda 1f3c
000001c0: 7a95 2e3e 1664 2c3d 75d7 18bd bfbf 44bd
000001d0: 47cc 91bd 0230 e13d ae4c 253e 1fa1 56be
000001e0: eae5 c1bd 82aa 4bbe e889 593e 6931 643d
000001f0: b822 0d3e 198a afbd 1756 ccbd 0ba4 753e
00000200: c4f6 483e 51d3 783c 5375 0d3e 1f26 acbd
00000210: b183 ccbd 3f35 693e 6733 f13d bb9b b5bc
00000220: 23c3 4b3e 9903 493e d221 99bc cb4e bfbd
00000230: d727 18be 6f53 b2bd da48 613e 4595 3cbe
00000240: 5fe1 29be 4616 63bd 52c4 473e 403f af3d
00000250: 4c90 323e 2793 3f3e dde7 693d 40e2 05be
00000260: 71ff 2ebe 5534 353e 4023 3dbd 4151 8bbe
00000270: a592 2e3e cb7a 863e e6e8 17be 4f55 78be
00000280: 5413 f1bd 72cf 0f3e 2158 52be 4b7c ffbd
00000290: 9936 6abe 2c62 b63b f538 1a3e 422a 1c3d
000002a0: 06b6 c03d 690b e03d f7e4 24be 279f 323e
000002b0: 2c11 643d 4fef bc3c e3b9 203e f449 253e
000002c0: 7ab1 8739 85b8 22be 8fcb e6bd faf6 a03d
000002d0: d757 72be f3ce b8bc 9f70 63bb f98e 18be
000002e0: f86c 0bbe b121 eb3c 2c31 f3bd 4c6f 50be
000002f0: cdcb 573d 57dd 8ebe 40d8 963c 8f04 853e
00000300: 2c25 11be f1ca 503e e331 39be 2180 193e
00000310: 0be7 d33d 9ed8 343e 1775 c9bd 8e7c cbbd
00000320: 7124 853b c499 4d3d c544 0fbe c936 703e
00000330: 8856 e0bb 63c6 393e 97ef 5d3e 0ef3 0cbd
00000340: d9ab 783e 877a 843d 039c 173e 2e63 1c3e
00000350: 32b6 0d3e b51d 17be 616e aebd facb 7f3e
00000360: c295 203e bc17 343d 92bf 2b3e c784 15be
00000370: 7eb2 47bd e0c2 3fbe 12c3 aa3c 7d6e 60bd
00000380: 7b2d 10bd 4b7f d43d bd17 60be 7162 ed39
00000390: cf33 3c3e 44d8 4cbd 7baf 363e f0f3 bfbd
000003a0: 0dbe 623e 1138 58be 322c 90bd 757c 2d3e
000003b0: 291e a3bd 6b33 85be 9260 3fbe 25b3 6cbe
000003c0: 9453 46be c7bb 213e 4882 35be 7ccd 1b3e
000003d0: 2521 84be 77f6 243e fea7 0a3d 6e0d 573e
000003e0: 704d b1bd bb46 74ba 9209 1b3e c4c7 a9bd
000003f0: 715b 5cbe 16c6 003e 0d86 183e 6ac5 893d
-0.19914341 -0.23332672 0.08449851 0.1926515 0.08798535 0.17312582 -0.0030955921 0.22381455
-0.008052913 -0.15721042 0.12075195 -0.21532604 0.08640941 -0.034855608 -0.07969537 0.22184083
-0.1260112 0.16688232 0.17801301 -0.13297887 0.054522026 0.19050094 0.15458234 -0.012482208
-0.11142295 0.07731118 -0.06268503 -0.040888246 -0.10733168 0.16524792 0.18994562 -0.27660322
-0.16338645 -0.039971184 0.00087396224 -0.17396551 -0.1706807 -0.032858264 -0.037579786 0.148862
0.19882417 0.02598997 0.0558164 -0.20917292 -0.016920464 0.01181972 -0.19035508 0.10925201
0.102908455 0.016441235 0.0421716 0.044522356 0.17633693 -0.060284823 -0.12691928 -0.16920562
0.14051044 -0.21561296 0.23004213 0.15179546 -0.22806548 -0.016878145 -0.13664798 0.15576792
0.10665184 0.22506525 0.11701918 0.2552021 -0.11538689 0.10973996 0.097259715 -0.007565193
-0.07468474 0.025522577 0.10010505 -0.1826284 0.27475572 0.052626677 -0.044940636 0.11530836
-0.02906435 -0.2477226 0.18062645 -0.22180061 0.020232206 0.24616562 0.14736181 -0.115667
0.12762988 0.05646339 -0.11954916 -0.16933878 -0.011652726 -0.011420005 0.0050684777 -0.017870897
0.040965572 -0.06382429 0.16283216 0.20870641 0.2343042 0.074334584 -0.19060892 0.052065883
-0.06141059 -0.04843668 -0.11236056 -0.032059114 -0.13165252 0.16852777 -0.0463683 0.009756593
0.17049208 0.042087637 -0.03731485 -0.048034426 -0.07119041 0.10995485 0.16142532 -0.209599
-0.09467681 -0.19889262 0.21244013 0.055711184 0.13782775 -0.08571262 -0.09977358 0.23988359
0.19625384 0.0151871005 0.13814287 -0.084057085 -0.09986056 0.22774218 0.11777382 -0.022168985
0.19898658 0.19630279 -0.018692885 -0.093412004 -0.14858948 -0.0870732 0.22000447 -0.18416317
-0.16589878 -0.055441163 0.19508484 0.08556986 0.17437857 0.18708478 0.057105888 -0.13074589
-0.1708963 0.17695744 -0.046176195 -0.2721043 0.17048128 0.2626556 -0.14834937 -0.24251293
-0.11771265 0.14043978 -0.20541431 -0.12474879 -0.2287239 0.005565902 0.1506079 0.038126238
0.09409718 0.10939676 -0.16102968 0.17443524 0.05568044 0.02306333 0.1569591 0.16141492
0.00025881437 -0.15890701 -0.112692945 0.07859607 -0.2366632 -0.022559619 -0.0034704579 -0.1489829
-0.13615787 0.028702589 -0.11874613 -0.20354956 0.052684594 -0.27903244 0.018413663 0.2598004
-0.14174336 0.20389916 -0.18085437 0.14990284 0.10346802 0.17660758 -0.09836786 -0.09935866
0.004063182 0.05019547 -0.13991077 0.23458399 -0.006846253 0.18142085 0.21673428 -0.034411483
0.24284305 0.06468683 0.14805607 0.15272209 0.13839033 -0.14757426 -0.08517147 0.24980155
0.15682128 0.043967947 0.16772297 -0.14601432 -0.048754208 -0.18726683 0.02084497 -0.05479287
-0.035199624 0.10375842 -0.21884055 0.00045277507 0.18379138 -0.050010934 0.17840378 -0.09372699
0.22142811 -0.21115138 -0.070396796 0.16942008 -0.07964737 -0.2601579 -0.18689182 -0.23115213
-0.1936782 0.15794288 -0.1772548 0.15215105 -0.25806537 0.16109644 0.033851616 0.21001217
-0.08657348 -0.0009318401 0.1514037 -0.082900554 -0.21519257 0.12575564 0.14894886 0.06727107

pool1.weight f4 [1, 50]
00000000: 7b39 dd3d 49de 663c 7942 0ebe 6cb8 343d
00000010: 4131 e4bd b395 05be 67ab 03be a888 d9bc
00000020: d397 3f3d 5726 883b 5cf2 e73d d0ed e13d
00000030: ff9d 61bd 95ea cabc 40f2 a4bd 8fa3 2cbb
00000040: 6eda f3bd b63f 8e3d 4d96 6b3d 2cca edbd
00000050: b670 a9bc 4e5d 203d 5895 903d 0924 debd
00000060: a17b 2bbd 5617 d8bd cc71 cebd 2feb f83d
00000070: 048b 633d 85a9 9d3d 85ba be3d 48be d33d
00000080: 4851 a53d 951f 853d 0b14 47bd a155 09bd
00000090: 797b a3bd ba1a e8bd 8c7d 9fbd 7589 eabc
000000a0: 73d6 fabd 3270 413d 05f3 a63d 6d69 b5bd
000000b0: cd24 1dbe 10d4 b83c e1d4 6bbc 6711 abbc
000000c0: f135 36bd d71f 99bd
0.10801979 0.014091083 -0.13892545 0.04412119 -0.11142207 -0.13045387 -0.12858354 -0.02655442
0.04677565 0.004154961 0.11325523 0.11031687 -0.055082317 -0.02477006 -0.08054018 -0.0026342606
-0.119068965 0.06945746 0.057516385 -0.11610827 -0.020683628 0.039151482 0.07059735 -0.10846717
-0.04186595 -0.10551326 -0.10080299 0.12154233 0.055552498 0.07698349 0.093129195 0.10339028
0.08072144 0.065001644 -0.0486031 -0.033528928 -0.07982535 -0.11333223 -0.07787618 -0.028629998
-0.12247934 0.04722614 0.08151821 -0.08857999 -0.1534607 0.022562057 -0.014394016 -0.020882322
-0.044485036 -0.07476776

pool2.weight f4 [1, 50]
00000000: 4eb9 eebd 0b88 bcbd 1765 883d 1a6f 513d
00000010: 180d c23d 16b6 5bbd 35a7 34bd 693b 11be
00000020: aee0 06bd 0060 1abe 58ea 243e 4c6e 4f3d
00000030: 3bc1 1e3e 0390 133d c66e e93d 32c3 68bd
00000040: ec90 ef3d ec30 e8bd 624d d43c a855 fc3a
00000050: 01b6 68bd 141c ddbd 2837 d53d 06b6 aabc
00000060: deaf d63d 35c5 ccbc 98b2 a53c 7f8b bfbd
00000070: e25d 97bd 60b0 a23d c4de ab3d f0d4 bd3d
00000080: 2c00 eb3c 1cfa 473d d2cb ae3d 98e3 09be
00000090: 31bb 553d d139 9bbd b89f a7bd 7c5c 113e
000000a0: 2a98 023e 394c a6bd e315 cf3a 0686 c93c
000000b0: 2453 15bd 2558 37bc c4f1 993d 6fb9 073d
000000c0: efd0 9bbd ab4c 7fbd
-0.11656438 -0.09205636 0.06659906 0.051131345 0.09475154 -0.053640448 -0.044104774 -0.1418282
-0.032929115 -0.15075684 0.1610502 0.050642297 0.15503399 0.036026012 0.113980815 -0.056826778
0.116975635 -0.11337456 0.025915805 0.0019251602 -0.056814197 -0.10796371 0.10410911 -0.020838749
0.10482763 -0.02499638 0.020226762 -0.09352779 -0.073909536 0.07943797 0.083920985 0.0926913
0.028686605 0.048822507 0.085349694 -0.13465726 0.052180473 -0.07579387 -0.08184761 0.14195436
0.12753358 -0.08120007 0.001579937 0.02460004 -0.036456242 -0.011190449 0.07516816 0.033135828
-0.0760821 -0.062328976

fc4.weight f4 [3, 200]
00000000: 844d babc 2313 d3bd 97a9 bb3c fbec bdbd
00000010: 52cf 5b3a c5ee 84bd 4fed 1f3c e85d a4bc
00000020: d716 32bd bb57 9cbd 533a c0bc 670b dfbb
00000030: 0792 0dbc b395 9bbd 6b96 5d3d d9bd 95bd
00000040: 8349 b33c 9a19 a6bd 7f59 cbbd 1f8d 14bc
00000050: 97fe c3bd ee59 c5bd 8b0a 61bd 3597 81bc
00000060: 4cd5 a73c 47be dcba 1e1c ebba bf73 ccbd
00000070: 7b5c 9ebd e5cd b3bd f50c bdbd 6bd4 d6bd
00000080: 18f8 f1bc 4843 ccbd 2d75 5cbd 73df b33a
00000090: a246 a8bd c6e9 93bd 3f1b 37bd ac73 c3bd
000000a0: 3bb8 b3bd 81b7 fbbc 2d8c 83bd 36d9 b33c
000000b0: 5fbd 08bd ef42 d2bd 6a6a 35bb efab 04bc
000000c0: 8422 80ba 3105 0b3d b2ce 1f3c a885 783d
000000d0: ab70 353d 1dfb 343d 1f71 3f3c dbdd 0dbd
000000e0: 5528 7c3d ac09 7c3d 3eaf 52bd 118a 8639
000000f0: 762d e53c b847 1dbd 21d5 25bd bdc2 93bd
00000100: 0f5f 9a3d 8c1b 283c 9445 77b9 4164 b3bc
00000110: d7ff 833c 76a3 fcba 6f61 d6bb 5b80 f3b9
00000120: 2c3a d5bb 5b7c 63bc db3f 8a3d c058 db3b
00000130: dcaf 3e3d ce7d 04bd e538 b8bd 604d 35bc
00000140: 8f96 223d a823 483c 705e d2bc 7200 00bd
00000150: c51b 9b3d d295 523d 5e91 063b 265e 553c
00000160: d828 773c 6a55 3bbd 8b76 e13d 3d34 e5bd
00000170: eee3 a0bd 0079 3abd 15e1 9e3d fb32 0dbd
00000180: 58ff bf3d bfc4 2bbb debc 603d 6db6 9c3d
00000190: a38a 233d 0c46 debd 4229 96bd c35f 2cbd
000001a0: f7b7 93bd 0d69 cdbc ba1a 12bd eef1 71bd
000001b0: 97f3 2fbd 7380 b1bd 06f7 ecbb 37c7 48bc
000001c0: 1839 76bd 4dd1 7cbd 1ae3 b4bd aa36 bfbd
000001d0: de98 04bd aa60 eabd a928 6fbd 6475 99bd
000001e0: 4f9f b2bd 8e75 cfbd fb49 3fbd 6d0d 083d
000001f0: 4f13 93bd f7f4 acbd 43ad 1c3d 0e96 c83c
00000200: f113 b73c e6ac 7dbd ae23 b9bd d08c 93bc
00000210: b1d5 aebd 8f89 b5bd 0456 0a3d 0fc0 adbc
00000220: 7698 d1bd cae1 193d 8afc 99b9 5e54 bebc
00000230: 8e34 dbbd 49bb a3bc 65bd e23c b131 0bbd
00000240: 3c55 0dbc 2763 e03c 7d3a b6bd 444a d1bd
00000250: 721e b6bd 1009 fbb9 9d87 e7bb 441b a83d
00000260: 532d 0f3d bc68 72bd e855 293d 5af7 e33c
00000270: a07d 19bd 0fa6 9ebb 9bfc 8f3d cb0e 883d
00000280: 9bb1 3aba 6376 d23b e75e f2bc fc17 88bc
00000290: f48c 9dbd 4640 86bc f05c 49bd 0c4a cc3c
000002a0: f8e9 123d 46e5 193c 0807 07bd b09c 49bd
000002b0: 9680 ba3c 1cd7 04b9 3a94 5f3d 9dd4 54bd
000002c0: 5982 6d3d ef61 aebc 5b5a a63d 7c39 1c3d
000002d0: 4a97 3dbd 7662 8fbd 0a01 90bc 30da 7e3c
000002e0: 4f8b cb3c 04c1 c53a ff19 413c 77fa 4b3d
000002f0: f1bf 0dbd 3a3d 42bd be23 54bb c0d9 fcbc
00000300: 44c2 61bd 036a d8bc 7cd0 f7bc 3732 1abd
00000310: 6dac a3bd bd6f 00bd 06bc 97bd cb6c d2bb
00000320: 78d7 9e3c da80 ab3d 41b4 eb3c d821 aebc
00000330: 3ff8 573d 92dc a0bc 8c46 8c3c 852d 4c3c
00000340: ef21 ef3b 1ebf aa3c edea b93d bcc2 e8bb
00000350: 9078 1abc e53f a83d 7900 d2bb a00e 823d
00000360: 7000 e33c 371b 043d 5255 b73d 53dc 593d
00000370: 01cc db3d 1391 d93c 69b8 1d3c 7aae 993d
00000380: 91d0 153d da1c 523d f6d9 b83c 3c44 aa3c
00000390: be57 123d 2175 493d 18ee b93d 8efb d13d
000003a0: 2895 033d ca0b d43d d9e9 8b3d 93b6 a1bc
000003b0: d4e7 083d 0957 493d c5cb 9c3c b8b6 9e3d
000003c0: 63bc 163d 71f7 af3d 2b9c cc3a 18a7 c53d
000003d0: d018 0e3d 554c 983d 79de 5b3d 4fa8 d63a
000003e0: 967d aabc 3397 a43d b174 bd3d d326 b0bd
000003f0: 902e 92bd 7619 b4bd 2dde 83bd 1fb5 b4bd
-0.02274204 -0.103063844 0.022908015 -0.09273716 0.000838508 -0.06490854 0.009761169 -0.02006431
-0.043478813 -0.07633921 -0.023465311 -0.006806779 -0.008640773 -0.07596912 0.054098528 -0.07311601
0.021885639 -0.08110352 -0.099291794 -0.009066849 -0.095700435 -0.09636293 -0.054941695 -0.015819171
0.02048745 -0.0016841375 -0.0017937457 -0.09983014 -0.07732483 -0.08779506 -0.09230987 -0.10489734
-0.029537246 -0.099737704 -0.053822685 0.0013723209 -0.08216597 -0.07222323 -0.04470372 -0.09543547
-0.087753735 -0.03072715 -0.06423221 0.02195416 -0.033383723 -0.10266673 -0.0027681836 -0.008097633
-0.0009775911 0.033940498 0.00975387 0.06067434 0.0442969 0.044184793 0.011684685 -0.034635406
0.0615619 0.06153266 -0.051436655 0.0002566134 0.027975779 -0.038398474 -0.04048646 -0.07214878
0.07537662 0.010260474 -0.00023581675 -0.02189839 0.016113205 -0.0019274789 -0.0065423767 -0.00046444204
-0.006507179 -0.013884629 0.06750461 0.0066939294 0.04655443 -0.03234654 -0.08995227 -0.011065811
0.039694365 0.012215532 -0.025679797 -0.031250425 0.07573656 0.05141241 0.0020533423 0.013022935
0.0150854215 -0.045735754 0.110089384 -0.11191604 -0.07855974 -0.04552555 0.07757775 -0.034472447
0.09374875 -0.00262098 0.054867618 0.076519825 0.039927136 -0.10853204 -0.07332088 -0.042083513
-0.07212823 -0.025074506 -0.03567002 -0.059068613 -0.042956915 -0.08667078 -0.007231596 -0.012254528
-0.060113043 -0.061723042 -0.08832379 -0.09336598 -0.032372348 -0.114442185 -0.058388386 -0.074930936
-0.08721792 -0.10129844 -0.046701413 0.03321593 -0.07181417 -0.08445161 0.038251173 0.024485614
0.022348376 -0.061932467 -0.090400085 -0.01801148 -0.08536852 -0.08864128 0.033773437 -0.021209745
-0.10234158 0.037568845 -0.0002937059 -0.023233589 -0.107033834 -0.019986765 0.027678201 -0.033982936
-0.0086262785 0.02739103 -0.088978745 -0.10219243 -0.08892526 -0.00047881203 -0.007065727 0.082083255
0.034955334 -0.059181914 0.041341692 0.027827907 -0.03747332 -0.004841573 0.070306025 0.066434465
-0.0007121802 0.006422804 -0.029586269 -0.016613 -0.076929 -0.01638807 -0.049160898 0.024937652
0.03586766 0.009393042 -0.03296569 -0.049221694 0.022766393 -0.00012668635 0.05458472 -0.051960576
0.057985637 -0.021286933 0.08122703 0.03814076 -0.04628686 -0.07001202 -0.01757862 0.01555495
0.024846701 0.001508743 0.011785983 0.04979941 -0.034606878 -0.04742167 -0.0032369937 -0.03086555
-0.055116907 -0.026417738 -0.03025078 -0.037645545 -0.07991872 -0.031356562 -0.074089095 -0.0064216605
0.019389853 0.08374186 0.028772475 -0.021256372 0.05272698 -0.019636426 0.017123483 0.012462025
0.0072977464 0.020843085 0.09078012 -0.0071032923 -0.009428158 0.08215312 -0.0064087478 0.06350446
0.02771017 0.032252517 0.089518204 0.053188633 0.1073227 0.026558435 0.009626486 0.07503982
0.036575858 0.051297046 0.02256487 0.02078449 0.03572821 0.04918397 0.09078616 0.102530584
0.03212467 0.10353811 0.06831712 -0.019740378 0.033424214 0.04915527 0.019140134 0.077496946
0.036800753 0.085921176 0.0015610507 0.09651011 0.03469163 0.07436434 0.053678963 0.0016377064
-0.020811837 0.080366515 0.09250773 -0.08601155 -0.07137787 -0.08793919 -0.06438861 -0.088236086

fc4.bias f4 [3]
00000000: e6ef 0abd 08b0 113d b2de 633c
-0.03392019 0.035568267 0.013908075
