experiments/experiment_6/checkpoint_1_6.pt (torch, 39119 bytes, 8 tensors)

conv1.bias f4 [50]
00000000: 147f 6e3d 45b3 ddbd 9ece 0cbd 15db a63e
00000010: eb73 43bc 5a4e 0fbc ebce 31be 02f3 82bc
00000020: cb43 b63d 6906 8d3e d10b 913d 872f 21bb
00000030: d785 a73e 1449 68bd ded9 3cbb b861 1cbe
00000040: fa97 e5bd c0d4 6f3e ab6c e1bc c273 fcbd
00000050: 2f13 eb3d 37a7 ca3d 8b82 753e 8a47 63be
00000060: 632c 4e3e a53d 5ebe a7a6 b9bd b7a5 363c
00000070: 603a eebc da1b 393b b5c7 493e f487 213c
00000080: 274e f23d bf65 a33d d517 04bd 89fc 943e
00000090: 161a 43be 02cc 6cbe 82e0 49be 7f6a 2abe
000000a0: f673 ecbd 7eb5 9b3d e7c5 373c ab4f 87be
000000b0: 2f73 b8bd f0d6 723e 7949 8d3e 280a 943d
000000c0: 749b 763d 2092 423e
0.05822666 -0.108252086 -0.034376733 0.3258902 -0.0119294925 -0.008746708 -0.17364089 -0.015985016
0.08899649 0.27543953 0.07082332 -0.002459498 0.327193 -0.056710318 -0.0028816382 -0.15271652
-0.11210628 0.23421001 -0.027517637 -0.123267666 0.11478268 0.09895175 0.2397558 -0.22195259
0.2013412 -0.21703203 -0.090649895 0.011147908 -0.02908057 0.002824536 0.19705088 0.009859074
0.118313126 0.07978391 -0.03224929 0.2909892 -0.1905292 -0.23124698 -0.19714549 -0.16642188
-0.11545555 0.07602976 0.011216617 -0.2642797 -0.090063445 0.23714805 0.27595118 0.072285
0.060206845 0.19001055

conv1.lin.weight f4 [50, 116]
00000000: 1fb3 2a3e 88e9 6fbe 0ace 69be 136a 883c
00000010: d78d 51bd 9216 96bb 901d d23d 2e77 d0bd
00000020: d5b7 42bb 1f9e 7dbc 422d a6bd e8a6 9f3d
00000030: 5650 fcbc 1848 2bbe c12f b7be 4faa 543d
00000040: fa53 91bd 023c c3bb 70a9 e5bd 0804 863e
00000050: 27d8 513c 0dbf e8bd a21a ed3d 97f5 7c3d
00000060: 290a c2bc 58bd ea3d 33c7 d1bc 7182 30be
00000070: 9f79 f8bd 3bbd 843e dc1b a43e 3410 39be
00000080: 86fb b33d 441c 9e3d 3f68 f6bd cde5 febc
00000090: a1fa 993d 8d35 cabd b0d7 50be 2fef 143e
000000a0: 5971 083e 884c af3d c5f2 503d 9c63 93be
000000b0: 5140 2bbe cfb1 c23c 064c fa3d 5d3d 903e
000000c0: 8364 97bd f8d9 97be ae58 cc3d 9af5 83bd
000000d0: 61e0 323e 8544 9cbe d1ad 4d3e 1354 b63d
000000e0: d690 0b3d 0493 803d 999e 3f3e b0a1 33ba
000000f0: 0dd5 813d 83bc 363e 8c0d 43bd fb0a 393d
00000100: 9429 3cbe 602b e43d b325 4fbe f48a 203e
00000110: c3dd a23c dc53 36be 0955 b8be ac09 dabd
00000120: ce10 043e 32eb 3d3e 878d b73d c201 b23e
00000130: edac 773d 589d 113e ba12 1fbe cc01 d1bd
00000140: 61f4 9c3d 9046 8b3d b62d 00be 5408 5dbe
00000150: e893 043d 3df5 99bd d10e 053e f4e8 96bd
00000160: ee01 dd3d 3712 e83d 4218 03bd 09c4 073e
00000170: 0d5a 9a3e 7c2a 04be 662f f0bd 08c3 8c3e
00000180: c0ba 093f 065e 79be 9b0b a83d f53c 15be
00000190: ed54 01be 929e 6cbe a3fa c6bd b9ef 993e
000001a0: 7d41 03be 80fb e1bc da53 6fbc 0420 0fbe
000001b0: e1b1 1cbe 1898 1b3e 1058 2abe 34e0 6ebd
000001c0: ba43 32be 9656 873e 06fe bfbb 7fd7 103e
000001d0: d708 62bc 866f 803c c232 35be 6a57 ed3d
000001e0: f2dc 44be 4460 7fbe 8974 1abe 8f3a b8bd
000001f0: e2a5 82bd 2e43 293e 2cf5 b63d d8c3 13be
00000200: 812e f73d 0876 5bbe 310d 813d 3e16 8dbd
00000210: ad95 1f3c 01ef d0bd b7f1 7bbc f008 003e
00000220: a3f2 0f3e 8501 36bd edc8 4e3e 80ee 8c3c
00000230: bde7 87bd cd6d fb3c c9cd 713e 75d7 c93c
00000240: 8159 23be c928 64be 855a 3b3e 050e ecbd
00000250: 7fcc 273d 62c0 13be 2e30 9a3d 9be7 acbc
00000260: 01ff 57be 5001 523e e891 09bd a63d 00be
00000270: 701c b5bc 7b6f 95be 925d b7bd fa08 86be
00000280: a64c 68bd d7c6 963e 47ce d73c 5558 503d
00000290: f5a1 22be 442b a3be 0d1d 283e 7aba a1bd
000002a0: cf4b 41bd 79e8 3e3e 6499 c1bd 5d3f 1bbd
000002b0: 82ae 11bd bf51 f83c 459c 083e 77f2 3b3e
000002c0: d4a5 883e aab3 02be f72b 693d e9e5 e63c
000002d0: 95be 02be 2609 043e 444d 333d 1f75 1f3e
000002e0: 13a9 66be 4aef 2f3d 1df4 d5bd 824a 44be
000002f0: 662c 033e fcb8 cfbb cedd b4bc f12b aa3e
00000300: d9dd 6f3e 4521 f1bd 56e3 abbc 190d 4abc
00000310: e24c ae3d 6275 a83c 3e01 a93d 0ef1 30bd
00000320: 4a43 67be 7cf3 f0bd 449b fc3d 3558 0e3e
00000330: a412 af3d 3889 71be cd3b 8fbe a7d9 053e
00000340: 6a03 3e3e c853 06be 95b1 13bd b7fc 823d
00000350: 65cf 3dbd 024b 0fbe 5112 62be 05c6 043e
00000360: c687 593e f364 5a3e f612 40be 89e4 bd3d
00000370: f26f ab3c 57c0 07be 5ecb 953e f4f9 6fbe
00000380: 59e8 d43d 8730 483e 847b 17be cb1f 033e
00000390: 72f0 27be 39a2 6bbe 3026 6bbd 0132 92be
000003a0: 3494 34be 1b91 133d fbfa 3a3e 4c19 d33d
000003b0: 451c d2bd 147a 0c3d 5e34 56be 3c42 423e
000003c0: c407 38be b853 2abd fe22 1b3e a6a3 9ebe
000003d0: c762 c3bd 1558 ca3d fba6 62bb 486e afbd
000003e0: 97c9 fe3d 4e40 6c3d 2126 943e 537c 91be
000003f0: 398c 603b 64b7 34be 6ab6 2f3e b222 11be
0.16669892 -0.23428929 -0.22832504 0.016652143 -0.05116066 -0.0045803273 0.10259545 -0.10178982
-0.0029711623 -0.015479594 -0.08114101 0.07795507 -0.030800026 -0.1672672 -0.3577862 0.05192023
-0.070960954 -0.005958081 -0.11213958 0.2617495 0.012807882 -0.11364565 0.115773454 0.06175765
-0.023686485 0.11461896 -0.02560768 -0.1723726 -0.121325724 0.2592562 0.32052505 -0.18072587
0.08788209 0.07720235 -0.12031602 -0.031115437 0.07518507 -0.09873495 -0.20394778 0.14544366
0.13324489 0.08559519 0.051012773 -0.28786933 -0.16723754 0.023766426 0.122215316 0.28171816
-0.07392218 -0.29658484 0.09977852 -0.06443329 0.17468406 -0.30521026 0.20085837 0.08902755
0.034073673 0.06278041 0.18712844 -0.00068524014 0.06339464 0.17845349 -0.04762034 0.045176487
-0.18375236 0.111410856 -0.20229225 0.15678006 0.019881135 -0.17805427 -0.36002377 -0.10646376
0.12897035 0.18546751 0.08962541 0.34766966 0.06046765 0.14220178 -0.15534487 -0.10205421
0.07663799 0.06800568 -0.12517437 -0.21585208 0.032367617 -0.075174786 0.12993933 -0.07368651
0.10791384 0.11331599 -0.032005556 0.13258375 0.30146828 -0.12906832 -0.117277905 0.27492547
0.5380058 -0.24352273 0.082053386 -0.14574035 -0.12630053 -0.23107365 -0.09715774 0.30065706
-0.1281795 -0.027585745 -0.014607394 -0.13977057 -0.1530223 0.15194738 -0.16635156 -0.058319286
-0.17408648 0.26433247 -0.0058591394 0.14144705 -0.013796053 0.015678179 -0.17695144 0.115889385
-0.19224909 -0.24939066 -0.15083517 -0.08995544 -0.06379296 0.16529533 0.089334816 -0.14430177
0.12069417 -0.21431744 0.06301344 -0.06889008 0.009740275 -0.102018364 -0.0153774535 0.1250341
0.14057402 -0.044435043 0.20193835 0.01720357 -0.066359974 0.030692006 0.23613657 0.02463887
-0.15952112 -0.22281183 0.18296249 -0.115261115 0.040966507 -0.14428857 0.07528721 -0.021106532
-0.2109337 0.20508313 -0.033586413 -0.12523517 -0.022108287 -0.29186615 -0.08953394 -0.26178724
-0.056713723 0.29448578 0.026343478 0.05086549 -0.15882094 -0.31868947 0.16417332 -0.07896896
-0.047191437 0.18643369 -0.09453085 -0.037902225 -0.035566814 0.030312417 0.13340862 0.18354212
0.26689017 -0.12763849 0.056926694 0.028185802 -0.12768014 0.12894115 0.043774858 0.15572022
-0.22525434 0.042952813 -0.104469515 -0.19169047 0.12809905 -0.0063391905 -0.022078421 0.3323665
0.23424472 -0.11773924 -0.020982426 -0.012332224 0.08510758 0.020563785 0.0825219 -0.043198638
-0.22584262 -0.11765191 0.12334302 0.13900836 0.08548477 -0.23587501 -0.27975312 0.13071309
0.1855599 -0.13117898 -0.036058027 0.06395858 -0.046340365 -0.13993457 -0.220773 0.12966163
0.212432 0.21327572 -0.18757233 0.09272105 0.020927403 -0.13256966 0.2925672 -0.23435193
0.10395879 0.19549762 -0.14793211 0.12805097 -0.16400316 -0.23011102 -0.057409465 -0.28553775
-0.1763466 0.036027055 0.18259804 0.10307559 -0.10259298 0.03429611 -0.20918414 0.18970579
-0.17971712 -0.041583747 0.15150067 -0.3098423 -0.09540325 0.098800816 -0.0034584391 -0.08565956
0.12440794 0.057678513 0.2893534 -0.28415164 0.0034263267 -0.17648083 0.17159429 -0.14173391

conv2.bias f4 [50]
00000000: b175 f83d 7741 373e 44bb 9fbd 040a a5bc
00000010: 242f 21bd 4c3d 1e3e 0952 873c cac9 293e
00000020: 0c8a 4b3a b18a 223e d95f a0bd 20d2 4bbc
00000030: e199 03bd 594a 7abe e5a9 5dbd df0b 6e3e
00000040: 5f82 1dbd 95d8 753e 4961 d3bc 90c2 c03d
00000050: 7354 373e 343c 563e d5d3 aabc f85f 67bd
00000060: f5af afbd e2e9 d43d 0a27 20be bde4 c53d
00000070: 2632 4f3e fb2b efbc ec0a 24bc 185b 45bd
00000080: 0717 353d 5ce8 093b 70de e6bc 804b 3f3e
00000090: 14e0 3dbd 975c fe3d df1b 183e 50c0 78bd
000000a0: 0e3e e4bc e0d1 243e 1717 82bc d98b 453e
000000b0: 9410 113e 46e9 a5bd cb57 febc 5f97 c9bc
000000c0: e9a1 413d 2002 b13d
0.12131823 0.17896067 -0.0779939 -0.020146377 -0.039351597 0.1545307 0.01651861 0.16580883
0.0007764406 0.15873219 -0.078307815 -0.012440234 -0.032129172 -0.24442424 -0.054117102 0.23246716
-0.03845441 0.240084 -0.025803225 0.0941211 0.17903309 0.20921403 -0.020852963 -0.056488007
-0.08578483 0.10396172 -0.15639892 0.09662769 0.20233974 -0.029195776 -0.01001237 -0.048182577
0.044211414 0.0021043038 -0.028182238 0.18681145 -0.046356276 0.12420004 0.14854382 -0.06073028
-0.027861621 0.16095686 -0.01588015 0.19291629 0.1416648 -0.08101134 -0.031047722 -0.024608312
0.04727355 0.086429834

conv2.lin.weight f4 [50, 50]
00000000: 235a 35be 36f6 88be 599f 983d a3d6 313e
00000010: 6401 3b3e b5da b13d 809b 25bd ed58 863d
00000020: 2ded 7ebc 14a2 0d3d fff7 803c 8810 47be
00000030: 7d84 d63d d1ba e7bd f11d 81bc f798 163e
00000040: fdfa 9bbd bd8f 803e 051a c53c 84f3 5cbd
00000050: fb55 3abd 554f 403e bf79 203e 53cc d4bd
00000060: 78b7 a5bc 38b1 49bd 5e9d 21bd 5117 01be
00000070: 7cb5 3abe d8cb efbc 604f 463e e391 65be
00000080: a96b 0ebd 00bb 10be e0cd 553c 7db8 e4bc
00000090: 2259 49be fa0c a6bd b70c 93bd fb63 c23d
000000a0: 9f1b 243e eb23 07bd fc78 29be dafd 22be
000000b0: 192b 483c adc9 863c e938 a1bd d01a 0d3e
000000c0: ea5e be3d 719a 6c3d a51e 7b3c 5be6 c6bc
000000d0: 009b 353e cc33 5bbd 8d0a fc3c 1d4f 06be
000000e0: d3ac 1f3d 7bed 3cbe a036 813e 99e5 a53e
000000f0: 681f 69be 9a73 3bbd 2794 7bbd ec55 643c
00000100: 01fd aa3d a631 413e 39ba a33d 99d9 c73e
00000110: 934d 01be 130b 793d 3721 1abd adb0 b93d
00000120: bf30 86bc bc54 a4bd a009 a33d 2fec 8abe
00000130: e170 3c3e a957 b6bd a587 25be 1265 babc
00000140: 570c 123d 9aa2 3ebe a392 2c3e 74fd a3be
00000150: 13e2 1a3d 5506 8d3e bd57 3d3d 43c9 37be
00000160: 7163 943d f0d6 213d 897f 03be 21f7 5dbe
00000170: 314d 6dbe 116e 35bd a428 9a3c 4ce8 07bd
00000180: 2826 f63d 4520 d73c 3dee 513e 6067 373e
00000190: 4bc3 bf3e 8092 1b3e 5cef 8bbe 6fa9 8f3d
000001a0: 3db6 8ebe 92e3 c3bd f23b a1bd 82a1 a33d
000001b0: 6d83 25bd 2bbb b1bd 4d19 d03d ea7b 213e
000001c0: 6d6b 263e 6081 893e 6743 d7bd a81e b7bc
000001d0: 3bcb fabd e98a b3bd 224b a13e b726 6cbe
000001e0: 1490 7fbd 336e 98be bb0d 503e 0c83 ff3d
000001f0: d851 babc 92b1 653d 1877 20be 1f44 e93e
00000200: 9a3a d53e 13a7 913e fa80 06bd e309 c23d
00000210: 6d96 d3bc 40cd d53e 9e08 893d 2dce 18be
00000220: d55c 493e bf70 383e f04b db3c 306a 41be
00000230: df79 30be ada7 ab3d 00cc e43e 70ce 2bbe
00000240: 1740 59be cd20 0d3d 0df0 153e 13aa 06be
00000250: d515 bf3d 9e26 30bc 0e47 763e 936e 07bc
00000260: 5125 74be 1f2e 0b3e 423e 8bbe 730a 7fbe
00000270: 6c38 d33d d0e3 a03e 64a0 8dbd 8aa0 c1be
00000280: 0bbf b73d 0034 683e f6e4 31be 6034 423e
00000290: e639 89be 6707 1dbd 1894 ae3d 14d5 f0bd
000002a0: e14f 783e 7dff ff3a 8de4 25be cf69 c1bc
000002b0: 50ee 133e d8f7 023d 0eb4 8bbc eebd 3b3e
000002c0: 1062 98bd 7a1b b03d b825 2b3e f349 8d3e
000002d0: 82d4 b1be 4f2a 063e 99d1 343d 3507 9a3d
000002e0: fcb3 27be 08db 70bd 038c f6bd 227b fabd
000002f0: c76b 853d e6fd 99be d379 8fbd d0b5 a23e
00000300: 192c a03c 5028 073e 2e05 43be f0fe 133e
00000310: b268 473e 5a4d a7bd b3d7 74bd 7abe 29be
00000320: ecef 093e 1d7b 1d3e 8c62 15be 1275 3f3e
00000330: 0dd3 fbbd c808 d43c 7c04 193e ebb2 be3c
00000340: 80e4 703e 4a40 babd 08b4 2b3e ea03 223e
00000350: 7a4b 133e 85eb 963d ce0e fabd 2a45 273e
00000360: d0c1 2d3d 0d61 b0bd df70 703e deb2 08be
00000370: 2b5f 433d 4d21 35be fde3 0b3b 36c4 a13c
00000380: bc05 a1bd aa03 223e 5e55 33be 04d9 273e
00000390: fa89 643e 6cad 0a3e 0b3b 923d 7b4b 073d
000003a0: fff6 d53d aa14 a33d c5ee a03b d1ba 46bc
000003b0: c055 a2bc 254b 0ebe a33c 05be c4f5 41be
000003c0: 5bdf 28be 1897 4c3e 7994 f73d d1c3 823d
000003d0: 4c4a 54be 06b4 4c3e 2894 13bd d5de 0b3c
000003e0: d63f d0bd 06d4 14be 4583 d03e 9fe1 1fbe
000003f0: 40c4 73be c5f1 483e 0fd9 f5bc 1de9 3ebe
-0.17710166 -0.26750344 0.07452268 0.17367034 0.18262249 0.08684293 -0.0404315 0.0655993
-0.015559477 0.034578398 0.015743254 -0.194399 0.10474489 -0.11314929 -0.015761347 0.14706789
-0.076162316 0.25109664 0.024060259 -0.053943172 -0.045492154 0.18780263 0.15671442 -0.10390534
-0.020229086 -0.049241275 -0.039456718 -0.12606551 -0.18233293 -0.029272005 0.19366217 -0.22418933
-0.03477064 -0.14133835 0.013049573 -0.027920002 -0.19662908 -0.08107944 -0.071801595 0.09491726
0.16026162 -0.03299324 -0.16550058 -0.15917149 0.0122173065 0.016453588 -0.07872183 0.1377976
0.09295447 0.057764474 0.01532713 -0.024279764 0.17734909 -0.053516194 0.03076675 -0.13116117
0.038983177 -0.18449967 0.25236988 0.32401732 -0.22765887 -0.045764543 -0.061420586 0.013936501
0.08349038 0.18866596 0.079945035 0.390332 -0.12627248 0.060801577 -0.037629332 0.09066901
-0.016380666 -0.08023974 0.0796082 -0.2713332 0.18402435 -0.089034386 -0.16165026 -0.022753272
0.0356563 -0.18616715 0.16852812 -0.32029307 0.037813257 0.27543893 0.046226252 -0.17947869
0.072455294 0.03951162 -0.1284162 -0.21676303 -0.23173977 -0.04429442 0.018818207 -0.03318052
0.120189965 0.026260504 0.20501037 0.17910528 0.37453684 0.15192604 -0.27331054 0.07014739
-0.27873412 -0.0956489 -0.07872762 0.079897895 -0.04040854 -0.086782776 0.10161076 0.15769926
0.16251917 0.26856518 -0.10510903 -0.022353485 -0.122457944 -0.087667294 0.31502634 -0.23061644
-0.062393263 -0.29771575 0.20317738 0.12476167 -0.022744104 0.056077547 -0.1567043 0.45559785
0.41646272 0.2844778 -0.032837845 0.09474542 -0.025828565 0.41758156 0.06691097 -0.149224
0.19664319 0.18011759 0.026769608 -0.18888164 -0.1723399 0.08381591 0.4468689 -0.16777968
-0.21215855 0.03445511 0.14642353 -0.13150816 0.09330336 -0.010751395 0.24050543 -0.008266109
-0.2384236 0.13591813 -0.27195936 -0.2490633 0.10313496 0.31423807 -0.06915358 -0.37817794
0.089719854 0.22676086 -0.17372498 0.18965292 -0.26801986 -0.038337138 0.085243404 -0.117593914
0.24249221 0.0019531097 -0.16200466 -0.023610024 0.14446378 0.031974643 -0.01705363 0.18334171
-0.07440579 0.08598991 0.16713607 0.2759548 -0.34732443 0.13102077 0.0441452 0.07520906
-0.16377252 -0.058802634 -0.12038424 -0.12230517 0.065146975 -0.30076522 -0.07005658 0.31779337
0.019552277 0.13198972 -0.19044945 0.1445272 0.19473532 -0.081690505 -0.05977602 -0.16576567
0.13470429 0.15378995 -0.14588374 0.18697003 -0.12296114 0.025883093 0.14943117 0.023278674
0.23524666 -0.090942934 0.16767895 0.15821806 0.14384261 0.073691405 -0.12209855 0.16334978
0.042421162 -0.08612261 0.23480557 -0.13349482 0.04769818 -0.17688484 0.0021345608 0.019746881
-0.07862422 0.1582171 -0.17513034 0.16391379 0.22318259 0.13542718 0.07140168 0.03303097
0.104475014 0.07962926 0.004911276 -0.012129501 -0.01981628 -0.13895853 -0.13011412 -0.18941408
-0.16491453 0.19979513 0.12088866 0.06385005 -0.20731467 0.19990548 -0.036029965 0.008537014
-0.10168426 -0.14534006 0.4072515 -0.15613411 -0.23805332 0.19623478 -0.030010728 -0.18643613

pool1.weight f4 [1, 50]
00000000: 0b06 cb3d 34e8 61bd 11f3 a7bd a044 fa3d
00000010: 97b5 1bbd 1ac9 e839 020b 30be 1c31 1ebd
00000020: 774a 553d f163 d03d 7755 b03d d8f4 353c
00000030: cc37 de3d 31bf 6bbd 545a 3cbd 3afa a9bd
00000040: f8b6 21be 6675 283e 5b0b e8bc 9329 21be
00000050: ef07 523d 1e47 ed3d 7c81 4f3e d18f 51be
00000060: 8a1f b13d 492e 65be 6375 92bd 9e64 c23c
00000070: f983 07bd 35d5 863c 4a5b 103e 3664 113d
00000080: 1277 a83d 0aba a73d 5e78 d5ba 0f39 dd3d
00000090: 88ba 1cbe 7d48 68be aca3 20be 6a6f eabd
000000a0: 3c85 c5bd 0986 a43d d933 4bbb df8d 5ebe
000000b0: 7396 01be 11bb f53d 8230 af3d 6fcf 0f3d
000000c0: d513 d9bb 7d85 8d3d
0.09913262 -0.055153087 -0.08200658 0.122201204 -0.038014974 0.0004440032 -0.17191699 -0.038621053
0.05207297 0.10175312 0.08610051 0.011105739 0.10850486 -0.05755538 -0.04598458 -0.0829968
-0.15792453 0.16451034 -0.028325727 -0.15738516 0.051277097 0.1158583 0.20264238 -0.20465018
0.08648594 -0.22380938 -0.07151296 0.023729619 -0.033084843 0.016459087 0.14097324 0.03549596
0.08225836 0.08189781 -0.0016286483 0.10801899 -0.15305531 -0.22683902 -0.15687436 -0.11447032
-0.09644553 0.08033378 -0.0031006245 -0.21733807 -0.12655048 0.11998571 0.08554174 0.035109933
-0.0066246786 0.069102265

pool2.weight f4 [1, 50]
00000000: 30b7 d4bd ae6b 02be b79e dc3d 48fb 563d
00000010: 41b1 473d 76c3 65bd d13b 563b 4507 0fbe
00000020: 03c6 da3c b0c7 36be a4b9 053e ee9e 073e
00000030: 5d22 113e 78d9 373e 208f 183e 5db3 0fbe
00000040: 3c33 fc3d c0dc b8bd 959c 893d 28b2 6fbd
00000050: c163 99bd 475d a8bd 739d 373e af70 e83d
00000060: 475d 183e b4f2 74bd 8dc0 9e3d 6ce9 82bd
00000070: 1e47 2abe ef49 b83d c49d ba3d 8698 a93d
00000080: 94c2 533b f071 ed3d 64ae 5b3d 2b8b 09be
00000090: f825 e03d 906e a7bd a5ba e3bd a8a8 c93d
000000a0: 1f2e 123e 2a8b 23be 07db 5d3d 6e92 39bd
000000b0: 96a8 04bd 8505 cf3d 6c75 bf3d 47fd ec3d
000000c0: 033f e33b 761f 73bd
-0.10386503 -0.12736389 0.1077246 0.052485734 0.048753027 -0.05609461 0.0032689462 -0.13967617
0.026705747 -0.17849612 0.13059098 0.1324422 0.14173265 0.17954051 0.14898348 -0.14033265
0.1231446 -0.0902648 0.06719319 -0.058519512 -0.0748973 -0.08220916 0.17931156 0.11349618
0.14879332 -0.059801772 0.0775157 -0.06392178 -0.16628692 0.08998477 0.09112123 0.08281045
0.0032312023 0.115939975 0.05363311 -0.13431995 0.10944742 -0.08175385 -0.11119584 0.09846622
0.14275406 -0.15971056 0.05416396 -0.04530566 -0.03238734 0.10108475 0.09348568 0.11571746
0.006935002 -0.059356175

fc4.weight f4 [3, 200]
00000000: 2007 90bd 61ac efbe 4da3 143f 873c 3fbf
00000010: f49e d9bd 57f8 3dbe c99f 663e 89de 143f
00000020: 2f08 7ebe 185b 26bf 9354 993e ad73 8b3e
00000030: 180e d43d c2ee d4bc c174 e13e 642b 92be
00000040: 202c c93e 080e ebbe 8f57 d7be 73aa 9bbd
00000050: 8122 5dbf cda4 92be 8fe3 e63c 60b2 99b8
00000060: d081 233f a592 153e a25b ef3d a416 f0bd
00000070: 1b0d 81be 5eca 4dbe 1944 38bf ca19 16bd
00000080: f22d 623e 2eaf e4be 233d 34bf 78f4 333f
00000090: 7c7d 633d 193f 643d 3885 b4bd 107b 7bbe
000000a0: 0d07 fd3c d509 b5be 63a4 01bf 0586 093e
000000b0: ff13 0bbe 0dfe 4fbf 9b7f 733f 9404 093e
000000c0: 2199 7b3f 6579 273f 7f3c 98bb ade5 9ebe
000000d0: c740 6e3e 5e84 47be b3f6 96be bf43 04be
000000e0: 4171 053e ef82 a83e c4b8 8fbc 410e 14bf
000000f0: 4cd6 ea3d f018 263e bf48 12be 3dbc 9d3b
00000100: 8324 ed3d 8f90 13be 89b3 df3d e0ee c6be
00000110: edb8 10be 98e0 cb3d d87f 18bf 182f abbe
00000120: 5ea9 9abc 761a e43d 5aad 973e 993d 89bd
00000130: af2e 6bbd ebd4 f1bd 6b76 01be d404 033e
00000140: ad32 22bf e82a 34bd 0474 bb3d b684 1fbe
00000150: ccc4 f1bd c5ef 033f 6435 83bd 4a59 843e
00000160: 269d 933d 8bc9 83be 7294 0d3d 503b 55be
00000170: 3718 d1be 2e1e 0ebd c21d b5bd c23d cbbe
00000180: 5236 313f ef01 3bbc 12df 1e3f 31df ed3e
00000190: 4dd1 75bd 0476 99be e611 bbbe b767 55be
000001a0: ebb2 77be 87a6 07bf f941 fcbe e69e 8dbe
000001b0: c501 f3be c885 c2bd 36dd 17be 0c2a 40be
000001c0: 014c 08be dfaa 9abd c51c 82be 525f f2be
000001d0: 1264 42be 3392 e3be 4c40 19be 70e2 efbe
000001e0: 1047 ddbe 064e 07bf bcac 7fbe 9a3c 23be
000001f0: ee39 7ebe 564a a6be 2907 d3bd 1cdd 40be
00000200: bf4f 3dbe 222d 2bbe d79d d0be 0bc5 a3be
00000210: 21d2 a9be 1415 8fbe ac0d 29be 558a d9be
00000220: 973e 84be 144a c8bd 2ae1 23be 98fd 6fbe
00000230: ccc3 a3be 05f1 6bbe d4fc 74be 84aa 82be
00000240: 31e4 a7be 09f1 4cbe 4801 a4be 5805 b2be
00000250: 2c58 12bf be70 0abe 3358 eb3d 7785 ecbc
00000260: d944 543d 8579 80be df1a 8a3e 432a 28be
00000270: 1418 bebe 3d8f 25bc 8107 29be 6ce9 f23d
00000280: 3964 443c 6939 1f3b a3c8 e43d 3e97 58bc
00000290: 63bf 393e 7b29 3abd 077b 2dbe 97f1 9fbd
000002a0: 6da0 df3d 66f8 73bc 23e4 90be fa9d c0be
000002b0: 9ef2 3ebd fc2b 1c3d 47c1 fa3c 7cab 4dbe
000002c0: 812e 863d 808a 75bd 6595 c5bd 6454 023c
000002d0: 9d6d a7be 3601 c0be f684 3cbe 8237 3a3c
000002e0: f2a9 5c3d b771 09be aaf8 06bd 2bd0 813d
000002f0: c500 3bbc 898f c1bd 5522 4dbd 65f6 66bd
00000300: bde2 dabd 0834 25bd b84e 35be b5c2 333d
00000310: d78e 4bbe 7f37 34be 5b83 a1be 371d adbc
00000320: a145 83bd 57b9 9e3d dfe4 86be 8793 f9be
00000330: a079 05be 6245 d9bc 3083 bebd a083 25be
00000340: 2a3c 6dbe 1e4d afbe 7f0a 393d 50b7 1abe
00000350: 919b 04bf 18d5 6b3e 2dc8 93be c3d1 f23d
00000360: 988c 04be 2bce c8be cb8d 003e 109b 17be
00000370: 71b6 8a3b 9ed1 44be 5a8e a7be 47f9 3d3e
00000380: 9d86 86be cfb2 013e 7eb2 fabc c19f 7c3d
00000390: 2daa 063e bdc5 f63d aeba c0bd e209 513e
000003a0: 6644 093d 4dcc 493e 8005 4f3f 4a04 cfbe
000003b0: 4353 6bbd 992c 0c3e 6054 943b 5e64 7b3e
000003c0: 2f3b d43d 425e 8e3d 844e ccbd 372b 933d
000003d0: e68f 49be faa8 b1bd 640c b7be 1045 83be
000003e0: c9a8 20bf 85e6 26be 5936 47be 80b9 683d
000003f0: 625e fabd 65c4 88be 0783 5a3e 8adf 353e
-0.07032609 -0.46811202 0.5806168 -0.7470173 -0.10626021 -0.18551765 0.2252189 0.5815206
-0.2480781 -0.6498275 0.29947338 0.2723669 0.10354251 -0.025992755 0.4403439 -0.2854873
0.39291477 -0.45909142 -0.4205899 -0.0760087 -0.86380774 -0.28641358 0.02818468 -7.3288335e-05
0.63869953 0.14606722 0.116873994 -0.11723068 -0.2520531 -0.20096728 -0.7197891 -0.036645688
0.22087839 -0.44664901 -0.7040579 0.70294905 0.055539593 0.055724237 -0.08814472 -0.24558663
0.030887151 -0.35359064 -0.5064146 0.1343003 -0.13581847 -0.81247026 0.95116585 0.13380653
0.9828053 0.6541961 -0.0046458836 -0.31034604 0.23266898 -0.19484088 -0.29485092 -0.12916468
0.13031484 0.32912394 -0.017544158 -0.5783425 0.11466655 0.1622045 -0.14285563 0.0048136995
0.1157923 -0.14410613 0.109229155 -0.38854122 -0.14133044 0.09954947 -0.59570074 -0.33434367
-0.018879589 0.111378595 0.29624444 -0.06701202 -0.057417568 -0.11808189 -0.12642829 0.1279481
-0.63358575 -0.04398623 0.091529876 -0.15577969 -0.11805114 0.51537734 -0.06406668 0.25849372
0.07207708 -0.25739703 0.034565397 -0.20823407 -0.40838787 -0.03469675 -0.088435665 -0.39695555
0.6922351 -0.011414035 0.6205913 0.46459344 -0.060014058 -0.2997285 -0.36537093 -0.20840345
-0.24189346 -0.52988476 -0.49269083 -0.27660292 -0.47462288 -0.09498173 -0.14830479 -0.1876604
-0.13310243 -0.07552122 -0.25412574 -0.4733835 -0.18983486 -0.4444748 -0.14965934 -0.46852446
-0.4321828 -0.5285343 -0.24968237 -0.15941086 -0.24826786 -0.3247859 -0.103041 -0.18834347
-0.18487452 -0.16716436 -0.40745422 -0.3198627 -0.33168128 -0.2794577 -0.16509122 -0.4248835
-0.25829002 -0.09779754 -0.16003862 -0.23436582 -0.3198532 -0.2304116 -0.23924571 -0.25520718
-0.32791284 -0.20013823 -0.32032228 -0.34769702 -0.5716579 -0.1351957 0.11491432 -0.028872235
0.05182347 -0.25092712 0.26973626 -0.16422372 -0.37127745 -0.010104951 -0.16506769 0.11860928
0.011986786 0.0024295694 0.11171081 -0.013219653 0.18139414 -0.045449715 -0.16941462 -0.078097515
0.10919271 -0.014890766 -0.28299055 -0.37620527 -0.046618097 0.038127884 0.03060974 -0.20084947
0.06551839 -0.059946537 -0.09647635 0.007954691 -0.32700816 -0.37500924 -0.18410096 0.011365773
0.05387301 -0.13422285 -0.03295199 0.06338533 -0.011413758 -0.09451205 -0.05008157 -0.056387324
-0.10687778 -0.040332824 -0.1770581 0.04388686 -0.19878708 -0.17599295 -0.3154553 -0.021132095
-0.06409765 0.077501945 -0.2634649 -0.48745367 -0.13034678 -0.026522342 -0.09302366 -0.16163492
-0.23167482 -0.34238523 0.045176025 -0.1510899 -0.51799875 0.23030508 -0.2886366 0.11856415
-0.12944257 -0.39219794 0.1255409 -0.14805245 0.0042331745 -0.19220588 -0.32725793 0.18552123
-0.26274577 0.12665866 -0.03060269 0.06167579 0.13150854 0.12049434 -0.09410606 0.20413926
0.033512495 0.19706841 0.8086777 -0.4043296 -0.05745245 0.13688888 0.00452666 0.24550006
0.10362851 0.06951572 -0.09975913 0.07185977 -0.19683799 -0.08674808 -0.3575164 -0.25638628
-0.62757546 -0.16298874 -0.19454326 0.05681753 -0.12225033 -0.26712337 0.21339045 0.17761055

fc4.bias f4 [3]
00000000: 2817 1c3e 8a72 9ebd fbdc 59bb
0.15243208 -0.0773669 -0.0033243287
