experiments/experiment_6/checkpoint_4_6.pt (torch, 39119 bytes, 8 tensors)

conv1.bias f4 [50]
0	0x3cefa2f1	0.029252501
1	0x3eced8fc	0.4039992
2	0x3e0dac78	0.13835323
3	0x3cf771c4	0.030205615
4	0xbe08d9be	-0.13364312
5	0xbcbb61aa	-0.022873718
6	0xbe73089c	-0.23733753
7	0xbe8365f6	-0.25663728
8	0xbe4922cb	-0.19642179
9	0x3da968af	0.0827192
10	0xbde44732	-0.11146392
11	0xbcbe90fc	-0.023262493
12	0x3cd6a9d6	0.026204031
13	0xbd977800	-0.07395935
14	0x3d3e5eae	0.046477012
15	0xbd60b0b4	-0.054856017
16	0x3e413baf	0.18870424
17	0x3da47edb	0.08032008
18	0x3e9bdae4	0.30440438
19	0xbe61b906	-0.22043237
20	0xbdf3046f	-0.1186608
21	0x3ea08287	0.31349584
22	0xbda6ecd6	-0.081506416
23	0x3af27471	0.0018497837
24	0xbdd558db	-0.104173385
25	0xbcce9034	-0.025215246
26	0xbbcb8941	-0.0062114303
27	0xbe392837	-0.18081747
28	0x3cb37e14	0.021910705
29	0x3d58f78f	0.052970465
30	0xbc87138a	-0.01648881
31	0xbca457a6	-0.020061325
32	0xbd85f1e7	-0.0654028
33	0xbdc8ebb8	-0.09810585
34	0x3d0fef0d	0.035140086
35	0xbce7b3a6	-0.028283905
36	0x3a285283	0.00064209866
37	0xbc92ff71	-0.01794407
38	0x3d225033	0.039627265
39	0x3e904760	0.28179455
40	0x3d199986	0.037499927
41	0xbd28186f	-0.041038927
42	0xbce7c7e1	-0.028293552
43	0x3c158aca	0.009127328
44	0xbd3b378d	-0.045707274
45	0xbe24ed18	-0.16106069
46	0xbd8ba4c8	-0.06818539
47	0xbd603c18	-0.05474481
48	0x3d1568e7	0.036476996
49	0xbe0b6d49	-0.13615908

conv1.lin.weight f4 [50, 116]
0	0xbe63a618	-0.22231328
1	0x3cd74e75	0.026282528
2	0x3e86e35d	0.2634534
3	0xbdef9b1d	-0.116995074
4	0x3d975db4	0.07390919
5	0x3da8c8d1	0.08241428
6	0x3c774b6c	0.015093666
7	0xbe9053a9	-0.28188828
8	0x3d669a50	0.056299508
9	0x3debef5b	0.11520263
10	0xbdeaeb26	-0.11470632
11	0x3e00656b	0.12538688
12	0xbd6f76b9	-0.058462832
13	0x3e5ba26b	0.21448676
14	0x3ea2e70a	0.31816894
15	0xbdb2bf67	-0.08727913
16	0x3d4ce0a3	0.050018918
17	0x3d9246a1	0.07142378
18	0x3c47488a	0.012163291
19	0x3eec1544	0.46109974
20	0xbd8e9c99	-0.069634624
21	0x3e2e802d	0.17041083
22	0xbe00a219	-0.12561835
23	0x3e1101ad	0.14160796
24	0xbc9b7088	-0.018974558
25	0xbe14fe9f	-0.14550255
26	0xbe3b4c61	-0.18290855
27	0xbe5912da	-0.21198598
28	0x3e219264	0.157785
29	0x3e1c78c9	0.15280451
30	0xbe2a9e75	-0.16662009
31	0x3e315d4a	0.17320743
32	0xbd3a7698	-0.045523256
33	0xbd0a6b5e	-0.0337938
34	0x3d2ae740	0.041724443
35	0xbd5af50b	-0.053456347
36	0x3e6d5f2c	0.23180836
37	0xbda6758d	-0.0812789
38	0x3e4dc85c	0.20095962
39	0x3e7b7947	0.24557982
40	0xbe095ff6	-0.13415512
41	0xbcbbc1ed	-0.02291962
42	0xbd17200d	-0.0368958
43	0x3de73730	0.11289823
44	0x3e1f8dd1	0.15581442
45	0xbe22a6fe	-0.15884015
46	0x3e0dede2	0.13860276
47	0xbcf7072b	-0.030154785
48	0xbe553c95	-0.20823891
49	0x3bd327eb	0.0064439676
50	0xbe94c8ab	-0.29059348
51	0x3eda01a0	0.42579365
52	0x3d68988d	0.05678611
53	0xbeacc6a5	-0.33745304
54	0x3df276b5	0.11839048
55	0x3ee1fa84	0.4413644
56	0xbd24192a	-0.04006306
57	0x3e8ea11c	0.27857292
58	0xba69ef2d	-0.00089238846
59	0xbc3c92c5	-0.011509602
60	0xbdf5dee4	-0.12005404
61	0x3e53878c	0.20657176
62	0xbdb79b48	-0.089651644
63	0x3e04f827	0.12985288
64	0xbde47848	-0.11155754
65	0xbe0d0497	-0.13771282
66	0xbd0eed3f	-0.034894224
67	0x3e6968e5	0.2279392
68	0x3e15189d	0.1456017
69	0xbe053369	-0.13007893
70	0x3e0e9117	0.13922535
71	0x3d4a17b3	0.049339008
72	0xbe55ef59	-0.20892085
73	0x3dca2d25	0.09871892
74	0x3d538105	0.051636714
75	0xbe7d5a97	-0.24741589
76	0xbe2c96a6	-0.16854343
77	0x3e185469	0.1487595
78	0xbd1c591b	-0.038170915
79	0xbe9ff7e2	-0.31243807
80	0xbd9220d4	-0.07135168
81	0xbd9336b0	-0.07188165
82	0x3e12ffb8	0.14355361
83	0x3a346e5a	0.0006882899
84	0xbc9f1f4d	-0.019424105
85	0xbdc24929	-0.094866104
86	0xbe19a7b2	-0.15005377
87	0xbd0a2471	-0.03372616
88	0xbd47141e	-0.04860317
89	0x3ddf9896	0.10917775
90	0xbe90bd85	-0.28269592
91	0x3da95d94	0.08269802
92	0x3da1ca58	0.07899922
93	0x3da7aca2	0.08187224
94	0x3e006b19	0.12540855
95	0x3e42a522	0.19008306
96	0xbe622d5a	-0.22087613
97	0xbdf6d520	-0.12052369
98	0xbd543875	-0.051811654
99	0xbecdf5e2	-0.40226656
100	0x3e380265	0.17969663
101	0x3db640ea	0.088991
102	0xbd76d55d	-0.060262073
103	0x3e39ee55	0.18157323
104	0xbd8acb4b	-0.06777056
105	0xbde9bfc0	-0.114135265
106	0x3dc9360e	0.09824763
107	0xbe1960cc	-0.14978331
108	0x3e90033f	0.28127477
109	0x3e9c79c7	0.3056166
110	0x3ead4137	0.33838817
111	0x3e57fbda	0.21092167
112	0xbdfe3a3e	-0.124134526
113	0x3df62d3f	0.12020349
114	0x3d115b21	0.035487298
115	0x3e26f22a	0.16303316
116	0xbe86fdc6	-0.2636549
117	0xbe01127e	-0.1260471
118	0x3edbf5a4	0.42960846
119	0xbe2a458a	-0.1662809
120	0x3db291f8	0.087192476
121	0x3e544a20	0.20731401
122	0xbd3e2973	-0.046426248
123	0x3e8d62f1	0.2761455
124	0xbe9a52e7	-0.30141374
125	0xbd301381	-0.04298735
126	0x3c989006	0.018623363
127	0x3e34a0f5	0.17639525
128	0x3e571443	0.21003823
129	0xbe855b43	-0.2604619
130	0xbc6c23d8	-0.014412843
131	0x3d38a12c	0.04507558
132	0xbe47eb84	-0.19523436
133	0xbe807ce8	-0.25095296
134	0x3de88510	0.11353505
135	0xbe04a3d9	-0.12953128
136	0x3e0bbe87	0.13646899
137	0x3f0650b4	0.52466893
138	0x3e95533a	0.2916506
139	0x3db0c9a6	0.086322114
140	0x3f08fbfb	0.5350949
141	0xbeb42f63	-0.35192403
142	0xbdd90d90	-0.1059829
143	0x3ef2ed19	0.47446516
144	0xbaa591ac	-0.0012631915
145	0x3d81f524	0.06345585
146	0xbdc8c6e8	-0.09803563
147	0xbec0a504	-0.37625897
148	0xbe295339	-0.16535653
149	0x3e7493b0	0.23884463
150	0xbdbf7adb	-0.09349605
151	0x3da87eac	0.08227286
152	0xbee1a626	-0.44072074
153	0x3e77caa3	0.24198394
154	0x3da79eb4	0.08184567
155	0x3e0031bf	0.12518977
156	0x3f21a465	0.6314147
157	0x3d81ef98	0.06344527
158	0xbe6b7def	-0.22997259
159	0xbe95a1ef	-0.29225108
160	0xbede5523	-0.4342433
161	0x3e5afeab	0.2138621
162	0xbdacd2d4	-0.0843865
163	0x3ef34918	0.47516704
164	0x3e75fa69	0.24021305
165	0x3e448146	0.19189939
166	0xbd3af886	-0.045647167
167	0xbe588369	-0.21143879
168	0xbd6f4f1c	-0.058425054
169	0x3e835072	0.25647312
170	0xbc935650	-0.017985493
171	0xbee31bc6	-0.44357127
172	0x3e08e99a	0.13370362
173	0x3e992ab2	0.29915386
174	0xbe857bfd	-0.26071158
175	0x3d8fc17e	0.070193276
176	0xbc0f7634	-0.008756209
177	0x3ec116a3	0.37712583
178	0x3e3edf4d	0.1863987
179	0x3e081425	0.13288935
180	0xbeb19d6c	-0.34690416
181	0x3a7e4bd0	0.0009700628
182	0x3e1d97dd	0.15389962
183	0xbd031ab2	-0.03200788
184	0xbda12efe	-0.07870291
185	0x3ead36c9	0.3383086
186	0xbe567b06	-0.20945367
187	0x3ea3a457	0.3196132
188	0x3ed2e1d9	0.41187933
189	0xbebd8b14	-0.3702017
190	0xbec0e9a1	-0.37678245
191	0xbe073991	-0.13205554
192	0xbd5c02ff	-0.053713795
193	0x3e9bea6b	0.30452284
194	0xbe7da891	-0.24771334
195	0x3ee41b5a	0.44552118
196	0xbd60a6fa	-0.05484674
197	0xbdadfac3	-0.084950946
198	0xbe3e6139	-0.18591775
199	0x3d95414a	0.072878435
200	0x3ee9cd9d	0.45664683
201	0xbd15e753	-0.03659756
202	0x3d7c11f4	0.06154056
203	0x3ccb2395	0.02479724
204	0xbf1a34e0	-0.6023693
205	0xbba3529d	-0.0049842135
206	0xbe6e693e	-0.23282334
207	0xbdaaa080	-0.08331394
208	0x3e0e9817	0.13925205
209	0xbda16c3f	-0.078819744
210	0x3e4fad69	0.20280994
211	0x3d814759	0.063124366
212	0x3c580d77	0.013186804
213	0x3e93a5af	0.28837344
214	0x3d2ef684	0.042715564
215	0x3ecf3995	0.4047362
216	0x3d9d8de7	0.07693081
217	0xbe0929fe	-0.13394925
218	0x3eaf6854	0.34259284
219	0xbdb36c38	-0.087608755
220	0x3eb1e377	0.34743854
221	0x3e442f6d	0.19158716
222	0xbe9509c7	-0.29109022
223	0x3d6c9b55	0.057765324
224	0x3c910843	0.017704135
225	0x3c5df3a6	0.01354686
226	0xbe39ae65	-0.18132932
227	0xbdc94c69	-0.09829027
228	0x3e8e7f5d	0.27831545
229	0x3dd33602	0.103130355
230	0xbce7b023	-0.02828223
231	0xbf28f5d4	-0.66000104
232	0xbe9718d6	-0.29511136
233	0xbe9b7847	-0.30365202
234	0x3cc005f4	0.023440339
235	0xbdb1f952	-0.08690132
236	0xbda1a392	-0.07892527
237	0x3e9e59df	0.3092794
238	0x3e874956	0.26423138
239	0xbe6d882c	-0.23196477
240	0xbd1a93c2	-0.03773857
241	0xbd8ce739	-0.0688004
242	0x3e1d9d54	0.15392047
243	0x3d0b815c	0.034058914
244	0x3e747c53	0.23875551
245	0xbe843bb2	-0.25826794
246	0xbd5cd0ee	-0.05391019
247	0xbe154c2d	-0.1457984
248	0xbec7dcf5	-0.39035764
249	0xbe2391e7	-0.15973626
250	0xbdc471c1	-0.09592009
251	0x3d4c53d9	0.04988465
252	0x3e01c55f	0.12672947
253	0x3e9d5ff1	0.3073726
254	0xbe0bf3cc	-0.1366722
255	0x3e03308d	0.1281149

conv2.bias f4 [50]
0	0x3dd4e1aa	0.103946045
1	0x3c564e2e	0.013080163
2	0x3d984eb4	0.074368864
3	0x3ca13071	0.019676419
4	0xbd28dd75	-0.041226823
5	0x3d133c8c	0.035946414
6	0x3dc0b5e3	0.09409692
7	0xbbcb3a85	-0.0062020444
8	0x3d3a471a	0.045477964
9	0xbda6e4a7	-0.08149081
10	0xba722a93	-0.00092379114
11	0x3d6fd393	0.058551382
12	0xbd0570f5	-0.032578427
13	0xbd20f56a	-0.039296545
14	0x3e515157	0.20441185
15	0xbd28e696	-0.04123553
16	0x3d00950f	0.031392153
17	0xbd65840a	-0.056034125
18	0x3cbd24d6	0.023088854
19	0x3d4a1d93	0.04934461
20	0x3dc0a809	0.0940705
21	0x3d78f289	0.060778175
22	0xbd451731	-0.04811782
23	0xbd875592	-0.06608118
24	0x3d019d08	0.031643897
25	0xbd0ea55a	-0.03482566
26	0x3d3d1e95	0.046171743
27	0x3cfcc723	0.030856675
28	0x3dec1e55	0.11529223
29	0x3e15b9eb	0.14621703
30	0xbc804104	-0.015656002
31	0x3de76e1b	0.11300298
32	0x3e12c72c	0.1433379
33	0xbce43ed1	-0.027861984
34	0x3ddc8ad0	0.10768664
35	0x3e0d8fa0	0.1382432
36	0x3e2746e4	0.16335636
37	0x3d3c7874	0.04601331
38	0x3daee5bf	0.08539914
39	0xbc76d6bc	-0.015065845
40	0x3d932495	0.07184712
41	0xbbc9a364	-0.006153511
42	0x3da6b040	0.08139086
43	0x3d874073	0.066040896
44	0x3ded851b	0.115976535
45	0x3e1f3d1e	0.15550658
46	0xbcd3d08c	-0.025856279
47	0x3d514649	0.05109242
48	0x3e064fac	0.1311633
49	0x3e263e4e	0.16234705

conv2.lin.weight f4 [50, 50]
0	0x3eb0e23f	0.34547612
1	0xbe37e0e0	-0.17956877
2	0x3de7129d	0.11282847
3	0x3e729aa0	0.23691797
4	0x3db008d5	0.085954346
5	0xbdcae7d9	-0.09907503
6	0xbd46291c	-0.04837905
7	0x3e4cc249	0.19995989
8	0x3d978251	0.07397903
9	0x3e95c283	0.29249963
10	0x3eb5be03	0.3549653
11	0x3d985bbf	0.07439374
12	0x3daf3534	0.085550696
13	0xbdf17463	-0.11789777
14	0xbe323465	-0.174028
15	0xbe6a034e	-0.22852823
16	0xbebf4212	-0.37355095
17	0x3f02bc97	0.51069015
18	0x3e77298e	0.24136946
19	0xbe20e1a7	-0.1571108
20	0xbea2c913	-0.31794032
21	0xbe2f7f32	-0.17138365
22	0xbdc543e1	-0.096320875
23	0x3d7a0569	0.061040316
24	0xbe21e8c9	-0.15811457
25	0xbdc234f1	-0.09482754
26	0x3e86f833	0.26361236
27	0xbd56e082	-0.0524602
28	0x3e93081d	0.28717127
29	0xbd9d82e3	-0.0769098
30	0xbc343c0c	-0.011000644
31	0x3ef6ea56	0.4822566
32	0x3e8f982d	0.28045788
33	0xbeeb6e2d	-0.45982495
34	0xbd996cc3	-0.07491448
35	0x3dd12d08	0.10213667
36	0x3e5b55a6	0.21419391
37	0x3ed46f04	0.41490948
38	0x3ef5eb4f	0.4803109
39	0x3b3aff59	0.0028533547
40	0x3e3f953d	0.18709274
41	0xbe1d5075	-0.15362723
42	0xbe057a61	-0.13034965
43	0x3e6384f3	0.22218685
44	0x3ef72736	0.48272103
45	0x3e371063	0.17877345
46	0x3d5f5f7b	0.054534417
47	0xbea5e9d2	-0.32404953
48	0x3efc5638	0.4928453
49	0xbdcd6de3	-0.10030725
50	0x3c467f8e	0.012115372
51	0x3e5334f6	0.20625672
52	0xbd846772	-0.06465043
53	0x3dc40c5c	0.0957267
54	0xbed9ead8	-0.42561984
55	0xbc2a5b65	-0.010397767
56	0x3d65d1a3	0.05610813
57	0xbe3c1119	-0.18365897
58	0x3d32475f	0.043525096
59	0xbe949c30	-0.29025412
60	0xbdf0dca9	-0.117608376
61	0xbe1fffbc	-0.15624899
62	0x3e01ce8d	0.12676449
63	0xbea164ab	-0.31522116
64	0x3dd00d3d	0.10158775
65	0x3d9639a3	0.07335212
66	0x3eca2c69	0.39487007
67	0xbdb949b6	-0.09047262
68	0x3e502f0c	0.20330447
69	0x3db8141d	0.08988211
70	0x3dff6772	0.124709025
71	0xbe23d0a4	-0.15997559
72	0xbd4428cc	-0.04789047
73	0x3ed0dbaa	0.4079259
74	0xbdcd5268	-0.10025483
75	0x3e9e28f1	0.3089061
76	0xbe5bd2b8	-0.21467102
77	0x3e7ac916	0.2449077
78	0x3e977bbb	0.29586586
79	0x3ebfb1be	0.37440294
80	0x3ef6caa7	0.48201486
81	0xbd207cdb	-0.03918157
82	0xbe941706	-0.28923815
83	0x3e687876	0.22702202
84	0x3e6b0a5b	0.22953169
85	0x3cd83467	0.026392175
86	0x3b77f6f7	0.0037836412
87	0x3eb4eff3	0.35339317
88	0x3caeaed4	0.021323599
89	0xbe6df871	-0.23239304
90	0x3e2fb8b8	0.17160308
91	0xbe27bfbc	-0.16381735
92	0xbe50377b	-0.20333664
93	0x3db1c2af	0.08679711
94	0xbd2e40f8	-0.042542428
95	0x3dd461ab	0.10370191
96	0xbe51f60a	-0.20504013
97	0x3d2b0bda	0.04175935
98	0x3e12bb35	0.14329226
99	0xbe460a57	-0.19339882
100	0x3ebd20fb	0.36939225
101	0xbdc20f91	-0.09475625
102	0x3d96a961	0.07356525
103	0x3e1f970a	0.1558496
104	0x3e49b467	0.19697724
105	0xbda13960	-0.078722715
106	0xbe6221d9	-0.22083224
107	0x3e754ce0	0.23955107
108	0xbe10307a	-0.14080992
109	0x3da3bf68	0.07995492
110	0x3d722a39	0.059122298
111	0x3d90d4b0	0.07071817
112	0x3d2f8575	0.042851884
113	0x3db2324a	0.08700998
114	0x3e2b7f47	0.16747771
115	0xbe22e935	-0.15909274
116	0xbe82b7af	-0.25530764
117	0x3ee7e57b	0.45292267
118	0xbdeb4461	-0.114876516
119	0x3e32c336	0.1745728
120	0xbe85c1e3	-0.26124486
121	0xbe63daac	-0.22251385
122	0x3df6e7a9	0.120559044
123	0x3c68e84c	0.01421554
124	0xbe1fae8d	-0.1559393
125	0x3e8a85a9	0.270551
126	0x3e2f2c4d	0.17106743
127	0x3e1d7b18	0.15378988
128	0x3e85c053	0.26123294
129	0x3dc314ee	0.095254764
130	0xbd2653ae	-0.040607147
131	0x3ed2f133	0.41199645
132	0xbbea5d04	-0.0071522016
133	0xbdb5f66d	-0.088848926
134	0x3bd39a08	0.006457571
135	0x3e3d8d09	0.18510832
136	0x3d8aa2ba	0.06769319
137	0x3c8bf0e1	0.017082633
138	0x3df2d190	0.11856377
139	0xbd5f738f	-0.054553565
140	0x3d118590	0.035527766
141	0xbea0b10d	-0.3138508
142	0xbe1d40c4	-0.15356737
143	0x3de6e409	0.11273963
144	0x3ea70ad8	0.3262546
145	0xbb30c27e	-0.0026971395
146	0x3d6d245d	0.057896007
147	0xbe9aec54	-0.3025843
148	0x3ea61cd0	0.32443857
149	0xbe43646d	-0.19081278
150	0xbc21e23e	-0.0098806005
151	0x3e744d98	0.23857725
152	0xbd809d51	-0.06280006
153	0x3eab066a	0.3340333
154	0xbeefa842	-0.46808058
155	0x3e6d9f00	0.23205185
156	0xbdc3863c	-0.095470876
157	0xbde1de23	-0.11028697
158	0xbe05aa17	-0.13053165
159	0xbe40fe12	-0.1884692
160	0xbefb7387	-0.49111578
161	0xbd91b901	-0.07115365
162	0x3da2bfe7	0.07946759
163	0x3e421065	0.18951567
164	0x3e0f5125	0.13995798
165	0x3dcafef9	0.099119134
166	0x3ebdb99f	0.3705568
167	0xbea4416a	-0.32081157
168	0xbdebeb57	-0.11519497
169	0xbe38ee9d	-0.18059774
170	0x3e8e58e2	0.27802187
171	0x3e21efe8	0.15814173
172	0xbec33746	-0.38128108
173	0x3dd8003d	0.105469204
174	0xbdbddf6d	-0.09271131
175	0xbd95a7b2	-0.07307376
176	0xbd4be61a	-0.04977999
177	0xbe4bc6dd	-0.19900079
178	0x3c3acdec	0.011401635
179	0x3e225f60	0.15856695
180	0x3df54338	0.119757116
181	0xbe94ff5d	-0.29101077
182	0xbe9b7c9c	-0.30368507
183	0x3e89aae7	0.268882
184	0x3ec9315e	0.39295477
185	0x3d058fe7	0.03260794
186	0x3a870afc	0.0010302956
187	0xbe0022a2	-0.12513211
188	0x3e370e3a	0.17876521
189	0xbe82c58f	-0.2554135
190	0x3e76b101	0.24090959
191	0x3c5871fc	0.01321077
192	0xbeb4fd2c	-0.35349405
193	0x3e8fe809	0.28106716
194	0xbe1865a6	-0.14882526
195	0xbe42a102	-0.19006732
196	0xbdffcfdc	-0.12490818
197	0x3e0105d7	0.12599884
198	0xbe7b8831	-0.24563672
199	0xbd9a7223	-0.07541301
200	0x3ebc9ab5	0.36836782
201	0x3cdd90b4	0.027046539
202	0xbe3d3bbe	-0.18479821
203	0x3e45d665	0.19320066
204	0xbe6b9e6f	-0.23009656
205	0x3dabe177	0.083926134
206	0x3e7741e2	0.24146226
207	0x3e60774f	0.21920513
208	0xbd0712f5	-0.032977063
209	0xbe8b21fc	-0.27174366
210	0x3dd61099	0.104523845
211	0x3e078984	0.13236052
212	0x3e7d4630	0.24733806
213	0xbde5bdc4	-0.112178355
214	0x3d9eecc1	0.07760001
215	0xbe2b3272	-0.16718462
216	0x3e841173	0.25794563
217	0xbd16dd4f	-0.03683215
218	0x3dcb7767	0.099348836
219	0xbe024a2f	-0.12723611
220	0xbdf6ccd4	-0.120507866
221	0xbe850d60	-0.25986767
222	0xbe8458d8	-0.25849032
223	0x3e83318a	0.25623733
224	0x3d1f804d	0.038940717
225	0x3e7b7add	0.24558587
226	0xbd663b1e	-0.056208722
227	0x3d9b1d1a	0.0757391
228	0x3e03d0c2	0.12872604
229	0x3e1a0a2b	0.15042941
230	0x3e53db4f	0.20689128
231	0x3d414f89	0.04719499
232	0xbe09cd1d	-0.13457151
233	0x3db9eb06	0.0907803
234	0x3e99d62e	0.3004622
235	0x3e6d250c	0.23158664
236	0x3d9bafdf	0.07601904
237	0x3e88a4fc	0.26688373
238	0x3e41629a	0.1888527
239	0xbe860241	-0.26173595
240	0x3eb643cd	0.35598603
241	0xbd2ab4da	-0.04167638
242	0xbdc8c2cf	-0.09802782
243	0x3df2453c	0.11829612
244	0x3d80ac56	0.062828705
245	0x3e30606a	0.17224279
246	0x3bf24b67	0.0073942426
247	0xbc6db1c2	-0.014507713
248	0x3d1e472a	0.038642086
249	0xbe14ff5d	-0.14550538
250	0x3ea9db38	0.33175063
251	0xbe646bdb	-0.22306769
252	0x3e361ce8	0.17784464
253	0xbd31592f	-0.043297943
254	0xbd2fd138	-0.042924136
255	0x3d5756c1	0.05257297

pool1.weight f4 [1, 50]
0	0x3d2beabb	0.041971903
1	0x3e579fd0	0.21057057
2	0x3e31cf02	0.17364123
3	0x3df8dff6	0.12152092
4	0xbe30d1d4	-0.17267543
5	0x3d49d24d	0.049272824
6	0xbdddde20	-0.108333826
7	0xbe821887	-0.25409338
8	0xbdc722c3	-0.09723427
9	0xbccb4e63	-0.024817651
10	0xbdae08cd	-0.08497772
11	0xbe0c0fd8	-0.13677919
12	0x3d964d16	0.07338922
13	0xbc0c06c4	-0.008546535
14	0x3e0ae83b	0.13565151
15	0xbdb6aa71	-0.08919228
16	0x3e77c6b9	0.241969
17	0x3d406715	0.046973307
18	0x3e0c8d46	0.13725767
19	0xbe22406a	-0.15844885
20	0xbe283e1c	-0.16429943
21	0x3e6751dc	0.2258982
22	0xbe083e5a	-0.13305035
23	0xbc4dabb3	-0.012553143
24	0xbe16d366	-0.1472908
25	0xbc2644ab	-0.010148208
26	0xbd4ad16d	-0.04951613
27	0xbe2f5930	-0.17123866
28	0x3dbc6c08	0.09200293
29	0x3daee784	0.08540252
30	0x3b42377b	0.002963512
31	0x3c9cdd97	0.019148631
32	0xbe2ff029	-0.17181458
33	0xbd4ae7f7	-0.049537625
34	0x3dc92441	0.09821368
35	0x3cd93c18	0.026517913
36	0x3d8bc281	0.06824208
37	0xbdb31eb0	-0.087460876
38	0x3dcc93c4	0.099891216
39	0x3dcb3fd8	0.099242866
40	0x3ddcbfb5	0.10778753
41	0xbdd12701	-0.102125175
42	0xbd8bd702	-0.06828119
43	0x3d12985b	0.03578983
44	0xbe15ef56	-0.1464208
45	0xbe6e3da9	-0.23265709
46	0xbdd1bd67	-0.10241204
47	0xbda104e8	-0.07862264
48	0xbd93fc07	-0.07225805
49	0xbdeb64e5	-0.114938535

pool2.weight f4 [1, 50]
0	0x3e62fe18	0.22167242
1	0x3af04f45	0.0018334171
2	0x3e07a19f	0.13245247
3	0xbd53e5c1	-0.051732782
4	0x3d8fbf09	0.07018859
5	0x3e663803	0.22482304
6	0xbd2f33f3	-0.042774152
7	0x3ab51262	0.0013814683
8	0xbe572a11	-0.21012141
9	0x3e1cf558	0.15327966
10	0x3cce4370	0.025178641
11	0x3dfc0c77	0.12307065
12	0xbd3473a1	-0.044055585
13	0xbc0be2b7	-0.00853794
14	0xbca469ce	-0.020069983
15	0x3b4ca0db	0.0031223807
16	0x3e1363cc	0.14393538
17	0x3cfad83f	0.030620692
18	0xbe27697d	-0.16348834
19	0x3e818b09	0.25301388
20	0x3d70a9c0	0.058755636
21	0xbe240a5b	-0.16019575
22	0x3d42e977	0.04758593
23	0x3e0c7d00	0.13719559
24	0x3e02f695	0.12789376
25	0x3d5bf6f0	0.053702295
26	0x3e4ed7d1	0.20199515
27	0x3e04f19b	0.1298279
28	0x3c599fad	0.013282699
29	0x3dcc1be9	0.09966261
30	0xbc9d5769	-0.01920672
31	0x3dea9ed9	0.11456079
32	0xbc624b36	-0.013811877
33	0x3e0b5872	0.13607958
34	0xbdcdc730	-0.100477576
35	0xbcc9dfb4	-0.024642803
36	0x3d46fa4b	0.04857854
37	0xbe2ba065	-0.16760404
38	0x3e315387	0.1731702
39	0xbcf3e571	-0.029772492
40	0xbd49e33c	-0.049288973
41	0x3d1e2949	0.03861359
42	0xbe7882b5	-0.24268611
43	0x3e3c7cbc	0.18406957
44	0x3e07d910	0.13266397
45	0xbdc37fb8	-0.09545845
46	0x3d5d83b5	0.054080684
47	0xbe38f34b	-0.18061559
48	0xbd68ce6d	-0.056837488
49	0xbe2831d9	-0.16425265

fc4.weight f4 [3, 200]
0	0x3e35caef	0.17753194
1	0xbf17be6a	-0.59274924
2	0xbcd1ebff	-0.025625227
3	0xbec7cb6f	-0.39022395
4	0xbdc53370	-0.096289515
5	0xbeb36bad	-0.35043088
6	0xbe9740f4	-0.29541743
7	0x3d867e67	0.06567078
8	0xbea7d8e1	-0.32782653
9	0xbd0b98cf	-0.034081277
10	0x3e5ebf1a	0.21752587
11	0xbed9b154	-0.42518103
12	0xbe9909b8	-0.29890227
13	0xbea5d088	-0.3238566
14	0xbe7946cb	-0.24343412
15	0x3deaea65	0.114704885
16	0xbee0b046	-0.43884486
17	0x3e094c38	0.13407981
18	0xbf02fa9b	-0.51163644
19	0xbe646941	-0.22305776
20	0xbe6be334	-0.2303589
21	0xbf095153	-0.53639716
22	0xbdb96123	-0.090517305
23	0xbe4b18bf	-0.19833659
24	0x3d870dcc	0.065944284
25	0xbe938cdd	-0.28818408
26	0xbe9fa3ba	-0.311796
27	0xbe1c0f0d	-0.15240116
28	0xbae1994d	-0.0017211825
29	0xbec7fbd9	-0.39059332
30	0xbe83f667	-0.25773928
31	0x3e6ea214	0.23304015
32	0xbd5d49a1	-0.054025296
33	0xbea8f04c	-0.32995832
34	0xbf016cb3	-0.50556487
35	0xba4d7bb6	-0.0007838564
36	0xbe6e276a	-0.23257223
37	0xbd4a0338	-0.049319476
38	0xbe8f5d71	-0.28000978
39	0xbe828a35	-0.2549607
40	0xbe487012	-0.19574001
41	0xbd9f18db	-0.07768413
42	0xbe0b1873	-0.13583545
43	0xbe9dcd57	-0.30820724
44	0x3d8050f6	0.06265442
45	0xbdc8d77e	-0.09806727
46	0xbe7dc7f4	-0.24783307
47	0xbecf7261	-0.40516952
48	0x3e609938	0.21933448
49	0xbd42b473	-0.04753537
50	0x3d24bc4e	0.040218644
51	0xbe4a504b	-0.19757192
52	0xbe0345db	-0.12819616
53	0xbe76e62d	-0.24111243
54	0x3e2e01b9	0.16992845
55	0xbe08b2e4	-0.13349491
56	0x3d64a168	0.05581799
57	0x3d4bbe60	0.049742103
58	0x3dabcd3f	0.08388757
59	0x3de23ae6	0.1104639
60	0x3df916ac	0.121625274
61	0x3e582afa	0.21110144
62	0xbe45dbb5	-0.19322093
63	0xbe22511b	-0.15851252
64	0xbe503c91	-0.20335604
65	0x3e0e9fc4	0.13928133
66	0xbe6cc93a	-0.23123637
67	0xbd0cac49	-0.03434399
68	0xbe4e47d7	-0.20144592
69	0x3dd4e9de	0.10396169
70	0x3df1590e	0.11784564
71	0xbdfeb82d	-0.124374725
72	0x3df432f3	0.1192378
73	0x3d1cc603	0.038274776
74	0x3e498cf5	0.19682677
75	0xbdddf093	-0.108369015
76	0x3e616430	0.22010875
77	0x3e47ecd8	0.19523942
78	0xbdf250fd	-0.118318535
79	0xbe05c20d	-0.13062306
80	0xbd00d907	-0.031456973
81	0x3e139ad5	0.14414532
82	0x3e4614c7	0.19343863
83	0xbe15d429	-0.14631714
84	0xbe95ebde	-0.29281515
85	0xbe07836a	-0.13233724
86	0xbe438dc8	-0.19097054
87	0x3e5f8739	0.21828927
88	0xbce8cb9c	-0.028417401
89	0x3c91c538	0.017794237
90	0xbe511d1f	-0.20421265
91	0x3d951130	0.07278669
92	0x3d9b1dda	0.07574053
93	0xbe1ee4c3	-0.15516953
94	0x3de348cc	0.11097869
95	0x3e3d1ae4	0.18467289
96	0x3d63d784	0.055625454
97	0xbd0cce49	-0.034376416
98	0x3dbcfff4	0.09228507
99	0x3d9e257e	0.07721995
100	0x3e9e169e	0.3087663
101	0xbebc783c	-0.36810482
102	0x3e805dcd	0.25071564
103	0xbebf9b7e	-0.3742332
104	0xbe5516a9	-0.20809425
105	0x3e681a82	0.22666362
106	0xbdd73770	-0.10508621
107	0xbed8f6f7	-0.4237592
108	0xbe84e93b	-0.2595919
109	0xbe772abb	-0.24137394
110	0xbeada98d	-0.3391842
111	0x3e7b3724	0.24532753
112	0xbed09b87	-0.40743658
113	0xbef3f9be	-0.47651476
114	0x3e9bf894	0.30463088
115	0xbeb65597	-0.35612175
116	0x3e7b462b	0.24538486
117	0xbeb53610	-0.3539281
118	0xbe6e35a3	-0.23262648
119	0x3e87a5eb	0.26493773
120	0x3eaa550c	0.3326801
121	0xbe929ab4	-0.28633654
122	0xbe8e60ea	-0.27808315
123	0xbe7ed1e4	-0.24884754
124	0x3e81ae82	0.2532845
125	0x3e044863	0.12918238
126	0x3e8cbd50	0.27488184
127	0x3e913d96	0.283673
128	0x3e6fd880	0.23422432
129	0x3eb92a10	0.36164904
130	0xbe9cc330	-0.30617666
131	0x3e883e11	0.26609853
132	0x3e8e240a	0.2776187
133	0xbe6eeae0	-0.23331785
134	0x3e9b9dda	0.3039387
135	0x3e5c71e8	0.21527827
136	0x3ea9a7d8	0.33135867
137	0xbe905f9a	-0.28197938
138	0x3eb1d04d	0.34729233
139	0xbe96d38e	-0.29458278
140	0xbe78b3de	-0.24287364
141	0xbeac7b40	-0.33687782
142	0xbd43e606	-0.04782679
143	0x3ea11b25	0.31466022
144	0x3ea69fa8	0.32543683
145	0x3dd753bd	0.10514019
146	0xbe8f4265	-0.27980343
147	0xbd341900	-0.043969154
148	0x3d4534b5	0.04814597
149	0x3e68f125	0.2274824
150	0x3e9ddfe5	0.3083488
151	0xbe38a6da	-0.18032399
152	0x3e8b9025	0.2725841
153	0xbe42d50c	-0.19026583
154	0xbea72190	-0.32642794
155	0x3e14034a	0.1445438
156	0x3e1e83f1	0.15480019
157	0xbe98fb74	-0.29879344
158	0xbe3493ef	-0.17634557
159	0xbeb0cbb2	-0.34530407
160	0xbe6a5357	-0.22883354
161	0x3e26973e	0.16268632
162	0xbe8702b0	-0.26369238
163	0xbe787a97	-0.24265514
164	0x3eb9c2b9	0.36281374
165	0xbec1c504	-0.37845623
166	0x3e1b041a	0.15138283
167	0xbe8ec723	-0.27886304
168	0xbe340c53	-0.17582826
169	0x3e95da3b	0.2926806
170	0x3e7b15cb	0.24520032
171	0xbc4db61f	-0.012555628
172	0xbe6a7098	-0.22894514
173	0xbeaa86a2	-0.33305842
174	0x3e3d7d25	0.1850477
175	0x3d882dc3	0.06649353
176	0x3e610e3f	0.2197809
177	0x3deb4b6d	0.11488996
178	0x3ea4ee51	0.3221307
179	0x3ea3e84a	0.3201316
180	0xbe64a644	-0.2232905
181	0x3e93d390	0.28872347
182	0x3e91f97d	0.28510657
183	0xbe93aab1	-0.28841165
184	0x3e8021ff	0.25025937
185	0x3e6e8aaf	0.23295091
186	0x3eb1e1ee	0.34742683
187	0xbe01085a	-0.12600842
188	0x3e8a9f97	0.27074882
189	0xbe21aa19	-0.15787543
190	0xbe333cfe	-0.17503735
191	0xbe9b69a6	-0.3035404
192	0xbdb618d4	-0.08891454
193	0x3e6d5372	0.23176363
194	0x3e9a619d	0.30152598
195	0x3e6cb3b7	0.23115431
196	0xbeb32dd2	-0.34995896
197	0xbd25510d	-0.0403605
198	0x3d02f68e	0.031973414
199	0x3e0b4a2b	0.13602512
200	0xbdb8ab5e	-0.09017061
201	0xbeab404a	-0.33447486
202	0xbe9f0881	-0.31061175
203	0x3ec5e03f	0.3864765
204	0x3e5848a2	0.21121457
205	0x3f058da0	0.5216923
206	0x3ee4474c	0.44585645
207	0x3d2e50f9	0.04255769
208	0x3f13a987	0.57680553
209	0xbe98fbbf	-0.29879567
210	0xbbea704e	-0.007154501
211	0x3e01f3fb	0.12690727
212	0x3e852887	0.26007482
213	0x3f1a18a6	0.6019386
214	0x3d2e39a0	0.042535424
215	0xbe5706e6	-0.20998725
216	0xbe52c289	-0.20582022
217	0xbd5a8cdc	-0.05335699
218	0xbe47b67a	-0.19503203
219	0x3eabd532	0.33561093
220	0x3e0b65bf	0.13613032
221	0xbe6e4203	-0.23267369
222	0x3e821cfd	0.2541274
223	0x3eaf9f15	0.34301057
224	0xbe137aab	-0.14402263
225	0x3efed60f	0.4977269
226	0xbd1cc943	-0.038277876
227	0xbc1a30ae	-0.00941102
228	0x3e09f4bf	0.1347227
229	0x3e66953a	0.22517863
230	0x3e4acca1	0.19804622
231	0xbdeb8ea3	-0.11501815
232	0x3ccddcb9	0.025129663
233	0x3f114e8f	0.56760496
234	0x3e6376c6	0.22213277
235	0x3dd384e8	0.10328084
236	0x3ec62cb3	0.38705978
237	0x3e23825e	0.159677
238	0x3ee1084c	0.43951643
239	0xbe95c640	-0.29252815
240	0x3e4a0be9	0.19731106
241	0xbd81d0fd	-0.063386895
242	0xbca39843	-0.019970065
243	0x3e8354ad	0.2565054
244	0x3d8a419d	0.06750796
245	0x3db9ca33	0.090717696
246	0x3e9980a9	0.29980972
247	0x3f11951a	0.56868136
248	0xbe31b1b1	-0.1735294
249	0x3da5488a	0.08070476
250	0x3d7847b9	0.060615275
251	0xbf035b8b	-0.5131156
252	0xbe5d8aa9	-0.21634926
253	0x3e1042c5	0.1408797
254	0x3e099ece	0.13439485
255	0x3f16c7b6	0.58898485

fc4.bias f4 [3]
0	0xbdee7da7	-0.1164506
1	0xbe201160	-0.15631628
2	0x3e091c1a	0.13389626
