experiments/experiment_6/checkpoint_3_6.pt (torch, 39119 bytes, 8 tensors)

conv1.bias f4 [50]
000000 d2 64 24 3e 02 86 af be 9a 13 bb 3d 27 83 21 bd
       0.16054085 -0.34281927 0.09134598 -0.039431717
000010 e3 37 eb 3d 98 aa 32 3e b6 c5 b8 3d d3 7d b5 3c
       0.11485269 0.17447889 0.09022085 0.022154724
000020 e3 7f 23 bd fd 25 45 3e 02 e0 11 3e da 0b d9 3c
       -0.039916884 0.19252773 0.14245608 0.02649491
000030 ec 63 5c bc b4 22 f0 3d 05 23 b6 bd 38 f3 8f 3e
       -0.013451558 0.11725369 -0.08893398 0.2811525
000040 8f 23 04 3d 24 ac fd bd 97 90 2a bc bf f3 ae 3e
       0.032260474 -0.12386349 -0.0104104495 0.3417034
000050 e9 a8 f0 3d 5b 2d a9 3d 50 e5 47 3e 52 8f 92 3d
       0.11750967 0.08260604 0.1952107 0.071562424
000060 d5 de 8c bd d0 aa 7d 3b ca ec 6a bd 1a cc 89 3e
       -0.06878439 0.0038706549 -0.057354726 0.2691353
000070 77 8f 7c be c7 a7 f9 3e b0 b1 98 bc a0 9c 23 3e
       -0.24664102 0.48760816 -0.018639416 0.15977716
000080 3b 11 9b be 52 3a a7 3d 97 7f 2f 3d 20 51 2b 3b
       -0.30286583 0.081654206 0.04284629 0.0026140884
000090 6e 41 59 3e a0 14 e9 bd eb ba 19 3e 44 d8 e8 3b
       0.21216366 -0.11380887 0.1501271 0.007105859
0000a0 f5 02 47 3e 92 a6 2c 3d ec 74 bf bd 05 75 40 3d
       0.19434722 0.04215104 -0.09348473 0.0469866
0000b0 22 16 d0 3b 9a a2 62 3e 1c c3 87 bc 14 80 29 be
       0.0063502947 0.2213234 -0.016572528 -0.16552764
0000c0 10 66 52 3d b0 cd d2 3b
       0.051366866 0.0064332113

conv1.lin.weight f4 [50, 116]
000000 4a 34 62 3e 15 ae 66 bd 15 03 c1 3c d7 47 98 bd
       0.22090259 -0.05631836 0.02356104 -0.07435577
000010 e4 ba 33 bd b9 08 a2 bd 04 b6 99 3e fb 7e 3f 3d
       -0.043879405 -0.0791182 0.3002168 0.046751957
000020 ef 02 97 3c c9 6b c6 bc 2e 8a a4 3d 09 98 ad 3e
       0.018434016 -0.024221318 0.08034168 0.33905056
000030 00 97 c0 be ef f8 ab 3e 79 25 d7 bc f0 86 87 bd
       -0.37615204 0.3358836 -0.026262986 -0.06617534
000040 4b d9 83 bd 19 4d 8c bc 9f f8 03 bb 77 e9 ae 3b
       -0.0643793 -0.017126607 -0.0020137203 0.00533789
000050 eb 36 2e 3e ab 7c 09 3c 16 ec 58 be 46 37 3e 3d
       0.17013137 0.00839154 -0.2118381 0.04643943
000060 f3 cd bb bc 3c df d2 bd e5 4d df 3d 5b dd 2a be
       -0.022925353 -0.10296485 0.10903529 -0.16686003
000070 3f a4 98 3c 84 24 f9 3d 2a 28 47 3d 14 56 8a be
       0.018633006 0.12165168 0.048622288 -0.27018797
000080 14 a1 5d 3c 84 c4 aa 3d 82 73 2b 3d 7b 02 21 3e
       0.013527174 0.08338264 0.041858204 0.15723602
000090 94 b0 53 3e a9 69 70 3e 1d e5 50 3d 1d 1a 5e be
       0.20672828 0.23477806 0.05099975 -0.21689649
0000a0 47 d5 03 be 83 7c 58 3e ee e3 2a 3e d6 49 0c 3c
       -0.12874328 0.21141247 0.16688511 0.008562526
0000b0 95 62 5d be 88 c6 b2 3c 83 76 1c 3e 09 95 80 bc
       -0.21619637 0.021823183 0.15279584 -0.015696066
0000c0 4f 3f 00 be 00 5d 85 3e d0 c4 3f 3e 49 a3 70 be
       -0.1252415 0.26047516 0.18727422 -0.23499788
0000d0 8c 0b b5 bd 20 3d d1 bd 21 1e 01 be e2 3f f2 3d
       -0.08840093 -0.10216737 -0.1260915 0.11828591
0000e0 35 1f 07 bb 23 05 98 bd b8 e7 e4 3c 13 e3 92 3e
       -0.0020617966 -0.07422855 0.027942523 0.2868887
0000f0 eb e6 d1 3d fe fe ac bd e8 25 1a bc a8 bf 9f 3e
       0.10249122 -0.084470734 -0.009408452 0.3120091
000100 53 15 f3 bd 23 9c 97 3e b0 cd 63 bd 0c 54 89 3b
       -0.11869302 0.2961131 -0.05561608 0.0041909274
000110 dc f1 ba 3e bb b1 d1 bd dc 8f 0b 3e 61 c4 3f 3e
       0.3651265 -0.102389775 0.13629097 0.18727256
000120 5f 0f 2b 3e 23 08 5a be e2 34 b1 bd 3d c8 d0 bd
       0.16705082 -0.21292166 -0.08652665 -0.101944424
000130 52 c0 a0 3b b9 16 7d 3c 41 98 bf be 92 26 08 3e
       0.004905739 0.015447312 -0.37420848 0.13295963
000140 ef 17 1b 3d e4 f0 f1 3d 7e 0f 08 3e 98 83 a2 3d
       0.03786462 0.11813524 0.1328716 0.07935256
000150 7d 77 dc 3d 57 20 20 be c1 e1 22 be 74 27 f0 3d
       0.10764978 -0.15637337 -0.15906431 0.11726275
000160 ee 49 8d be aa 44 61 bc 61 34 94 3e 5e 1a 72 be
       -0.27595466 -0.013749281 0.28946212 -0.23642871
000170 ec 72 05 be 3f 01 a1 bd 8d ee 11 3e 33 56 ef bc
       -0.1303212 -0.07861566 0.14251156 -0.029215908
000180 15 10 9e 3d 90 6c 99 bd d4 bc 27 3e 41 a6 28 be
       0.07717911 -0.0749141 0.16380626 -0.16469671
000190 42 49 04 3d 3a 3a 91 3e 45 84 06 be 1c a5 b0 3d
       0.032296427 0.28364736 -0.13136394 0.08625242
0001a0 f2 6b 76 3e 13 2e 7d bd 70 b5 a6 bd e4 2c 0b 3e
       0.24064615 -0.061811518 -0.08140075 0.13591343
0001b0 cb 23 c8 3c 64 f0 08 3d fc f2 0f 3e aa 73 da bb
       0.02443113 0.03343238 0.14057535 -0.0066666203
0001c0 c0 af c5 3c c2 d9 8b bd 4e d3 8a bd 6a 05 6d 3c
       0.024131656 -0.068286434 -0.067785844 0.014466623
0001d0 53 a3 92 bc 56 dc a5 3d 90 3a 49 be 45 e4 d8 bd
       -0.017900145 0.08098666 -0.19651246 -0.10590414
0001e0 68 96 96 bd 74 b7 5c 3e 6a b9 8d be 76 52 a9 bd
       -0.073529065 0.21554357 -0.27680522 -0.08267681
0001f0 c1 93 35 be 7d ad 78 bc 40 32 52 be e0 58 56 be
       -0.17732145 -0.015178082 -0.20526981 -0.2093234
000200 c2 07 54 3e 3e 69 1c 3c 6f 74 ac 3d a2 39 7e 3e
       0.20706084 0.009546576 0.084206454 0.24826673
000210 cc f9 a4 bd f6 c3 ba 3d e4 ef 9d be a7 a0 aa bc
       -0.080554575 0.09119408 -0.30847085 -0.020828558
000220 4e 96 27 3d 76 fa a2 3e 1a 3e ea 3d 90 7d b3 bb
       0.040914826 0.31831712 0.11437626 -0.0054776147
000230 c0 79 e9 3d 7d 96 13 3d bf 9d 9c bd 06 4c 22 3e
       0.11400175 0.03603219 -0.07647275 0.15849313
000240 91 1d 2d be 84 80 72 be 4a 15 54 be e5 cf 84 3e
       -0.1690581 -0.23681837 -0.20711246 0.2593986
000250 95 bc 73 3e 20 03 6d bb e7 79 cf 3c 57 74 f5 bd
       0.23802407 -0.0036165193 0.025326682 -0.11985081
000260 1b 4a 00 3e b8 da 12 be c7 7e aa bd ff 56 be 3d
       0.12528269 -0.14341247 -0.08324962 0.09293937
000270 74 5e 23 be d3 71 b6 bd ca ac 1c be f4 59 d0 3c
       -0.15954 -0.08908429 -0.15300289 0.025433518
000280 8a 89 f7 3c ee 6e 00 be 4e d2 f2 bd ef e4 32 3a
       0.03021695 -0.12542316 -0.11856519 0.0006824275
000290 6d 5e 8e be a9 50 3c 3c 54 36 22 be 89 61 56 3e
       -0.27806416 0.01149384 -0.15841037 0.20935644
0002a0 9c 60 c3 3c 19 c7 00 3e 3e a2 60 3e 88 c3 c6 bd
       0.023849778 0.1257595 0.2193689 -0.097052634
0002b0 77 34 90 3c d0 35 80 bd c8 c9 2f 3d 6f 2e 47 be
       0.017603142 -0.06260264 0.042917043 -0.19451307
0002c0 93 54 28 be 8b 12 c3 be 71 a6 b8 3d 8e 14 76 be
       -0.16438513 -0.38100085 0.09016121 -0.24031278
0002d0 b3 11 bf 3e be 77 b1 be 41 58 1a 3e d3 89 8b bd
       0.3731819 -0.3466167 0.15072729 -0.06813397
0002e0 1b 25 db bd b6 ec 34 3d bf 42 31 be 17 3a db bd
       -0.10700437 0.044171058 -0.17310618 -0.10704439
0002f0 ed 86 8e be 5e 11 5b 3e 55 c2 d0 3d 7c 5b 4a 3e
       -0.27837315 0.21393344 0.10193316 0.19761461
000300 e1 88 f8 3d 82 15 9c be 5c bc 8d bc 0b 70 01 be
       0.121354826 -0.3048516 -0.01730173 -0.12640397
000310 89 4f 02 be 57 ec 27 be 8f 99 71 3e e4 7f b9 bd
       -0.12725653 -0.1639875 0.23593734 -0.09057596
000320 32 34 8e bd c8 cc d2 3d 05 31 8e bd b5 42 e4 bc
       -0.06943549 0.10292965 -0.069429435 -0.02786384
000330 6c 38 1f 3e 78 f2 0a 3e aa a0 87 3d 4e 2c 0b 3e
       0.15548867 0.13569057 0.06622441 0.1359112
000340 70 7a 86 bd 23 ad 13 be cc 2e 6c bd ae 13 2e 3e
       -0.06566322 -0.14421515 -0.057661816 0.16999695
000350 65 cf 2b 3e 41 1b 3f 3e 0a 56 12 be a4 ba 88 3d
       0.16778333 0.1866274 -0.14290634 0.06676224
000360 a8 5f d5 bd c3 17 37 be e8 ea a2 3d c4 e1 0c be
       -0.104186356 -0.17880158 0.07954961 -0.13757998
000370 39 c2 04 be 8d ed ba bd fa 95 4a be 7e d8 42 be
       -0.12964715 -0.091273405 -0.19783774 -0.19027898
000380 38 1a 11 be c3 23 73 be be 55 8c 3c 59 c9 eb 3c
       -0.14170158 -0.23744111 0.017130729 0.028782533
000390 cc f6 0b be d4 df 2b 3e b0 45 de ba 76 ab 05 3e
       -0.13668364 0.16784602 -0.0016958024 0.13053688
0003a0 13 5a 0f be 67 c3 37 be dd f2 00 3d a0 0e 8f 3e
       -0.13999204 -0.17945634 0.031481612 0.27940845
0003b0 e8 d8 4c bd 00 20 de bd 5d 2d 19 be bc 18 38 be
       -0.050011545 -0.10845947 -0.14958711 -0.17978185
0003c0 ab aa 2f 3d 0c eb 58 3e b5 76 37 3e a1 d5 58 be
       0.04288737 0.21183413 0.17916377 -0.21175243
0003d0 3b e9 22 3e 5d e3 91 3e 4e 99 59 be f9 f1 fe bc
       0.15909283 0.28493777 -0.21249887 -0.03112124
0003e0 7c f9 4c 3d 6d 81 6a be 9b 5c 27 3d ec 4f ef bc
       0.050042614 -0.22900935 0.0408598 -0.029212914
0003f0 a3 00 bb bd 35 f6 32 be 57 d1 2a 3d 0b eb 9c bd
       -0.09130981 -0.17476733 0.04170355 -0.076620184

conv2.bias f4 [50]
000000 bf bf a6 3e c5 cb e6 3d 05 9c 86 3e 5a f8 19 be
       0.32568166 0.11269335 0.26290908 -0.15036145
000010 0b d3 9c 3e 03 03 3b 3e f5 a0 74 3e 22 67 0e be
       0.30629763 0.18262868 0.23889525 -0.1390653
000020 46 cd 1c be 97 c3 7f be 87 35 72 be c6 aa 89 3e
       -0.1531268 -0.24976955 -0.23653232 0.26888102
000030 b9 1c 31 be 4a 36 66 be 6a bf c1 3e 4f 22 c3 bc
       -0.17296113 -0.22481647 0.3784135 -0.02382007
000040 cb ae 83 3e 45 fa 86 be f8 21 e7 bd 50 76 86 3e
       0.25719294 -0.26362815 -0.11285776 0.2626214
000050 38 11 10 be ac d0 62 3e e2 42 5e 3e 46 6f a0 3e
       -0.14069068 0.22149915 0.21705201 0.31334895
000060 e3 d2 0a be 87 43 96 bd 15 ca 84 3e 40 ef 4e be
       -0.1355701 -0.073370986 0.25935426 -0.20208454
000070 71 3c 72 bd c7 6a f4 3c 40 3e 98 bd fd 7b 06 be
       -0.059139673 0.029836072 -0.07433748 -0.13133235
000080 f2 09 7b 3e 8e bb c0 bd b9 36 53 be 74 93 3a 3e
       0.24515513 -0.09410773 -0.20626344 0.18220311
000090 48 48 54 3e 89 32 8c 3e c5 60 41 be 69 08 7a 3e
       0.20730698 0.27382305 -0.18884571 0.2441727
0000a0 71 e1 11 3e a8 a6 94 bd 0d 26 9c 3e d4 78 7b be
       0.14246155 -0.0725835 0.3049778 -0.24557811
0000b0 cd 02 2b be 4e fc 85 ba 01 f2 e5 3c a7 c5 ba bd
       -0.16700287 -0.0010222287 0.028069498 -0.091197304
0000c0 01 09 31 be 48 79 a3 be
       -0.17288591 -0.31928468

conv2.lin.weight f4 [50, 50]
000000 b7 b2 ba 3d ef 07 be be 24 ad 20 3d 45 bf dc be
       0.091161184 -0.37115428 0.03922762 -0.43114677
000010 89 a1 ff 3d e4 46 8b 3d 28 6c ab bc 10 0b 4f bd
       0.12481982 0.06800631 -0.020925596 -0.05054766
000020 70 9f 1d 3e 26 c1 13 3e 0e 27 16 be cd 93 0c 3e
       0.15392852 0.14429149 -0.14663336 0.13728257
000030 02 66 63 3e 1b 23 e6 3c 3c 9c e8 3d 5d 62 67 3e
       0.22206882 0.028092911 0.11357924 0.22596116
000040 96 e6 6f 3c bc ac 52 bd 44 5c 63 be 12 e1 9e 3e
       0.014642378 -0.051434264 -0.22203165 0.3103109
000050 c4 ff 99 3d 44 64 0a 3e 3a 7e cb 3e 06 0c 37 3e
       0.075194865 0.13514811 0.3974474 0.1787568
000060 b7 dc 39 be 42 3e 94 3e 87 b4 e1 bd cc 58 3d be
       -0.18150602 0.2895375 -0.11020761 -0.18490905
000070 7a ea 70 be 49 fc a0 3e f1 15 98 3d 69 8a 29 3b
       -0.23526946 0.31442478 0.0742606 0.0025869852
000080 f1 6a 11 bd 8a df 15 3e 88 5d e3 bb 26 25 bd bd
       -0.035502378 0.14636055 -0.00693864 -0.09235601
000090 0b 62 3e 3e 30 5b ef 3d c1 de 20 3e 9a 65 2d 3e
       0.18592088 0.116873145 0.15709974 0.16933289
0000a0 7a bf 87 3d e8 66 89 bd 2e bb 6f be 3f 49 9e 3d
       0.06628318 -0.06709081 -0.23411247 0.07728814
0000b0 9c 2a cb bd b7 f7 4e 3e 49 29 2b bd 2e e5 77 3d
       -0.099202365 0.20211683 -0.04178742 0.060521297
0000c0 86 1e 91 3d 59 b4 8a be f4 6f 5c 3e 20 69 3b be
       0.070859 -0.2709072 0.21527082 -0.18301821
0000d0 19 d8 5a bd 9a 76 ab bb 6b 05 4b bd 34 d7 4e 3e
       -0.053428743 -0.0052326443 -0.049565714 0.20199281
0000e0 4a 6d be 3c a6 8a 7c be f6 5a 88 bd 98 99 1b 3e
       0.023245472 -0.24662265 -0.066579744 0.1519531
0000f0 ab b5 d9 3c 13 54 01 be 2b 58 79 be b2 94 cc bd
       0.026575884 -0.12629728 -0.2435004 -0.09989299
000100 96 a3 5c be 71 66 4a bd 11 df c4 be 59 38 58 be
       -0.21546778 -0.049414102 -0.38451436 -0.21115245
000110 3d 65 b6 3d a8 17 2e be 66 56 b6 3e 71 99 86 be
       0.089060284 -0.17001212 0.35612792 -0.26288942
000120 f7 3d b9 bd 1a ed 6f bd a6 cc 23 3e 1e 4e 71 bd
       -0.09045022 -0.058575727 0.15996036 -0.05891239
000130 26 67 1b bc d2 82 fb bd d5 2e 71 be 7f 36 1c 3d
       -0.009485042 -0.12280811 -0.23553021 0.03813791
000140 7b 45 7a 3e d0 63 a2 be 25 70 6b 3e e2 ce 3e 3e
       0.24440567 -0.31716776 0.22991998 0.18633607
000150 94 79 49 bd 5d f3 84 3e 19 a4 53 3e 7f 3e ff 3d
       -0.04918821 0.2596692 0.20668067 0.12463092
000160 45 d6 05 3e 38 b3 0a be 1a ca 41 3e b3 20 d8 3d
       0.13070019 -0.13544929 0.18924752 0.10553112
000170 ce 1b 06 bd 16 69 33 be e5 44 7f 3d 4f 6e de be
       -0.03274136 -0.17520556 0.062321562 -0.43443534
000180 45 75 41 3e cf 5e 38 3e bd 83 ff bd f0 bf a5 bd
       0.18892391 0.18004917 -0.12476299 -0.0809325
000190 c8 52 37 be fa 3e 5a 3d 93 1a ae bc c6 e5 7a be
       -0.17902672 0.053282715 -0.021252906 -0.24501714
0001a0 0a b2 9b 3c fe a2 90 3d d0 fe 84 3d 55 65 71 3d
       0.019005794 0.07062338 0.06493914 0.05893453
0001b0 70 f6 04 3e ff d4 ac bd 22 af be bd 05 36 f3 bd
       0.12984633 -0.08439063 -0.09310748 -0.11875538
0001c0 43 05 82 3e 24 5b 47 be a9 bc 1a 3e 3a 95 8d bc
       0.2539464 -0.19468361 0.1511103 -0.01728307
0001d0 3c 85 97 3e 51 5b ec 3d 01 44 18 be a9 34 31 3e
       0.29593837 0.11540855 -0.14869691 0.17305245
0001e0 b9 7e 1f be 28 5d 93 bd a0 d7 c3 3d d3 98 d1 3d
       -0.15575685 -0.071955025 0.095626116 0.10234227
0001f0 0c 03 8b bd f2 13 85 3c 5d 6f 9e bc 8b f2 3f 3e
       -0.067876905 0.016244862 -0.019340212 0.18744867
000200 8c 2d 49 3e 21 a4 8a 3d 0b bc 88 bc 05 99 00 3e
       0.19646281 0.06769586 -0.016691228 0.12558372
000210 12 94 da bd 10 5a af bd d7 b8 09 3e 1b af ac be
       -0.106727734 -0.085621 0.13449417 -0.33727345
000220 eb 23 13 3e b5 52 ff 3d 48 c9 9a bd 2c c5 2e 3e
       0.1436917 0.12466947 -0.075579226 0.17067403
000230 cb 77 d1 3d c5 73 b1 be 74 26 b0 bc e7 dd c8 3e
       0.10227927 -0.34658638 -0.02150271 0.39231798
000240 6f 92 2e 3d fa a9 a0 3e a8 52 c7 be ef 3a 19 be
       0.04262012 0.31379682 -0.3893025 -0.14963888
000250 88 0a 1e 3b cc 7e 71 be 67 c1 a8 bd 9f 80 f5 3c
       0.0024115164 -0.23583525 -0.082400136 0.029968558
000260 f7 14 82 3d 4d 5e c5 3d 6b 69 20 be b1 23 0d bf
       0.06351655 0.09637127 -0.15665214 -0.55132586
000270 54 ef 41 3d 9c f4 9f 3e 78 40 25 be 9c 30 92 bc
       0.04734738 0.3124131 -0.16137874 -0.017845444
000280 81 6e 14 be 41 a5 f9 bd 54 af 84 3e e1 75 7a 3e
       -0.14495279 -0.12189723 0.25915015 0.2445903
000290 68 5f 08 3d f7 2b 41 be a0 17 70 bd 2b 76 19 bd
       0.03329411 -0.18864428 -0.05861628 -0.03746621
0002a0 ee c8 5c 3e 3d 69 6f 3e e1 a7 79 be dd c1 14 3e
       0.21561024 0.23379989 -0.24380447 0.14527078
0002b0 73 da 17 bc 5d a9 9c be da 37 11 3e d3 d2 e8 bc
       -0.009268391 -0.30597964 0.14181462 -0.028420841
0002c0 9d 5a 1e be 28 05 3e be 2a f3 6a bc 38 25 d8 bd
       -0.15464254 -0.18556654 -0.014340201 -0.10553974
0002d0 51 ca 41 3e 96 43 54 bd ed 45 1d be 13 aa 0d bf
       0.18924834 -0.051822267 -0.15358706 -0.5533764
0002e0 db db d1 3d 01 4c ad be c0 74 fe bd 4e 63 b5 3b
       0.10247012 -0.3384705 -0.12424612 0.0055355197
0002f0 8d 92 f3 bd 4f 9d cc be 29 b2 90 bd 48 bb 42 3e
       -0.11893187 -0.39963767 -0.07065231 0.19016755
000300 05 da 99 3d 3d d7 e9 bb 96 37 94 be d2 41 0e 3d
       0.07512287 -0.007136254 -0.2894866 0.03473074
000310 53 66 98 bd 81 fd 3e be 44 37 61 be 28 32 93 3e
       -0.07441392 -0.18651392 -0.21993738 0.28749204
000320 cb 5b b3 3d 93 5c d7 bc 92 a0 da 3c c7 f0 3e be
       0.087577425 -0.02628926 0.026687894 -0.18646537
000330 53 19 8c 3e 3f 6b 80 3e ee 2c 35 3e 83 f0 d7 bd
       0.2736307 0.25081822 0.1769292 -0.10543921
000340 87 da 97 bd b3 ae 54 3e f6 49 9d bd 2f 7d b6 3c
       -0.07414728 0.20769767 -0.076801226 0.022276489
000350 4e 7e 50 3e 7c 08 14 be 16 cd 4d 3d ee 25 6f 3e
       0.20360681 -0.14456362 0.050244413 0.23354313
000360 41 45 3b 3d e0 f4 bf 3d 7a 90 49 bc b5 30 f2 3d
       0.045720343 0.09372878 -0.012302512 0.118256964
000370 27 2f 95 3e 84 77 34 3c d7 dd 51 3c c2 d5 52 3d
       0.29137537 0.011014823 0.012809238 0.051473387
000380 52 57 1a be 34 9d f9 b9 da c2 25 3e 9d ac 66 bd
       -0.15072373 -0.00047610106 0.16187611 -0.05631696
000390 45 38 2d 3d 5f f0 73 3d 49 2a 40 bb 51 4d 68 3e
       0.04228999 0.059555408 -0.002932208 0.22685744
0003a0 43 6d e6 3d 83 ad 94 3e f2 b7 f3 3d a4 ae a8 bd
       0.11251309 0.2903863 0.11900319 -0.08236435
0003b0 31 5d a2 3e 31 76 a7 3d 2e b1 0d 3e 09 c5 6d 3e
       0.31711724 0.0817684 0.1383712 0.23219694
0003c0 03 56 6a 3e dd d4 95 3d 00 cb 17 be bb f7 52 3e
       0.22884373 0.07315991 -0.14823532 0.20602314
0003d0 60 fd 00 3e da 57 19 3e a2 b0 0c be 80 0b 09 bd
       0.12596655 0.14974919 -0.13739255 -0.033458233
0003e0 03 e5 61 3e 12 4b 7e be 1d a6 85 3d 83 dc 5b bd
       0.22060017 -0.24833325 0.06525824 -0.053677093
0003f0 09 83 4f be 35 51 d1 3d 02 73 51 3d 0b 72 b7 3e
       -0.2026483 0.10220567 0.05113507 0.35829195

pool1.weight f4 [1, 50]
000000 b9 89 e3 3d 9a b2 3f be 85 c0 b8 bc 3c ca ab 3c
       0.11110253 -0.18720475 -0.022552738 0.020970456
000010 52 b9 2c 3d 1b f1 16 3d 09 70 87 3b ca 78 47 3d
       0.042168923 0.03685103 0.0041332287 0.048699178
000020 58 a6 71 bd fb 0d 98 3d 2d 38 16 3e bd 0a 99 3b
       -0.05899653 0.074245416 0.14669867 0.0046704696
000030 6e 51 12 bd e7 98 0a 3e d3 54 ce bd 4c 0a 0b 3e
       -0.03572219 0.1353489 -0.10074773 0.13578147
000040 59 f1 e1 3b 79 f0 dc bd da ce 07 3d 0a ae 1f 3e
       0.006895226 -0.10788054 0.033156253 0.15593734
000050 d0 e1 da 3c 54 dd 01 3d b1 0f d7 3d 52 ca 2a 3d
       0.026719004 0.031705216 0.1050104 0.041696854
000060 eb 81 4b bc 58 5e ad bd 91 a3 a6 bd ca 13 31 3e
       -0.012421112 -0.0846526 -0.081366666 0.17292705
000070 8e c2 22 be 38 0b 8e 3e ce 13 1b 3a 12 48 8b 3d
       -0.15894529 0.27742934 0.0005915732 0.06800856
000080 91 27 4c be de 75 fe ba e7 75 19 bd 84 27 19 3d
       -0.19936968 -0.0019413789 -0.037465956 0.0373912
000090 fb 97 e7 3d c5 9a f9 bd 11 ce 00 3e d5 02 bd bc
       0.11308285 -0.12187723 0.12578608 -0.02307264
0000a0 39 04 ed 3d a8 4c 84 3d 72 97 32 bd 9f c9 df bc
       0.11573071 0.064599335 -0.04360146 -0.02731782
0000b0 8b e1 92 bc aa d5 c0 3d 7b 39 a5 3c 1d 21 b0 bd
       -0.017929813 0.09415753 0.02016901 -0.08600066
0000c0 5d cf 19 bc f9 a2 64 3b
       -0.009387818 0.0034887178

pool2.weight f4 [1, 50]
000000 60 e7 bc bd 78 55 f9 3c a3 8a 19 be cd 2b 85 3d
       -0.09223819 0.030436262 -0.14994292 0.06502495
000010 af 1e e9 bd 29 68 8d bd d8 b7 51 be 08 f7 ed 3d
       -0.113828056 -0.069046326 -0.20480287 0.11619383
000020 28 69 cf 3d 4b 7b 22 3e a3 42 f8 3d c6 c0 1e be
       0.10127479 0.15867345 0.12122085 -0.15503225
000030 fd 89 30 3e e6 fe bb 3d c6 10 2b be 92 43 08 3e
       0.17240138 0.091794774 -0.16705617 0.13307026
000040 e1 a9 80 bd 9c 62 37 3e b7 08 7a 3d f3 d4 14 be
       -0.06282402 0.1790871 0.061043467 -0.14534359
000050 a8 71 13 3e d6 87 57 bd e4 74 14 be 68 12 61 bd
       0.14398825 -0.052619778 -0.14497715 -0.054949194
000060 a9 b8 ca 3d 3c a0 1f 3d 12 74 22 be d3 bb e7 3d
       0.098985024 0.03897117 -0.1586459 0.113151215
000070 f8 15 50 3d b2 cb 89 bc b4 b6 cd 3d 96 6d 92 3d
       0.0508022 -0.016820762 0.100446135 0.07149808
000080 d7 e6 5b be d6 93 c2 3d 92 00 02 3e 01 db d0 3b
       -0.21474777 0.09500854 0.1269553 0.0063737636
000090 ae 43 03 be 29 90 47 be b6 4e f3 3d ce 18 d5 bd
       -0.12818787 -0.19488586 0.11880247 -0.10405122
0000a0 4b be 22 bd ec d9 8a 3d 11 a8 5a be 09 af 49 3e
       -0.03973226 0.067798465 -0.21353175 0.19695677
0000b0 ae 94 58 3d e1 d4 22 3c 74 80 de 3c 84 23 6b 3d
       0.052876167 0.00993845 0.02716086 0.057406917
0000c0 ea a2 be 3d 71 47 27 3e
       0.09308417 0.16335846

fc4.weight f4 [3, 200]
000000 13 e0 5a 3e 01 9f fb bd ec 27 08 3f 23 fb 1f 3b
       0.2137454 -0.12286187 0.53185916 0.0024411164
000010 84 8c 8e 3e 68 40 c8 be 88 09 02 3f ff eb cb 3e
       0.2784158 -0.39111638 0.50795794 0.39828488
000020 82 64 8c bd 01 a8 c5 3e 72 c6 b0 be 0c 54 9b 3e
       -0.06855108 0.3860474 -0.34526402 0.3033756
000030 d2 d4 00 3c b9 b4 74 3e aa 1a a9 3d 30 a7 d9 3e
       0.00786324 0.23897065 0.08257039 0.42510366
000040 51 05 bb 3e 6a 98 18 bd e5 92 c7 3d 2e 8a 17 3f
       0.36527494 -0.03725473 0.09744815 0.5919522
000050 e0 75 9b 3e 6c cf df 3e f5 dd e5 3e d5 43 0b 3d
       0.3036337 0.43712938 0.44895902 0.034000237
000060 71 eb be bd db b5 c0 3e 86 bd 67 bd c1 73 ba be
       -0.09322251 0.37638745 -0.056577228 -0.36416438
000070 42 82 0b bd 0b 1c ec 3e 69 b0 af bd 5a 9e 03 3f
       -0.03405977 0.46115145 -0.085785694 0.514135
000080 f3 80 2c 3e a2 ed 15 3e 71 b1 f4 3e 85 3f 4c be
       0.16846065 0.14641431 0.47791627 -0.19946106
000090 69 08 a9 be 91 79 af bc e9 1d 6c be 92 f9 14 be
       -0.3301423 -0.021420272 -0.23058285 -0.14548329
0000a0 eb 21 c2 3d 16 63 bb 3e a2 b5 27 bd 67 47 96 be
       0.094791256 0.36599034 -0.040944703 -0.2935135
0000b0 97 0a c1 be 76 a7 05 3f ca e5 36 3c fb 2b d5 bc
       -0.37703392 0.5220865 0.011163184 -0.026021948
0000c0 dc 67 d9 bd 9f d2 46 3e 41 2a 25 3e 68 89 79 be
       -0.10615513 0.19416283 0.161294 -0.24368823
0000d0 ce 8f c8 3c 0b d7 c3 3d 45 5f c8 3d df 68 72 be
       0.024482634 0.095625006 0.09783796 -0.23672818
0000e0 ef 36 cf 3d 42 9a 97 3e 18 8a f0 3d a9 48 5b 3e
       0.101178996 0.29609877 0.11745089 0.21414436
0000f0 cf 36 d4 bd 94 67 64 bd b7 5f ae bd 13 01 65 3e
       -0.103620164 -0.055762842 -0.0851435 0.22363691
000100 63 20 d7 bd 61 63 3b 3d 88 af fc bd 87 53 00 be
       -0.10504224 0.045749072 -0.123381674 -0.12531863
000110 43 84 0f 3e 2e e7 cf 3e 58 90 de bb cd cb 86 3e
       0.14015298 0.40606064 -0.0067921095 0.26327363
000120 48 da f3 3d dc eb 2c be 36 c7 24 bd 69 8a 9e 3d
       0.11906868 -0.16886848 -0.040229045 0.077412434
000130 0b 26 88 bd 1c 9d a0 be 39 92 4c be 4c f6 c0 3e
       -0.06647881 -0.31369865 -0.19977655 0.3768791
000140 c5 1e b2 bc cb 6b 13 3e 5f 19 51 be 9b dd 85 bc
       -0.021743188 0.14396589 -0.20419835 -0.016341021
000150 0b 1c 21 3e 3e da 56 bc 7c 62 23 be bc 11 24 bd
       0.15733354 -0.013113556 -0.15955538 -0.040055975
000160 c9 7e b1 bd 39 87 2c be fa f2 02 3e 8d f9 8f 3e
       -0.086667605 -0.16848458 0.12788 0.2812008
000170 55 34 08 be 3c 31 0a be 86 d2 8e be 23 a8 18 3e
       -0.13301213 -0.13495344 -0.27894992 0.14907889
000180 07 b4 b5 3d 1e 00 2d be c2 89 c0 bd 88 45 32 3e
       0.08872228 -0.16894576 -0.09401275 0.17409337
000190 25 c0 d5 3e 70 35 3e 3c 08 6b 79 3d 91 c0 3f be
       0.41748157 0.01160942 0.06089309 -0.18725802
0001a0 ee 8e da 3e b9 56 8c bd d0 2e 05 3f 59 9d 63 be
       0.42687172 -0.068524785 0.52024555 -0.22227992
0001b0 8e 07 9b be df d3 ab be 24 c7 a2 be ea 05 91 3e
       -0.302792 -0.33560082 -0.31792557 0.28324825
0001c0 94 22 87 be 25 6b a1 bd e8 e3 df 3e 60 b3 14 3e
       -0.2639357 -0.07881764 0.43728566 0.14521551
0001d0 42 a9 31 bc 64 20 86 be 78 74 9c be 59 57 19 3e
       -0.010843577 -0.26196587 -0.3055761 0.14974727
0001e0 49 06 2e be ed 00 38 bd d3 f1 43 3e 9e 00 83 3e
       -0.16994585 -0.044922758 0.19135217 0.25586408
0001f0 77 f3 9d be e0 2a 93 be c7 e5 23 be 15 ed 87 be
       -0.3084981 -0.2874365 -0.16005622 -0.26548067
000200 f9 75 11 be a3 90 95 be 93 ad c2 bd e0 f3 6f be
       -0.14205159 -0.29211912 -0.09505763 -0.23432875
000210 12 6d b7 3e 3e e1 05 be 8a 91 cb be ce 30 70 3e
       0.35825402 -0.13074204 -0.39759475 0.23456118
000220 cf 2d 70 bd 66 08 b3 3e d3 eb 4e be 71 f3 3e 3e
       -0.058637436 0.34967345 -0.20207147 0.18647553
000230 4c 25 3b 3d 2d c9 04 be c3 dd d4 3d 6e b3 a3 be
       0.045689866 -0.12967367 0.1039386 -0.3197283
000240 0b bf b4 be 9f 6c a1 be d9 57 1e bd 13 d0 18 be
       -0.35302004 -0.31528184 -0.038657997 -0.14923124
000250 59 31 94 be 4a af d7 bc 21 d3 be 3e c9 14 10 3e
       -0.289439 -0.026328702 0.37270454 0.14070429
000260 9c 06 af 3e 7c f0 d6 be c9 b4 ac 3e cd 74 3c 3e
       0.3418473 -0.4198035 0.33731678 0.18403931
000270 d8 dd c7 3e e2 86 b1 bd 75 cd 86 be 75 8d d9 be
       0.3903644 -0.08668305 -0.26328626 -0.42490736
000280 00 3b b1 be 2b 68 6a 3e 31 7d c5 be a1 77 a0 be
       -0.34615326 0.228913 -0.38572076 -0.3134127
000290 a7 22 aa 3e cf ee 59 bd 26 4a b1 3e 4a c6 a6 be
       0.33229563 -0.05320626 0.34626883 -0.32573158
0002a0 ed e2 31 bd ba 5b 4e 3e a0 59 74 be de 2d 22 3e
       -0.043429304 0.20152178 -0.23862314 0.1583781
0002b0 a8 eb a1 3e 04 5d a1 3e 78 9f 20 be b7 11 dc bc
       0.31625104 0.31516278 -0.15685833 -0.026863916
0002c0 2a 4c 55 3e f4 74 59 be 0b a9 23 bd 25 81 56 3d
       0.20829836 -0.2123602 -0.039956134 0.052369256
0002d0 0f a2 c0 3d c4 79 89 3c 1b bd ad 3e f5 cf 33 be
       0.0940591 0.016781695 0.3393334 -0.17559798
0002e0 26 b7 f3 be 3c ca 90 3e 89 62 48 3e 39 78 b6 3e
       -0.4760067 0.28279293 0.19568838 0.35638598
0002f0 4f 78 9c be 14 e5 79 3e 97 40 01 3e ee 0b cf 37
       -0.30560538 0.24403793 0.12622295 2.4681878e-05
000300 3c a9 99 3e 7b 04 e1 be c6 d0 9f be fb c0 c4 bc
       0.30011928 -0.4394873 -0.3121397 -0.024017802
000310 e1 4f 72 3d 05 89 16 be 99 9b a6 be fa 64 b4 be
       0.05915821 -0.14700706 -0.32540587 -0.3523329
000320 fa bf 0d be 26 e4 92 3d 77 4b a7 be e5 52 9d 3d
       -0.13842764 0.07172422 -0.32674763 0.076818265
000330 ce 73 d4 be 4c 4d d9 bc b3 72 f4 bc 74 6e df bc
       -0.41494602 -0.026526116 -0.02983985 -0.027274348
000340 ee 5a 3f be 57 b3 47 bc 9a 2e 42 be 1e 66 b3 bd
       -0.1868703 -0.012188754 -0.1896309 -0.08759712
000350 96 cd 34 be 4f 2d 4f bd c7 ab bb 3d c1 2d 04 bf
       -0.1765655 -0.05058032 0.09163623 -0.51632315
000360 5f 74 c8 bd 8a 52 39 3d 23 02 f5 bb 97 6c 8c be
       -0.09787821 0.04524473 -0.0074770614 -0.27426597
000370 98 10 35 bd 89 db 99 be 90 35 d4 be 03 1e 4c bd
       -0.04420528 -0.30050305 -0.41447115 -0.04983331
000380 35 48 22 3e 66 44 46 be 45 97 d3 bd a3 b9 93 be
       0.15847857 -0.1936203 -0.10331587 -0.28852567
000390 c3 9c c8 3d d1 aa af be e1 e2 c0 3d 89 2a 81 be
       0.09795525 -0.3431001 0.09418274 -0.25227764
0003a0 2d 6d 8e bd 30 69 36 be 13 41 8c be e1 04 e3 3d
       -0.069544174 -0.17813563 -0.27393398 0.11084915
0003b0 f6 67 12 be 6a 20 94 bc a5 e6 33 be b3 8e e4 bd
       -0.1429747 -0.018081862 -0.17568453 -0.1116003
0003c0 eb 8e ff bd 8c 4d 08 bd f5 e3 65 3e f3 f0 97 be
       -0.12478431 -0.03327708 0.2245024 -0.29676017
0003d0 1a 5f 83 3e 55 67 dd be a9 fb 68 3e 4d 7c 66 3e
       0.25658494 -0.432429 0.2275225 0.22508354
0003e0 48 7b de bd 14 20 04 3d bd cf ea bd 07 08 1c 3e
       -0.10863358 0.032257155 -0.11465404 0.15237437
0003f0 a3 b9 a9 3c 64 2f 7c 3c fc 77 38 be 08 e9 ba bd
       0.020718401 0.015392158 -0.1801452 -0.091264784

fc4.bias f4 [3]
000000 e3 90 19 3d 3e 1d ec bd 03 a3 a8 3d
       0.03749169 -0.11529015 0.08234217
