experiments/experiment_6/checkpoint_2_6.pt (torch, 39119 bytes, 8 tensors)

conv1.bias f4 [50]
000000 c5 ff 96 3d 9e c6 2d bd 26 cd 36 3c 14 bc fb bc
       0.07373003 -0.042425744 0.01115731 -0.030729331
000010 a4 4f 3e 3e 4b 50 af 3d 10 9b cb 3b e9 9e 22 3e
       0.18585068 0.085602365 0.0062135532 0.15880932
000020 94 31 5b 3d 52 7b 17 be 39 2d 57 3d 1a 63 b2 bd
       0.05351408 -0.14793137 0.052533362 -0.087103084
000030 5e d9 b2 bd b2 8d ab bd e5 dc b3 bd 6a 6b b0 bd
       -0.08732866 -0.083766356 -0.08782367 -0.086142376
000040 7c c2 a0 bd dc fd fd 3d 11 66 2f 3c 0b 89 ef bc
       -0.07849595 0.124019355 0.010705487 -0.029240152
000050 5c 5b 73 3e b5 f4 14 3e b2 87 a7 bc 8f ff 31 3e
       0.2376532 0.14546473 -0.020450447 0.17382644
000060 a5 59 0d 3e 66 53 2e 3d 39 fd 1e 3e f3 96 47 3e
       0.13803728 0.042560004 0.15526284 0.19491176
000070 b1 43 0c be b7 1a e0 bb 47 f2 0d be e6 58 54 3e
       -0.13697697 -0.006839122 -0.13861953 0.20737037
000080 91 a3 fe 3e d8 14 91 3d c7 a5 a1 3d 75 19 fa bc
       0.49734166 0.07084054 0.07892948 -0.030529717
000090 4b 53 8d bd 9c 2d b1 3c af e4 96 3e 71 d6 38 be
       -0.069006525 0.021628194 0.29471347 -0.18050553
0000a0 3b 7e 68 3e 86 94 78 3d 5b 52 85 3d ea f8 13 bc
       0.22704403 0.060688518 0.06509849 -0.009031514
0000b0 1d 26 d5 bd 6c 61 86 3d 2e 82 58 3d 44 ac d8 3c
       -0.1040766 0.065615505 0.052858524 0.02644933
0000c0 44 36 0d bd 54 ce 26 be
       -0.03447558 -0.16289645

conv1.lin.weight f4 [50, 116]
000000 04 2b 1f be 35 73 74 3e c7 05 5b be 7d 16 c5 3d
       -0.15543753 0.23872073 -0.21388923 0.0962343
000010 97 df 19 be a1 0c 36 3e 54 76 5f 3d a4 05 9a 3e
       -0.15026699 0.17778255 0.054556206 0.30082428
000020 33 4b f2 bd 3d 22 a9 3d 9b 60 0f 3e 32 52 5c 3c
       -0.11830749 0.082584836 0.14001696 0.013447331
000030 9c b2 60 3d 64 4a 73 be ce 30 39 be 8c af e3 bd
       0.054857835 -0.23758847 -0.18085024 -0.11117467
000040 c1 08 5e bd a6 55 54 3d 9f d6 77 bd c5 bf 3b 3e
       -0.054207567 0.051839493 -0.060507413 0.18334873
000050 05 2a 8a 3d 5a 26 4e 3e dd b2 56 bc 59 87 fb bd
       0.06746296 0.20131817 -0.013104168 -0.12281675
000060 f4 bf 95 3c 83 cd d9 bd bc 69 11 be 69 a7 b5 bd
       0.018280007 -0.106349014 -0.1420049 -0.088698216
000070 49 fd 1a 3e 09 7a a2 3d 65 64 1a 3e e7 65 a3 bd
       0.15135683 0.079334326 0.1507736 -0.07978421
000080 02 3e 1a be b1 b6 30 bd 41 f3 64 3e 57 8a 4a be
       -0.15062717 -0.043142978 0.22358419 -0.19779335
000090 f6 e7 ce 3d e2 08 3c 3e 36 03 4e be 1c 68 e6 bc
       0.10102837 0.18362764 -0.20118412 -0.028125815
0000a0 14 88 39 3e 02 da 12 3d 4c ce 64 3e bc ea e5 bd
       0.18118316 0.03585244 0.22344321 -0.11226413
0000b0 89 cc 56 be 5a e5 72 3d 62 b8 76 3d 6c 36 2e 3e
       -0.20976461 0.059300758 0.060234435 0.17012948
0000c0 6a 58 4b be 50 06 97 3e ac d5 2d bc e9 7d 07 be
       -0.19857946 0.29497004 -0.010610025 -0.13231625
0000d0 f7 26 55 3e c5 16 cd bd 55 5a 67 bd 9e f2 46 3e
       0.20815645 -0.100141086 -0.05648263 0.19428489
0000e0 af 41 cf 3d b3 86 4b 3e 0a f4 f4 bd 91 9e df bd
       0.1011995 0.19875602 -0.11960609 -0.10918916
0000f0 e1 13 ee 39 7c 1b cf 3d 21 0e 81 be 97 7d 02 3e
       0.00045409708 0.10112664 -0.25206092 0.12743221
000100 09 28 1d be b8 d4 1c bc 6e cc fe 3c fc 03 ec 3d
       -0.15347303 -0.0095722005 0.031103339 0.115241975
000110 04 08 2d 3e f4 a8 e2 bc 44 71 3f be 58 f2 70 be
       0.16897589 -0.027668454 -0.18695551 -0.23529947
000120 2a 4b 3c be 7f 2f 98 bd 07 a5 3c 3d 39 30 b1 3e
       -0.18388048 -0.07430934 0.04605582 0.34607103
000130 fc 17 19 be cb dc 79 3e c2 67 57 be 78 ba 83 be
       -0.14950556 0.24400632 -0.21035674 -0.25728202
000140 4d a6 fb 3d 75 a7 82 be 80 44 43 3e 83 27 44 3e
       0.12287579 -0.25518385 0.190691 0.19155698
000150 36 a6 68 3e 3a ec a6 3e 1b 7e a8 be f0 da 82 bd
       0.22719654 0.32602102 -0.3290871 -0.06389415
000160 88 17 f0 bd 7f 4b b7 be d5 8e 95 be d4 aa f5 3e
       -0.11723238 -0.35799786 -0.29210535 0.47981894
000170 a5 66 3f 3d dd 67 92 bd 1d 78 d4 bd 7a 01 83 3e
       0.04672875 -0.071487166 -0.10374472 0.25587064
000180 72 e8 1c be 3c a8 8c 3e 1f 14 45 3d 8a 73 f1 bd
       -0.15323046 0.27472103 0.048114892 -0.117896155
000190 bc 58 2d 3d d2 3a 6f be c3 18 20 3e 37 93 e2 bb
       0.04232095 -0.23362282 0.15634446 -0.006914522
0001a0 f1 da 35 be cb 53 08 3e c3 d8 bc bd f9 b5 8b 3e
       -0.17759301 0.13313214 -0.092210315 0.27287272
0001b0 31 d4 53 3e 4e 85 ad 3d e8 a9 9b 3d af 28 44 3e
       0.20686413 0.084726915 0.076007664 0.19156145
0001c0 43 e4 97 bd e9 5a 31 be 58 c9 1f bd 96 0b 2a bc
       -0.07416584 -0.17319836 -0.039010376 -0.010378739
0001d0 ca 46 8c 3e 2e 9f ca bd b9 88 12 3d f5 cc ad 3d
       0.27397758 -0.09893642 0.03577492 0.08486358
0001e0 ff 31 b5 bd 7e 2b 8c 3d 94 76 24 be ff a2 30 bd
       -0.088474266 0.06844233 -0.16060859 -0.043124195
0001f0 58 70 63 3e b4 31 ac 3d ee a1 95 3c e0 d1 b1 3c
       0.22210824 0.084079176 0.01826569 0.021706522
000200 a0 03 35 3d 7a d1 99 3d be 11 63 be 23 36 2a bd
       0.04419291 0.075106576 -0.22174737 -0.041555535
000210 96 90 3d be 3c ad 3c 3d 2e 53 bf bd 0e 75 83 3d
       -0.18512186 0.046063647 -0.09342037 0.06418811
000220 7b 3c 4b bd e9 be 78 be 69 65 34 be 29 8a 26 3e
       -0.049618226 -0.24291576 -0.1761681 0.16263641
000230 f5 f1 a6 3c dd c7 8f 3d 91 b0 74 3e 19 4e a8 3e
       0.020379046 0.07020543 0.2389548 0.32872084
000240 4d ff 95 bc 23 8d e8 bd 2a 7e 90 3e 0b 77 0e be
       -0.018310213 -0.11355045 0.28221256 -0.13912599
000250 4b 62 87 be 3d 4e e2 3c ea b3 79 be 20 d9 f8 bd
       -0.2644218 0.027625198 -0.24385038 -0.12150788
000260 36 a3 35 3d 37 ab 5b 3d 17 2a f0 bc 31 2f a7 bd
       0.044345103 0.05363008 -0.029316945 -0.08163298
000270 fb e4 11 3e 78 16 50 bd ea dd 7f be ce ef 99 bd
       0.14247505 -0.050802678 -0.24986997 -0.07516442
000280 eb 90 2a bd 1a 9f c4 ba 22 6b 90 3d 6c 04 13 3e
       -0.04164211 -0.0015001029 0.07051684 0.14357156
000290 31 4a 38 bd 0e c1 39 bd 96 59 b7 3e e7 1c 48 be
       -0.04499263 -0.045350127 0.35810536 -0.19542275
0002a0 b2 90 c5 3d 01 44 bd bd 35 3e fb bd 73 ce a8 bd
       0.09646739 -0.09241486 -0.122677244 -0.08242502
0002b0 d1 7f 7b 3e 8e fa 60 3e d5 58 34 be 99 01 32 be
       0.24560477 0.21970579 -0.17612012 -0.17383422
0002c0 1e 5a 8c bd bf 1a 0f 3e 4a ab 66 3d dd e1 50 be
       -0.06853126 0.13975047 0.056315698 -0.2039866
0002d0 b8 fe 89 bd 08 6f fe 3d f4 db 31 bc 98 5e 03 be
       -0.06738037 0.12423521 -0.010855664 -0.12829053
0002e0 a7 47 8c 3e d8 1f 55 bd 22 cb 4d 3e d2 a5 04 3d
       0.27398416 -0.05203232 0.2009702 0.0323847
0002f0 1f a7 c8 3d e1 57 da 3d c0 e5 0b 3e 15 e1 a1 bd
       0.09797501 0.10661293 0.13661861 -0.07904259
000300 7a 89 43 3e f6 fd 10 3c 1f bb 9d 3e 7b 8c 0f be
       0.19095412 0.0088496115 0.30806825 -0.14018433
000310 a5 f0 8f 3d ae 8c 8f 3d 80 f0 41 be 23 da 10 3e
       0.07028321 0.070092544 -0.189394 0.14145713
000320 18 03 44 3e 06 54 e2 bd 3c 10 36 bd 3d f6 19 3e
       0.19141805 -0.110511824 -0.044449076 0.15035339
000330 4d 8b 33 bd 90 27 1e be e9 92 65 3e 69 de 2f be
       -0.04383402 -0.1544478 0.22419323 -0.17174686
000340 eb e3 37 be a1 71 0a 3e a0 f8 d7 3d b9 a6 49 be
       -0.17958038 0.13519908 0.10545468 -0.19692506
000350 de e9 12 be f2 a4 35 3d 1d f5 6e 3d 3e f2 24 3e
       -0.14347026 0.044346757 0.058339227 0.16108033
000360 13 c2 71 bd b6 09 34 3e 23 9b e2 3d 68 20 0e bd
       -0.059022974 0.1758183 0.11064746 -0.034698874
000370 fc a0 c1 3d 0a 13 64 3e c5 4b 00 be 16 b6 29 3c
       0.094545335 0.22272888 -0.12528904 0.010358354
000380 29 5b ae 3d 14 9f ec bd 81 75 3f be ff 27 d0 3d
       0.08513481 -0.11553779 -0.18697168 0.10163879
000390 c3 92 f8 bd 52 b3 0c bd c6 bf b1 3b 75 bb 67 be
       -0.121373676 -0.0343507 0.0054244725 -0.22630103
0003a0 72 bc 92 be 02 ff cd 3d ba 3a b2 bd 0c 5f f6 3d
       -0.28659397 0.100584045 -0.087026075 0.120298475
0003b0 b4 7a 4c 3e 9d 35 0f be 24 fb 4a 3e 78 ee 05 3e
       0.19968683 -0.13985296 0.19822365 0.1307925
0003c0 6f af 8b bd c1 c1 fd bd a1 c5 f8 3d 07 03 68 bd
       -0.06820571 -0.12390471 0.1214707 -0.056643512
0003d0 d4 3b 9a 3d ac b8 bc 3b 03 8e 4f 3e 22 67 84 bb
       0.075309426 0.0057593193 0.20269017 -0.0040406147
0003e0 13 d3 71 be 6f b2 99 be 56 ca 30 bd c3 9e 1b 3d
       -0.23615675 -0.30018947 -0.043161713 0.037993204
0003f0 cf 59 41 be df 28 c5 3d ae 8d 61 3c 02 30 99 bc
       -0.18881916 0.09626936 0.013766689 -0.01869965

conv2.bias f4 [50]
000000 fd e8 1b 3e be 21 4c bc b2 ee 6f bc 23 cb 28 3e
       0.15225597 -0.012459217 -0.014644312 0.1648374
000010 c4 c0 52 3e 2a 6f f8 3d ac d8 8d 3d 7f ee 89 3d
       0.20581347 0.12130578 0.069260925 0.06734943
000020 a5 11 0e bd aa 3c ca bd a3 be 4b 3c 5f 66 8d 3d
       -0.034684796 -0.09874852 0.012435588 0.06904291
000030 f3 fe 66 bc 04 88 a6 3d 9f 4c 09 bd f4 cc 39 3d
       -0.014098871 0.08131412 -0.033520337 0.045361474
000040 f0 10 ce 3d d7 d5 49 bd ba 26 d6 bc 64 34 16 bd
       0.10061824 -0.0492762 -0.026141513 -0.036671057
000050 1a 05 1a 3e d1 ee ee bc f9 a7 77 3d 06 1c fb 3c
       0.15041009 -0.02916661 0.060462926 0.030653011
000060 58 44 ad bd f3 df a8 3d 25 dc c8 3c 17 e4 83 bc
       -0.08460301 0.0824584 0.024519036 -0.016099973
000070 79 18 51 3b 4e 9c fb 3d 0a e8 2a 3e 83 4c 41 3d
       0.0031905456 0.12285672 0.16690078 0.047192108
000080 87 66 ca 3c e9 0c 7d 3c 9b ea dc 3d eb be f5 3d
       0.024707092 0.015444973 0.10786935 0.11999305
000090 6d 9f af bc 82 4e a8 bc 11 79 2a 3d dc 7c 8f 3d
       -0.021438325 -0.020545248 0.041619364 0.07006237
0000a0 68 1b 6f 3d 87 a5 16 bd 4b 1e 6c 3d af 8c e8 3c
       0.058375746 -0.036778953 0.057646077 0.028387396
0000b0 7a 12 f3 3c 11 91 13 3d e0 7e c6 3a 39 f1 94 3d
       0.029671896 0.036027018 0.0015144013 0.07272572
0000c0 36 5b dd bc 83 17 af 3d
       -0.027021032 0.085494064

conv2.lin.weight f4 [50, 50]
000000 b0 96 a3 bd b8 93 d4 bd 4d a8 b4 3d 36 87 4a be
       -0.07987726 -0.103797376 0.08821163 -0.19778141
000010 91 3c 28 3d 8f 28 b7 3a f2 63 09 3d 05 ec 9b 3d
       0.041073386 0.0013973879 0.03354258 0.076133765
000020 f5 1c 06 bc 8f a6 32 ba c7 36 2d 3e ad 20 41 bc
       -0.008185615 -0.00068149803 0.16915427 -0.011787576
000030 d5 44 83 bd 0d da 0b be 31 db 79 bd 02 cb 19 be
       -0.06409613 -0.13657399 -0.061000053 -0.15018848
000040 0f 69 6e 3e d2 92 ab 3d be e3 93 ba 68 e5 83 be
       0.23282264 0.08377613 -0.0011283082 -0.2576096
000050 2c 15 50 3e 10 a1 d8 bd 08 ab 5f be 1d e9 a6 bd
       0.20320576 -0.10577595 -0.21842587 -0.081499316
000060 be 05 b4 3d c3 8d 15 bd 07 cd e0 bd 9c be ae 3d
       0.08790158 -0.036512148 -0.10976606 0.085324496
000070 32 59 bf 3c 24 06 81 3e 1e 78 f8 3d b0 94 6b 3d
       0.023357961 0.25199997 0.121322855 0.057514846
000080 90 0c 5d bd 1f c2 9f 3e e7 ff 08 be 75 43 f3 bd
       -0.05396706 0.3120279 -0.13378869 -0.11878101
000090 f2 18 0c bd d6 c7 6c 3d 90 f0 68 3e 90 24 09 3e
       -0.034203477 0.057807766 0.22748017 0.13392854
0000a0 f5 b1 d5 3d 72 eb af bd ad d7 f0 bd 65 c8 ab bd
       0.10434333 -0.085898295 -0.11759887 -0.083878316
0000b0 87 b5 28 be b8 25 86 3d d2 62 ff bd 57 e0 03 3d
       -0.16475497 0.06550163 -0.1247002 0.03219637
0000c0 44 9f 69 be ed 52 1e 3e d7 6c be 3e 41 93 86 bd
       -0.22814661 0.15461321 0.37192413 -0.06571055
0000d0 63 c1 b6 be ba a5 0b bd d3 15 c7 3e 24 eb b3 3e
       -0.35694417 -0.034093596 0.38883838 0.35140336
0000e0 df e0 59 3e dc ad 1b be 07 48 26 3d fa 78 a8 be
       0.21277188 -0.15203041 0.040596034 -0.32904798
0000f0 78 04 b5 3d b0 3b 4b bd 99 9b c4 bd 9f 96 43 3d
       0.08838743 -0.04961747 -0.095999904 0.047751065
000100 38 89 6c be aa 17 e0 bd 0c 58 a1 bd 03 0b c0 3e
       -0.2309922 -0.109420136 -0.07878122 0.375084
000110 91 2a bc bd c4 ec 13 3e bb 8b 70 3c e1 ab 8b 3b
       -0.091878064 0.14445788 0.014681752 0.004262433
000120 eb 4a 93 be 84 cd f5 3e de 80 bb 3e b8 77 7c 3e
       -0.28768095 0.48008358 0.36621755 0.24655044
000130 ca ce ce 3d 19 cc 1c 3e 35 88 7c bd d7 15 48 be
       0.10098036 0.15312232 -0.061653335 -0.19539581
000140 d1 4a 5c be 41 e0 19 be c3 ae 2a 3e c7 56 3f 3e
       -0.21512915 -0.15026952 0.16668229 0.18685447
000150 8a 17 d9 3e 0d 3d b3 be 28 20 8b bd 57 2e 8c 3e
       0.4240077 -0.35007516 -0.06793243 0.27379104
000160 70 6c f5 bd 88 c7 5a be 27 76 d5 bd ad 44 6d 3e
       -0.119835734 -0.21365178 -0.104229264 0.23170729
000170 d7 a3 01 bd c9 89 16 3e 37 b2 c4 bc 12 ec 76 be
       -0.03165039 0.14700998 -0.02401076 -0.24113491
000180 64 4d 48 3e ca 0c 9d be 8e c7 2b 3e 3a 82 ec be
       0.19560772 -0.3067382 0.16775343 -0.46193105
000190 ba 00 03 3e dc c1 a4 3b fc 90 f6 3c 01 60 8f 3d
       0.12793246 0.0050279927 0.03009843 0.07000733
0001a0 5c 02 89 3e 1a d8 2a 3e ff e6 8d bd af 81 a0 3e
       0.26759613 0.16683999 -0.06928825 0.3134894
0001b0 70 0d bd 3e e0 40 3a 3d 26 cd dc 3e 86 7d b5 be
       0.36924314 0.045472026 0.43125266 -0.3544733
0001c0 64 1a c6 bc e4 3b 56 3c 21 06 9a 3d c5 bf aa be
       -0.024182506 0.0130758025 0.075207 -0.33349434
0001d0 23 f6 94 3e 79 98 6e 3e 5d e0 5d 3e e3 1d 0f 3e
       0.29094037 0.23300351 0.21667619 0.13976245
0001e0 eb 66 dc 3c 7b 6c a7 bd 4d 1d 11 be 9e bf 30 3e
       0.026904544 -0.08174988 -0.14171334 0.17260596
0001f0 e8 b8 03 3e ff 91 64 3e 28 e6 19 3e 91 5f 55 bc
       0.12863505 0.22321318 0.15029204 -0.013023273
000200 ae bc 41 be 6e 31 8b 3e 0b 29 a3 3c c6 85 78 bc
       -0.18919632 0.2718615 0.019917032 -0.015168613
000210 b9 a4 9d be 3f fe 8e 3e 7b 9b b5 be e4 e2 b2 3d
       -0.30789736 0.2792835 -0.35470185 0.08734682
000220 04 7c 80 be d1 b3 a2 3c b5 ad 9c be 53 62 4c be
       -0.25094616 0.019861134 -0.30601278 -0.19959383
000230 59 96 4d be 1a 3f 84 bd d5 f2 6b bd 66 87 a5 be
       -0.20076884 -0.06457348 -0.05760463 -0.32329863
000240 f7 dd af be 0f ec c3 3e a5 b5 f7 bd 6c 4b 60 be
       -0.34349033 0.38266036 -0.12095193 -0.21903771
000250 cf 20 88 bd 70 aa fb 3d 8f cd a6 3c d3 56 cd bc
       -0.06646883 0.12288368 0.02036169 -0.025065815
000260 d7 78 46 be d5 4f 62 bd 62 fb 21 be cc c0 55 3e
       -0.19382034 -0.055251915 -0.15818551 0.20874327
000270 40 3d e1 bd 0c 28 0a 3d 36 ad 2f be fe cb 96 be
       -0.10998011 0.033729598 -0.17155918 -0.2945251
000280 32 89 10 be e5 9d 35 be 97 f7 51 be 3e ff b1 3d
       -0.14114836 -0.17736013 -0.20504604 0.08691262
000290 0b 3a 90 3d 2c 56 97 3d ce 89 ad be 8d 3e 3c 3e
       0.07042321 0.07389483 -0.338942 0.18383236
0002a0 d4 5a a6 bd 0e 36 35 3e 7f 9f 91 3e 83 66 83 bd
       -0.08122793 0.17696401 0.28441998 -0.06416037
0002b0 9d ca de bd 7c 14 a9 3e 61 1f a2 bd ff 52 50 be
       -0.10878489 0.3302344 -0.07916141 -0.2034416
0002c0 6c 91 81 3e 90 21 b0 3e 76 9c 9e 3c b4 ef 87 bd
       0.2530626 0.34400606 0.019361716 -0.066375166
0002d0 4a e7 a5 be c9 fb a9 3d e3 37 7e 3d 5a ca c6 bd
       -0.32403022 0.08299977 0.062065016 -0.09706564
0002e0 2d 04 2e 3e 2a ba 68 be 97 fa d6 bd 77 89 a8 bd
       0.1699378 -0.22727266 -0.10497015 -0.08229344
0002f0 de 5c 9f 3e ad d1 98 bd 3d 15 fc 3d 35 e6 ee 3d
       0.3112554 -0.074618675 0.123087384 0.11665002
000300 2c 6f 8c 3e a8 2a 96 3e c1 94 0b 3e 52 09 c2 bd
       0.27428567 0.2932942 0.13630964 -0.09474434
000310 93 4b b5 3d 87 0e b4 3d b0 8d 93 bd 0b f4 8e be
       0.08852305 0.08791833 -0.07204759 -0.27920565
000320 0a 7c 81 39 a0 ee 9e bd 7b 59 93 be ce 4a a0 3d
       0.00024697214 -0.07760358 -0.28779206 0.07826768
000330 79 24 43 3d 23 ab a8 3e 44 db ed bd 01 01 87 3c
       0.047642205 0.32943067 -0.11614087 0.01647997
000340 58 fc 86 bd 51 93 1f be d6 9e 7c be 2a 06 19 be
       -0.065910995 -0.1558354 -0.24669966 -0.14943758
000350 11 fe 6f bd 06 09 33 3d d9 59 fd bc fd 92 d5 3d
       -0.058591906 0.043709777 -0.030926632 0.104284264
000360 4c c1 d9 be ab e5 52 3e d4 55 0f be 15 8d e6 3d
       -0.42530286 0.20595424 -0.13997585 0.11257378
000370 35 f6 c7 3d 62 5d 2e 3e e8 f2 4f bd 6d 47 60 3e
       0.09763757 0.1702781 -0.050768763 0.21902247
000380 f7 c9 80 3d e0 0b 15 be 93 6a 2e 3e 19 20 f2 3d
       0.06288522 -0.14555311 0.17032842 0.118225284
000390 b2 1e 8e bd d5 51 b1 be b2 54 a6 be 8a 15 9e 3b
       -0.069394484 -0.34632745 -0.32486492 0.004824345
0003a0 5c 51 9b 3e 1e 53 c7 3d a1 78 08 3e a5 bd 85 be
       0.3033551 0.0973265 0.13327266 -0.2612125
0003b0 f1 26 45 3d 9f 2b 74 be fd 7e a5 3e 19 23 81 be
       0.04813284 -0.23844765 0.32323447 -0.2522209
0003c0 3c c2 47 3e 7d fb 07 3e 4d 14 76 3e f3 bf 8b 3e
       0.19507688 0.13279529 0.24031182 0.27294883
0003d0 d3 dd 60 3d db 00 2b be 15 6f a5 3c 73 88 49 3c
       0.054899048 -0.16699545 0.02019457 0.012300598
0003e0 6b 92 fe bd f4 8a ba be e9 9a e8 bd 33 de d1 3d
       -0.12430271 -0.36434138 -0.11357672 0.10247459
0003f0 7e 60 f0 3c 41 a9 b7 3d 78 c7 a6 be ab e4 17 be
       0.029342886 0.089678295 -0.32574058 -0.14833324

pool1.weight f4 [1, 50]
000000 5e d9 61 bd bc 45 8c bd cf ea 53 3d 50 1c 56 bc
       -0.055138938 -0.06849238 0.051737603 -0.013068274
000010 28 be 05 3d 69 17 a0 3d 7c ab 6c 3c 1e 5c d3 3d
       0.03265205 0.07816965 0.014445182 0.10320304
000020 08 16 9e 3b 7f 7b 2a be c7 9c f3 3c 8c 44 23 be
       0.0048244037 -0.16648673 0.029737843 -0.15944117
000030 db 99 8d bd 01 e7 d4 bd 0c c9 d2 bd 35 4c cd 3c
       -0.06914111 -0.10395623 -0.10292253 0.025060752
000040 f2 e1 08 bd f0 df 0b 3e 9f 1c 97 bd 31 7c ee bd
       -0.033418603 0.13659644 -0.07378506 -0.116447814
000050 d0 2b 7f 3e 06 bf cd 3c bf b0 84 bd 53 83 c1 3d
       0.24919057 0.025115501 -0.06479024 0.09448876
000060 1c d7 37 3d d6 b3 93 bc 86 70 a5 3d 3a 74 45 3e
       0.04488288 -0.018030088 0.08078103 0.19282618
000070 1e 56 ef bd 35 f9 5c 3d 23 6c c8 bd 95 01 0f 3e
       -0.116863474 0.0539486 -0.097862504 0.13965447
000080 26 7f 48 3e a0 d6 9e 3c b7 ed 7d 3c d9 2b 51 bd
       0.19579753 0.01938945 0.01549857 -0.051067207
000090 65 b1 bc bd 22 cf 04 3e 52 91 94 3e 4a ec 08 be
       -0.09213523 0.1296964 0.2901712 -0.13371387
0000a0 65 ab 47 3b 32 3e e2 bc e8 ba cd 3c 07 72 82 bd
       0.003046715 -0.027617548 0.025113538 -0.06369405
0000b0 ab e2 eb bd 6e 65 bd 3d 27 9b 2d bd cd 2f c2 3d
       -0.11517843 0.09247862 -0.042384293 0.094817735
0000c0 63 11 89 bd d8 0c b0 bd
       -0.066927694 -0.085962

pool2.weight f4 [1, 50]
000000 b3 df 75 bd 36 6d 3a 3e e4 18 21 3e 37 ed d7 bd
       -0.06002779 0.18205723 0.15732151 -0.10543292
000010 9d 4e b4 bd 61 20 09 be 3c b4 8f 3d 9f 02 55 be
       -0.08804057 -0.13391258 0.07016799 -0.20801781
000020 71 fc c7 3d dc 22 99 3d 03 8d 6c 3d b3 a3 81 bb
       0.09764946 0.07477352 0.057751667 -0.003956282
000030 9f b7 3b 3e 42 00 14 be 4d c8 25 3e 88 44 2a 3c
       0.18331765 -0.14453223 0.1618969 0.010392316
000040 75 65 16 3d 64 1a e4 3d e9 83 98 3d c9 a1 e9 3d
       0.03671785 0.11137846 0.07447035 0.11407811
000050 02 4d f8 bd f2 da f5 3d 84 2d 62 bc d6 7d 9e 3d
       -0.12124063 0.12004651 -0.013804797 0.07738845
000060 b6 f2 ab 3d 63 f0 ba 3d 0a 60 81 bd b4 87 b4 3d
       0.08395903 0.091278814 -0.06317146 0.08814946
000070 21 7f fc 3d 5c a7 76 bd b1 4e 8d bb c8 7d a5 bd
       0.123289354 -0.0602182 -0.0043123593 -0.080806315
000080 de 49 b3 3c eb 13 24 3d 65 60 52 be 42 f9 38 bd
       0.021885809 0.040058058 -0.20544584 -0.045159586
000090 a9 70 1a 3e 17 ab 14 3e a7 2f 00 be 0e 6e 60 be
       0.15082039 0.1451839 -0.12518178 -0.21916983
0000a0 92 4d c6 bd 44 a4 0d 3e d5 88 28 bd 7b 37 e0 bc
       -0.09682764 0.13832194 -0.04114612 -0.027370205
0000b0 a5 cf 3e 3d a8 16 6c 3d 79 fa c7 3d 88 0f 51 bd
       0.046584744 0.057638794 0.09764571 -0.051040202
0000c0 05 3f 9c 3d 29 d9 8f bd
       0.076292075 -0.07023842

fc4.weight f4 [3, 200]
000000 54 3c 5e 3d d5 0b 17 be 1b 44 89 be d6 7e 13 be
       0.054256752 -0.14750607 -0.26809773 -0.14403853
000010 99 d5 5b be 0e cc 4d bd 61 ad 4c be bc 1a 05 bf
       -0.214682 -0.05024343 -0.19988014 -0.5199392
000020 af 2b 2a be 8e 5f 6e 3e 78 7a 51 be 0e 26 94 be
       -0.16618226 0.23278639 -0.20456874 -0.28935283
000030 bb a5 7d be f2 6f d4 3d 69 e0 19 bd 03 7b c2 be
       -0.24770252 0.103729144 -0.03756753 -0.37984475
000040 79 11 29 be f8 20 ee 3a bf fd 36 be 3c 76 50 be
       -0.16510572 0.0018167784 -0.17870234 -0.20357603
000050 51 45 0b bf 3a a6 87 bd e9 dc c3 be e9 c3 45 3e
       -0.54402643 -0.06623502 -0.3825448 0.19313015
000060 ae 12 1b be 2c 06 69 be a0 53 3b 3e c2 89 3a bd
       -0.15143844 -0.2275626 0.18293619 -0.045541532
000070 49 27 0d be bf af 48 be ef 0f eb bd 9e b0 04 bf
       -0.13784517 -0.19598292 -0.114776485 -0.51831996
000080 df 8f 9b be b1 74 62 be 7a b0 fe 3e 28 84 ca be
       -0.30383202 -0.22114827 0.49744016 -0.39553952
000090 f6 1e 5c be 89 49 90 bd 7f e6 9b be 97 be b0 be
       -0.21496186 -0.07045276 -0.30449292 -0.3452041
0000a0 95 15 0e bf bf 44 f7 3d 2b ce fb bc 20 ef bd bd
       -0.5550168 0.12073659 -0.030737957 -0.09274125
0000b0 a5 2d 4b bd c6 b9 00 bf 84 24 be 3e ee 54 fa be
       -0.049604077 -0.5028347 0.37137234 -0.4889292
0000c0 bd 16 35 be 0b 95 a8 3d 79 37 b8 3d 6e c9 30 3d
       -0.17684455 0.08231553 0.089949556 0.04316085
0000d0 21 83 0a be 99 1b 9f bd cd 45 35 3d f5 c1 11 3e
       -0.13526584 -0.07768936 0.04425602 0.14234145
0000e0 3e 35 f6 3c 50 f8 30 be a1 f2 50 bc 12 26 04 3c
       0.030054685 -0.17282224 -0.01275316 0.008065717
0000f0 22 d4 96 3b f9 0d 24 bd 68 2a 62 be 73 ec a1 3c
       0.004602925 -0.040052388 -0.22086489 0.019766068
000100 cd de e5 bd 49 07 31 be c8 65 53 be c5 29 a0 3d
       -0.112241365 -0.17287935 -0.20644295 0.07820467
000110 c6 35 0a be 82 29 2f 3d 0a 16 b5 bd 43 a3 ba 3d
       -0.13497075 0.042764194 -0.08842094 0.09113171
000120 37 44 f0 bc 34 f5 01 3e 49 92 d2 bc a0 4b a9 3c
       -0.029329402 0.12691194 -0.02570452 0.020665944
000130 cc 23 0c 3e e1 eb 9a bc 9e ce f1 bc 1b 10 ec bd
       0.1368553 -0.018911304 -0.029517468 -0.115265094
000140 68 38 4c bc bd 45 9f bd 13 1f fd ba 5a 07 66 bd
       -0.01246462 -0.077769734 -0.0019311629 -0.056159355
000150 7d ab bc 3d 92 7e 13 3a 5e f4 04 3b fc 6d 93 bc
       0.09212396 0.00056264654 0.0020287256 -0.01799678
000160 fb cd 6b bd d8 4c 2a be c3 1c 3f 3e e6 92 2b bd
       -0.057569485 -0.16630876 0.18663315 -0.04188814
000170 33 5b f5 3c b2 7c 71 3d 89 24 36 bd 1b ab 33 be
       0.029950714 0.05895681 -0.044468436 -0.1754574
000180 c4 54 e6 3d c0 49 02 be ba 69 ef 3d 17 c9 ff bd
       0.112466365 -0.12723446 0.116900876 -0.12489527
000190 9a a9 4d be 4b 6b a6 3e 85 a7 cc be 37 58 f5 3e
       -0.20084229 0.32503733 -0.39971557 0.47918865
0001a0 5f e2 c1 3e 1c cf 04 be 5c 5a b6 3e 77 0b ca 3b
       0.3786802 -0.12969631 0.35615814 0.0061659175
0001b0 fb a3 cc be 0f d7 8b 3e 15 1d a8 be 0a 32 00 bf
       -0.39968857 0.27312514 -0.32834688 -0.50076354
0001c0 04 70 c2 3d a6 0a 89 3c 6c d1 48 be ef 93 d0 3e
       0.094940215 0.01672871 -0.19611138 0.40737864
0001d0 f8 c1 ae 3e 2e 4e 55 be 3d e2 7b be 3c 02 2b be
       0.3413236 -0.20830604 -0.24598022 -0.16700071
0001e0 e0 8e c1 3e ac dc 9d be 6d 81 ff be 24 42 98 be
       0.37804317 -0.30832422 -0.49903432 -0.2973796
0001f0 57 2b 9e 3e 17 49 bd 3e 8d 70 88 bd 2f 58 9f be
       0.3089244 0.36969826 -0.06662092 -0.31121966
000200 bd 8b 4b 3e e4 64 b8 3e 76 e0 c8 3e df e8 a8 3c
       0.19877525 0.36014473 0.3923375 0.020618854
000210 01 76 9e be 7c a3 9b be 50 1e ca bb 49 fa 1c bf
       -0.30949405 -0.30398166 -0.0061681643 -0.61319405
000220 5b cb 4a 3e e0 d5 a1 3e 5c 54 c0 bd 92 04 ca ba
       0.19804136 0.31608486 -0.0939109 -0.0015412739
000230 b3 ec 7a 3c 83 2b 1d be 04 4d ce be 0b ac 06 bf
       0.015315223 -0.1534863 -0.40293133 -0.52606267
000240 2b 27 f9 be 29 5a 51 3e af 3e 7b 3e 5f 87 d6 be
       -0.48662695 0.2044455 0.2453563 -0.41900155
000250 4b 22 71 3d b1 ee e3 be 51 cd 2f bd fe e5 6b 3e
       0.058870595 -0.44518045 -0.042920414 0.23036954
000260 77 af 95 be 10 6e 5e 3e 62 90 73 3e ef 6d b6 3d
       -0.29235432 0.21721673 0.23785546 0.08907687
000270 2f eb a7 3e 5a fe e2 3d 6a a5 8f be 08 2f 30 3e
       0.32796618 0.1108367 -0.28055888 0.17205441
000280 5b ae 75 be 29 ad a6 be 4f a5 bc 3b fb ab bb 3d
       -0.23992293 -0.32553986 0.005757011 0.09163662
000290 f6 29 27 be 27 57 8a 3e 38 4c 72 3e c4 41 24 be
       -0.163246 0.27019617 0.23661888 -0.16040713
0002a0 44 f9 e2 bd 9e 97 0b be 6a e9 99 3e 2b bf 8a be
       -0.110827 -0.13632056 0.30060893 -0.27098975
0002b0 ae 84 69 be 4a 84 9f be 15 81 1f 3e d3 1e 79 3e
       -0.2280452 -0.31155616 0.15576585 0.24328165
0002c0 2c c3 43 3d 50 cb 74 be 5a b1 de 3c c7 06 ce 3d
       0.047793552 -0.23905683 0.027184177 0.100598864
0002d0 2c eb 11 3e 1b 5e a4 3b 0e 6f 40 be 94 13 8c be
       0.14249867 0.005016101 -0.18792364 -0.27358687
0002e0 6c 3a 34 3d aa b9 ca be e8 9b b8 3d 6a a0 6f 3e
       0.044001028 -0.39594775 0.09014112 0.23401037
0002f0 d1 8b c2 3d a3 cb 25 3d 5c 47 de 3d 9d d3 97 bd
       0.09499324 0.040477406 0.108534545 -0.07413409
000300 9d 17 82 be 64 96 65 be 71 db c8 be 7c 21 db 3d
       -0.2540864 -0.2242065 -0.3922992 0.10699746
000310 c7 3a 43 3e fa 17 92 be c7 85 61 bd d1 f2 89 be
       0.1906539 -0.28533918 -0.05505922 -0.26943067
000320 e9 d9 f7 3d 3b eb 64 be c2 d3 df 3d 17 0a 98 be
       0.1210211 -0.22355358 0.109290615 -0.29695198
000330 29 10 b6 3e da 2f d5 3d 20 1b 39 3e 0e 42 72 be
       0.35559204 0.104095176 0.18076754 -0.2365801
000340 ab c2 0b 3e a0 ae 13 bd 75 09 6d 3e e4 f1 c2 bd
       0.13648479 -0.036055207 0.23148139 -0.09518793
000350 22 4f da 3d 25 fa 0d be 97 74 29 be a4 e5 88 3e
       0.10659625 -0.13864954 -0.16548382 0.26737702
000360 3e 2e b5 3c 25 c7 d3 bd ba 8b 99 3e b9 4e 12 3e
       0.022116777 -0.10340718 0.29989415 0.14287843
000370 93 4d b3 be 58 bf 01 bc 66 e3 ae be dc 16 e5 bd
       -0.35020122 -0.007919155 -0.34157866 -0.11186001
000380 10 c3 db 3c 82 cd 66 3e 43 a9 40 be a1 af a0 be
       0.026826411 0.22539333 -0.18814568 -0.31383994
000390 97 57 9d 3d ee 24 46 3e 7d 2c de 3a 07 ae be be
       0.07682722 0.19350025 0.0016950514 -0.37242147
0003a0 55 46 b1 be ce 56 96 3c 26 2b d0 be e5 94 75 be
       -0.34623972 0.018351939 -0.4065792 -0.2398258
0003b0 43 53 57 3d ed db 2e 3e 93 38 ff be 3d bf 8e 3e
       0.05256964 0.17076083 -0.4984785 0.27880278
0003c0 38 60 4f be b9 55 a3 be ec ec 8d be 53 17 2d be
       -0.20251548 -0.3190134 -0.2771982 -0.16903429
0003d0 ad bc 6b 3e 24 aa 93 3e 3e bc a2 be 88 a3 1f be
       0.23021193 0.28840744 -0.31784242 -0.15589726
0003e0 68 ca 2f 3e 0b 8c 48 bd 4b 5e 07 3d f1 fa 42 3c
       0.17167056 -0.04896168 0.03304891 0.011900649
0003f0 fa d4 95 3d e4 ff 94 bb e8 b9 66 bc 01 c5 c4 bd
       0.07316013 -0.004547106 -0.014082409 -0.09607888

fc4.bias f4 [3]
000000 50 25 29 bd be 5a 25 bd 15 25 4d 3a
       -0.04129535 -0.04036974 0.0007825655
