experiments/experiment_2/best_model_1_2.pt (torch, 39119 bytes, 8 tensors)

conv1.bias f4 [50]
00000000: 9766 cb3c 35ca cabc 9015 d4bc 78ce d0bc
00000010: e9fc cc3c c16a ee3c 74a8 f63c 4400 e4bc
00000020: 5733 e43c 1618 95ba 7ad3 cb3c a205 dc3c
00000030: 5455 e8bc 57eb 7d3c 2368 e13c 2539 d73c
00000040: 3c66 57bc 1f62 213c 30e8 a93c 6ccf ddbc
00000050: 103d b83c 7e60 aebc 711b 7f3c d8de bbbc
00000060: cdfc e93c 4d89 f3bc 4191 e8bc 1973 ed3c
00000070: cbf3 d93c a136 a6bc 7560 f7bc 19a7 d53c
00000080: 8b85 dcbc 3410 e93c b46e b5bc 96bc ec3c
00000090: 2040 e6bc 655a b53b c4e2 e93c 985d dabc
000000a0: 9cf7 ddbc 80c0 e83c 219a db3c 8a60 a93c
000000b0: 86d8 dbbc 0ca9 3d3c 6de5 d5bc 8049 b23c
000000c0: 0211 c83c 589f e7bc
0.024829192 -0.024754623 -0.025889188 -0.025489077 0.02502294 0.029103639 0.030109622 -0.027832158
0.027856512 -0.0011374976 0.024881113 0.026858155 -0.028361 0.015498004 0.027515477 0.026272366
-0.013146933 0.009850054 0.020740598 -0.027076446 0.022490054 -0.021286245 0.015570507 -0.022933409
0.028562928 -0.029728556 -0.028389575 0.028985547 0.026605507 -0.020289721 -0.030197361 0.026080655
-0.026919147 0.028450109 -0.022147514 0.028898519 -0.028106749 0.0055344575 0.028550513 -0.026655957
-0.027095608 0.028412104 0.026806893 0.020675916 -0.026836645 0.011575948 -0.026110375 0.021763563
0.024422172 -0.028274223

conv1.lin.weight f4 [50, 116]
00000000: e3c9 263e 4eab c93d 7760 14bd 4098 7a3d
00000010: 42ac 8fbd a104 11bd febc 103e 5236 ce3d
00000020: e97d 63bd 8b2f 283e 2c6a 2d3e a8a7 bbbd
00000030: 8e91 96bc db07 463d 8e41 ccbd 031e 663d
00000040: 4fb1 24be 4495 143e 6acd f3bd 81f8 9ebc
00000050: ee4d 0a3e 2551 e4bd 1a0b 153c 9f81 e6bc
00000060: e299 2bbe d905 27be 8b4c f4bd 9ef9 a73d
00000070: e42c 2d3d fa30 28be cd90 fb3d c2a2 31be
00000080: 0eac 02be 23e2 86bb 46d1 e43d f8ac 3f3d
00000090: 5f3b 07be 2019 d83d 416a 7c3d 1f0f f13b
000000a0: 5e8f da3d a2ea 2b3e b98a 15be 7d95 603d
000000b0: f043 d8bd fea1 df3d 8ae5 a7bd 009e 2f3d
000000c0: ebfa 73bd dad4 c43d 5e12 773d aad8 183e
000000d0: 4a27 f8bc fc42 53be 35e6 00bd 25f2 703d
000000e0: 36cf d13d 2524 c33d 6943 19be 7546 1c3e
000000f0: 5e5e e83c c782 a23d 5a21 89bd d7c9 fc3d
00000100: b82f 96bc e577 0ebd 4d74 823d 4915 e4bc
00000110: 1f5e 1f3e cef3 533d e305 79bd 2082 81bd
00000120: 387c ccbd a0da c23d 6cf1 1abe 39d6 233e
00000130: dca7 6fbd 47e0 adbc 8634 28be 70dd d8bc
00000140: 720e e93d 930a a5bd 894d dabd d00e 9d3d
00000150: e0b2 d63d dce1 ff3d 9351 4ebe 54aa dfbc
00000160: 501d 5a3e 3e70 91bd 4175 b03d 5253 0dbe
00000170: 0050 603c 134a f73d 37af 453d f5de dbbd
00000180: e3f3 0e3e 70a8 b83c 3f3a 013d 5862 553d
00000190: bd26 d0bd 9969 c3bd 6427 9b3c 09f0 0c3e
000001a0: c00a c63d a318 b2bd 3fb6 febd 55bb 60bd
000001b0: 8f56 0dbe 9f7e d4bd e145 f5bc 7352 29be
000001c0: 413f 3abe ac8d e53d 80ec ca3d 9df1 403e
000001d0: 9dc0 423d 05ee 753d fe55 2dbe 52c9 26be
000001e0: 0f00 6fbd a924 a2bd abca 11be 6e79 e33d
000001f0: bf46 8d3c ad7f bc3d bac2 333e 5a3f 993d
00000200: d4bd 8dbd d9bb db3d a8d4 293e 6fb4 6bbd
00000210: 8642 273d 0f52 d4bd 2df0 e13d 551b f6bd
00000220: e48c 26bd 6529 efbc 302b 0dbe 3f0a 0d3e
00000230: b8bf 75bd 7ef8 1d3e 6d9c 583d 900c 6b3d
00000240: 2045 143e 24c5 873d 7f0b 34be aa4f 04bb
00000250: c15f c5bd e188 88bd 86b0 293e a949 823c
00000260: dae9 24be 703a 023e 82e9 bdbc 20e5 c8bd
00000270: dc8b cc3d 3540 88bc 4782 c03c 4c3d 41bd
00000280: bc51 3e3e f82f 4abd 8fe7 efbb 7004 f53d
00000290: 7d6e a8bd a516 b8bc c618 fcbc 902a 42be
000002a0: 48a8 20be 1126 253e 8cfb 07be e4b7 c8bc
000002b0: b193 8bbd 00b4 cebd 22d4 e5bd c0c3 2e3e
000002c0: 0b3e 42bd a39e 36be dcd7 063e 78c2 273e
000002d0: c5da 233e 1d73 263e dd12 e6bc df57 4fbd
000002e0: 0292 2f3e d0ec 1a3e 6265 22be b6fe d6bd
000002f0: 8585 803b 9e5a f6bd 961a 813d 004e 3d3d
00000300: 821a 5abc e0c6 7cbd 5a36 28be 42aa cabd
00000310: 68f2 303e c928 4abe 252e 9a3d c815 48be
00000320: 7cc2 1c3e ab99 1dbe d720 973d 603d 28be
00000330: 6755 243e d785 0f3e 43eb 933d 4a57 24bd
00000340: 5668 be3b 6cff 19ba 424c 8b3d 8f24 093e
00000350: f75f 963d bfa6 f7bd 3556 2d3e a0c7 01be
00000360: 9319 bdbd 2963 953d 330a 1c3e 6cb4 45bb
00000370: 1a0e 0abe 9026 583d b9fd 9b3d e990 1abe
00000380: a0f7 ac3c 677f 023b 7487 8dbc 40e6 b3bd
00000390: 580e 963c b284 16be ab40 82bd 5f67 40be
000003a0: 0fb8 d23d b2e8 8b3d 439e 3fbe c9e1 fe3d
000003b0: 046d dabd ddce 43bd 1ab7 493e 6755 c03d
000003c0: a57d 063d 74e9 3fbd b0f3 05bb 3fc4 013e
000003d0: 736a dfbd ed39 1c3e f307 e8bd d5c5 733d
000003e0: 0269 35be 734d 19be 2698 c83d 74f6 5f3d
000003f0: d021 043e 6474 28be 9b13 723b 88b4 51bd
0.16287951 0.09847127 -0.03622481 0.061180353 -0.070152774 -0.035404805 0.14134595 0.100689545
-0.05554 0.16424386 0.16935033 -0.09162837 -0.018379953 0.048347335 -0.09973441 0.056180965
-0.16083263 0.14510065 -0.11904414 -0.019405605 0.1350629 -0.111482896 0.009096885 -0.02813798
-0.1675792 -0.16310824 -0.11928662 0.082019076 0.04227914 -0.16424933 0.12283478 -0.17347243
-0.12760946 -0.004116313 0.11172728 0.046795815 -0.13206242 0.10551667 0.06162477 0.007356539
0.10671876 0.16788724 -0.146037 0.054830063 -0.10559833 0.109195694 -0.08198078 0.04287529
-0.059565466 0.09610911 0.06032025 0.14926401 -0.030292172 -0.20631021 -0.031469543 0.058824677
0.102446005 0.095283784 -0.14967121 0.15261252 0.02836531 0.079351 -0.066958144 0.123431854
-0.018333301 -0.03478231 0.06369839 -0.02784218 0.15563248 0.051746182 -0.06079663 -0.063236475
-0.0998463 0.09514356 -0.15131158 0.15999688 -0.058509693 -0.021225108 -0.16426286 -0.026472777
0.11379708 -0.080586575 -0.1065932 0.07668841 0.104833364 0.12494251 -0.20148306 -0.027302898
0.21300244 -0.071014866 0.086161144 -0.13801315 0.0136909485 0.120746754 0.0482628 -0.10735885
0.13960223 0.022541255 0.03154969 0.05209574 -0.10163639 -0.095416255 0.018939681 0.13763441
0.09670019 -0.08696105 -0.124371044 -0.054866154 -0.1380255 -0.103757136 -0.029940547 -0.16535358
-0.18188192 0.112086624 0.0990839 0.18842168 0.04754697 0.060041446 -0.16927335 -0.16287735
-0.058349665 -0.079171486 -0.14237468 0.11107145 0.017245648 0.0920404 0.17554751 0.074827865
-0.069209725 0.107291885 0.16585028 -0.05754512 0.040834926 -0.10367214 0.11032138 -0.12016932
-0.040661708 -0.029194543 -0.13786006 0.1377344 -0.05999729 0.15426823 0.052883554 0.057385027
0.14479494 0.066293985 -0.1758251 -0.0020189085 -0.09637404 -0.066667326 0.16571245 0.015904265
-0.16104832 0.12717605 -0.023182634 -0.09809327 0.099876136 -0.016632179 0.023499621 -0.047177598
0.18585867 -0.049362153 -0.007321305 0.11963737 -0.08224199 -0.022471735 -0.030773532 -0.18961549
-0.15689194 0.16127802 -0.13279551 -0.024501748 -0.06815279 -0.10092926 -0.11222102 0.1706686
-0.04742245 -0.17833953 0.13168281 0.16382778 0.16001423 0.1625485 -0.028085167 -0.05062091
0.17145541 0.151294 -0.15858987 -0.10497801 0.003922167 -0.120290026 0.06303899 0.046216965
-0.013311984 -0.0617131 -0.16426983 -0.09895755 0.1727997 -0.19742121 0.075283326 -0.19539559
0.15308565 -0.15390651 0.073793106 -0.16429663 0.16048203 0.140159 0.07222607 -0.040122308
0.0058107777 -0.00058745476 0.068016544 0.13392852 0.073425226 -0.12092351 0.16927417 -0.12673807
-0.092333935 0.07294304 0.15238266 -0.0030167354 -0.13481942 0.05277115 0.07616753 -0.15094341
0.02111417 0.0019912363 -0.017276503 -0.08784151 0.018317387 -0.14699057 -0.06359991 -0.18789433
0.10289013 0.068314925 -0.18712716 0.12445409 -0.10665324 -0.047804702 0.19698754 0.09391289
0.032834668 -0.046853498 -0.0020439439 0.12672518 -0.109089755 0.15256472 -0.11329641 0.05951484
-0.17715839 -0.14970951 0.09794645 0.054678395 0.12903523 -0.1645065 0.0036937955 -0.05119756

conv2.bias f4 [50]
00000000: b3d9 ef3c 0490 de3c ecfe 473c 48b3 df3c
00000010: 554d 923c f5c5 f6bc b1d8 ea3c 33ea d23c
00000020: c787 f53c c84b a0bc f0b6 80bc 2778 f53c
00000030: 2fab f03c ee68 e33c 9ab7 c9bc 872d c7bc
00000040: 09fb 053d 4775 e13c 9d50 cebc e18d d93c
00000050: 8b50 c9bc 3a53 b4bc b7c4 e23c bc0f b1bc
00000060: b451 e1bc fc33 423c 49e3 6b39 d155 d53c
00000070: 8ddf d83c d632 cdbc 9d2d e03c 8b84 f63c
00000080: 7310 dc3c 352d e03c a119 babc 1c15 c13c
00000090: c10a 033d 4cd1 b8bc d5d9 ea3c d256 cd3c
000000a0: 1e9a e63c e65a a2bc 87c2 d5bc 9355 253b
000000b0: b165 afbc 48ac c8ba 1ba8 95bc f7a0 b9bc
000000c0: 5a18 d03c 6801 e63c
0.029278612 0.027168281 0.012206774 0.027307168 0.01785914 -0.03012369 0.02866778 0.02574644
0.02997197 -0.019567385 -0.015712231 0.02996452 0.029378502 0.027759995 -0.02462368 -0.024313701
0.03271011 0.027521743 -0.025184924 0.026556911 -0.024574539 -0.022012342 0.027681692 -0.021613948
-0.02750478 0.011853214 0.00022496017 0.026041897 0.026473785 -0.025048655 0.0273655 0.030092498
0.026863312 0.027365306 -0.022717299 0.023569636 0.031992678 -0.022560738 0.028668324 0.025065813
0.02814966 -0.019818734 -0.026093734 0.0025228008 -0.021410795 -0.0015310133 -0.018268635 -0.022659762
0.025402237 0.028076842

conv2.lin.weight f4 [50, 50]
00000000: d77c e7bd ae76 b6bb 33be 1dbe 9666 323e
00000010: 89f8 4b3d d559 083d 94e4 d23d 0186 40be
00000020: f2c2 233e 7abe 463e 4ad6 0dbe 2a1f 33be
00000030: 8fdc 71be 64e3 ac3d c3ac 64be a87e 4d3e
00000040: 4470 003e 8325 80be 881f 1a3d 7977 343e
00000050: 22c8 37be 71ad 72bd 95fe 51ba d05f fb3d
00000060: d119 703e 8954 b8bc 8c54 70bd 9a2f 813e
00000070: 1bd8 693e 3dff 2c3e 8031 e4bd d70b cf3a
00000080: 3281 33be 0a5c fbbd 1c6b 17be 8a04 4c3e
00000090: 966a 39bd d9e9 313e e592 ad3c cf4d a03d
000000a0: 0c4e 903d 2b04 893e 51ba 463e 37d8 c23b
000000b0: 5297 f2bc b434 9b3d d251 bfbd bfdc 2bbd
000000c0: de1c d3bd d83d 86be 68f6 b0bc 5c1c d83c
000000d0: 6859 413d 9c92 61be aaac a1bd b281 6e3a
000000e0: 2720 423e 49fd 15be 38ba 5b3e 7897 09be
000000f0: a6a9 b8bd 3993 903d 6364 4abe 0897 c83d
00000100: 0f6f d83d 6619 20be a89e 063e 851a 18be
00000110: 6b66 39be 69a5 ac3b a95f 2cbe f3a7 3fbd
00000120: f927 f63d 099d e1bd 750c 1e3d 1e9c 4dbe
00000130: 49ca 0c3d ffde 623e 0793 013e a8e7 623d
00000140: 9210 f53d 5fa6 033e e97c 48be aabb 833d
00000150: 89a4 10be 9243 e83d d2cb f6bd 6f6f 0f3e
00000160: 4006 84bd 8f3c 52be eace 0d3e 2930 33be
00000170: 53e9 cbbd d5f1 273e 3b88 263d 7d6a 523d
00000180: e552 323d 2c74 3a3e 5f87 febc 961a 1abe
00000190: 0fc0 9abd da08 1ebe bb6f 65bc 0786 9f3a
000001a0: e2ee 643d e97a c2bc c800 533e b1f8 9abd
000001b0: 7fdc 393e 54fd d1bd ab6c 553d 7276 6b3e
000001c0: f28e 59bd 6763 e43d 88bc 0cbe 0a57 693e
000001d0: 3dc0 99bd 4a87 b93d 0abd dbbc a49a 083e
000001e0: 7e87 313e c898 22be bed7 6a3e b91e 5ebe
000001f0: d8ba 863e 3355 dcbd c50e f23d e6b9 86bd
00000200: c5e2 333d 151a 4a3e a2b2 b3ba bc5d dd3d
00000210: 9d82 e7bd fcb2 00be 6807 053c 141b 1bbe
00000220: 6243 66bd c3d4 ecbd c350 4ebd 2833 4dbe
00000230: d48d 4bbe d51a 1fbe 726b 1f3c d143 6b3e
00000240: 6c68 393e 949c 55be ec1c 4cbc f3ad e0bd
00000250: 1353 833e 160b 34be 093b 0b3e 8797 fbbd
00000260: dd73 583e 917a 3a3e 193d 23be 3b2e 35bd
00000270: da26 0bbe 3799 363e 4300 2a3e a9ba 7bbe
00000280: c1e3 be3d b3c1 06be 3c9f 393d c61a 3bbe
00000290: 0cfd 11bd 3072 d83d 1964 61be 29ba 54bc
000002a0: 9e86 0b3e ebf0 df3c c7b7 0ebe d571 e93d
000002b0: a0c3 cc3d 1154 b5bd c933 3f3e 4610 82be
000002c0: d7d5 53be 9b17 213e 6b83 733e a530 50bc
000002d0: 2ce9 073e 8f9e fabd 2acc 93bd 9170 fa3d
000002e0: 6d10 323d 7d21 803e d798 b13d 9d64 7e3e
000002f0: 3c0c b1bc 3f35 00bb e176 54bd ec24 343e
00000300: f506 633e 4def a0bd e227 febd dabf 823c
00000310: 0d2d 70be 9b4c b4bd e398 b0bd 4125 24be
00000320: a61f dfbd 7af2 f9bd 0edf 4c3d e035 663e
00000330: a4c7 1d3d 3adb 923b 1d9f 413d 02a5 c43d
00000340: ea42 5b3e b26e ad3d 97a5 113e 2ba7 3b3e
00000350: b89f 14be fea2 4c3e 558d 01be e894 5b3d
00000360: 6037 ed3d 6152 16bd 69fb cfbb f84f 303e
00000370: 176c dbbd e950 64be 981a f1bd 1ceb 6dbd
00000380: 742e c5bd 244d dc3c 0f3b e9bc 1a00 14bd
00000390: 3494 34be 6913 f2bd 6f94 1cbe 3786 703e
000003a0: 5e45 45be f817 093e e3e6 f6bc 3d13 afbd
000003b0: ac47 6fbe 45eb 233e 2175 273e 0d4d 333e
000003c0: 0f74 c83d a698 a6bd d4cd 54bd 3aff fabd
000003d0: c518 f7bd e123 363e f8e3 f2bd 5eef 20bd
000003e0: 66ec 0dbe e94e 92bd 08f0 233e 65b9 63bd
000003f0: a25a fc3d 4362 f13d 9a9d 26bc d948 86bb
-0.11303108 -0.005568347 -0.15404586 0.17421946 0.04979757 0.033288796 0.10297504 -0.18801118
0.15992334 0.19408599 -0.13851276 -0.17492357 -0.23619293 0.08441809 -0.22331528 0.20067847
0.12542826 -0.2502862 0.037627727 0.176237 -0.17947438 -0.059247438 -0.0008010653 0.12274134
0.23447348 -0.022501247 -0.05867438 0.2523163 0.22836344 0.1689424 -0.11142254 0.0015796375
-0.17529753 -0.122734144 -0.14786953 0.19923607 -0.045267664 0.17374362 0.021188209 0.07827341
0.07046136 0.26760992 0.19407012 0.005946185 -0.02961317 0.07578412 -0.09341778 -0.041958567
-0.1030824 -0.26219058 -0.02160187 0.02638071 0.047204405 -0.22028583 -0.07894261 0.00090983056
0.18957578 -0.14647402 0.21457756 -0.13436687 -0.09016733 0.070593305 -0.19764857 0.09794432
0.10568058 -0.15634689 0.1314646 -0.14853866 -0.18105476 0.005268742 -0.16833366 -0.04679103
0.12019343 -0.1101628 0.0385861 -0.20079085 0.0343726 0.22155379 0.12653743 0.055396706
0.11966051 0.12856434 -0.195789 0.064322785 -0.14125265 0.11341013 -0.120505944 0.14007352
-0.064465046 -0.20530914 0.13848463 -0.1749884 -0.099566124 0.16400845 0.040657263 0.051371086
0.043536086 0.18208379 -0.03107041 -0.15049204 -0.075561635 -0.15433064 -0.014003689 0.001217068
0.05589188 -0.023740249 0.20605767 -0.07566965 0.18150519 -0.10253397 0.052105587 0.22994402
-0.05311484 0.11151772 -0.13743794 0.22787109 -0.0750737 0.090590075 -0.02682354 0.1334024
0.17336842 -0.15878594 0.22933862 -0.21691407 0.26314425 -0.10758438 0.11819223 -0.06578426
0.043917436 0.19736512 -0.0013709853 0.10808894 -0.113042094 -0.12568277 0.008119442 -0.15147048
-0.056216605 -0.115640186 -0.05036999 -0.20039046 -0.19878322 -0.1553758 0.009730207 0.22975089
0.1810624 -0.20860511 -0.012458067 -0.10970678 0.25649318 -0.17582354 0.13596739 -0.12284761
0.21137948 0.18210818 -0.15941276 -0.044233542 -0.1358904 0.17831884 0.16601662 -0.24582924
0.09320784 -0.13159828 0.045317873 -0.18271932 -0.035641715 0.105686545 -0.2201084 -0.012983837
0.13625571 0.027336558 -0.13937293 0.11398665 0.0999825 -0.08853925 0.18672098 -0.2540304
-0.20687042 0.15731661 0.237806 -0.01270691 0.13272542 -0.12237274 -0.072166756 0.122285016
0.043472696 0.2502555 0.0867173 0.24843068 -0.02161228 -0.0019562987 -0.051871184 0.1759221
0.22170623 -0.07858143 -0.12409951 0.015960623 -0.23454686 -0.08803674 -0.08622911 -0.16029836
-0.10894708 -0.12204452 0.05001741 0.22481489 0.03852047 0.0044817002 0.047270883 0.09601785
0.21412244 0.08468379 0.14223324 0.18325488 -0.14514053 0.19984052 -0.1265157 0.053608805
0.115828276 -0.036699656 -0.006347109 0.17218006 -0.10713976 -0.2229649 -0.117726505 -0.058085546
-0.09628001 0.026892252 -0.028470544 -0.03613291 -0.1763466 -0.118201084 -0.15290998 0.23488699
-0.19264743 0.1338805 -0.030139392 -0.08548591 -0.23367184 0.16007717 0.16353275 0.17509861
0.097877614 -0.08134584 -0.051954105 -0.12255712 -0.12065271 0.17787124 -0.11859888 -0.03929078
-0.1385971 -0.07143957 0.16009533 -0.055596728 0.12321974 0.1178632 -0.010169411 -0.0040980396

pool1.weight f4 [1, 50]
00000000: 12ce c53d 399b 1eb9 d710 e1bd d907 8dbd
00000010: ea21 8d3d 7aa4 573d 731c c23c dca4 a5bd
00000020: 0bd4 c83d 449e e4bc cbcd 0c3e b1f1 f03d
00000030: 4347 ffbd 9664 ea3d 3744 553d 3363 62bd
00000040: b863 e3bd 4641 e7bc 20e7 363d 8d85 07be
00000050: d3ca 4e3d 3e51 f1bd f25f b63d 9c0d c3bd
00000060: 866b c93d fa84 50bd 2950 c8bd f5fc 9d3c
00000070: 40c4 d63d cc41 8cbd 28fc 50bd 9a59 023e
00000080: 0639 dbbb b1f4 0d3e 4c65 663c 1f77 dabc
00000090: 2343 8ebc b233 73bd 7e6d a73d 2ba2 bbbd
000000a0: aea1 16be e303 133e 3bb8 e83d 658e 793d
000000b0: 8599 cabd 4388 a63d b478 d6bd 76f7 c13d
000000c0: c41e 433d e305 efbc
0.096584454 -0.00015125879 -0.1098954 -0.068862624 0.06891234 0.05264709 0.023695206 -0.08088085
0.09806069 -0.027907498 0.13750379 0.11764849 -0.12464764 0.114449665 0.052067008 -0.055270385
-0.11103004 -0.028229367 0.04465401 -0.1323454 0.050486397 -0.11783074 0.08905019 -0.0952408
0.098349616 -0.050908066 -0.09780914 0.019285658 0.104866505 -0.06848487 -0.051021725 0.12729493
-0.0066901473 0.13862874 0.014062237 -0.02666813 -0.017365998 -0.059375472 0.08175181 -0.091617905
-0.14710113 0.14356951 0.11363264 0.060926814 -0.09892563 0.081314586 -0.10472241 0.094710276
0.047636762 -0.029177612

pool2.weight f4 [1, 50]
00000000: 7d84 743d ceeb 063e e485 143d 26af ff3d
00000010: 607c fe3d 911d d43c 0ece ca3d 6839 a53d
00000020: 0809 903d 6c16 e4bd cb18 75bd 4a7f 173d
00000030: 0f38 c13c 4bee e23d 868f 1ebe 1145 76bd
00000040: 3e43 08bd 5df7 113e 70ec 77bd e55c ee3d
00000050: 9cda 97bd 00dd c1bd 3382 073e 32a2 0cbe
00000060: d611 aa3c 4fd1 99bd 7806 3a3d 4213 9a3d
00000070: 2f8d 153e 8239 0dbe db84 c23c 85df 903d
00000080: 85d8 853d 7953 263e 7166 cbbd b926 963d
00000090: 9c6b 79b9 ab57 31bd e839 873d 18ba 6a3d
000000a0: dce5 ec3c 5347 cfbd 7a8b 6dbd d47e 96bd
000000b0: d951 bebd 28e8 9fbd cf58 bebc b952 86bd
000000c0: f64f 083d 77f6 133d
0.059696663 0.1317589 0.0362605 0.12484579 0.124260664 0.025893005 0.09902583 0.0806759
0.070329726 -0.11137089 -0.059838098 0.036986627 0.023586301 0.11080607 -0.15484437 -0.06012446
-0.033267252 0.14254518 -0.06052822 0.11638812 -0.07414743 -0.094659805 0.13233261 -0.13733748
0.020760458 -0.075106256 0.045416325 0.075232044 0.14604639 -0.13791469 0.023744991 0.07073883
0.065354384 0.1624278 -0.099316485 0.073316045 -0.00023786578 -0.043296497 0.066028416 0.05730638
0.0289182 -0.10121026 -0.057994343 -0.07348409 -0.09292955 -0.07807952 -0.023235707 -0.06558747
0.03327938 0.03612372

fc4.weight f4 [3, 200]
00000000: 9a95 543d fad8 843d b9f6 c43c d27b 2abc
00000010: 8f3c 9cbd 205a 4bbd 4da9 733c 70af bdbb
00000020: 88a4 5abd b8cd 45bd 780d a13c 0417 dabc
00000030: c762 fc3b d2c2 f73b b32d 67bd 233c bbbd
00000040: b78e 3f3d 6794 94bd db75 aabd 9b4e cdbc
00000050: c121 bfbc e7ab 283d bba0 333d 420b 5ebd
00000060: fa18 233d 0308 e23c 0db3 023d 41b4 98bd
00000070: a25e 0c3d 4348 8cbd f4db d4bc 1d24 0ebc
00000080: e0d8 3e3d f980 b9bd af9e 843d 44f2 a8bd
00000090: 2f38 8f3c d56b 79bd 49e7 80bb c050 e03c
000000a0: a054 6ebd 92fd 4dbd 9cef f33c 65e7 d43a
000000b0: 859a 9fbd 4b56 903b c3e0 80bd 792a 153d
000000c0: 2a70 bdbd 4694 ffbb e7a6 223d b837 ac3c
000000d0: dfe0 913c f6b9 a0bc d3e0 fbbc 222b f53c
000000e0: aeae 773d 24b8 263d 4abf 473d f099 02bd
000000f0: 4f58 a93b dc58 f13c 6962 203d 8900 0f3d
00000100: 93f7 513d c3b1 5c3c bdeb 213d d88e 05bc
00000110: 8491 933d fe33 523d 28f2 96bd 9e70 223d
00000120: 6e19 2a3b d589 343d 14ef a8bd ba23 643d
00000130: fd11 2fbd d6b4 943d e95f 80bd 5d89 da3c
00000140: d278 273d 16da 08bb 9c2a 853c 4221 b6bd
00000150: 8d6c f23b 240d 113d 9fe3 923d 1a67 82bc
00000160: 61d7 1ebd 3c7a 3bbd 8e1a 853d 7e6b fcbc
00000170: 4bfe 6f3c 50da 183d 7fe3 cdbb 2605 a83c
00000180: 355a 983d 8e17 c7bc 097b 28bd 451a 03bd
00000190: 9530 84bd 5f2a c0bd 8aea abbd f8a2 363b
000001a0: d24e aabc efd6 963c ef33 81bd dd5e bfbb
000001b0: 2603 e7bc ccac 9cbd cfb1 0a3d 3f30 cdbd
000001c0: 51c3 75bd 2304 a6bd 2956 b8bc 9123 90bc
000001d0: 99e3 a1bd c574 cebd 1bec 9dbc 27eb 50bd
000001e0: d64c 003b cc61 b7bd cf4a 35bd dcec a4bd
000001f0: fa16 a33c 8311 82bd 1949 afbb e64c 9fbd
00000200: 728f 73bd ffdb 163d cc6a a4bd 2836 2cbd
00000210: 6e50 20bd 33fb 96bd d022 c63b fbfe aabc
00000220: 5521 21bd 6a60 693b fffa acbd 3364 273c
00000230: 677e 05bd 5b22 48bd 124b c4bd cbfa 3cbd
00000240: 8862 2dbc b10b bbbd da85 d8bc d279 623d
00000250: 0ad9 2f3d 9348 b6bd 0f12 bf3c 2046 17bc
00000260: 4e05 4cbd 7de7 7d3c 9d38 50bd 1d59 723d
00000270: 3c15 293b f4d0 80bb f244 e53c c771 1f3d
00000280: 87c7 e03c d45f 74bd 2af5 1d3d bc04 acbd
00000290: 33a5 77bc 156f 553d 8e54 d63c 3326 6fbd
000002a0: 9a07 bcb9 9edc 263d fc58 ee3a 0412 ab3d
000002b0: c2e5 453c 2637 373d a0c1 033c bca4 1fbd
000002c0: 0427 803d ca25 93bd ca56 abbb a4d9 a4bc
000002d0: 0fb9 b6bc 10d1 e73b 692f 51bd d0be 67bd
000002e0: 798f 4a3d fae7 413d 5924 253d df54 953d
000002f0: b8c8 f53c 71f1 7cbd c345 4e3d 7f18 7a3c
00000300: 5885 813d f12d c73b 2a9e ae3d 8703 a03c
00000310: 6b93 a9bc 1a81 c23d 7d4a f0bc ec44 063d
00000320: d380 263d c2d5 41bd c471 563d 09a3 31bc
00000330: 23c7 a93d bc2f 343d 6d99 f63b 3c40 233d
00000340: 4de9 4d3d adf2 2abd 2936 353d fe98 77bc
00000350: 588b 8d3d fc3e d3bc bbb7 00bd c3b1 3a3d
00000360: 5f3e b33d d042 a93d 6a8a a03d 4096 17bd
00000370: f72e 10bc 2640 103c 451b ffbc a32a 90bc
00000380: 134b b63d 40e0 1b3d 783a 323d 7eba 793d
00000390: 6e3e 35bb 598e 823b f670 5d3d 3b55 2f3d
000003a0: 996a 4cbd 3509 163c 5ae0 37bd 71e8 a13d
000003b0: de95 5dbc 1868 97bb 14e7 573d 4c32 e1bc
000003c0: 2963 963c ff9c b03c 812d 3a3d 8e41 1abc
000003d0: d66d 3cbd 468b 54bd f04b 933c bed2 33bc
000003e0: fbff 223d 3fe4 823c 6cf2 dfbb e78e e33a
000003f0: ffdc b1bd befb 9cbd ff7a 993d dfda 663d
0.051900484 0.064866975 0.024043428 -0.010405498 -0.07628738 -0.049646497 0.014871907 -0.005788736
-0.053379565 -0.04829189 0.019659743 -0.026622303 0.007702205 0.007561066 -0.056440067 -0.091423295
0.046766963 -0.07254868 -0.083232604 -0.025061896 -0.023331525 0.041179564 0.043854456 -0.054209955
0.03981874 0.02759171 0.031909037 -0.07456256 0.034269936 -0.0684972 -0.025983788 -0.008675602
0.046593547 -0.09057803 0.06475579 -0.082493335 0.017482845 -0.060893852 -0.0039338213 0.027382255
-0.058186173 -0.05029065 0.02977734 0.0016243277 -0.07793144 0.004404818 -0.0629287 0.03641746
-0.09249909 -0.007799658 0.03970995 0.021022663 0.017807422 -0.019619923 -0.030746853 0.029927794
0.060469322 0.040702954 0.04876641 -0.031885087 0.005167998 0.029461317 0.03915635 0.03491262
0.051261496 0.013470116 0.03953146 -0.008151732 0.07205489 0.051319115 -0.073704064 0.03965818
0.0025955099 0.04407676 -0.082487255 0.055698134 -0.042741764 0.07261054 -0.062682934 0.026676828
0.040886708 -0.0020881942 0.01625567 -0.08893062 0.007398194 0.035412923 0.071723215 -0.015918303
-0.03877962 -0.04577087 0.064992055 -0.030812975 0.0146480305 0.037317574 -0.006283223 0.020510267
0.074390806 -0.024303224 -0.04113296 -0.032007474 -0.06454579 -0.09383082 -0.08394344 0.0027868133
-0.020789538 0.018413035 -0.06308734 -0.005840166 -0.028199743 -0.07650146 0.033860978 -0.10018968
-0.06000072 -0.08106258 -0.022502022 -0.017595084 -0.07904739 -0.10080866 -0.019277623 -0.05100551
0.0019577048 -0.089542 -0.044260796 -0.0805299 0.019908417 -0.06350996 -0.00534929 -0.07778339
-0.059462972 0.0368309 -0.080281824 -0.042043835 -0.039139204 -0.07372131 0.0060466304 -0.020873537
-0.03933843 0.0035610446 -0.08446311 0.01021676 -0.03259125 -0.04886089 -0.09584631 -0.046137612
-0.010582574 -0.09133089 -0.026431013 0.05529196 0.042931594 -0.08900561 0.02332404 -0.009233028
-0.049809746 0.015497086 -0.05083524 0.059167016 0.002580001 -0.003931159 0.027986977 0.038926866
0.027438892 -0.0596617 0.038563885 -0.083993405 -0.01511507 0.05210789 0.026163366 -0.05838604
-0.00035863818 0.04073774 0.0018184478 0.083530456 0.012078704 0.044730328 0.008041769 -0.038975462
0.06257442 -0.07184942 -0.005228852 -0.02012331 -0.02230504 0.0070744827 -0.051070604 -0.056578457
0.049453232 0.04734037 0.040317867 0.072915785 0.030002937 -0.061753694 0.0503595 0.015264629
0.063242614 0.0060784747 0.08526261 0.019532932 -0.020700177 0.094972804 -0.029332394 0.032780573
0.0406502 -0.047322996 0.05235459 -0.010842093 0.082899354 0.043990836 0.007525614 0.03985618
0.05027132 -0.04173534 0.044241104 -0.01511216 0.06911343 -0.02578687 -0.03142522 0.045579683
0.08752131 0.082646966 0.078389004 -0.037008524 -0.00880026 0.008804357 -0.031140933 -0.017598456
0.08901038 0.03805566 0.04351279 0.06096887 -0.002765562 0.0039842543 0.054062806 0.04280589
-0.049906347 0.009157469 -0.044891693 0.07905663 -0.013524501 -0.0046205632 0.052710608 -0.027489804
0.01835783 0.021559237 0.045453552 -0.0094150435 -0.046003185 -0.051890634 0.017980546 -0.010975538
0.039794903 0.015977977 -0.006834319 0.0017361314 -0.0868473 -0.076652035 0.07494163 0.056361075

fc4.bias f4 [3]
00000000: e7ea fe39 691e 5b3d 74a6 453c
0.0004862167 0.0534958 0.012063611
