experiments/experiment_2/best_model_3_2.pt (torch, 39119 bytes, 8 tensors)

conv1.bias f4 [50]
000000 13 0a c5 3c f4 5c c3 3c 21 6f c7 3c 15 59 bf 3c
       0.024052655 0.023848034 0.024344983 0.023357907
000010 cc 1d c0 3c 88 9a c4 bc e0 2b d1 bc b3 3d ab ba
       0.023451708 -0.023999467 -0.025533617 -0.0013064652
000020 e8 dd c4 bc 2e 29 76 3c 8d 08 c7 3c 20 32 94 bc
       -0.024031594 0.015024466 0.02429607 -0.018090308
000030 61 6b b3 3c 34 da ca 3c 49 8b 89 bc 38 c8 be bc
       0.021901788 0.02476225 -0.01679005 -0.023288831
000040 bd fc c5 3c 8d a2 b4 bc c7 14 cb 3c 5a 30 cb 3c
       0.024168367 -0.022050167 0.02479018 0.02480333
000050 9c d1 c2 bc b8 44 bf 3c ff 49 c7 bc 0d fd c7 3c
       -0.02378159 0.023348197 -0.024327276 0.024412656
000060 25 c1 c5 bc 55 af c0 3c 91 ee ca bc 8f cc c6 3c
       -0.02413995 0.023521105 -0.02477196 0.024267463
000070 9d d5 b8 3c ac 5d a8 bc 7e 60 ad bc 7d e1 a0 bc
       0.022562796 -0.020552479 -0.021164175 -0.019638771
000080 84 8b d3 3c b1 8a c9 3c c3 45 b4 bc cf 9a d2 3c
       0.025823362 0.024602266 -0.022005921 0.025708584
000090 02 6a 4b bb 2a bf b8 3c 11 a9 c1 3c d2 27 21 3c
       -0.0031038527 0.022552092 0.023640187 0.009836154
0000a0 6a 8f 97 3c 74 51 5f 3c 31 16 8b 3c c3 60 0c bc
       0.018501002 0.01363026 0.016978355 -0.008567992
0000b0 1b bf c0 3c f2 4f 45 3c 28 b3 b0 bc 64 7f 38 3c
       0.023528626 0.012042986 -0.021569803 0.011260841
0000c0 da 22 88 bc bb 5f 83 ba
       -0.016618181 -0.0010023037

conv1.lin.weight f4 [50, 116]
000000 bc 0d 03 be 1a 40 f6 bd f2 d2 54 3e 60 11 97 bd
       -0.12798208 -0.12023945 0.20783594 -0.07376361
000010 83 b0 fd bc de 6b b9 3c 7c b5 3f 3e d1 21 89 3b
       -0.030967956 0.022634443 0.18721575 0.0041849394
000020 da 3c 01 be a0 a5 88 bd 24 63 8b 3d 33 70 38 be
       -0.1262087 -0.066722155 0.06806019 -0.1801155
000030 ee 06 3f be cb 6c 0a bd ae 56 96 3d 9f ae 1a bd
       -0.18654987 -0.03379516 0.073407516 -0.037764188
000040 50 c4 e4 3d 8a 45 7c bd 1c cd 38 be f2 52 52 3e
       0.11170256 -0.061589755 -0.18046993 0.20539454
000050 c7 21 9c bd 53 18 0f be 6e a5 c6 bd 4b fc 23 be
       -0.0762363 -0.13974123 -0.09699522 -0.16014211
000060 5a 2f 5f bd f0 b1 c8 bd 16 67 d4 3d 79 ae 38 bd
       -0.054488517 -0.09799564 0.103712246 -0.045088265
000070 70 01 01 3e cf c8 16 3d b0 2f 0a 3e 8d c7 0b bd
       0.12598205 0.0368126 0.13494754 -0.034125853
000080 0b 4a dc ba 0d 19 68 bd 39 05 51 bd 13 35 1c be
       -0.0016806734 -0.056664515 -0.05103037 -0.15254621
000090 c0 07 b3 3c 83 14 ec 3d 99 68 ae 3d 48 e7 f9 bd
       0.021854281 0.1152735 0.08516044 -0.122023165
0000a0 9e dd 3e 3c d8 e1 f5 bd 5f 52 09 be 25 bd b3 bd
       0.011649517 -0.12005967 -0.13410328 -0.08776311
0000b0 34 b4 87 bd 73 3d fb bd 4b e7 95 bc eb 0a b5 3d
       -0.06626168 -0.1226758 -0.018298766 0.08839973
0000c0 40 35 3a bd 35 be 82 bd 10 fc c5 3d 6e 6e 41 be
       -0.04546094 -0.06383935 0.09667218 -0.18889782
0000d0 2a f2 ea 3d 65 d9 7b 3d 73 56 59 bd 04 18 25 bd
       0.114719704 0.06148662 -0.05306096 -0.040306106
0000e0 3b 76 d3 bd 2c b3 4b 3e 7d fa 8d bd fa dc 10 3d
       -0.10325285 0.19892567 -0.069325425 0.03536699
0000f0 a5 e3 2d be a7 ad 32 3d 30 76 22 bc 65 0b 49 3e
       -0.16981371 0.04362264 -0.009915873 0.19633253
000100 24 07 c7 3d 57 df e3 bd fa 19 8b bd 9f c6 ed 3d
       0.09718159 -0.11126583 -0.06792064 0.116101496
000110 09 f7 38 3d a1 47 89 bd e1 4a bf 3c e4 28 90 3d
       0.045157466 -0.06703115 0.023351135 0.07039049
000120 7c a6 b8 3d 2b 34 40 bc 62 38 16 3e bb 52 ad bd
       0.090161294 -0.011731188 0.14669946 -0.08463045
000130 3c 9a 7d 3d c9 1b 20 3e 66 a6 0a 3e 1f 02 d9 3d
       0.061914667 0.15635599 0.13540038 0.10596108
000140 e8 0b 04 bd c9 e4 30 3d ee d6 0e be 28 00 1e be
       -0.032237917 0.043186937 -0.13949177 -0.15429747
000150 28 20 37 be 9a 87 77 3d e4 2c da bc c3 0b 04 3e
       -0.1788336 0.060432054 -0.026632734 0.12895112
000160 54 7a bc bd 11 f3 41 bb e5 d3 29 be 0c 71 43 be
       -0.0920302 -0.0029594342 -0.16584738 -0.19086093
000170 53 71 33 3e d3 ba 3d 3e 40 62 3b 3e 49 68 09 be
       0.17523699 0.18528299 0.18299198 -0.13418688
000180 d2 44 81 bb 85 7b 2d bd 97 83 4a 3e 4d 1a 1a be
       -0.0039449716 -0.042354126 0.1977676 -0.15049095
000190 22 84 1e bc 50 90 de bc 5e bd 12 bc 86 84 37 3e
       -0.009675058 -0.027168423 -0.0089562815 0.17921647
0001a0 8e 23 4a 3d ae 69 25 3d 1f 12 35 be 1c e6 90 3d
       0.049350314 0.040383987 -0.17682694 0.0707514
0001b0 7e 5e 57 3d b2 45 a7 3d 75 46 41 3d 3c 31 16 bc
       0.05258035 0.0816759 0.047186334 -0.009167012
0001c0 4d 23 ea 3d aa 50 1c be ee ff 99 3c 34 ef 26 3e
       0.11432514 -0.15265146 0.018798795 0.16302186
0001d0 a2 50 d8 bd 3a d7 93 3d ba a8 e5 bd bf 65 74 3c
       -0.105622545 0.072187856 -0.11213823 0.014916836
0001e0 b0 5d 46 3c a3 33 df bc 0e e5 c8 bc b0 c4 7f 3d
       0.012107298 -0.027246302 -0.024523284 0.062443435
0001f0 51 3d ef 3d 99 00 27 be c5 f1 1e 3e ae 56 69 bd
       0.11681617 -0.16308822 0.15521915 -0.05696743
000200 8c 18 aa 3d cc 34 28 be ff 86 b4 3d cd c2 3c 3e
       0.08305463 -0.1642639 0.08814811 0.18433686
000210 0f 83 60 3c 84 a9 3b 3d 0b e0 47 bd 27 ff b2 3d
       0.013703122 0.04581596 -0.04879765 0.08740073
000220 c6 9e 66 3d 12 e5 f2 bd 45 ec 1a 3e 4c 1f ae bd
       0.056303762 -0.11860098 0.15129192 -0.08502063
000230 88 94 dc 3c 2c 03 0e 3d fb cb 1b 3e b0 04 c3 bd
       0.026926294 0.034670994 0.15214531 -0.095223784
000240 9b 17 5b 3b f4 95 cd bd 2e 98 5d bc 0f 27 e4 3d
       0.0033430818 -0.10038367 -0.013525052 0.11140262
000250 d5 14 0c 3e 07 cf e4 3d 1c 53 82 bd 1d 0e 0d bd
       0.13679822 0.111723 -0.06363508 -0.034437288
000260 ce 3b 48 3e 53 95 ec bd 0a a5 75 3d 2f 08 d2 bc
       0.19554064 -0.11551919 0.059971847 -0.025638668
000270 74 ee 49 3d d1 78 0f 3e c9 5d 51 bd b5 ab ec bd
       0.049299672 0.14010932 -0.05111483 -0.11556188
000280 91 65 e5 3c 36 de ea bd 35 4a ab 3d e7 c6 32 be
       0.028002532 -0.114681646 0.08363763 -0.17458688
000290 b8 08 22 be 59 f3 64 bd 41 cb fd 3d 30 be 7c 3d
       -0.15823638 -0.055896137 0.12392283 0.061704814
0002a0 b4 19 29 be 7d 94 29 3e ed 2e 94 3d 98 86 b8 3d
       -0.16513711 0.1656055 0.07235513 0.09010047
0002b0 67 13 0d bd bc b2 8f 3d 29 11 dd 3c 68 85 29 be
       -0.03444233 0.07016513 0.026985722 -0.16554797
0002c0 32 57 e2 3c 8b 6e 09 3d fa f0 e5 3d cd 7d 97 3d
       0.027629469 0.033552688 0.11227603 0.073970415
0002d0 f9 51 14 be ab 43 a0 bd 8b a3 13 3b 3e c1 a7 bd
       -0.14484395 -0.07825407 0.00225279 -0.08191155
0002e0 a4 41 23 3e 24 98 46 be 20 7e 22 3e c3 26 9b bb
       0.15943009 -0.19393975 0.15868425 -0.0047348454
0002f0 2f c7 38 3e 49 68 83 bc 40 a4 0e 3e 5b 20 73 bd
       0.18044733 -0.016040938 0.13929844 -0.05935703
000300 e8 c0 3e 3e b8 90 23 3e fd 32 ad bd 63 e1 4b be
       0.18628275 0.15973175 -0.08456991 -0.19910197
000310 99 2b 1b be b5 ab ba bd a5 49 83 3d 17 60 29 bd
       -0.1515335 -0.09114782 0.06410531 -0.041351404
000320 e6 2d 42 bc 02 46 03 be 14 fd e6 3c 69 f0 09 be
       -0.011851763 -0.12819675 0.028196849 -0.13470615
000330 5f e6 2f 3d 31 2c 98 3d 35 93 48 3d 9a 5f ab 3d
       0.04294431 0.07430304 0.048968513 0.08367844
000340 ce ce 7c 3d 86 14 3b be 55 7e bc 3d fb 74 de 3d
       0.06172066 -0.18269548 0.092037834 0.10862156
000350 de 05 45 3e ae 7b 2c be 28 b3 4d 3e c1 3c ee bb
       0.1924052 -0.16844055 0.20087874 -0.007270426
000360 0a d2 c4 3c 99 b0 43 be 0c 0d 82 3d 37 ec 35 3e
       0.024025936 -0.19110335 0.06350145 0.1776589
000370 a3 3a 18 be e9 5a e4 bd 84 bd a3 bd af d4 c2 bd
       -0.14866118 -0.11150152 -0.079951316 -0.095132224
000380 07 30 c7 3c f9 9e ec 3c 8c 39 28 bd 08 d8 83 bd
       0.024314893 0.028884398 -0.041070506 -0.06437689
000390 4f 88 01 be 52 18 05 bd c8 ba 15 be f4 c3 51 3e
       -0.12649654 -0.032493897 -0.14622033 0.20484906
0003a0 6a cd 51 3d 4a 14 c6 3d ad 62 30 bd 04 6e 99 3d
       0.05122129 0.096718386 -0.043062855 0.07491687
0003b0 b1 75 14 3e 8b fb c3 3d a8 56 5e 3d f6 8d 18 be
       0.1449802 0.095694624 0.05428186 -0.14897904
0003c0 a5 de 04 be e3 72 e4 bc c5 e6 84 3b 9f 2f 93 3d
       -0.12975557 -0.027886814 0.00405583 0.071868174
0003d0 f4 98 20 be 27 c9 4b bd 8d 90 07 bd 9b 6c fc 3d
       -0.15683347 -0.04975238 -0.03309684 0.12325402
0003e0 f6 9d 0c 3e 59 a9 25 3e 0a e6 63 3d 0c d3 29 be
       0.13732132 0.16177882 0.055639304 -0.16584414
0003f0 b3 1b 2a bc 3e d5 db bd d7 4f 73 bc 8b bc 29 be
       -0.010382581 -0.10734032 -0.014850578 -0.1657583

conv2.bias f4 [50]
000000 c8 e9 b4 3c d2 1d bc bc fd f9 4f 3c 9a 4e c0 bc
       0.022084132 -0.022963438 0.012693879 -0.02347498
000010 b7 54 ad bc ba 01 c3 3c 71 8a be bc 4d ae c9 3c
       -0.02115856 0.023804534 -0.023259373 0.024619246
000020 6b 7e c9 3c 35 44 c5 bc 1c a3 c4 3c 36 59 cd 3c
       0.024596414 -0.024080375 0.024003558 0.025066953
000030 78 cd ed 3c be 15 89 bc 1c 3c c6 3c ea ab a6 bc
       0.02902864 -0.016734 0.024198584 -0.020345647
000040 e9 32 8b bc 04 41 c8 3c b0 3a b8 bc 9d 03 ba 3c
       -0.01699205 0.024445064 -0.022488922 0.022706801
000050 c8 cb a6 bc 1b 2e d4 3c 01 7f be bc 05 c7 bd bc
       -0.020360842 0.025900891 -0.02325392 -0.023166189
000060 38 3f b6 bc 41 5e ca 3c b5 3d be bc db 62 c6 bc
       -0.022246942 0.024703147 -0.023222784 -0.02421706
000070 dc f3 b0 3c 6e 7d d4 3c bd b5 1c 3c 17 77 d0 3c
       0.021600656 0.025938716 0.009564814 0.025447411
000080 d0 16 75 3c 6d 08 bb bc 7b 14 cd 3c 62 62 c5 3c
       0.014959052 -0.022831166 0.02503418 0.024094764
000090 5d 30 b3 bc 0f ac ce bc 61 04 bb bc b6 13 a3 3c
       -0.021873647 -0.025228528 -0.022829236 0.01990686
0000a0 e9 c7 a9 bc 3c b6 ba 3c b4 d3 bf bc aa c0 61 bc
       -0.020725207 0.022791974 -0.023416378 -0.013778845
0000b0 fd 43 d4 3c 8a 7d c5 3c 12 0c c3 3c 14 f0 ce 3c
       0.025911326 0.024107713 0.023809467 0.025260963
0000c0 e7 19 b0 bc ad 31 d1 3c
       -0.021496726 0.025536383

conv2.lin.weight f4 [50, 50]
000000 2a af dc 3d f5 40 ea 3d 8f f8 74 be b4 39 8f bd
       0.107755974 0.11438171 -0.23922943 -0.06993428
000010 40 55 21 3d c2 19 e0 3c 83 7e ad 3d 1b b8 87 3d
       0.03938794 0.027356032 0.08471396 0.06626912
000020 91 5b 24 bc a6 33 76 3c 3c 0e 9c 3d cc d3 66 3e
       -0.010031597 0.015026962 0.076199025 0.22541732
000030 ff 0f 81 bc 31 b2 3d 3a 12 a7 e3 bd d6 ae 06 3d
       -0.015754698 0.00072363304 -0.111158505 0.03288158
000040 20 c8 aa bd 0b b7 d6 3b 1c 3f 2c 3e e5 62 ae 3d
       -0.08338952 0.006552582 0.1682095 0.085149564
000050 d5 86 74 be d2 ae 33 be 38 fe 0e 3e 1b bc 1d 3e
       -0.2387956 -0.17547157 0.13964164 0.15403788
000060 a2 f9 e1 3d 10 c4 0b be 0f 57 43 be 9e cd 2a bd
       0.11033942 -0.1364901 -0.19076179 -0.041699998
000070 3b 81 0f 3d e5 04 65 be de bf 29 be 12 90 e6 bd
       0.035035353 -0.22365148 -0.16577098 -0.11257948
000080 5a 00 3b 3e 80 04 16 be 19 d4 4e be 84 35 67 3e
       0.18261853 -0.14650154 -0.20198096 0.22579008
000090 ca 8c 77 3e 9c d5 be bc 47 8a 52 be d7 b0 08 be
       0.241748 -0.023295216 -0.20560561 -0.13348709
0000a0 e7 0a e1 bd 9b 15 f6 3d 79 aa 86 be 0b 1d 70 be
       -0.109884076 0.1201584 -0.26301935 -0.23448579
0000b0 06 39 01 be 9f c5 79 be a2 52 2c 3d e4 a9 80 be
       -0.12619409 -0.24391793 0.042070992 -0.25129616
0000c0 e8 29 2c 3e 25 91 11 be 73 93 63 be 48 1f fa 39
       0.16812861 -0.14215524 -0.22224216 0.00047707022
0000d0 4b 01 1a bd 9b 67 ff bd 05 38 38 bd 4c 3b 26 be
       -0.03759889 -0.12470933 -0.0449753 -0.16233557
0000e0 06 2f 29 b9 f9 dc 5a be d9 e4 14 3d cf a2 84 be
       -0.00016134614 -0.21373357 0.03635106 -0.25905463
0000f0 f1 bc 02 3e ab 4a 2f be 3e 01 3c 3e e5 ab 66 3e
       0.12767388 -0.17118327 0.18359849 0.2252651
000100 51 63 30 be ad 90 a5 3d 69 93 3a 3e c6 94 6e 3c
       -0.17225386 0.08084235 0.18220295 0.014561838
000110 e2 4d 02 3e fc d3 66 be e4 a2 0a 3e bc b5 1d bd
       0.12725022 -0.22541803 0.135387 -0.038503394
000120 82 be 4c be e5 58 86 3d 77 8f 32 3e c4 f5 0a 3d
       -0.19994548 0.06559924 0.1743754 0.033925787
000130 34 d9 81 bd 35 1c ea 3c f5 ae 8d bd c7 cd 9f bd
       -0.06340256 0.028577903 -0.06918136 -0.07802921
000140 6f d5 3c be cb 2b 48 3e 22 0a 05 be 76 82 20 be
       -0.18440793 0.19547956 -0.12992147 -0.15674767
000150 fd b3 aa 3d f0 bf fe 3d 5e 81 04 bd c3 7a 54 3e
       0.08335111 0.12438953 -0.032349937 0.20749955
000160 41 3f ed bc 96 80 2c be d8 6e 7a 3e 4f cb 08 bd
       -0.028960826 -0.16845927 0.24456346 -0.033397015
000170 3a 73 f8 3d 1d ac 21 3e e4 5a 2d bd 8a 6c 9b 3a
       0.12131353 0.15788312 -0.04232301 0.0011857909
000180 a3 38 5b be 13 52 66 3e e7 e6 73 3e cc df 81 3e
       -0.21408324 0.22492246 0.23818551 0.25366056
000190 eb b0 3c be 34 81 3d bc af 00 57 3d a4 be ef 3c
       -0.18426864 -0.011566449 0.052490886 0.02926571
0001a0 71 c3 50 be a6 f5 d2 3d 0f a3 28 be ed 97 31 be
       -0.20387055 0.1030076 -0.16468452 -0.17343111
0001b0 bc 7a bf bd c9 b5 6b bd b9 87 d6 3d b4 62 cb 3d
       -0.093495816 -0.05754641 0.10475106 0.099309355
0001c0 ba 47 65 3d b8 02 d6 bb 53 5b 02 be ad 5c 59 3b
       0.055976607 -0.006531086 -0.1273015 0.0033166811
0001d0 0b 4b 4c 3e 99 ea 83 3d 00 e5 e9 bd 4c f9 04 3e
       0.19950502 0.0644123 -0.114206314 0.12985724
0001e0 94 fc 62 be 99 44 3c bc 7b e1 b5 3c ed 1a 71 be
       -0.22166663 -0.011490964 0.022202244 -0.23545428
0001f0 ec fb 1e 3e 8a da fe bd aa 30 90 bc f4 90 4d bd
       0.15525788 -0.12444027 -0.01760133 -0.050187066
000200 0d 36 45 3e 19 b0 74 be 7b 94 51 be b0 f4 5b be
       0.192589 -0.23895301 -0.20466797 -0.2148006
000210 41 73 10 3e ca 2a bd 3d 22 ec 5b 3e a5 0f 48 3e
       0.14106466 0.09236677 0.21476796 0.19537218
000220 12 0e 6f be 2e 1d 52 3e 41 e3 5e be ac e2 24 bd
       -0.23345211 0.20518944 -0.21766378 -0.040255234
000230 f3 f7 b4 bd 8e e8 50 3e 1c 87 19 be 79 fd 88 bd
       -0.08836355 0.20401213 -0.14992946 -0.06688971
000240 b9 b8 51 be ce e4 c2 3d 18 db 55 be b9 f1 81 be
       -0.20480622 0.09516297 -0.20884359 -0.25379732
000250 2b 1c 85 bd e0 e6 0b 3e 54 67 66 be 59 fb b9 bd
       -0.06499513 0.1366229 -0.22500354 -0.09081144
000260 e6 89 38 be 57 ad 58 3e 28 c7 3b 3e da de 4d be
       -0.18021354 0.21159874 0.18337691 -0.20104542
000270 00 00 4d 3e 9a 1b 7a bd 82 3b 47 3e 8f 6a 3f be
       0.20019531 -0.06106148 0.19456294 -0.18692993
000280 2d 85 8a bb 1f 6c 91 3d 81 9c 3d be f0 8a 61 be
       -0.0042273016 0.071007006 -0.18516733 -0.22025657
000290 75 6d 08 3e f0 76 34 3e 56 a5 eb bc fe fd 24 bb
       0.13323005 0.17623496 -0.028765362 -0.0025175805
0002a0 ec 0d 26 3e 18 5a 24 bc c0 4c 11 bd 62 29 d4 bd
       0.16216248 -0.010031246 -0.035473585 -0.10359456
0002b0 b9 b9 60 bd 8a 47 42 be fe 14 43 be 12 32 3a 3e
       -0.05486462 -0.18972602 -0.19050977 0.18183163
0002c0 28 a6 15 be 6c 8e 3e 3c 48 12 e7 3d fe 60 45 be
       -0.14614165 0.011630636 0.11282784 -0.19275281
0002d0 13 01 6c 3e 04 97 24 bc b9 09 3b be c2 80 2b 3e
       0.23047285 -0.010045771 -0.18265428 0.16748336
0002e0 e9 b8 31 3e 67 1b 68 be 47 1f 63 be b0 2e 50 3e
       0.17355694 -0.22666703 -0.221799 0.2033031
0002f0 7c e7 ff bd 66 c5 73 be a2 26 2a 3e 5c 29 ae bd
       -0.12495324 -0.2380577 0.166163 -0.085039824
000300 50 1e d8 bd a9 cd ee bc 73 49 9d 3d 61 7b 30 bc
       -0.10552657 -0.0291508 0.07680025 -0.010771603
000310 16 23 f1 3d 83 22 e9 3d 75 52 49 3e 07 f4 03 be
       0.1177427 0.11383536 0.19660361 -0.12886058
000320 69 b5 f4 bd d9 44 50 be ce 78 4b 3e a2 a2 0b 3d
       -0.11948664 -0.20338763 0.19870302 0.034090646
000330 88 c4 b8 3d 2c 6e 9f bd f7 8b ec 3d db 0f 08 3e
       0.0902186 -0.077846855 0.11550134 0.13287298
000340 fa ff fb 3d 30 cf 07 be 74 a7 11 3e f8 01 fb 3d
       0.12304683 -0.1326263 0.14224035 0.12256235
000350 49 67 0d 3e 7e 1f 0e be f9 56 59 be f7 6d 6e 3d
       0.13808931 -0.13879201 -0.21224584 0.05821034
000360 1b 70 94 3d 32 32 6d 3e dc e4 59 be fc f9 70 be
       0.07247945 0.23163679 -0.21278709 -0.23532861
000370 a6 2d 07 be 2c e6 1b be 32 ca 55 3e f8 47 07 bc
       -0.13201007 -0.15224522 0.20877913 -0.008256905
000380 c5 78 14 3d 25 a1 2c bd 12 71 a1 3d bb bf 2c be
       0.036247987 -0.042145867 0.078828946 -0.16870014
000390 ca e8 13 be 57 df 38 be 10 77 2d 3d ae 4e 9f bc
       -0.1444427 -0.18053947 0.042349875 -0.019446697
0003a0 a1 4b 23 3e c2 92 ec bd bc f0 08 be 46 b4 15 3e
       0.15946819 -0.11551429 -0.13373083 0.1461955
0003b0 f9 89 82 bd 4b 1c a8 bc c8 bf 18 be e3 f9 98 bd
       -0.063739724 -0.020521304 -0.14916909 -0.07469537
0003c0 33 81 10 be 16 fd 9e 3d 85 8c 6b be 48 77 48 3e
       -0.14111786 0.07763116 -0.23002823 0.19576752
0003d0 5b 9e 0a be 6a 50 2b be 37 6b ed 3c 18 46 3f 3e
       -0.1353697 -0.16729894 0.028981788 0.18679082
0003e0 35 51 11 3e f2 30 ee 3c 6a 8a 4a be 03 b7 a3 3d
       0.14191134 0.029076073 -0.19779363 0.07993891
0003f0 2c 07 ed 3d 0c 0c d6 bd ef 98 fb bd 75 69 c2 bd
       0.115736336 -0.104515165 -0.12285029 -0.094927706

pool1.weight f4 [1, 50]
000000 2a fe 9a 3d 0f 9c 5f 3d 3e 5c b1 3d c1 83 04 3e
       0.07568009 0.05459219 0.08660172 0.12940885
000010 d9 e1 ea 3d 45 a2 f5 bd 4a c7 af bc 90 19 d6 bd
       0.11468858 -0.11993841 -0.021457333 -0.104540944
000020 ad cd aa bd 4b 0b e0 3d b7 82 80 3c 3b ff ac bd
       -0.08340011 0.10939654 0.01568733 -0.08447119
000030 c8 0d b5 3d 89 f6 09 3e 9c c2 00 be 75 e0 dc bd
       0.08840519 0.13472952 -0.12574238 -0.10784999
000040 e9 00 07 3e 5b cd 6e bd bc cd 6c 3d 2a d0 a3 3d
       0.13183941 -0.05830131 0.05781339 0.079986885
000050 22 2b bf bd e1 09 77 3d 4b 41 cd bd 3a df 03 3e
       -0.09334399 0.060312156 -0.10022219 0.12878123
000060 f2 b6 b0 bd 79 ad 03 3e 1e a8 c4 bd 1a 78 71 3b
       -0.08628644 0.12859143 -0.09602378 0.0036845268
000070 41 3a 2c 3c bf 75 b6 3b 1a a5 6f bd 73 af ee bd
       0.010511936 0.0055682356 -0.058507062 -0.11654558
000080 30 04 41 3d 3e a3 08 3e 29 23 f3 bb c1 13 a4 3c
       0.047123134 0.13343522 -0.007419963 0.02002895
000090 88 f7 5a bd f0 96 ae 3d 3d 55 a1 3d db b9 10 bd
       -0.05345872 0.08524883 0.07877586 -0.035333496
0000a0 9d 99 29 3d fb a4 f0 3c 7e 36 22 3d a1 c7 70 bd
       0.041406263 0.029375544 0.03960275 -0.05878413
0000b0 30 42 cf 3d de 2f 5c 3d d6 99 b2 bd 0d c3 cb 3b
       0.10120046 0.053756587 -0.08720748 0.00621832
0000c0 06 64 05 bc ea 9a eb bc
       -0.008141523 -0.028760392

pool2.weight f4 [1, 50]
000000 57 da a6 bc 73 74 18 bd ed af 20 bd 9f 7c 79 bd
       -0.020367784 -0.03722043 -0.039230276 -0.060909864
000010 09 44 c0 bd 4e 76 ac 3d c2 84 a1 bd 97 96 25 bd
       -0.09387977 0.08421002 -0.0788665 -0.040426817
000020 1b 4d a6 3d df 78 aa bd d5 b5 05 3e 60 7c 85 3a
       0.081201755 -0.083238356 0.13057645 0.0010184161
000030 c8 c9 84 3b 35 82 a5 bd 15 72 09 3e b4 98 66 bd
       0.0040523745 -0.08081476 0.13422425 -0.056297973
000040 f0 15 48 bd a5 2b bf 3c ad 12 b8 bd 3d 3c ec 3d
       -0.048849046 0.023336241 -0.08987937 0.11534927
000050 82 8d a4 bd 9b 62 e4 ba 97 5b 50 bd 1f 59 0f be
       -0.08034803 -0.0017424406 -0.050868597 -0.13998841
000060 2b 1d 3c bd da e5 98 bc 3c bd aa bd 19 b7 31 bd
       -0.045926254 -0.01866429 -0.08336875 -0.043387506
000070 48 47 25 bc b2 35 cf 3b 53 23 fe 3c 2b 55 4c 3d
       -0.010087796 0.0063235397 0.031022703 0.04988591
000080 01 ab 36 bd aa 3c 0e be 62 bb 8c 3d b5 04 7e 3d
       -0.044596676 -0.13890329 0.06871678 0.062016208
000090 ab e1 dc bd 74 6b 02 bc 37 02 74 bd 86 1d 4b 3d
       -0.1078523 -0.007960189 -0.059572425 0.049588703
0000a0 7b b8 b4 bd 14 ef ca 3d be 92 9d bd eb 3d 2a bd
       -0.08824249 0.09908882 -0.076940045 -0.041562956
0000b0 66 9a 1d 3c 1a 83 fd 3d 44 48 d2 3d a3 6c 75 3d
       0.009619331 0.12378521 0.1026769 0.059918057
0000c0 14 2f 0c be a0 72 00 3d
       -0.13689834 0.031359315

fc4.weight f4 [3, 200]
000000 5d d1 82 3c 71 c5 97 3c 9b 86 fc bc 01 29 a1 bc
       0.015968973 0.018526765 -0.030825904 -0.019672872
000010 c4 b6 b2 bd d0 bd d3 3b e0 19 00 bc d6 73 65 bd
       -0.08726266 0.0064618364 -0.007818669 -0.056018673
000020 fe 4a 4d bd 64 cd db bb 6b cb e6 3b 6c 9d 19 bd
       -0.050120346 -0.006707834 0.0070432923 -0.037503645
000030 e5 ff fe bc 71 5f 43 bd 7c 9a d8 bc 9a 6a e0 3c
       -0.03112788 -0.047698442 -0.026440851 0.027394582
000040 e1 26 a2 3c 6b b0 33 bc 72 10 09 3c de 12 ab bb
       0.01979393 -0.010967354 0.008365737 -0.005220755
000050 eb e1 fc 3c 6c 79 f4 3c 20 5c d7 bc 1f f2 1d 3d
       0.030869445 0.029843055 -0.026289046 0.038560983
000060 ef d2 ad bc e4 e6 52 3d 2c 01 a1 bd 1d 9a 3b 3c
       -0.021218745 0.051489726 -0.07861552 0.011450318
000070 b3 90 3c bd 28 41 86 bd 4b e1 11 bd 5f 69 b4 bd
       -0.046036433 -0.06555396 -0.035615247 -0.088091604
000080 75 36 2e b9 c3 38 5d 3c e7 06 05 3c 47 75 b9 ba
       -0.0001661422 0.013502303 0.008119321 -0.0014149331
000090 23 d4 1f bd 4b 0f d3 bc 20 e5 90 bd 22 ab 54 3d
       -0.03902067 -0.025764128 -0.07074952 0.051921017
0000a0 a9 34 74 bc ae 10 3a 3b 92 37 04 bd fe bb 49 bd
       -0.014905133 0.002839129 -0.03227956 -0.04925155
0000b0 51 c2 82 bb 81 51 cc bc aa 89 0f 3c 18 53 c4 3c
       -0.0039904495 -0.024941208 0.008760849 0.023965403
0000c0 f8 fb 4a 3d 88 36 8b bd fd bf 1f bd 73 9b 16 bd
       0.049556702 -0.067975104 -0.039001454 -0.03676934
0000d0 d8 c7 8e bd 40 ac 4a bd 80 7a c0 3b 22 14 11 bd
       -0.06971711 -0.049480677 0.005873978 -0.03541959
0000e0 37 4d 84 3d 22 c3 55 bd 7f 88 af 3d e8 69 a2 bd
       0.0646004 -0.052188046 0.085709564 -0.07930356
0000f0 93 26 3f 3d 62 2b aa 3d 5f bf 9f bd 6f a4 ae bd
       0.046667647 0.08309056 -0.07800173 -0.08527457
000100 a9 09 e2 bc 13 19 04 bd 98 b7 3c bc 04 21 3b b8
       -0.027592497 -0.032250475 -0.011518382 -4.4615022e-05
000110 52 02 a9 3b 38 39 00 3c 8d 6d 05 bc 01 32 82 bb
       0.0051577473 0.007826142 -0.008143795 -0.003973246
000120 27 9d ab 3c e4 1e d8 3c 95 00 97 bb 4d 07 9b 3c
       0.02094896 0.026381917 -0.0046082237 0.01892438
000130 bd 6b 9f 3d 57 90 29 3d 40 bb 23 3d 36 35 3c 3d
       0.07784221 0.04139742 0.039973497 0.045949183
000140 9e fd 65 3b 23 79 1f 3d 69 fe 21 bd 3a bc 9e bd
       0.0035093795 0.038933884 -0.039549265 -0.07750745
000150 95 d7 dc bc d8 ef 86 bc 1a 25 a0 3a d0 f7 80 3c
       -0.026958266 -0.016471788 0.0012218088 0.015743166
000160 0a 89 43 bd 70 b1 c2 bc 20 65 9d bd 10 65 8d bd
       -0.047738113 -0.02376625 -0.07685304 -0.06904042
000170 2f 19 f3 3c 26 0d 8f 3d 83 f7 97 bd 68 2d 28 3d
       0.029675094 0.0698493 -0.07420256 0.041058928
000180 49 a0 34 bd f6 bd 7e 3c 7a 5d 8b 3d 07 11 96 bd
       -0.044098172 0.01554822 0.068049386 -0.073274665
000190 d5 e1 54 3d a9 84 4e bd f4 12 64 bc 0f 99 87 bb
       0.051973183 -0.050419483 -0.013920534 -0.004138119
0001a0 61 f3 3c 3d ba 56 a1 bd a0 e4 65 3d 11 d7 b4 bd
       0.04613054 -0.0787787 0.056126237 -0.08830083
0001b0 ef 1d 81 bd 6a 29 80 3d 72 7e c2 bc 37 1f c6 3a
       -0.063045375 0.06257899 -0.023741934 0.0015115504
0001c0 4e 30 c1 bd 85 ee 47 bd 03 8b 96 bd 14 4b a2 bd
       -0.094330415 -0.048811454 -0.07350733 -0.07924476
0001d0 05 d5 0a 3d 90 40 57 3c b8 4c c4 3c fc c2 02 3d
       0.033894558 0.0131379515 0.023962364 0.031924233
0001e0 93 06 37 3b cf 91 85 bd 72 e8 0f 3d e0 d2 f2 bb
       0.0027927503 -0.065219514 0.035133786 -0.007410392
0001f0 26 78 df bb b9 b6 99 bd d2 d3 63 bd 92 17 37 3d
       -0.0068197427 -0.07505555 -0.05562193 0.044700213
000200 7b 2e 66 bc f6 50 82 bd 2c 5c a3 bd a5 06 d1 3c
       -0.014049168 -0.06363098 -0.07976565 0.025515864
000210 a3 18 7c bd fd 3d 84 3a 62 2c b2 bd fb 2f 66 bc
       -0.061546933 0.0010089275 -0.086998716 -0.014049525
000220 ba 14 6a bd 6b e9 21 bc 1e 07 31 3d 5a a0 35 3d
       -0.057148673 -0.009882311 0.043219678 0.044342376
000230 70 4e 57 3d a5 b9 96 bd 14 1e 6c bd 10 9d 11 3d
       0.05256504 -0.07359628 -0.057645872 0.035550177
000240 a5 b5 31 bd bb 59 8f bd ee 15 6f bd 25 78 8a 3c
       -0.04338612 -0.069995366 -0.058370523 0.016902993
000250 b0 de ac bd 2d d9 c1 bd bb 0f 8e bd c2 90 c9 3c
       -0.08440912 -0.09465251 -0.06936594 0.024605159
000260 f5 9c 7c bd ae dd 51 bd 75 a1 93 3d 7d 3f d4 bc
       -0.061673123 -0.0512368 0.0720853 -0.02590918
000270 a7 5f d0 3b 96 6e a4 bd 22 5e 3a 3d bb e0 c3 3d
       0.006359059 -0.08028905 0.04549993 0.09564348
000280 bb ad 2c bd 00 a5 ab 3c 06 dd d8 3b b5 f1 31 bd
       -0.04215787 0.020952702 0.006618145 -0.0434434
000290 05 45 59 bc 6d 99 a8 bb e9 28 b5 3c 01 a1 6c bc
       -0.013261084 -0.005145243 0.022114234 -0.014442683
0002a0 c4 b0 17 bd 0a d1 ac 3d f7 77 1a bd 61 ef ea 3c
       -0.03703381 0.084383085 -0.037712064 0.028678598
0002b0 50 2e 21 bd f2 b2 1e 3d 8b 5c 56 3d 28 a8 3a bd
       -0.039350808 0.038744874 0.05233435 -0.045570523
0002c0 24 c7 7a 3d 64 b0 ef 3c 5d 28 8f bd 84 2c 18 bd
       0.06122507 0.029258914 -0.069901206 -0.03715183
0002d0 ed 42 30 3d 60 a4 b9 3c 5b 21 56 3c f6 ef 44 3c
       0.043032575 0.022661388 0.013069476 0.012020102
0002e0 45 9b 68 bd f7 9f aa 3c 1d 0b 8d bc b5 49 9c 3d
       -0.0567887 0.02082823 -0.017217213 0.07631246
0002f0 21 f0 fa 3a 2c f2 4b 3d 51 1d 06 3d 58 ca 17 3d
       0.001914505 0.0497915 0.032742802 0.037058204
000300 bf e9 8b 3c 26 b7 97 bc 90 10 b1 bd fa 2b a2 bd
       0.017079232 -0.01851995 -0.08645737 -0.07918544
000310 ad 8e 9a bd 38 91 94 bd 80 e6 8c 3d c4 50 af bd
       -0.075467445 -0.07254261 0.06879902 -0.08560327
000320 93 5f 02 3d ee 19 9c 3d 67 4f 1b bd de ef 7e 3d
       0.031829428 0.07622133 -0.03791752 0.062240474
000330 af a5 14 bc a3 5b 06 3d 76 48 af bb a9 9f 63 3d
       -0.009072705 0.032802235 -0.005349214 0.055572186
000340 99 59 3e 3c c1 15 84 bc 95 03 a0 3d 27 a4 b7 3d
       0.011618041 -0.016123654 0.07813183 0.089668564
000350 4d c4 a2 3d 19 62 f3 bc d9 5e 8c 3d c0 8e 34 3d
       0.07947598 -0.029709863 0.06854028 0.04408145
000360 fa 39 7a 3d 12 fb 5b bd 16 91 0d 3d 38 61 23 3d
       0.061090447 -0.053706236 0.034562193 0.039887637
000370 0e da dd ba fe ff b0 3d 31 6f 47 3c c3 c7 51 3d
       -0.0016925947 0.08642577 0.012172506 0.0512159
000380 e5 cd 2e bd 3d db e9 3c b1 c2 94 bc 8c 1c 01 3d
       -0.042676825 0.028546924 -0.018159242 0.031521365
000390 b7 89 83 3d f9 25 37 3d 8a 6f cf 3c 4b f3 ad 3d
       0.064227514 0.044713948 0.02532174 0.0849367
0003a0 4b d1 c0 3c 43 37 36 3d 91 04 ae 3c 41 f5 88 3d
       0.023537299 0.044486295 0.021242412 0.066874035
0003b0 84 89 cf 3b d8 45 d1 bc 17 08 af bc 6d d0 a1 3d
       0.006333532 -0.025546 -0.021366162 0.07901082
0003c0 0c 4a e7 3c db 1a 50 bd be fc 0d 3d 70 50 97 3d
       0.02823355 -0.05080686 0.03466486 0.07388389
0003d0 18 d5 0c 3d 7a 2a 59 bd 14 df 03 bd 94 41 ac 3d
       0.03438291 -0.053019024 -0.032195166 0.084109455
0003e0 b4 d6 79 3c 8f 73 aa 3c f8 25 8b 3d 01 97 f5 bc
       0.015248943 0.020807056 0.06794351 -0.02997923
0003f0 22 d7 bd 3b 41 a6 b5 3d 28 e1 86 3c 6e 15 8b 3c
       0.005793468 0.08869601 0.016464785 0.016977992

fc4.bias f4 [3]
000000 54 5d a8 3c 3e b4 3d ba 9a 93 3a 3d
       0.020552315 -0.0007236636 0.04555092
