experiments/experiment_2/best_model_2_2.pt (torch, 39119 bytes, 8 tensors)

conv1.bias f4 [50]
000000 86 79 cc bc 73 70 da 3c a7 eb c7 bc 66 35 d0 bc
       -0.02496029 0.026664948 -0.02440436 -0.025416087
000010 8d aa 52 bc 1e 06 b4 3c 4b d8 c2 bc b7 5e c5 3c
       -0.012858045 0.021975573 -0.023784777 0.024093015
000020 0f 9c dd 3c b9 d4 9a bc f0 49 cc 3c 49 31 d6 3c
       0.027051954 -0.018900262 0.0249376 0.026146548
000030 4f 3b bc bc b6 e2 89 3c bb b5 c4 3c d7 4b c0 bc
       -0.0229775 0.016831737 0.024012437 -0.023473663
000040 c9 0c b4 bc 2c c4 c3 bc e7 eb cf 3c 0c 9e 21 bc
       -0.021978753 -0.023897253 0.025381042 -0.0098643415
000050 05 3f 29 bc de 2f cd 3c 62 6c c1 bc 32 fd 95 3c
       -0.010329966 0.025047239 -0.023611251 0.01830921
000060 75 10 df bc 16 82 a2 3c 0f 9a d0 3c 5e 30 c6 bc
       -0.027229527 0.01983742 0.025464086 -0.024192985
000070 6c e9 91 bc 12 a5 d4 bc ea 4e 41 3c bf 9f a2 3b
       -0.0178115 -0.025957618 0.0117986 0.004962891
000080 11 c1 7e bc 07 39 c3 3c 7c be d3 3c f9 d9 a5 3c
       -0.01554896 0.023830904 0.025847666 0.020245539
000090 d6 28 e5 bc 59 c8 cd 3c fe 1e 82 bc f6 2c d8 3c
       -0.027973574 0.025119947 -0.015883919 0.026388627
0000a0 f4 17 d8 bc 67 84 a0 bc 8d 16 a6 3c f2 97 14 3c
       -0.02637861 -0.019594384 0.020274425 0.00906943
0000b0 9b f0 d5 3c c4 ac 91 3c 46 7c d6 3c 7b 77 db bc
       0.026115706 0.017782576 0.026182305 -0.026790371
0000c0 e9 b9 cf 3c 21 17 dd 3c
       0.025357204 0.026988568

conv1.lin.weight f4 [50, 116]
000000 84 78 86 bd e0 bd 52 3d 19 62 ae bd be cf 11 3e
       -0.06565955 0.05145061 -0.085148044 0.14239404
000010 0d 17 0d 3e 81 d2 4a 3d 1b db 17 3e 9e 07 bd bc
       0.13778324 0.04951716 0.14829676 -0.023074921
000020 4d de 4d bd ac b2 42 be 59 cc 98 bd 0b f6 2e be
       -0.05026083 -0.1901347 -0.07460851 -0.17086045
000030 9d cf fa bd 32 da 17 bd dc e5 50 bc 41 ca 48 3d
       -0.1224663 -0.03707332 -0.012750115 0.04902101
000040 d1 bf fe 3d 64 2d 3e 3d 0c c7 cc 3d ae c5 25 3d
       0.1243893 0.046430007 0.09998903 0.040471725
000050 63 f8 43 be b0 14 44 be ad 33 85 3d b7 7d 08 3e
       -0.19137721 -0.19148517 0.06503997 0.13329206
000060 5f f4 1d bd 20 6d a2 3c 12 25 e8 bd b4 0a df bd
       -0.03856313 0.019827425 -0.113351956 -0.10890713
000070 0d b1 0d bd c5 ab 0d 3e 73 8f 3e 3e 5e db af 3d
       -0.034592677 0.13835056 0.18609409 0.08586763
000080 c6 c2 2d 3e 61 55 dd bd 9e e7 19 3e e7 fa 41 3d
       0.16968831 -0.108073 0.15029761 0.04735842
000090 36 6c b8 3d e0 35 0c be 5c 66 ca bc 72 4f b0 3d
       0.090050146 -0.13692427 -0.024707012 0.08608903
0000a0 e2 1a 46 be 91 bc 80 3d 70 85 39 3e 12 43 fe 3d
       -0.19346192 0.06285966 0.18117309 0.124151364
0000b0 a6 41 fa 3d 72 28 08 3e 49 b3 9a bc 18 5e 11 3e
       0.12219553 0.13296679 -0.018884318 0.1419605
0000c0 81 b4 84 bc 91 4d 3b be 70 27 eb bd 49 98 2f bd
       -0.016199352 -0.18291308 -0.114821315 -0.04286984
0000d0 53 c6 c1 bd 04 1c 13 3e 3c ad ea 3d 10 b2 11 bd
       -0.094616555 0.14366156 0.11458823 -0.035570204
0000e0 b7 08 2d 3e 09 31 a3 bd 3b 27 7b bd a5 98 bf bc
       0.16897856 -0.07968337 -0.06131671 -0.023388216
0000f0 17 d0 05 be d2 fb 15 3e 6b 7a 4b 3e a7 b3 b4 3d
       -0.13067661 0.14646843 0.19870917 0.088233285
000100 8b 31 03 3e 69 f5 0d be 9e 6a e3 3c 19 15 97 bd
       0.12811868 -0.13863148 0.0277608 -0.07377071
000110 9e db 0b 3e a5 05 2d be 15 86 ef 3d 43 d9 8a bd
       0.13657996 -0.16896684 0.11695496 -0.06779721
000120 f5 81 9c 3d 6e 0d 02 3e 15 18 c9 bd b1 2b 21 3e
       0.07641975 0.12700436 -0.098190464 0.15739323
000130 3a 05 60 3d 22 26 36 3e ab 35 ab 3b 8c 83 ba 3d
       0.054692484 0.17787984 0.0052249036 0.09107122
000140 52 e3 30 be 72 b0 77 3d f9 62 e9 3c f7 42 4b 3e
       -0.17274216 0.060471006 0.028489577 0.19849764
000150 7c 13 53 3e 87 4a 42 be 00 d9 51 bd 7d cc b2 bc
       0.20612901 -0.18973742 -0.051232338 -0.021826023
000160 10 12 6f 3d 51 65 11 3e 8d 44 34 be 9a d6 16 3d
       0.058366835 0.14198805 -0.17604275 0.036825754
000170 82 5d 14 be 6c 31 cd bd e9 f2 a1 bd 6d 05 0c 3e
       -0.14488795 -0.10019192 -0.079076596 0.13673945
000180 8f 0e 07 3e 22 e8 73 bd 67 b5 d3 3d 70 c3 a1 3c
       0.13189147 -0.05954755 0.10337334 0.019746512
000190 9c 8b 12 be 59 e2 a9 3c 11 9c e7 bc a8 d3 19 3d
       -0.14311069 0.020737814 -0.02827266 0.037555367
0001a0 3d 72 71 bd 68 43 c5 3d 09 a0 36 be 7b 33 58 bd
       -0.058946837 0.09631997 -0.17834486 -0.05278347
0001b0 27 3c 15 be 2b 0b 1f 3e d0 73 4a bd c5 02 de 3d
       -0.14573728 0.15531604 -0.049426854 0.10840372
0001c0 bb e3 15 bd 31 e3 19 be 38 ab c7 bd d1 12 0c 3e
       -0.036594134 -0.15028073 -0.09749454 0.13679053
0001d0 a4 d5 40 be a8 de 37 bd 32 fd 31 bd 31 ae 01 3e
       -0.18831497 -0.044890076 -0.043454356 0.12664105
0001e0 c3 74 4b 3e 8d c0 1a 3e c2 6c 10 bc 9a c6 fc 3d
       0.1986876 0.15112515 -0.008814992 0.12342568
0001f0 40 47 3d 3d db 09 2a 3d bd 56 46 be b3 83 25 be
       0.046210527 0.041513305 -0.19369026 -0.1616352
000200 0c 8a 13 be 4d 9f 45 3e 95 9a 25 3e dc 08 12 3e
       -0.1440813 0.1929905 0.1617225 0.14261192
000210 05 52 15 3d ae 06 52 bd 2d c7 be bd 7f b0 ee bd
       0.036455173 -0.0512759 -0.093153335 -0.11654758
000220 15 1e 07 be 80 80 20 3e b7 e3 02 3e af 00 71 bc
       -0.13195069 0.15674019 0.12782179 -0.014709636
000230 86 f6 a4 3d 37 02 c1 bc 2a cb b3 bd 7b 11 d6 bd
       0.08054833 -0.023560626 -0.08778985 -0.10452553
000240 d5 04 84 3d 2a df 42 3e 2d d3 19 bd b8 f8 47 3e
       0.06446234 0.19030443 -0.03755491 0.19528472
000250 19 28 a1 ba 1c 9e 16 3e bd 3a 21 be 3f 7a 20 3d
       -0.0012295275 0.14708751 -0.15745063 0.039179083
000260 07 4c b4 bc 41 34 b3 bd 81 3e f7 bc a6 73 3f be
       -0.022008909 -0.08750201 -0.030181171 -0.1869646
000270 63 d0 b4 bd 30 59 1c be 3a 35 30 be 6a f5 c6 bd
       -0.08828809 -0.15268397 -0.17207804 -0.09714778
000280 83 bc 1a 3d cd ec 8e 3d 4e cc be 3c fc 5b 39 bd
       0.037777435 0.0697876 0.02329078 -0.04525374
000290 f6 63 0a be 9a 63 b5 3c bf fa 4f 3d 2e 1a ec 3b
       -0.13514695 0.02214222 0.05077624 0.0072052693
0002a0 51 78 04 3d d6 34 8e 3d 84 36 87 3d be 55 fd bd
       0.032341305 0.069436714 0.06602195 -0.1236987
0002b0 2a 64 d4 3d 85 8b 28 3e a6 d6 b0 bc 26 b2 26 3e
       0.10370667 0.16459472 -0.021586727 0.16278896
0002c0 fe e5 37 3d 68 ac 4c be 99 c4 ca 3d 12 8f 1a bc
       0.044897072 -0.19987643 0.09900779 -0.009433525
0002d0 81 85 c1 3c 54 6b 77 bd f9 50 b2 3d 93 32 23 3d
       0.02362323 -0.06040509 0.087068506 0.039843153
0002e0 fc 12 4a 3e 9f b1 ac 3d bd 8d e5 bd 5c 24 28 3d
       0.19733804 0.08432316 -0.11208675 0.0410503
0002f0 d2 a7 47 3e 45 b0 e3 3d 90 ff 70 3d f4 c6 3b 3e
       0.19497612 0.11117605 0.058837473 0.18337613
000300 3e b7 2b be 22 37 03 be 6d ca 6d 3d 1f 25 22 3e
       -0.1676912 -0.12814 0.058054376 0.15834473
000310 e1 83 22 be 61 65 77 bc 85 f7 da bd 22 b5 b4 3d
       -0.1587062 -0.015099854 -0.10691742 0.08823611
000320 ef c2 1f 3e e7 7c 1c 3d aa d9 53 3e d0 95 18 be
       0.15601705 0.038205054 0.20688501 -0.14900899
000330 af 9c d3 3d 9c 10 99 bd a2 e3 c5 bb d2 95 07 be
       0.103326194 -0.07473871 -0.006039099 -0.13240746
000340 a5 07 2e 3d ed b3 e1 3d 2e e8 1e be bd 10 c8 bd
       0.04248776 0.11020646 -0.15518257 -0.097688176
000350 50 78 11 3d 55 6e 45 be dc b3 63 bd d8 77 3c 3a
       0.03551513 -0.1928037 -0.05559145 0.0007189489
000360 1b 9b b2 3d 65 92 e0 bd ea 6f 6e 3d d7 6c 11 bd
       0.0872099 -0.109654225 0.0582122 -0.03550419
000370 da f0 a8 bd 8c 67 cf 3d 6c 95 20 3e 7d c8 65 bd
       -0.08249064 0.10127172 0.15682 -0.056099404
000380 c3 ea 17 3e 1b 9f 2f bd cc e5 87 3d 8e 89 fb 3d
       0.14835648 -0.042876344 0.06635627 0.12282096
000390 53 e5 2b bd 17 28 86 bc be 2d 14 be 09 d7 04 3e
       -0.041966747 -0.016376538 -0.14470574 0.12972654
0003a0 e7 66 07 be fc 10 1d be 26 7c 9b 3d a0 61 76 bd
       -0.13222848 -0.1533851 0.07592039 -0.060151696
0003b0 1a 78 d1 bd 5d a3 39 be 4d be 19 3e ce 34 22 be
       -0.10227986 -0.18128724 0.15014 -0.15840456
0003c0 6a fe bc bc fe 92 00 3e dd 3d cb 3c e7 cd 8e 3d
       -0.023070533 0.12556073 0.024809772 0.069728665
0003d0 c2 06 4a be 68 c5 39 be b0 9a 26 bc 70 07 9a 3d
       -0.1972914 -0.18141711 -0.010168716 0.0752095
0003e0 fe ec c0 3d 83 fa 35 3e 5f 68 ee 3c de eb 99 bd
       0.09420203 0.17771344 0.029102502 -0.07515691
0003f0 5d fb 2b 3c 8a 3e 3d bd 61 da 12 be 16 eb 1c 3e
       0.010496941 -0.04620222 -0.14341117 0.15324053

conv2.bias f4 [50]
000000 7c 3e e2 3c 77 c0 e7 3c 43 97 c7 bc 59 e3 c7 bc
       0.027617685 0.028290017 -0.02436412 -0.0244004
000010 7c c9 36 3c 4a 5d 67 bc 4b a1 b4 3c fa 6f a8 bc
       0.011156436 -0.014121363 0.022049567 -0.020561207
000020 76 be d2 bc d1 6d d9 3c 5c 01 eb 3c dd 44 d7 ba
       -0.025725584 0.026541622 0.028687172 -0.0016423721
000030 d3 6e b5 3c 9f 05 9b 3c 93 cd f0 3c e5 4f f6 3c
       0.022147572 0.018923579 0.0293949 0.030067394
000040 39 ab af 3c f3 55 e3 bc e5 7a c8 bc 31 30 d8 bc
       0.02144395 -0.027750945 -0.024472663 -0.026390167
000050 fe a5 e3 bc 9a e2 e0 bc 71 21 fd 3c 74 e7 dd bc
       -0.027789112 -0.027451802 0.030899735 -0.027087905
000060 a6 db de 3c 63 55 e2 3c 73 de dc 3c 8c 37 f4 3c
       0.027204346 0.027628606 0.02696154 0.029811643
000070 dc cc e1 bc db a9 dc bc c5 ec 3b bc 52 f6 ea bc
       -0.027563505 -0.026936462 -0.0114700245 -0.028681908
000080 18 67 fc 3c 29 92 f6 3c dd 5b ea 3c e9 e3 ee 3c
       0.030810878 0.030098991 0.028608257 0.02916141
000090 1b 5e d9 bc cb a6 25 3c ff 65 cc bc c5 09 92 bc
       -0.02653413 0.010110567 -0.02495098 -0.017826924
0000a0 e5 8b e0 bc 80 05 db bc cf 8f de bc 2f 03 8e 3c
       -0.027410457 -0.026736021 -0.027168183 0.017335502
0000b0 0e ef e6 bc 56 7d da bc 1c 89 f1 3c 11 56 db 3c
       -0.028190162 -0.026671093 0.029484324 0.026774438
0000c0 db a8 bc bc a5 97 ce bc
       -0.023029735 -0.025218794

conv2.lin.weight f4 [50, 50]
000000 2a 71 24 3e 08 46 bd 3d 22 73 ac bd 86 c1 04 be
       0.16058794 0.09241873 -0.08420397 -0.12964448
000010 0c f0 43 3e 01 0c 38 be 0a cf d7 3d df ae 63 3e
       0.1913454 -0.17973329 0.105375364 0.22234677
000020 73 31 12 bd 3d f6 fd bd f5 02 29 be c4 36 0b 3d
       -0.03569169 -0.12400482 -0.16505034 0.033987775
000030 97 91 6a 3e 96 1a 2e 3e f9 53 68 3d 7c 0a c5 bc
       0.229071 0.17002329 0.056720708 -0.02405285
000040 20 7c 6a 3e a8 50 3f 3e 18 a7 24 3e 7a 2c 90 bd
       0.22898912 0.18683112 0.16079366 -0.07039733
000050 8e f8 1d 3e 18 31 17 be 60 58 a4 bd e8 d9 e1 bd
       0.15426847 -0.14764822 -0.08024669 -0.110278904
000060 e9 d3 08 3e 87 7b 51 3e 68 f3 fb bd 38 e1 24 bd
       0.13362087 0.20457278 -0.123022854 -0.040253848
000070 16 14 89 bd 67 6e 0e 3e 18 2c 59 be 32 d5 45 3e
       -0.06693284 0.13909303 -0.21208227 0.19319609
000080 ed 27 91 3d b2 49 4c 3e d1 0f a5 3d aa 8c 45 bd
       0.07087693 0.19949988 0.08059657 -0.04822985
000090 a6 60 52 bd 9b 1b 3b 3e 45 41 88 3e 18 c8 b1 bd
       -0.051361702 0.1827225 0.26612297 -0.08680743
0000a0 c8 e6 c4 3d a6 61 69 be bb 04 15 bd e8 c7 cf bc
       0.096143305 -0.22791156 -0.036381464 -0.025363877
0000b0 da 1f 31 be 4f be 35 3e 41 a2 e7 bc 71 f2 87 be
       -0.17297307 0.17748378 -0.02827561 -0.26552156
0000c0 38 39 05 3e 9a aa 5f 3e b9 33 73 be 65 35 52 3d
       0.13010108 0.21842423 -0.237502 0.051320452
0000d0 89 c7 36 3c ca c1 95 3b db 0d f4 3d c7 d6 4f 3e
       0.011155971 0.0045702206 0.11916705 0.20296775
0000e0 3a 05 28 be 8a ae 7d bd d7 3b 45 be 1d 15 0d 3e
       -0.16408244 -0.06193403 -0.19261108 0.13777585
0000f0 39 2e d9 bc 32 44 0a 3e 92 9c 32 3c f3 02 f4 bd
       -0.026511298 0.13502577 0.010901587 -0.11914625
000100 a4 be 21 be 27 aa 4a 3d b6 ec 13 3e a2 83 a6 bd
       -0.1579538 0.049478676 0.14445767 -0.08130576
000110 47 db 24 3e 42 7e 30 be e4 5e 58 3d 12 bd c0 3d
       0.16099273 -0.17235664 0.05282487 0.09411062
000120 1c 50 93 bd 5f 0c 30 bd 07 e7 ee 3c 00 fb 97 3d
       -0.07193014 -0.042980548 0.029162897 0.07420921
000130 b5 42 88 3e 2f b5 0e 3e 4b 12 39 be 1e 1c 6a bd
       0.26613393 0.13936304 -0.18073384 -0.05715572
000140 5c ac 16 be ee 1b ae 3d 6f 88 ce 3d 9b 8a 41 3e
       -0.14714187 0.08501421 0.100846164 0.1890053
000150 a7 40 9f bc 9f fa 40 3e 32 d8 5b 3d 83 1c ac 3d
       -0.019440008 0.18845604 0.053672977 0.08403876
000160 67 20 0f 3e 69 77 36 bd 46 6a 92 3d 13 ac 98 bd
       0.13977204 -0.044547472 0.07149176 -0.074546956
000170 5f 1d 5b bd 2f f0 f9 3c 32 81 cd 3d 82 27 41 bd
       -0.053494807 0.030510036 0.10034408 -0.04715682
000180 d4 30 87 3d dc 99 5f be 55 a3 e7 bd 3d a7 6a 3e
       0.0660111 -0.21836036 -0.1131045 0.22915359
000190 3d 07 56 be 11 b0 08 be c0 78 40 3e 9f ad 4a be
       -0.20901199 -0.13348414 0.18796062 -0.19792794
0001a0 1b d4 32 3e 64 c6 3a 3d d3 9f 0d be f4 76 4e 3e
       0.17463724 0.045599356 -0.138305 0.20162565
0001b0 94 69 a5 bd a7 e7 03 3d 30 69 b0 bd 16 ea 05 be
       -0.08076778 0.032203343 -0.08613813 -0.13077578
0001c0 b4 a5 12 3e 3d 23 ec 3d 87 f9 f5 3d 5a 67 d3 bd
       0.14321023 0.11530159 0.12010484 -0.10322447
0001d0 1a ea 23 bb 86 b3 b7 bc 02 85 8c 3d ad 02 66 3e
       -0.0025011362 -0.02242447 0.06861307 0.22461958
0001e0 cf b4 cd bd 1a cd cf 3c cd 55 41 3e de 75 41 3e
       -0.10044252 0.025366355 0.18880387 0.18892619
0001f0 4e 79 f7 3d e8 6c eb bd 95 a2 49 3e 16 80 67 bc
       0.12083684 -0.114953816 0.19690926 -0.014129659
000200 d3 b5 58 3e 2b eb a2 bd 65 1e 80 3d 78 e1 16 3d
       0.2116311 -0.07955011 0.06255797 0.036836118
000210 46 6a 0d 3e 5a bf 2a be 93 86 97 bd 4d 27 1c be
       0.13810071 -0.16674557 -0.07398715 -0.15249367
000220 2f 59 28 3e 45 25 25 3e f2 0b d5 bd 1e 08 9a bd
       0.16440271 0.16127498 -0.10402669 -0.075210795
000230 e4 ba 80 3d f9 ae 60 be 6f 6b 31 3e a0 63 a6 bc
       0.062856466 -0.21941747 0.17326139 -0.020311177
000240 e4 27 92 3d 44 cc 5d 3e 43 71 68 be 10 6e 35 be
       0.07136515 0.21659952 -0.22699456 -0.17717767
000250 a0 0a 89 bd 8d e4 09 be 56 22 e1 3d 09 ae a9 bd
       -0.0669148 -0.13466091 0.10992877 -0.08285148
000260 c5 3f 08 be d7 e8 97 3d 8b b6 00 bc cd 9d ce bd
       -0.13305576 0.074174576 -0.007856022 -0.10088692
000270 9e 28 9d 3d 90 40 64 3e 2d 64 b0 bd 14 49 76 bd
       0.07673763 0.22290254 -0.08612857 -0.060128286
000280 f5 8d ff bd 7a 19 09 be 06 70 03 be 29 2e 24 be
       -0.12478248 -0.13388625 -0.12835702 -0.16033234
000290 f7 e5 39 3d 41 8a 0e bd eb 2b 9f 3b c0 37 7c 3e
       0.045385327 -0.034799818 0.0048575304 0.24630642
0002a0 9f e4 81 3d fd 86 1e be 17 9e 98 bd ed cc 58 be
       0.06342434 -0.15481181 -0.07452028 -0.21171923
0002b0 3a 72 d1 3c be 3a 91 3d 2a 63 20 be cc 85 7e 3d
       0.025567163 0.07091282 -0.15662828 0.062139317
0002c0 9c 39 e7 3d 26 b0 20 3d 4b 3b 69 be ff c8 6b bd
       0.11290285 0.03923049 -0.22776525 -0.05756473
0002d0 b5 a2 51 be 4a 82 1d 3e 75 07 71 be ee 58 49 3c
       -0.20472224 0.15381733 -0.23538001 0.012289269
0002e0 b7 91 24 3e e5 31 b4 3d 51 e6 25 3e b3 90 29 3e
       0.16071211 0.08798579 0.1620114 0.16559105
0002f0 7c 86 01 bd b6 44 58 3e be fc a1 bd 4f 91 4c 3e
       -0.031622395 0.21119961 -0.07909535 0.19977306
000300 ed d8 15 be ac cd 04 3e 8f 7f b7 bd d5 25 16 bd
       -0.14633532 0.12969083 -0.08959877 -0.036657173
000310 54 19 ad bd 49 8b 78 bd 90 b0 39 be 53 7e 0c 3e
       -0.084520966 -0.060679708 -0.1813376 0.13720064
000320 f0 eb 81 bd 00 55 db bd d8 17 b3 bd d5 5b 37 be
       -0.0634383 -0.10709572 -0.08744782 -0.17906125
000330 1e a6 38 3e 13 dd 05 3e 4f 7d 8e 3d e1 fb 7d 3e
       0.18032119 0.13072614 0.069574945 0.24803115
000340 eb 82 c4 3d 55 f3 8c bd 51 ea 03 3d 68 7d 83 3d
       0.09595283 -0.068823494 0.032205883 0.06420404
000350 4e 3a ae 3d b3 ba fe bd 2e 85 88 3e 29 ff 15 be
       0.085072145 -0.12437954 0.26664108 -0.14648117
000360 3d 1b 0c be a0 d2 4e bd 2b ee 27 3d 03 ca 00 3e
       -0.13682266 -0.050493836 0.04099862 0.12577061
000370 7a 21 1d 3e 6e 4c 71 be ab e4 f0 3d c1 f5 9c 3d
       0.15344802 -0.23564312 0.11762365 0.07664061
000380 46 19 10 be 75 6d 3f 3e 90 89 f3 3d 02 32 0c be
       -0.14072141 0.18694098 0.11891472 -0.13690951
000390 be 73 78 3d 9c 22 05 bd 58 3a df bd 18 e7 f8 3d
       0.060657255 -0.03250371 -0.108998 0.12153453
0003a0 57 d3 ae 3d 00 28 1a be 98 cb 52 be db b0 3e be
       0.085364036 -0.15054321 -0.20585477 -0.18622153
0003b0 df bf a0 3d b8 77 ed 3c 9f ab 8c bd 31 0b 2c 3e
       0.078490965 0.02898775 -0.068686716 0.16801144
0003c0 1e 53 ab 3c d0 c5 6d be d3 ed 07 3e f6 03 90 3d
       0.020913657 -0.2321999 0.13274316 0.070320055
0003d0 06 b4 5b bd 2c 81 04 3e ee 60 35 3e 8f 79 44 be
       -0.05363848 0.129399 0.17712757 -0.19186996
0003e0 bf b4 33 be 0e 7d d1 bd 89 92 27 3e 21 ce 64 be
       -0.17549418 -0.102289304 0.16364492 -0.22344257
0003f0 70 8f 38 3e af a1 53 be 25 45 2c be ac 02 13 be
       0.18023467 -0.20667146 -0.16823252 -0.14356488

pool1.weight f4 [1, 50]
000000 67 0b 35 bd 91 ef 24 3e a5 50 64 bd dc cf 01 be
       -0.044200327 0.16107012 -0.05574097 -0.12676948
000010 7f 3a cd bc 01 86 e4 3d f9 fc cd bd 6f d5 0e 3d
       -0.025052307 0.11158372 -0.10058016 0.034871515
000020 2e ba 87 3d 82 92 80 bd 1a ce 0c 3d a4 af df 3d
       0.06627308 -0.06277944 0.03437624 0.10922173
000030 6f ec 48 bd ba 3f df bb 33 87 fc 3d b7 81 d6 bd
       -0.049053606 -0.0068130167 0.12330475 -0.1047396
000040 fc 7f c4 bd 6a 49 f5 bd 2c 3b 05 3e 26 ce 31 bd
       -0.095947236 -0.11976893 0.13010854 -0.04340949
000050 99 c9 8c bd e4 a8 e7 3d 61 ae f9 bc c3 57 24 3d
       -0.06874389 0.1131151 -0.030478658 0.04012276
000060 a8 a9 c3 bd f4 32 07 bd d8 89 07 3e c8 a3 d5 bd
       -0.09553844 -0.033007577 0.13236177 -0.104316294
000070 79 81 85 bc f7 33 d8 bd 15 b1 92 3d c7 75 96 bc
       -0.016297089 -0.105567865 0.07162682 -0.018366707
000080 bb 78 c8 3b 27 a2 83 3b ea 96 bd 3d 07 0e 7a 3c
       0.006117908 0.004017133 0.092573 0.015262133
000090 a2 2c 9c bd 47 9a cf 3d 9a f5 85 bd 94 e7 e7 3d
       -0.076257005 0.10136848 -0.065409854 0.11323467
0000a0 c9 09 4e bd 7e f9 97 bd 55 22 8a 3d 41 1a 06 bd
       -0.0503023 -0.07420634 0.067448296 -0.03273988
0000b0 13 64 be 3b 6c 4d 87 3d 86 85 8d bc 5e a9 a2 bd
       0.0058102696 0.06606564 -0.017275583 -0.079424605
0000c0 f7 88 13 3e f4 de 74 38
       0.14407717 5.8381775e-05

pool2.weight f4 [1, 50]
000000 6c 23 25 3d c4 50 65 3d 61 fb d3 bd 86 83 a1 3a
       0.040316984 0.055985227 -0.10350681 0.0012322522
000010 38 d3 90 3d b6 60 2e 3d 08 71 e2 3d 03 e6 a8 bd
       0.07071537 0.0425727 0.11056715 -0.08246996
000020 b4 b8 d6 bd ad 7b 62 3d 0f 89 de 3d 14 87 db bc
       -0.10484448 0.055293728 0.108659856 -0.026797809
000030 77 dd b1 3c df 28 10 bd a9 40 8c 3d b4 69 88 bc
       0.021712048 -0.035195228 0.068482704 -0.016651966
000040 8e 87 63 3d 9a fb 6a bd e1 c0 95 bd ab ba ae bd
       0.055549197 -0.057368852 -0.07312179 -0.08531698
000050 0c 7a 1c be 5b 85 23 be d3 fc 3b 3b 4f bf 84 bd
       -0.15280932 -0.1596884 0.002868463 -0.06481802
000060 d4 17 e6 3c 77 6e 03 3e 53 71 a7 3a 30 be 83 bc
       0.028087534 0.12835108 0.0012774862 -0.0160819
000070 3c 1e d2 bd 50 82 f5 bd 45 18 ad bd f6 8e 0d bd
       -0.10259673 -0.11987746 -0.08451895 -0.034560166
000080 20 d6 81 bc 84 14 6b 3c f0 47 f7 3d 82 f8 60 3d
       -0.015849173 0.014348153 0.12074268 0.054924496
000090 27 c2 f5 bd 4d 8d 39 bd f7 f7 e0 bd c8 70 ce bd
       -0.11999922 -0.04530077 -0.109847955 -0.10080105
0000a0 27 e5 ee bc 1d 93 be bd ea 7d 23 be 86 02 62 3d
       -0.029162003 -0.093054034 -0.15966001 0.055178188
0000b0 6f 54 aa bd 92 eb f4 bc 9a 73 f8 3c 62 c3 50 3d
       -0.08316886 -0.029897485 0.03032856 0.05096758
0000c0 01 00 21 bd 4a f9 ca bd
       -0.039306644 -0.09910829

fc4.weight f4 [3, 200]
000000 5a 64 56 3b 49 a1 f4 b6 fd c9 6e bd 83 23 aa bd
       0.0032713623 -7.2905427e-06 -0.0582981 -0.083075546
000010 1a 84 83 3c 83 2c 94 bc cc cc 4e bd 2f da f2 bb
       0.016054202 -0.018087631 -0.05048828 -0.0074112634
000020 37 33 21 bd 5b 8b 6f bd dd a7 e7 bc 64 de 38 bd
       -0.039355483 -0.05848251 -0.028278286 -0.045133963
000030 66 3b 4b 3d 66 d1 4c 3c 44 dc e1 bb 3e d7 a9 bd
       0.049617194 0.012501096 -0.006892713 -0.08293007
000040 26 e5 85 3c b3 22 03 3c b5 4d d0 3b f6 af 6a bd
       0.016344618 0.008003878 0.0063569196 -0.057296716
000050 5b b8 41 3d 44 3d 4f 3d c8 80 7d 3d c4 1b 95 bc
       0.047294956 0.050595537 0.061890393 -0.018201716
000060 c0 c2 32 bd 5e b3 8d bd e5 09 a1 bd 0e 2d 63 bd
       -0.04364276 -0.06918977 -0.07863215 -0.05546289
000070 ad 90 c5 bc 98 3d 9f 3c 20 5c 63 bd 63 4c 2d bd
       -0.024116838 0.01943855 -0.05550778 -0.042309176
000080 02 4e f6 bb 49 9a 87 bd 1c 37 88 3a 5b 9e a3 bd
       -0.0075166235 -0.066212244 0.00103924 -0.07989188
000090 b2 cf a9 bc 72 82 48 bc 3b d5 6c 3d 2a 8b 8f bd
       -0.02072892 -0.012238132 0.05782054 -0.07008965
0000a0 01 ca 58 bd 8b 53 76 bd a9 0a 8e bc ce 50 70 bd
       -0.05292702 -0.060138267 -0.017339068 -0.05867081
0000b0 5a a8 a4 bd 49 e2 15 3c f7 ee ec 3c 93 2d 84 3c
       -0.08039923 0.009148189 0.028922541 0.016135013
0000c0 5e 22 1e bd 50 2b 5a bd a4 55 8d 3c 33 97 33 3d
       -0.038606994 -0.053263962 0.01725275 0.043845367
0000d0 c4 46 e5 bc f8 cf 5d 3d 3d ae 61 bd 5b 89 27 3d
       -0.027987845 0.054153413 -0.055097807 0.040902477
0000e0 7d 1a b2 3d e4 ce 93 3c 0c 20 04 3d 84 b9 0b 3d
       0.086964585 0.01804299 0.032257125 0.03411247
0000f0 ec 65 84 bd e1 1e df 3c 59 e1 95 3d 38 e1 b3 3d
       -0.064647526 0.027236404 0.07318372 0.087831914
000100 f4 38 09 3d cc b9 59 3d 49 84 c8 ba 79 a3 05 bd
       0.03350158 0.053155705 -0.0015298213 -0.032626603
000110 9a 99 12 bd 5f 59 a8 bd 44 58 29 3d a7 90 b0 bd
       -0.035791017 -0.08220171 0.041343942 -0.0862134
000120 10 2a 69 3d 90 84 05 3c ed b3 94 bd b2 4e 78 bd
       0.05692488 0.008149281 -0.072608806 -0.060621925
000130 8b 6f 16 bd 9c 7e 86 3d a1 9d 8e bd 7d 3d a2 3d
       -0.03672747 0.065671176 -0.06963659 0.07921884
000140 8e 44 17 3d 3a 72 e4 bc 78 30 44 3d 8e 18 7d bd
       0.036930613 -0.027886499 0.047897786 -0.061790995
000150 93 18 6d bc 17 1b b7 3c 22 fb c4 3c 56 22 2e bd
       -0.014471191 0.022351785 0.02404553 -0.042513214
000160 2c c7 ab bc 87 3b 4a bd ee 65 4e 3c 4f 66 b4 bc
       -0.020968996 -0.049373176 0.012597544 -0.02202144
000170 11 bf 91 3c ed 46 f5 3b e5 1f 64 bc 62 81 1f bc
       0.017791303 0.0074852617 -0.01392362 -0.009735437
000180 ab d3 aa 3d 74 18 25 bc 9e dc 08 3d a9 63 f0 3c
       0.08341154 -0.010076631 0.033413522 0.029344397
000190 90 4c bf bc 98 94 35 3c c6 b5 77 bd 50 9b 21 3d
       -0.023351938 0.011082791 -0.060476087 0.03945476
0001a0 7d 80 08 3d 00 7d c7 3b e6 55 fd 3c 4f 50 d2 bc
       0.03332566 0.006087899 0.030924749 -0.02567306
0001b0 49 51 aa bd 60 9c 0b bd 9f 5c ab bd 6c 4e 5f 3c
       -0.08316285 -0.034084678 -0.083672754 0.013629537
0001c0 c8 e2 9f 3c fb a8 3f bc 1b c2 a9 bc fc 66 92 bc
       0.019517317 -0.011698003 -0.02072244 -0.017871372
0001d0 b4 ed 82 bd 4b 47 19 bd 28 23 91 3c a3 49 4f bc
       -0.063929945 -0.037421506 0.01771696 -0.012651834
0001e0 e4 a0 63 bc e6 e1 49 3d 40 d9 c3 bd 16 83 21 3b
       -0.01389334 0.0492877 -0.095629215 0.0024644784
0001f0 ce 08 87 3c b8 c2 d0 3b 35 1b 92 bc ab fc 8f bc
       0.01648369 0.0063708685 -0.017835239 -0.017576536
000200 75 0d 02 bd b7 6a 7d 3c 01 0a 07 3c e7 43 d7 3c
       -0.031751115 0.015467337 0.008242131 0.026277496
000210 7c 2c c0 bd 97 20 27 bd 44 94 66 bd 91 32 c4 bc
       -0.09383485 -0.040802564 -0.05629374 -0.023949893
000220 75 c4 f1 bc f0 d7 09 3d b0 05 af bd ce 14 4e 3c
       -0.029512623 0.0336532 -0.08546007 0.012578202
000230 f4 0e a8 3c 6f de e0 3c 57 44 a1 bd ab 81 c1 bc
       0.020514943 0.027449815 -0.07874363 -0.0236214
000240 00 37 96 bd a7 38 26 bd 22 10 35 bd a5 8b f7 3b
       -0.07334709 -0.04058137 -0.04420484 0.0075544887
000250 8d 16 e5 bb a6 df 99 bd fb 05 8d 3d 67 ed 5b bd
       -0.0069912137 -0.07513361 0.06885906 -0.0536932
000260 7a a5 2d bc ac a8 22 3c e6 11 a7 3c 72 4a 2c 3d
       -0.010598535 0.00992791 0.020394277 0.042063184
000270 6c 9b b0 bd 7c 84 3b 3d 76 08 38 3d 88 ad 37 3c
       -0.08623394 0.045780644 0.044929944 0.011210807
000280 d5 7d 26 bd 83 63 71 bc 5a 01 33 3d c6 ed 38 bd
       -0.040647347 -0.014733198 0.04370246 -0.045148633
000290 43 4a 8e bd af bd 10 bd 56 68 2d bd 85 e0 09 3d
       -0.06947758 -0.035337146 -0.04233583 0.033661384
0002a0 04 d2 70 3b fd 98 43 bd 3c 35 18 bb 19 64 b9 bc
       0.0036746273 -0.047753323 -0.002322509 -0.022630738
0002b0 9c c9 41 bd 1c 9d 80 3d 6a 2c 93 3d d5 7f 8b 3c
       -0.04731141 0.06279966 0.07186206 0.017028729
0002c0 21 27 fb bc c0 a1 2b bd 7f 45 8f 3d f9 71 92 3d
       -0.030658307 -0.041902304 0.06995677 0.07150645
0002d0 b0 56 4c bc 3b 72 f8 3b f6 6f bc bd 06 c1 34 bd
       -0.01247184 0.0075819767 -0.09201042 -0.044129394
0002e0 09 1f d1 bc bb 9c 64 3c a1 62 b5 bc 13 c8 f8 3c
       -0.025527494 0.013953383 -0.022141756 0.03036884
0002f0 97 aa a5 3d d5 62 0f bd a3 bc ad 3d 8a c4 87 3b
       0.08089178 -0.035006363 0.08483245 0.0041433023
000300 60 fb d6 3c f0 2f 85 bd dc 3d 02 3d f1 6a 05 bd
       0.026242912 -0.06503284 0.031797275 -0.03257269
000310 15 94 80 bd f7 0a 33 bd 89 c3 9a 3d 02 38 9f 3d
       -0.062782444 -0.04371163 0.075568266 0.077743545
000320 7e cd eb 3c f4 41 4d 3d 20 6a 63 3d 8d 94 4c bd
       0.02878451 0.050111726 0.05552113 -0.049946357
000330 af 39 8e 3d 76 84 2c 3d c9 0b 03 bd 58 d1 89 3d
       0.06944596 0.042118512 -0.03199366 0.06729382
000340 eb 5c 3c 3d 03 f9 88 3d 5f 9e 5b 3d 5f bc 1d 3d
       0.04598705 0.0668812 0.05361783 0.038509723
000350 47 ba 80 3d 0d ab 82 ba 77 a5 61 3d 17 47 a5 3d
       0.062855296 -0.000996919 0.05508944 0.080702
000360 2a d0 ab 3c 72 36 b2 3d 7b a9 d9 3c af ac 60 3d
       0.020973284 0.08701791 0.026570072 0.054852184
000370 3c c5 31 bc d9 49 b2 3d 41 fe 65 bd 07 42 ba 3d
       -0.010850247 0.087054916 -0.05615068 0.09094625
000380 1a 92 76 3d b2 c0 a5 3d 54 41 b3 3b d3 fc 2a bd
       0.060197927 0.08093394 0.005470434 -0.04174502
000390 11 eb 0b bd 73 35 39 bd c7 22 76 3b f2 8d 8d 3c
       -0.034159724 -0.04521699 0.003755735 0.017279599
0003a0 0f 1f e8 bc df af f5 3c 6a 57 14 3d e6 b6 f6 bc
       -0.028335122 0.029991088 0.036216177 -0.03011651
0003b0 b5 50 d5 3c f2 f6 88 bc cf 9a 2b bc 95 91 c8 3c
       0.02603946 -0.016719315 -0.010473921 0.024483481
0003c0 3e a6 94 b9 25 0c 3d bc 2a 92 34 3c 73 b7 47 3d
       -0.0002835262 -0.01153854 0.011021176 0.048758935
0003d0 7e ac 85 3d 67 dd 4e bd 9b f5 69 3d 54 44 1c bd
       0.06527041 -0.050504114 0.057118993 -0.0381511
0003e0 c7 93 5b 3d a2 0e 79 3d 39 ed 81 3d f3 c0 59 3b
       0.05360773 0.06080497 0.06344075 0.003322658
0003f0 88 d0 98 bd b2 fc 2c bd 33 3e e4 bb dc aa 85 bb
       -0.07461649 -0.042233177 -0.0069654225 -0.004079206

fc4.bias f4 [3]
000000 36 2d ae bd ce 93 43 3d 39 a6 a6 bd
       -0.08504717 0.04774838 -0.08137173
