experiments/experiment_2/best_model_4_2.pt (torch, 39119 bytes, 8 tensors)

conv1.bias f4 [50]
-0.003917314 0.029186277 0.017218389 -0.027167492 -0.018981436 0.022297414 0.029054793 -0.023651268
-0.017532172 -0.019962804 0.010624222 0.020547925 -0.016927619 -0.02018745 0.021240065 -0.026316859
-0.02487758 0.030600974 -0.028835017 0.027897406 -0.008488728 -0.026089935 -0.027792735 0.029739903
-0.022765597 -0.024976848 0.009406456 -0.022338763 0.024586843 0.028104782 -0.029622793 0.028537752
0.028390393 0.028477343 0.014684918 0.0311617 -0.01599269 0.03318295 -0.024070973 -0.0015929047
0.02009044 -0.0066242544 0.021609752 -0.028638212 0.0092430245 -0.024452128 -0.03105588 -0.022667056
-0.028309457 0.02921695
00000000: d05c 80bb 0f18 ef3c 940d 8d3c 5c8e debc
00000010: f57e 9bbc 11a9 b63c 5104 ee3c 4ec0 c1bc
00000020: a19f 8fbc 0989 a3bc 3811 2e3c 1f54 a83c
00000030: caab 8abc 2760 a5bc a5ff ad3c 7496 d7bc
00000040: 11cc cbbc e5ae fa3c 6a37 ecbc 1a89 e43c
00000050: 4e14 0bbc 8fba d5bc 97ad e3bc 19a1 f33c
00000060: eb7e babc 3f9c ccbc 891d 1a3c c8ff b6bc
00000070: 596a c93c 003c e63c 80ab f2bc 01c8 e93c
00000080: f892 e83c 5149 e93c 0399 703c d246 ff3c
00000090: 1a03 83bc d8ea 073d 7d30 c5bc 03c9 d0ba
000000a0: b594 a43c 4610 d9bb ef06 b13c af9a eabc
000000b0: 0e70 173c d44f c8bc e768 febc 43b0 b9bc
000000c0: 3ce9 e7bc 6358 ef3c

conv1.lin.weight f4 [50, 116]
-0.048120324 -0.0017199428 0.028445289 0.16804297 -0.09849232 0.1397549 -0.033489134 -0.07363262
0.04369925 0.1819356 -0.05394018 0.18692458 0.062054228 0.08441499 0.16207008 -0.06265684
0.1599736 0.15600805 -0.17453754 -0.08604741 -0.0046600434 0.086599454 -0.09060702 -0.14733636
0.135556 0.08047782 -0.0031488112 -0.07174313 -0.1499761 0.019638974 0.17504583 -0.1714337
0.048338514 0.0069649895 -0.045582358 0.11283407 0.13335994 -0.008214992 0.2028289 0.13776936
-0.1537056 -0.1559854 -0.10177306 -0.020775503 0.1174958 0.07881356 -0.17745817 0.03791667
-0.09110782 0.08846343 -0.12706846 0.19280899 0.12684077 -0.08870412 -0.060505588 0.09062724
-0.094048016 -0.13147275 0.15812343 0.031297874 -0.076206714 -0.05425072 -0.13606045 0.09095345
0.04357156 0.0021646435 -0.18521963 0.018434694 0.07356631 -0.043882877 0.16325733 0.11455859
0.11026586 0.11426788 0.18699348 -0.038272392 -0.10288013 0.105692774 0.022301495 0.126729
0.16814733 -0.15296595 0.17378855 0.17495765 0.17345084 -0.1649871 0.125622 0.055047423
0.028901739 -0.15954189 0.09274976 0.007566407 0.0989963 -0.059219312 -0.17369036 -0.1776892
-0.16626695 -0.08174224 0.099796325 -0.0722411 0.02581011 0.04010686 0.13381611 0.16335532
0.071358435 0.121211104 -0.1348312 -0.118604414 -0.014571877 -0.11976723 -0.041910134 0.09552098
0.062211145 0.0706043 -0.16582754 0.17668092 0.11684783 -0.030875625 0.098518424 0.122069746
-0.13639991 0.19173783 0.17249648 -0.15663147 0.012458803 -0.08968278 -0.020960849 -0.08334546
0.03476127 0.20288886 0.17618188 0.041322228 -0.103003144 -0.112653255 -0.16887939 -0.04382191
0.14439608 0.022541443 0.16356659 -0.17384559 -0.18445693 0.010833805 0.07223597 -0.0651687
0.16253416 -0.039070357 0.07866592 -0.18445082 -0.13619944 -0.13107657 0.13507767 -0.14328168
0.04800203 0.19810453 -0.16622569 -0.1484974 0.048855577 0.04389946 -0.0066649048 0.12747738
0.13328117 -0.16578083 -0.08421959 0.1027764 -0.05244002 0.025741575 0.15482308 0.12887031
0.013263988 0.063436784 -0.06247434 0.06455943 -0.12772349 -0.13359901 0.08176479 -0.1389849
-0.14763784 0.0444014 -0.0837279 0.08936719 0.0027789013 -0.023908725 -0.1523542 0.0194947
0.1942171 -0.13878246 0.16813833 -0.04164403 0.08197377 -0.0014880962 -0.08335349 -0.08389966
0.11298117 -0.17961176 -0.11949026 -0.030428307 0.17792898 -0.09032046 0.16303122 -0.17346975
-0.10545966 -0.124455474 0.1876625 0.06589467 -0.15610993 0.19326258 0.05293508 -0.16247785
-0.01861435 0.05380695 0.024696035 -0.13026467 0.14489634 -0.1518096 -0.15561718 -0.089295596
0.21971202 0.10907311 0.18871683 -0.0050672553 0.041718114 0.16920903 -0.05045746 0.1850859
0.082714535 0.05916598 -0.10588667 -0.0064992863 -0.11252729 -0.098249204 -0.13182648 -0.19911383
0.15137182 0.14072916 -0.15140125 -0.089601845 -0.05038444 0.03731832 -0.09580336 0.04248248
-0.10209511 -0.08340148 0.14526598 0.19163415 -0.20669515 -0.057563208 -0.015694723 -0.062067017
0.016983699 0.074202836 0.13799457 -0.096080825 0.050209496 -0.00644998 0.0010233987 -0.1260445
00000000: d119 45bd b46f e1ba 1806 e93c 7513 2c3e
00000010: 57b6 c9bd e91b 0f3e e72b 09bd b3cc 96bd
00000020: fcfd 323d 534d 3a3e 61f0 5cbd 2869 3f3e
00000030: 932c 7e3d c4e1 ac3d b3f5 253e 3b52 80bd
00000040: 1fd0 233e 93c0 1f3e f8b9 32be a039 b0bd
00000050: 47b3 98bb 0e5b b13d 2c90 b9bd 58df 16be
00000060: 31cf 0a3e 8ed1 a43d 495c 4ebb 10ee 92bd
00000070: 5693 19be eae1 a03c 373f 333e 518c 2fbe
00000080: 9bfe 453d 913a e43b 91b4 3abd 8d15 e73d
00000090: 828f 083e 2c98 06bc 61b2 4f3e 6913 0d3e
000000a0: 0065 1dbe a3ba 1fbe 656e d0bd 6331 aabc
000000b0: a3a1 f03d 0169 a13d 98b7 35be 834e 1b3d
000000c0: bd96 babd 512c b53d 3c1e 02be b86f 453e
000000d0: 8ce2 013e 81aa b5bd b5d4 77bd c69a b93d
000000e0: 3f9c c0bd cba0 06be 1ceb 213e 3332 003d
000000f0: 4412 9cbd 0136 5ebd 6e53 0bbe cd45 ba3d
00000100: 1878 323d b1dc 0d3b 37aa 3dbe 5b04 973c
00000110: efa9 963d 88be 33bd ee2c 273e b29d ea3d
00000120: 11d3 e13d 4705 ea3d 387b 3f3e 83c3 1cbd
00000130: d1b2 d2bd 7475 d83d a0b1 b63c 3fc5 013e
00000140: d02e 2c3e 1ba3 1cbe a0f5 313e 1928 333e
00000150: 199d 313e 61f2 28be 0ea3 003e 6879 613d
00000160: 57c3 ec3c f35e 23be 96f3 bd3d 9fef f73b
00000170: 92be ca3d f38f 72bd e3db 31be 28f4 35be
00000180: e241 2abe 7a68 a7bd 0462 cc3d 24f3 93bd
00000190: b96f d33c 1747 243d 1707 093e 9e46 273e
000001a0: 5f24 923d 873d f83d 3111 0abe dfe6 f2bd
000001b0: e2be 6ebc 8548 f5bd f6a9 2bbd 81a0 c33d
000001c0: 1dd1 7e3d fd98 903d b2ce 29be d8eb 343e
000001d0: ea4d ef3d e1ee fcbc 07c4 c93d b4ff f93d
000001e0: 6bac 0bbe ec56 443e eba2 303e 0064 20be
000001f0: 0220 4c3c 9bab b7bd 16b6 abbc 06b1 aabd
00000200: d561 0e3d 19c2 4f3e 0669 343e 7f41 293d
00000210: 50f3 d2bd c0b6 e6bd b8ee 2cbe 9a7e 33bd
00000220: 91dc 133e d5a8 b83c 007e 273e 9404 32be
00000230: 47e2 3cbe 4680 313c 74f0 933d 2b77 85bd
00000240: 5b6f 263e 3d08 20bd 991b a13d ade0 3cbe
00000250: de77 0bbe f038 06be cd51 0a3e 6fb8 12be
00000260: c79d 443d eadb 4a3e 1137 2abe b40f 18be
00000270: c91c 483d eccf 333d 4665 dabb 6e89 023e
00000280: dc7a 083e 73c2 29be 527b acbd 6f7c d23d
00000290: 59cb 56bd ffdf d23c f189 1e3e 94f6 033e
000002a0: 3351 593c 25eb 813d 18e5 7fbd bc37 843d
000002b0: f2c9 02be 2ece 08be 4c74 a73d 0f52 0ebe
000002c0: 602e 17be 3ede 353d 8979 abbd 2506 b73d
000002d0: 3a1e 363b 3bdc c3bc bd02 1cbe 59b3 9f3c
000002e0: d9e0 463e fd1c 0ebe 742c 2c3e ee92 2abd
000002f0: dde1 a73d 390c c3ba 3cb5 aabd 96d3 abbd
00000300: ac62 e73d 25ec 37be 4fb7 f4bd c944 f9bc
00000310: 0433 363e eff9 b8bd a8f1 263e 0ea2 31be
00000320: 3cfb d7bd 83e2 febd 992a 403e c9f3 863d
00000330: 48db 1fbe a0e6 453e 74d2 583d 9860 26be
00000340: 1f7d 98bc ad64 5c3d 574f ca3c 1a64 05be
00000350: b55f 143e fa73 1bbe 1c5a 1fbe 9ce0 b6bd
00000360: 30fc 603e b961 df3d fc3e 413e 380b a6bb
00000370: 9de0 2a3d 2245 2d3e 7bac 4ebd 2887 3d3e
00000380: 3d66 a93d 0758 723d 1cdb d8bd f7f7 d4bb
00000390: b574 e6bd e136 c9bd 85fd 06be 7fe4 4bbe
000003a0: 3701 1b3e 4e1b 103e ee08 1bbe 2c81 b7bd
000003b0: ea5f 4ebd 18db 183d 8d34 c4bd 1c02 2e3d
000003c0: 3e17 d1bd 65ce aabd 9bc0 143e be3b 443e
000003d0: e5a7 53be 66c7 6bbd 3892 80bc fc39 7ebd
000003e0: 6621 8b3c a8f7 973d 734e 0d3e 06c6 c4bd
000003f0: 79a8 4d3d 5b5a d3bb 9023 863a cf11 01be

conv2.bias f4 [50]
-0.030327726 0.03263893 -0.0204584 0.028514393 0.031544056 -0.008731369 0.025334677 0.021991272
-0.02907513 0.030145984 0.02942823 0.030312017 0.018424312 0.033200875 -0.027020665 -0.012024483
-0.027799532 -0.02948685 0.033214267 -0.028669873 0.030488051 0.015376333 0.033098653 -0.004057822
0.029341772 0.031474076 0.01912055 0.024513088 -0.029260013 -0.029381525 -0.01846446 -0.02381062
-0.014445128 0.027145185 0.029497141 -0.019530518 0.033203848 -0.028056184 0.028284922 -0.02736551
-0.022897933 0.030865766 0.030517027 0.031508125 0.0204925 -0.028989306 -0.028138697 0.032378085
0.03156075 0.031007798
00000000: da71 f8bc 66b0 053d 6098 a7bc 0497 e93c
00000010: 5734 013d 040e 0fbc ab8a cf3c 0a27 b43c
00000020: f82e eebc b6f4 f63c 7913 f13c e850 f83c
00000030: 95ee 963c a4fd 073d 715a ddbc 5602 45bc
00000040: d8bb e3bc 688e f1bc af0b 083d 15dd eabc
00000050: 14c2 f93c 04ed 7b3c 7492 073d 7af7 84bb
00000060: 285e f03c f6ea 003d b3a2 9c3c accf c83c
00000070: b2b2 efbc 86b1 f0bc c742 97bc 7d0e c3bc
00000080: 42ab 6cbc 945f de3c fda3 f13c 77fe 9fbc
00000090: c200 083d 15d6 e5bc c8b5 e73c a22d e0bc
000000a0: 7294 bbbc 34da fc3c d8fe f93c aa0e 013d
000000b0: e3df a73c fb7a edbc 2083 e6bc e29e 043d
000000c0: d845 013d 1104 fe3c

conv2.lin.weight f4 [50, 50]
-0.22659306 0.030814786 -0.022974191 -0.17031373 0.20761305 0.10184743 -0.16494678 0.15273766
-0.21646412 -0.055801187 -0.16617341 0.18194646 0.21471427 0.039707705 0.08727943 -0.12042513
0.120506376 -0.15376487 -0.1329573 -0.13335657 0.19448644 0.04386179 0.03747958 0.2160491
-0.19361626 0.047844466 -0.2671568 -0.097880065 -0.21548821 -0.18707539 0.18805632 -0.11089868
-0.08484143 -0.15134461 0.0017702988 -0.017099509 0.079343006 -0.21210508 -0.16233905 -0.14011373
0.016842062 -0.106379315 -0.2085804 -0.025465569 0.17640617 0.07573146 0.04253531 0.20560907
0.206414 -0.02675169 -0.15457259 0.23237142 0.076388046 -0.17970482 0.034707304 0.26218435
0.11056365 -0.1488547 0.02450198 -0.04842768 0.09324344 0.24925837 -0.16475753 -0.0025761472
-0.026882192 0.05278666 -0.07899464 0.23342745 0.019362839 0.16581592 0.25341734 -0.1462401
0.15023807 0.06657396 -0.24727023 0.034308 0.053715978 -0.06792549 0.033575032 -0.14479747
-0.16102876 0.07595573 -0.0028419432 -0.020956017 0.007936862 0.05376534 0.19827497 0.16980025
-0.20986876 -0.113447204 0.078854285 -0.05650954 0.12281855 0.037706587 0.007871248 0.09042625
-0.12646678 0.16949889 0.002293927 -0.032223295 -0.15069972 -0.1638462 0.22902307 -0.115136795
-0.0851002 -0.19879694 -0.004296522 0.16560476 -0.14303622 0.17695816 -0.0037751005 -0.071536824
0.20748161 -0.22981983 0.007916283 -0.23805189 -0.14874944 0.1046957 0.021130797 0.052117445
0.1943423 -0.15738574 -0.11502665 0.043275733 0.016505538 0.0056759273 0.00049678015 0.20586734
-0.22903007 -0.27015653 -0.17961513 -0.14523992 0.08788223 0.15662083 -0.022178158 0.19450381
-0.23658696 0.11692887 0.22906299 -0.024472235 0.10005792 0.24775854 -0.16200452 0.07469038
0.16821942 0.18808933 -0.110465035 -0.2088085 0.07585035 -0.15127772 -0.24334826 -0.22018515
0.09922379 0.2048239 -0.25992045 -0.080386266 0.24005064 0.07295046 -0.13226078 0.22806618
0.21562237 -0.0874239 0.15861858 -0.21634866 -0.10150196 0.09693294 -0.14859138 0.044463664
0.22091527 0.029934179 0.20848112 -0.015406859 -0.21052662 0.02670452 -0.11417638 -0.24418856
-0.12339562 -0.22738455 -0.0104451 -0.030325526 -0.081819266 -0.21462002 -0.07170428 0.11763498
0.089414105 -0.08918203 0.15142508 -0.06484782 -0.2124928 -0.06832471 0.22411253 0.0448877
0.17476931 0.19156931 -0.21367204 0.029249469 0.17094819 0.14196984 0.12646824 -0.13546622
0.04464898 -0.2324145 -0.00579225 0.13233435 -0.18006772 -0.20453215 -0.18303676 -0.060511224
0.12863784 -0.13629411 0.21311527 0.16838317 -0.17251448 -0.14975108 -0.04188705 0.110649005
-0.049047153 -0.07717773 0.0026076892 0.21410564 -0.19446078 -0.00894651 -0.17465295 0.0112596145
0.0080223875 -0.15558957 -0.10669662 -0.23505783 -0.19374605 0.19789529 -0.00022249897 0.050581362
-0.11450447 0.2357586 -0.06042441 -0.078566305 -0.115727454 0.23807532 -0.06679232 0.16538312
0.16950047 -0.0032478475 -0.016230473 -0.24898183 -0.14428127 0.20658524 0.076749735 0.20921533
0.118467905 -0.12956095 0.021076635 0.17170094 -0.035452127 0.15696426 -0.19472975 -0.23990731
00000000: 0308 68be 4a6f fc3c 5f34 bcbc b966 2ebe
00000010: 8498 543e 6395 d03d cfe7 28be 4367 1c3e
00000020: c5a8 5dbe c98f 64bd 5d29 2abe 2c50 3a3e
00000030: 0fde 5b3e 8ca4 223d 8fbf b23d 73a1 f6bd
00000040: 0ccc f63d 8a74 1dbe f525 08be a08e 08be
00000050: 7427 473e 6ca8 333d 3084 193d fa3b 5d3e
00000060: 5743 46be 8ff8 433d c7c8 88be 5875 c8bd
00000070: f1a8 5cbe b190 3fbe d691 403e d91e e3bd
00000080: 58c1 adbd 15fa 1abe 5f09 e83a 4514 8cbc
00000090: 967e a23d 1332 59be 353c 26be f979 0fbe
000000a0: 5df8 893c 66dd d9bd 1a96 55be 2b9d d0bc
000000b0: d2a3 343e 1819 9b3d 8139 2e3d 2f8b 523e
000000c0: 315e 533e 5c26 dbbc 4748 1ebe c6f2 6d3e
000000d0: 5671 9c3d 8a04 38be 3f29 0e3d 073d 863e
000000e0: 326f e23d 5e6d 18be 60b8 c83c 1a5c 46bd
000000f0: 6bf6 be3d 963d 7f3e 33b6 28be 94d4 28bb
00000100: 0b38 dcbc d336 583d f1c7 a1bd 9b07 6f3e
00000110: d19e 9e3c a6cb 293e ebbf 813e f7bf 15be
00000120: 02d8 193e ee57 883d 6834 7dbe 8c86 0c3d
00000130: 4905 5c3d 851c 8bbd f985 093d ca45 14be
00000140: b9e4 24be ae8e 9b3d e53f 3abb f4ab abbc
00000150: 9d09 023c 0c39 5c3d 9808 4b3e 1ee0 2d3e
00000160: d6e7 56be 0257 e8bd 5b7e a13d 8c76 67bd
00000170: 4b88 fb3d 3972 1a3d 68f6 003c 6631 b93d
00000180: 8280 01be 1e91 2d3e b555 163b 93fc 03bd
00000190: 0751 1abe 4cc7 27be 0685 6a3e d7cc ebbd
000001a0: 0349 aebd 6d91 4bbe d7c9 8cbb 4b94 293e
000001b0: 1678 12be 8534 353e ad67 77bb e681 92bd
000001c0: 0f76 543e e455 6bbe 4cb3 013c e0c3 73be
000001d0: c651 18be b36a d63d 7e1a ad3c 1a79 553d
000001e0: ab01 473e ba29 21be 1893 ebbd e541 313d
000001f0: 9f36 873c 21fd b93b 5a3a 023a e3ce 523e
00000200: dc86 6abe f551 8abe 07ed 37be c6b9 14be
00000210: 99fb b33d 3661 203e f8ae b5bc 022c 473e
00000220: da43 72be 6778 ef3d 7d8f 6a3e ff79 c8bc
00000230: 2beb cc3d 6ab4 7d3e 83e4 25be 45f7 983d
00000240: b641 2c3e 7d9a 403e 7e3b e2bd e5d1 55be
00000250: 6e57 9b3d 8ce8 1abe 4930 79be 3778 61be
00000260: d835 cb3d 5bbd 513e 4b14 85be 8ea1 a4bd
00000270: d6cf 753e 0d67 953d 5f6f 07be 2e8a 693e
00000280: 1ccc 5c3e 4d0b b3bd e96c 223e 818a 5dbe
00000290: 42e0 cfbd c784 c63d 5728 18be 881f 363d
000002a0: 9d37 623e 8638 f53c 137c 553e 0d6d 7cbc
000002b0: 4a94 57be 70c3 da3c 4ed5 e9bd 910c 7abe
000002c0: d8b6 fcbd 7fd7 68be ed21 2bbc 3d6d f8bc
000002d0: dc90 a7bd 5ac5 5bbe b2d9 92bd 9cea f03d
000002e0: be1e b73d 11a5 b6bd 2d0f 1b3e efce 84bd
000002f0: b697 59be d3ed 8bbd c17d 653e 2adc 373d
00000300: baf6 323e bf2a 443e d8cc 5abe 959c ef3c
00000310: 0b0d 2f3e 8b60 113e e480 013e a8b7 0abe
00000320: d9e1 363d 11fe 6dbe eacc bdbb a882 073e
00000330: ac63 38be e070 51be fd6d 3bbe 9eda 77bd
00000340: a3b9 033e af90 0bbe e43a 5a3e a36c 2c3e
00000350: a3a7 30be 5958 19be c191 2bbd f29b e23d
00000360: abe5 48bd 5c0f 9ebd c4e5 2a3b 823e 5b3e
00000370: ba20 47be 6294 12bc 39d8 32be 3f7a 383c
00000380: 5570 033c df52 1fbe c283 dabd 00b3 70be
00000390: 5d65 46be 10a5 4a3e 9d4e 69b9 672e 4f3d
000003a0: 5281 eabd b46a 713e 967f 77bd 5fe7 a0bd
000003b0: 8402 edbd 04ca 733e 69ca 88bd 315a 293e
000003c0: 8891 2d3e d7d9 54bb c5f5 84bc 18f5 7ebe
000003d0: 78be 13be 158b 533e f72e 9d3d 8b3c 563e
000003e0: 4d9f f23d a0ab 04be e8a8 ac3c 5fd2 2f3e
000003f0: 4036 11bd 3dbb 203e 3c67 47be 43aa 75be

pool1.weight f4 [1, 50]
0.024219664 0.12708254 0.07133096 -0.06125901 -0.105290815 0.12208989 0.074991755 -0.056622557
-0.093028925 -0.044546437 -0.023942249 0.12573792 0.0014775856 -0.08588989 0.083899 -0.033931714
-0.15206712 0.10720046 -0.039388407 0.08049123 -0.1114267 -0.110037364 -0.045991234 0.041186154
-0.021379903 -0.088172175 0.08302556 0.03262533 0.03588676 0.038184926 -0.09553784 0.09080202
0.09732542 0.13091989 0.09947966 0.008938969 -0.07151964 0.005387645 -0.031274274 0.021173561
0.060924165 0.016239239 0.08946023 -0.12964131 0.061350513 -0.12193624 -0.061425257 -0.1021159
-0.09365613 0.09199224
00000000: 5168 c63c ed21 023e f715 923d baea 7abd
00000010: b6a2 d7bd 440a fa3d 4795 993d 0eed 67bd
00000020: f385 bebd 5376 36bd 8922 c4bc 71c1 003e
00000030: 8cab c13a 0ae7 afbd 3dd3 ab3d fbfb 0abd
00000040: 7cb7 1bbe ea8b db3d bd55 21bd 96d8 a43d
00000050: af33 e4bd 455b e1bd 4e61 3cbd d0b2 283d
00000060: e824 afbc 9d93 b4bd 4e09 aa3d 23a2 053d
00000070: fffd 123d cc67 1c3d 58a9 c3bd 69f6 b93d
00000080: 8d52 c73d dd0f 063e febb cb3d c174 123c
00000090: e478 92bd d88a b03b 7419 00bd 2d74 ad3c
000000a0: 9e8b 793d 2708 853c ed36 b73d b1c0 04be
000000b0: ad4a 7b3d b5b9 f9bd 0d99 7bbd 2422 d1bd
000000c0: c9ce bfbd 6d66 bc3d

pool2.weight f4 [1, 50]
-0.060641337 0.028759032 -0.11873283 0.05969179 0.005071765 -0.05684394 0.017101256 0.011003688
-0.11569135 0.08780718 0.14314313 0.025589151 0.030337712 -0.019573381 -0.12076697 0.03342627
-0.07076725 -0.12022441 0.03101903 -0.07264398 0.15741207 -0.037854902 0.039768156 -0.05419573
0.048956398 0.12621169 0.048123233 -0.062990695 -0.11565884 -0.102607764 -0.14291003 -0.024561599
-0.006965195 -0.01795498 0.070532195 -0.04265067 0.043659754 -0.054779977 0.118325934 -0.09724776
-0.08301298 0.086245425 0.08660522 9.583841e-05 0.042807087 -0.0495668 -0.13086125 0.0762942
0.09098781 0.044728067
00000000: 0d63 78bd 1098 eb3c 332a f3bd 617f 743d
00000010: 0c31 a63b 31d5 68bd ef17 8c3c d048 343c
00000020: 96ef ecbd 40d4 b33d 1d94 123e 57a0 d13c
00000030: cb86 f83c 5b58 a0bc ac54 f7bd fce9 083d
00000040: 6cee 90bd 3738 f6bd 9f1b fe3c 5ec6 94bd
00000050: a130 213e be0d 1bbd efe3 223d 57fc 5dbd
00000060: 8186 483d a33d 013e de1c 453d 4401 81bd
00000070: 8bde ecbd 0524 d2bd 0257 12be 6835 c9bc
00000080: 4a3c e4bb 5216 93bc 2f73 903d 78b2 2ebd
00000090: 92d4 323d f860 60bd de54 f23d d529 c7bd
000000a0: b602 aabd 71a1 b03d 145e b13d dbfc c838
000000b0: 7c56 2f3d 8f06 4bbd 7e00 06be 2240 9c3d
000000c0: d157 ba3d c734 373d

fc4.weight f4 [3, 200]
0.017683744 0.03701101 0.059189267 0.028276911 -0.001738159 -0.03346994 0.02396404 -0.06615718
0.0051492257 0.053786196 -0.008563646 0.06244622 -0.037110057 -0.029543115 -0.066279486 0.026987022
-0.02477883 0.0136233615 0.048374165 -0.0015096853 -0.026527882 0.044277992 -0.0178622 -0.0018242361
0.04341331 0.054651562 0.025280785 0.032272745 0.035976335 -0.060155727 0.04261257 -0.0051800665
-0.06513945 0.0054603675 0.054354947 0.028559022 -0.036663752 0.012260424 0.02845584 0.052532792
0.037102226 -0.03375707 -0.006092428 0.050109074 -0.007956834 0.0005326083 0.009240388 0.019564116
-0.07473132 0.036536474 0.030928703 -0.024496032 0.016525736 0.041576717 0.04228584 -0.018139234
0.025369242 0.06922502 0.0658286 0.01735837 -0.050465114 -0.07170741 0.09349148 -0.045984693
0.044772826 0.0064622182 0.01249959 -0.04859397 -0.03707647 0.0064378693 -0.04370222 -0.02098056
0.06455696 -0.06458067 0.070404746 0.004112006 -0.040647347 0.029271293 -0.0006517341 -0.08998968
0.043931495 -0.010719835 0.04479325 0.044790532 -0.010615807 -0.033171557 0.0065913745 0.036543403
-0.06687406 -0.037657265 -0.02994838 0.050543476 0.03332548 0.03245152 0.050786693 0.019011594
-0.0002578311 -0.020415552 -0.025885731 -0.06801819 0.043473177 0.027953263 -0.08971275 -0.052943435
0.010209057 -0.058410686 -0.04131053 -0.03889377 0.0047133747 -0.049444705 0.027994683 -0.0147370435
-0.013019397 -0.07141541 -0.038417533 0.0135291545 0.042183805 0.026678542 0.040233783 -0.016161874
-0.05511406 -0.019970337 0.026209926 -0.100115545 0.0023349475 -0.06481669 0.041543525 -0.097923435
-0.008660685 0.051278267 -0.03595213 -0.006832495 0.013827449 -0.021157425 -0.0014017907 -0.06423739
-0.07772195 0.025285907 -0.059705216 -0.044790365 -0.06290043 -0.08233281 -0.062443085 -0.04200149
-0.04941791 0.027079172 0.011079489 0.04117388 0.018225206 -0.03174232 0.04360116 -0.073212154
0.06501933 0.0027563302 -0.05169633 -0.056481495 0.077114284 0.07325666 -0.030196134 0.004206032
0.0084681045 0.017529067 0.07099364 -0.04097981 0.009721248 0.053118978 0.074790746 0.0688749
-0.03454418 0.048529994 -0.018694252 -0.022258194 -0.05848515 -0.0065642907 0.061585147 -0.055319853
-0.059557285 -0.030975118 0.0098028965 0.0015594665 -0.03852342 0.017351765 -0.056701545 -0.045264482
0.0413459 -0.034657817 -0.07878934 -0.0388148 0.023398384 0.019765554 -0.022627221 -0.04533567
-0.006702994 -0.06015618 0.058016606 0.036297105 0.050103486 -0.03821763 -0.005747597 -0.029915057
-0.04511427 0.090814315 0.0047426717 -0.03488063 0.0883425 0.017629141 0.06422888 0.041509077
0.050402302 -0.0046575214 0.066706255 -0.038107783 0.005429716 0.0014289173 -0.03315287 -0.047280356
0.032209788 0.09298537 0.02993329 0.08620222 0.027939023 0.076449126 -0.042912867 0.06739815
-0.021813417 0.048386548 -0.031231722 -0.017769435 0.08339827 0.07930189 -0.0035544494 0.07250839
0.093032755 0.06913267 -0.031278156 0.06655832 0.033316318 0.08692463 0.0026414131 -0.02348265
-0.016454952 -0.032342408 0.0091874385 0.006013089 -0.010412461 0.013674863 -0.050457314 0.038671073
-0.040615164 0.056625303 -0.017904855 -0.00337303 0.0056978306 -0.066306904 -0.057829227 0.0035227796
00000000: 80dd 903c db98 173d 7270 723d fba4 e73c
00000010: f0d2 e3ba c717 09bd 3c50 c43c 6a7d 87bd
00000020: d6ba a83b ea4e 5c3d 894e 0cbc 9cc7 7f3d
00000030: b700 18bd 6704 f2bc 8abd 87bd e313 dd3c
00000040: f9fc cabc 8534 5f3c fd23 463d a2e0 c5ba
00000050: 0051 d9bc d75c 353d c053 92bc 351b efba
00000060: 28d2 313d 51da 5f3d a619 cf3c 6d30 043d
00000070: ec5b 133d da65 76bd 858a 2e3d 8cbd a9bb
00000080: d567 85bd e2ec b23b 4ba3 5e3d 9cf4 e93c
00000090: bb2c 16bd f2df 483c 391c e93c a02c 573d
000000a0: 81f8 173d da44 0abd fea2 c7bb 2c3f 4d3d
000000b0: 615d 02bc bd9e 0b3a ff64 173c ed44 a03c
000000c0: bc0c 99bd 45a7 153d 315e fd3c e7ab c8bc
000000d0: fb60 873c 594c 2a3d eb33 2d3d bb98 94bc
000000e0: 28d3 cf3c d9c5 8d3d 25d1 863d 2433 8e3c
000000f0: 82b4 4ebd 56db 92bd 7678 bf3d 725a 3cbd
00000100: b663 373d 04c1 d33b 15cb 4c3c 780a 47bd
00000110: 7fdd 17bd c3f4 d23b 1901 33bd 6cdf abbc
00000120: 7036 843d df42 84bd 5d30 903d 02be 863b
00000130: d57d 26bd 5aca ef3c 23d9 2aba 824c b8bd
00000140: 83f1 333d 3fa2 2fbc 2079 373d 4776 373d
00000150: eced 2dbc e6de 07bd 75fc d73b 89ae 153d
00000160: 44f5 88bd 813e 1abd 4e56 f5bc ad06 4f3d
00000170: 4c80 083d e3eb 043d b505 503d 34be 9b3c
00000180: 812d 87b9 843e a7bc 500e d4bc 1f4d 8bbd
00000190: ee10 323d 3efe e43c 51bb b7bd 37db 58bd
000001a0: e343 273c 0b40 6fbd 3b35 29bd 134f 1fbd
000001b0: a772 9a3b 8886 4abd 1b55 e53c a473 71bc
000001c0: 4f4f 55bc 3e42 92bd b45b 1dbd 63a9 5d3c
000001d0: edc8 2c3d f58c da3c 2ecc 243d e865 84bc
000001e0: 48bf 61bd d598 a3bc 33b6 d63c 6109 cdbd
000001f0: eb05 193b 9dbe 84bd 8b29 2a3d 158c c8bd
00000200: 8ce5 0dbc 2909 523d 8a42 13bd 1fe3 dfbb
00000210: 868c 623c 5652 adbc 4abc b7ba e58e 83bd
00000220: b02c 9fbd 6424 cf3c 758d 74bd 1a76 37bd
00000230: f1d1 80bd 1b9e a8bd 52c4 7fbd c109 2cbd
00000240: 6f6a 4abd 24d5 dd3c bf86 353c f1a5 283d
00000250: 074d 953c 3c04 02bd 2197 323d 41f0 95bd
00000260: db28 853d 8ca3 343b 88bf 53bd 2459 67bd
00000270: 18ee 9d3d 9607 963d e25d f7bc c1d2 893b
00000280: cebd 0a3c 1e99 8f3c 1d65 913d 72da 27bd
00000290: df45 1f3c 4993 593d e42b 993d 490e 8d3d
000002a0: 337e 0dbd 63c7 463d b024 99bc d156 b6bc
000002b0: 208e 6fbd 4319 d7bb b540 7c3d 1297 62bd
000002c0: 57f2 73bd 88bf fdbc 549c 203c 0367 cc3a
000002d0: bcca 1dbd 4a25 8e3c e13f 68bd 4067 39bd
000002e0: 525a 293d 5bf5 0dbd 4e5c a1bd 45fc 1ebd
000002f0: f8ad bf3c 5feb a13c b95c b9bc e5b1 39bd
00000300: caa4 dbbb 5466 76bd d2a2 6d3d 46ac 143d
00000310: 5039 4d3d 178a 1cbd 5756 bcbb 6c10 f5bc
00000320: bec9 38bd dbfc b93d 6a68 9b3b fede 0ebd
00000330: eaec b43d fd6a 903c 6e8a 833d 6c05 2a3d
00000340: a572 4e3d 1f9e 98bb 4a9d 883d e816 1cbd
00000350: c2eb b13b 824a bb3a 4ecb 07bd 0ca9 41bd
00000360: 69ee 033d 1d6f be3d a936 f53c ca8a b03d
00000370: 61e0 e43c 5c91 9c3d 67c5 2fbd 0b08 8a3d
00000380: 0db2 b2bc f930 463d abd9 ffbc 3591 91bc
00000390: b6cc aa3d 0869 a23d c4f1 68bb 477f 943d
000003a0: f587 be3d 6e95 8d3d 861d 00bd ba4f 883d
000003b0: b176 083d 8a05 b23d 8f1b 2d3b b05e c0bc
000003c0: 89cc 86bc 7979 04bd e986 163c 7209 c53b
000003d0: 0799 2abc 880c 603c 54ac 4ebd 8f65 1e3d
000003e0: 165c 26bd efef 673d 34ad 92bc 0e0e 5dbb
000003f0: deb4 ba3b eacb 87bd 57de 6cbd 6fde 663b

fc4.bias f4 [3]
-0.066497646 -0.019662185 -0.0010342652
00000000: eb2f 88bd 9712 a1bc 2e90 87ba
