experiments/experiment_2/checkpoint_1_2.pt (torch, 39119 bytes, 8 tensors)

conv1.bias f4 [50]
000000 04 29 c4 3c a1 99 de 3c f3 52 7f 3c c5 77 9c 3c
       0.023945339 0.027172865 0.0155837415 0.01910008
000010 ce 01 7e bc 12 3a 08 3d 08 06 80 3d fd e8 cb bc
       -0.01550336 0.033258505 0.0625115 -0.02489137
000020 c8 d1 65 3c ad d1 c1 3d 20 a7 61 3b 8a e6 6c 3c
       0.0140270665 0.094638206 0.003443189 0.014459262
000030 00 a7 fa bc 5f cb 86 bc d9 e1 e3 3c 30 e7 d2 3d
       -0.03059721 -0.016454397 0.027817653 0.10298002
000040 9f 9a 6e 3d 8c 5d 9e bd 68 f5 69 bc 15 af 98 bb
       0.058252927 -0.077326864 -0.014279701 -0.0046595433
000050 52 05 fd 3c 28 22 e2 3c fa 3f bf 3b 34 ed 2f 3c
       0.030886326 0.027604178 0.005836484 0.010737706
000060 36 a3 b5 3c 02 ac 0d bd a0 0b 54 bc 57 d8 25 3d
       0.022172552 -0.034587868 -0.012942225 0.04048952
000070 5f 58 c4 3c 3f a0 17 3c 84 80 5f bd 2a 34 57 bb
       0.02396792 0.009254514 -0.05456592 -0.0032837489
000080 0d b4 be ba ee 4c 29 3c be 5d 1f bb f5 32 54 3d
       -0.0014549509 0.010333283 -0.002431735 0.05180641
000090 92 43 96 ba 36 e1 cb 3d 34 c6 a4 3c ce 90 42 bb
       -0.0011464229 0.09955065 0.020114042 -0.002968836
0000a0 ca f1 51 ba b1 db 91 3c 9e a7 8d 3c be 6f a6 3c
       -0.00080087467 0.017804952 0.01729184 0.020316955
0000b0 c6 5d 83 bc bc d6 a7 3c ca 29 98 bc e1 fa 2b 3c
       -0.016035926 0.020488136 -0.018574614 0.010496826
0000c0 a3 65 06 bd 52 0b 66 bd
       -0.032811772 -0.05616314

conv1.lin.weight f4 [50, 116]
000000 ce 08 81 3e 91 97 8a 3d 6d ec ad bd bf ac 06 3d
       0.2520203 0.0676719 -0.0849236 0.032879587
000010 13 d5 04 be 2d 2e a2 bd 5b 08 0a 3e 68 af 29 3e
       -0.12971906 -0.079189636 0.1347975 0.16570818
000020 eb 89 a1 bb 41 d2 ae 3d 28 76 47 3e ef 60 c9 bd
       -0.004929771 0.085361965 0.19478667 -0.09832942
000030 b4 67 72 bd 0b fd f5 3d 56 40 79 bd d7 67 13 3e
       -0.05918093 0.12011155 -0.06085237 0.1439508
000040 15 12 f2 bd 0b ad 27 3e d8 2a 1c be dc e7 53 3c
       -0.11819855 0.16374604 -0.15250719 0.012933698
000050 66 6a 07 3e 6f 99 48 be e5 38 6c 3d 4a 51 93 bc
       0.13224182 -0.1958978 0.057671446 -0.017983098
000060 a7 28 4a be b5 0f 8b bd 14 70 3a be 57 67 18 3e
       -0.1974207 -0.06790105 -0.18206817 0.14883171
000070 4f eb cd 3d 08 6f 73 be d3 45 82 3d 5b 36 81 be
       0.10054647 -0.23772824 0.06360974 -0.25236782
000080 03 3b 0d be 8e 5d ad 3c c4 6e 78 3d 81 29 08 3c
       -0.13792042 0.021162774 0.06065251 0.008310677
000090 72 14 2f be f0 99 21 3e e6 24 02 3e 15 18 54 3d
       -0.17097643 0.15781379 0.12709388 0.05178078
0000a0 27 5b 0d 3e 92 4f 54 3e 19 9e 06 be 17 10 05 3e
       0.13804303 0.20733479 -0.13146247 0.12994419
0000b0 6a 61 08 be 4b a4 09 3e 15 ef 80 bd 51 ff 53 bc
       -0.1331841 0.13441579 -0.06295601 -0.01293929
0000c0 c7 aa 86 bc 03 40 d0 3c fb fd f2 3d 97 9b 08 3e
       -0.016438855 0.025421148 0.11864849 0.13340603
0000d0 9e 4c 94 bd 97 6e 66 be 7a 4d 5f bd 95 77 05 3e
       -0.07241176 -0.22503124 -0.054517247 0.13033898
0000e0 ff 73 ff 3d 67 57 6f 3d cf 51 06 be ee fa 11 3e
       0.124732964 0.058432963 -0.13117145 0.14255878
0000f0 a8 ae 19 bd 09 bc 98 3d b8 15 c7 bd e5 da 62 3e
       -0.03752008 0.0745774 -0.097209394 0.22153814
000100 77 ae 50 3d af 13 a1 3c 14 2c 82 3d f2 f5 d3 bd
       0.050947633 0.019662706 0.063560635 -0.10349645
000110 be 7b f4 3d 3b a6 20 3d 36 3b 8e bd f8 45 e3 bc
       0.119376644 0.03922103 -0.06944887 -0.027743325
000120 98 44 89 bd e1 49 0d 3e 8d 3d 56 be 1b d7 06 3e
       -0.06702536 0.13797714 -0.20921917 0.13167994
000130 ab 3e 5b bd 44 03 ba bd 81 6f 56 be 8f 01 a4 bd
       -0.05352656 -0.09082654 -0.20940973 -0.0800811
000140 d4 09 16 3e f8 67 bb bd 26 ba eb bd a4 83 65 3d
       0.14652187 -0.0915069 -0.11510114 0.056033745
000150 86 6d 15 3e 79 ee 0d 3e f3 53 92 be 60 7a d5 3b
       0.14592561 0.13860501 -0.28579673 0.0065148324
000160 32 fc 96 3e 99 3f c3 bd a5 25 36 3e 00 50 2d be
       0.29489285 -0.09533615 0.17787798 -0.16925049
000170 67 1e 89 3c 9b d1 bb 3d 9a 72 91 3c 35 8f 23 be
       0.01673813 0.091708384 0.017754842 -0.15972598
000180 cb 38 2d 3e 7d 7a 7c 3d 37 71 bd bb 4d 56 f7 ba
       0.16916196 0.06164025 -0.0057813185 -0.0018870324
000190 a2 7e 07 be 0a a6 34 be 0d 33 02 3c 3f ef 4a 3e
       -0.132319 -0.17641464 0.007946742 0.19817828
0001a0 3f bd 5e 3d 42 f5 02 bd bb df 8d bd eb 00 ff bc
       0.054379698 -0.031972177 -0.06927439 -0.031128367
0001b0 7d 93 28 be 3b dd 49 be bf 3c b5 bd c5 5c 23 be
       -0.16462512 -0.19713299 -0.08849477 -0.15953358
0001c0 b5 3e 72 be 59 42 b8 3d c3 e6 2e 3e 75 d4 48 3e
       -0.23656733 0.0899703 0.17080216 0.19612296
0001d0 5e 0a 00 3e e3 3a f6 3d 24 3c 81 be 84 ce 49 be
       0.12503955 0.120229505 -0.25241196 -0.19707686
0001e0 5d 1e 1e be 48 c8 c6 bd 50 67 d9 bd 7c 8e 0f 3e
       -0.1544127 -0.09706169 -0.106154084 0.14019197
0001f0 4d a5 7c 3c 9f 90 12 3d cd f5 5b 3e 3a be de 3c
       0.01542027 0.035782453 0.21480484 0.027190316
000200 79 e1 95 bd 99 e8 19 3e bb 22 43 3e 8c 77 97 3c
       -0.07318396 0.15030135 0.19056217 0.018489622
000210 cf 5d d8 3d f6 a0 b6 bd dd 7b d2 3d a7 ae b8 bd
       0.105647676 -0.089174196 0.10277531 -0.09017687
000220 99 2f bf 3c 22 83 41 3c c4 14 bf bd 43 64 65 3e
       0.023338126 0.01181105 -0.093301326 0.22401528
000230 19 39 be bd b2 12 5a 3e a0 d8 92 3d b3 82 d1 3d
       -0.09288234 0.21296194 0.07170224 0.10230007
000240 6c bd 66 3e 4a dc e6 bc f1 d3 7c be 0b 9e 9f bd
       0.22533196 -0.028181214 -0.24690224 -0.07793816
000250 2a a9 af bd 2e 97 a3 3c ac de 21 3e 94 3c 90 3b
       -0.08577187 0.019969549 0.15807599 0.0044017527
000260 39 0c 2f be 7d c7 23 3e d2 0d 34 3b b5 16 bd bd
       -0.17094506 0.15994067 0.0027474058 -0.09232847
000270 ef 41 28 3e 50 1c 3e 3d f6 64 9c 3d f3 38 a6 3c
       0.16431402 0.04641372 0.07636444 0.020290827
000280 dc 79 4a 3e c6 8e 3e bd 2b 07 b6 3b 5b f7 db 3d
       0.19773048 -0.046522878 0.0055550537 0.10740539
000290 33 b9 93 bd 67 58 a5 bd 5f 92 ea 3c c3 cb 73 be
       -0.07213058 -0.08073502 0.028634248 -0.23808198
0002a0 0e 3e 63 be e7 5a 4a 3e 5f 88 00 be 8c 49 b2 ba
       -0.2219164 0.19761239 -0.12552021 -0.0013602241
0002b0 65 b3 bd bd 5d 90 13 be dc eb e2 bd 51 47 71 3e
       -0.092627324 -0.14410539 -0.11080143 0.23562361
0002c0 85 fc b5 bd 7b 7d 40 be cb 19 f3 3d c8 c4 80 3e
       -0.08886055 -0.18797867 0.11870154 0.25150132
0002d0 6f 7d 1b 3e b6 d1 75 3e 41 42 91 3b 1c 9c 0a be
       0.15184568 0.2400578 0.004432947 -0.13536114
0002e0 33 f6 51 3e f5 08 c4 3d 10 26 4a be 32 5a bd bc
       0.20504074 0.09572021 -0.19741082 -0.023114298
0002f0 f8 b5 01 3d d0 f8 2c be 41 bd b2 3b c9 7a 9f 3d
       0.03166768 -0.1689179 0.0054546897 0.07787091
000300 b4 46 02 bd bd 1e f8 bd f3 40 50 be 5c a2 09 be
       -0.03180571 -0.12115238 -0.20337276 -0.13440841
000310 54 54 56 3e 05 a7 86 be 22 5f 96 3c 22 9f 2c be
       0.20930606 -0.262993 0.01835591 -0.1685758
000320 9a 50 63 3e c6 f9 55 be 8b 04 0f bc ad f8 23 be
       0.22198716 -0.20896062 -0.0087291105 -0.16012831
000330 8e 46 6e 3e e6 dd 23 3e 09 2c 2f 3e c5 76 83 bd
       0.23269102 0.16002616 0.17106642 -0.06419138
000340 62 69 35 bd 8e b8 b3 3b 49 12 0d 3e 85 d5 28 3e
       -0.044289954 0.005484647 0.13776506 0.16487701
000350 70 0f bf 3d 5f 6e 2c be ec 3c 06 3e 71 79 3b be
       0.09329116 -0.16838978 0.13109177 -0.18308045
000360 22 26 f7 bd 8b ef 76 bc d0 ba 33 3e c0 1f 56 3d
       -0.1206782 -0.01507176 0.17551732 0.052276373
000370 4c c0 43 be 05 69 df 3d c7 e2 f4 3d 63 3b 18 be
       -0.19116324 0.10908703 0.11957317 -0.14866404
000380 27 c6 1c 3d 44 b4 c7 bd 55 c1 88 3b a7 0c 9a bd
       0.03827491 -0.0975118 0.0041734376 -0.075219445
000390 8b 31 5b 3d 6d c9 09 be 68 1b c8 bc 82 6d 28 be
       0.053514045 -0.13455744 -0.02442713 -0.16448024
0003a0 f5 a9 0b 3e ad eb dc 3d 40 df 48 be c1 1a 0a 3e
       0.13639052 0.10787139 -0.19616413 0.13486768
0003b0 a4 e6 18 be 6e 07 2c bd 01 59 63 3e 75 78 9b 3d
       -0.14931732 -0.041999273 0.22201921 0.07591335
0003c0 89 da a0 bc 1b 1d 53 bb 2c 22 3a 3d 72 b2 e7 3d
       -0.019635456 -0.0032213393 0.045442745 0.113133326
0003d0 78 03 c6 bd 57 b0 25 3e 08 a9 fa bd 3e b0 74 3d
       -0.0966863 0.1618055 -0.122392714 0.05973839
0003e0 3f b1 38 be cf 0f 0c be 07 7b 8a 3d c8 16 04 3d
       -0.18036364 -0.13677905 0.06761747 0.03224829
0003f0 fc 49 25 3e 5c fb 04 be aa c0 84 bc 41 2b 09 bc
       0.16141504 -0.12986511 -0.01620515 -0.008372129

conv2.bias f4 [50]
000000 9e e4 f4 3c 34 e8 c2 bc 25 63 af bc fb 7b e5 bb
       0.02989417 -0.023792364 -0.02140958 -0.007003305
000010 d2 dc 9a bd 37 7b 1b be 88 41 30 3c 74 08 cf bc
       -0.075616494 -0.15183721 0.010757811 -0.025272585
000020 4f 77 dd 3c c5 c5 ba 3d 11 c0 c7 3d 9d 31 6d 3d
       0.02703443 0.09119753 0.09753431 0.057908643
000030 79 57 77 3d 57 77 f7 bb 63 bd 6f 3d a2 e5 3a 3d
       0.060386155 -0.007552068 0.058530223 0.04562915
000040 6d 73 18 3e bc 69 98 bb 1e 25 88 3c 10 10 a0 bc
       0.14887781 -0.0046512764 0.016619261 -0.01953891
000050 48 2d 96 3d 1e d7 8e 3d 0c df 10 bc 76 5b a3 3d
       0.073328555 0.06974624 -0.008842241 0.07976429
000060 aa db 0a be 03 67 17 3e 6c 67 11 be b2 cb 1f bc
       -0.13560358 0.1478539 -0.14199609 -0.009753155
000070 47 d2 89 bc ce a2 66 3d be 4a 15 3d a0 dd 9c 3c
       -0.0168239 0.056307606 0.036448233 0.019148648
000080 d5 2e 83 3b 13 97 8f bc fe f9 82 3d 10 8c 27 bd
       0.0040033855 -0.017528092 0.063953385 -0.04090506
000090 25 c3 08 3e 19 71 9f 3d 2c 80 c2 bb a1 9c 37 bd
       0.13355692 0.077852435 -0.0059356894 -0.044827107
0000a0 3a c9 10 3d 7b 96 bc 3d 06 a6 4c 3c 13 b2 19 3e
       0.035348155 0.09208389 0.012490755 0.15009336
0000b0 ad af a2 3d bb 29 17 3e 81 dd 86 3d 87 79 74 3d
       0.07943664 0.14762013 0.06585217 0.05968621
0000c0 e1 a8 30 bd 5f b3 29 3d
       -0.043129805 0.041430827

conv2.lin.weight f4 [50, 50]
000000 3e 85 27 be 52 a2 74 bd e4 b5 5e be 7c fd 03 3e
       -0.16359422 -0.059725113 -0.21749073 0.12889665
000010 30 35 d0 3d a6 18 c1 3d 38 bc 1d 3e 0c d9 50 be
       0.10166395 0.094285294 0.15403831 -0.20395297
000020 d7 d2 46 3e 45 8d 34 3e d3 cf de bd 3f 9e 0e be
       0.19416367 0.17632015 -0.10879483 -0.13927554
000030 9c a8 91 be c1 67 e0 3d 31 db 1d be 4b 9d 73 3e
       -0.2844895 0.109572895 -0.15415646 0.23790471
000040 f7 a0 10 3e a9 4c 80 be 3d fb 92 3d 9e a5 07 3e
       0.14123903 -0.25058487 0.07176826 0.13246772
000050 61 5c e3 bd a6 f1 df bd 9d df 85 3d 25 30 8a 3d
       -0.11101604 -0.10934763 0.065367915 0.06747464
000060 c8 9d 90 3e 6d 3b 41 bd 61 f6 bd bd 1b c2 9a 3e
       0.28245378 -0.047175813 -0.09275509 0.30226216
000070 dd 2f 8c 3e c5 25 05 3e cb a7 29 be 31 21 22 3d
       0.27380267 0.13002689 -0.16567914 0.039582435
000080 05 4f 6e be 71 80 97 bd 61 cd 45 be 14 a9 84 3e
       -0.23272331 -0.07397545 -0.19316627 0.25910246
000090 73 15 b5 bd e7 44 62 3e 35 a1 af 3d c6 5a 3a 3d
       -0.08841982 0.22096597 0.0857567 0.045496725
0000a0 39 c2 3b 3c f9 66 a0 3e 76 48 71 3e 07 0d 95 3d
       0.0114598805 0.31328562 0.23562798 0.072778754
0000b0 d1 95 9c bd f6 d0 a4 3d ff c3 0c be 8c 72 a5 bc
       -0.07645763 0.08047669 -0.13746642 -0.020196222
0000c0 3f 87 94 bd 3c 6a 9d be ec 92 84 bd b0 79 0f bc
       -0.07252359 -0.30745113 -0.064733356 -0.00875704
0000d0 7b 7a a3 bc 19 eb 86 be 98 5b f2 bc 02 6e 5f 3d
       -0.019955864 -0.2635124 -0.02958469 0.05454827
0000e0 d0 a9 5a 3e bc 1b 14 be ed b1 72 3e 8a a0 09 be
       0.21353841 -0.14463705 0.23700686 -0.13440147
0000f0 26 ac 9a bd a7 5e 8c 3d f8 49 6c be 56 25 fb 3d
       -0.07552366 0.06853991 -0.23075092 0.12262981
000100 59 e5 1d 3e 20 85 00 be 6d dc 0f 3e 4c e6 e4 bd
       0.1541952 -0.12550783 0.1404893 -0.11176738
000110 e4 e8 2c be 56 48 ca bc ce 06 f0 bd 2b d5 cb bd
       -0.16885716 -0.024692696 -0.11720048 -0.09952768
000120 c2 75 30 3e 26 a0 19 be c6 33 b2 3d c0 0c 5a be
       0.17232421 -0.15002498 0.08701281 -0.21293926
000130 9a 2b b5 3c 9a ea 72 3e b7 01 27 3e 76 84 16 3d
       0.022115517 0.23722306 0.16309248 0.03674742
000140 0e 87 90 3d 85 a0 23 3e 29 6d 7d be 9f cf d3 3d
       0.0705701 0.15979202 -0.24748673 0.10342335
000150 08 02 3f be 1a 27 24 3e 37 85 22 be 3f 20 20 3e
       -0.18653119 0.16030541 -0.1587113 0.15637301
000160 0b 26 14 bb ae 4d 60 be 09 42 cc 3d 2e fd 10 be
       -0.0022605683 -0.21904632 0.09973533 -0.1415908
000170 3c ac b7 bd bc 46 6b 3e 87 28 f5 bb aa 94 45 3d
       -0.08968398 0.22976202 -0.007481638 0.04823748
000180 d5 65 3a 3c 0a 57 37 3e 0a de 1b bc 38 a6 3f be
       0.011376818 0.17904297 -0.009513387 -0.18715751
000190 4b c1 01 be 3c 0b 52 be ce 8d cf bd 83 a5 8f bd
       -0.12671392 -0.20512098 -0.10134469 -0.07013991
0001a0 43 ee fd 3d 53 f8 88 3d d5 4f 89 3e a9 bd c4 bd
       0.123989604 0.06687989 0.2681872 -0.09606487
0001b0 d8 f8 62 3e d0 6b c7 bd b7 c3 de 3d c3 b0 84 3e
       0.22165239 -0.097373605 0.108771734 0.25916108
0001c0 93 ed e8 bd 91 22 1b 3e 50 6d 82 bd 8c 85 8d 3e
       -0.11373439 0.15149905 -0.06368506 0.2764095
0001d0 bc 20 57 bd 55 d8 e9 3d 60 c6 4e bb c2 9c a8 3d
       -0.052521452 0.11418215 -0.0031551346 0.08233024
0001e0 88 a3 82 3e 2b d4 56 be 6f 4e 95 3e ab c8 8d be
       0.2551539 -0.20979373 0.29161403 -0.2769216
0001f0 69 87 aa 3e 5e 3c 2a be 4e 54 a0 3d 05 85 61 bc
       0.33306435 -0.16624591 0.0782858 -0.0137646245
000200 be 3e e6 3d 83 12 41 3e 69 0e 84 bd 9b bb 2a 3e
       0.11242436 0.18854718 -0.06448061 0.16673128
000210 69 73 45 be 1e c1 67 bd 7e e5 59 bd 89 38 8e bd
       -0.19282307 -0.056580655 -0.053197376 -0.06944377
000220 1b 12 f2 bd c8 6d b3 bd 83 da 09 3d f6 28 7c be
       -0.118198596 -0.087611735 0.033655655 -0.24625
000230 7c ad 88 be d1 40 bf bd 6c 50 0c 3c a0 35 a0 3e
       -0.26694858 -0.093385346 0.008564096 0.31290913
000240 be a7 ef 3d 7f 82 55 be 1b 54 a0 bd 38 17 c6 bd
       0.11701916 -0.20850562 -0.07828542 -0.096723974
000250 86 69 9f 3e 06 85 80 be 36 0d d0 3d ea a7 1f be
       0.31135195 -0.2510149 0.1015877 -0.15591398
000260 89 19 11 3e 4a af 08 3e 16 85 de bd 61 6c 06 3b
       0.14169897 0.13348117 -0.10865228 0.0020511376
000270 27 6a d3 bd a6 ec 37 3e b5 f9 48 3e cb 56 80 be
       -0.10322981 0.17961368 0.19626506 -0.25066218
000280 ad e4 ee 3d 7b fe fe bd c3 7d 3a 3c 6e 38 0e be
       0.1166471 -0.12450882 0.011382523 -0.13888714
000290 5b a9 d0 3c bb f3 07 3e 50 7d 59 be bc 04 75 3c
       0.02547138 0.1327657 -0.21239209 0.014954742
0002a0 97 b0 2a 3e 00 bd 6b bb ca f6 b0 bd d2 7b 65 3d
       0.16668926 -0.0035970807 -0.08640821 0.056026287
0002b0 71 78 0c 3e 2f ba 03 be 90 c9 6c 3e 5a 1f 8c be
       0.1371782 -0.12863992 0.23123765 -0.2736767
0002c0 3d 54 65 be 8d 87 39 3e 52 66 90 3e 7c 45 2d bd
       -0.22395416 0.18118115 0.28203064 -0.042302594
0002d0 93 48 ba 3d ed 51 b2 bd 43 00 01 be e6 30 1e 3e
       0.09095874 -0.08707032 -0.12597756 0.15448341
0002e0 b0 9b 67 3b 9b cb 9a 3e 84 83 43 3d 05 cb 92 3e
       0.00353406 0.30233464 0.047732845 0.28670517
0002f0 18 46 22 3d 53 3c 82 bc 03 83 99 bd f8 d2 5f 3e
       0.039617628 -0.015897905 -0.074956916 0.21857822
000300 f5 0f 74 3e 0f 4b 93 bc cc 16 1a be 86 53 24 3d
       0.23834212 -0.017980127 -0.15047759 0.040118717
000310 02 80 85 be 6a 4e 9d bd f6 12 a5 bd 04 70 45 be
       -0.26074225 -0.07680972 -0.08060257 -0.19281012
000320 ec e1 1a be ca 91 1e be 4a b3 a3 bc 01 07 3d 3e
       -0.15125245 -0.15485302 -0.019982953 0.18459703
000330 b7 5a b0 3d 26 53 3a 3d 1e 52 34 3d d6 13 e6 3d
       0.086110525 0.045489453 0.044023626 0.11234252
000340 89 28 5d 3e 4d 77 a3 3d 25 24 11 3e 7d bf 28 3e
       0.21597494 0.07981739 0.14173944 0.16479297
000350 a5 7f 18 be 76 06 5a 3e 0f ac c4 bd 63 55 80 3d
       -0.14892443 0.21291527 -0.0960313 0.06266286
000360 b7 6a e3 3d d6 2a ac 3c 72 c1 21 bc 14 e5 22 3e
       0.111043386 0.02101652 -0.009872781 0.15907699
000370 fa 14 7d bd a2 1f 88 be 07 5b 9c bd db e7 a8 bd
       -0.061787583 -0.26586634 -0.076345496 -0.08247348
000380 be 33 67 bd 39 e9 35 3d d7 82 54 bb ec 8c 44 bd
       -0.05644583 0.04441187 -0.003242662 -0.047985956
000390 c5 eb 1f be 02 e5 ed bd 9c fd 35 be 20 7c 86 3e
       -0.15617283 -0.116159454 -0.17772526 0.26266575
0003a0 7d e4 6e be 24 08 28 3e 6f 43 9e bd 73 93 7b bd
       -0.23329349 0.16409355 -0.07727706 -0.061419915
0003b0 b4 b9 80 be 9b 1a 22 3e b0 a5 5d 3e 56 8c 46 3e
       -0.2514168 0.15830462 0.21645236 0.19389471
0003c0 df 48 8f 3d e8 6d 8c bd a4 df 70 bd cc de 8f bd
       0.06996321 -0.068569005 -0.05880703 -0.07024917
0003d0 a3 95 29 be 0a eb 28 3e 72 91 f5 bd ab 54 4f bd
       -0.16560988 0.1649591 -0.11990632 -0.050617855
0003e0 99 ef ec bd 37 69 a6 bd 5e a1 f9 3d e4 12 76 bd
       -0.11569137 -0.08125537 0.121889815 -0.06007661
0003f0 4a 6f b8 3d b6 88 f8 3d c3 20 e8 b8 bd 32 fa bc
       0.09005602 0.121354505 -0.000110687244 -0.030541772

pool1.weight f4 [1, 50]
000000 fa 21 e3 3d 1d d3 60 3c c5 56 d7 bd b7 98 be bd
       0.11090465 0.013722208 -0.10514597 -0.09306472
000010 b8 a8 90 3d 9b cd 82 3d c0 e5 24 3d 45 d2 89 bd
       0.070634305 0.063868724 0.04025817 -0.06729559
000020 7d 21 9b 3d 2c ea 70 bd a8 f3 fc 3d 1a 4b de 3d
       0.07574747 -0.058817074 0.12351161 0.10854168
000030 eb bf d0 bd 54 e9 ef 3d 8d c1 6c 3d 27 32 bf bd
       -0.101928554 0.11714426 0.057801772 -0.09335738
000040 f9 d6 d5 bd 33 0e 11 bc b1 f3 74 3d 90 ec ea bd
       -0.104413934 -0.008853483 0.059802715 -0.11470902
000050 ea 69 87 3d 3f e1 1c be 01 28 f3 3d c3 c6 06 be
       0.066119984 -0.153203 0.118728645 -0.13161759
000060 fc 5e b2 3d ae 74 08 bd 55 5a c8 bd 1c 56 0e 3d
       0.08709523 -0.0333144 -0.097828545 0.03475009
000070 63 fd c1 3d 58 e3 bf bd 5e 10 2d bd 72 d0 cc 3d
       0.09472158 -0.09369534 -0.042251937 0.10000695
000080 8b 07 34 3c 00 f7 06 3e 9a 65 74 3c b4 32 92 bc
       0.0109881265 0.1318016 0.014916802 -0.017846443
000090 68 da d3 bb 4b c3 81 bd f4 f7 da 3d e7 87 93 bd
       -0.006465245 -0.06336077 0.106918246 -0.07203656
0000a0 65 ad 0f be f6 5b 00 3e 42 63 72 3d 14 9b bd 3d
       -0.14030989 0.1253508 0.05917669 0.092580944
0000b0 a4 96 c4 bd e2 6b 00 3e 40 8d a2 bd 69 75 8d 3d
       -0.09599045 0.12541154 -0.079370975 0.0690716
0000c0 d5 a5 07 3d e1 68 f2 bc
       0.033117134 -0.029591026

pool2.weight f4 [1, 50]
000000 c6 54 0e 3d 33 de c4 3d 64 4e 8e 3d 56 15 98 3d
       0.034748815 0.09612694 0.069485456 0.074259445
000010 de 29 04 3e f1 0a 3c 3d 88 4a ae 3d d2 c3 b9 3d
       0.12906596 0.045908872 0.085103095 0.09070553
000020 3d 4f 5c 3d 38 e1 08 be ea 7b ca bd ff 19 9d 3c
       0.053786505 -0.13367164 -0.09886916 0.019177435
000030 e7 fc e9 bb db 77 b4 3d 8f 16 11 be 86 ce 8a bd
       -0.007140744 0.08811923 -0.14168762 -0.067776725
000040 cd 22 99 bd 12 ef c1 3d 83 3a 23 bd e2 75 c9 3d
       -0.07477341 0.09469427 -0.039850723 0.098369375
000050 2c 7a fd bd f2 8c a2 bd 22 d2 d8 3d 08 9f 1c be
       -0.12376818 -0.079370394 0.10586955 -0.1529504
000060 01 3b 1d 3d 75 d0 a2 bd 5b 71 ad 3d 95 70 3d 3d
       0.03838635 -0.07949916 0.084688865 0.046249945
000070 a6 74 aa 3d 26 72 e3 bd 34 de ff 3c bf f1 3f 3d
       0.0832303 -0.111057565 0.031233884 0.046861406
000080 a7 19 43 3d 6d 49 0a 3e 92 9d f3 bd ef e8 b6 3d
       0.047631886 0.13504572 -0.118952885 0.08931147
000090 e6 c3 14 bd 61 3e 28 bd e7 20 aa 3d 3c 85 ff 3d
       -0.036319636 -0.041075114 0.08307057 0.12476584
0000a0 8c 23 14 3d 50 da fe bd 60 51 c6 bc 76 7a da bd
       0.036166713 -0.124439836 -0.024208724 -0.10667889
0000b0 37 00 9d bd fc 13 c6 bd b8 35 44 3c c1 2f d4 bd
       -0.076660566 -0.096717805 0.011975698 -0.10360671
0000c0 81 0a 3d 3d b0 72 98 3c
       0.046152595 0.018609375

fc4.weight f4 [3, 200]
000000 21 ac 2b 3e f9 3b 33 3e 2f 58 f5 3d 23 fe 9c 3c
       0.1676488 0.17503347 0.1197971 0.01916415
000010 3c 5b cb bd 69 7b 95 3b bd 87 a3 3d a5 a6 7a 3c
       -0.09929511 0.004561831 0.079848744 0.01529852
000020 16 5b ef 3c 14 a8 d0 bd 80 e6 cd 3d f1 08 2b 3d
       0.029218238 -0.10188308 0.1005373 0.041756574
000030 b2 fd ac 3d ed a2 48 3d 87 5e 4f ba fc 37 ca bd
       0.08446826 0.048983503 -0.0007910509 -0.098739594
000040 0d 5e e1 3d 44 2a b4 bd 2b cb c4 bd 43 11 f6 3c
       0.11004267 -0.08797124 -0.09609064 0.030037528
000050 7d e6 f6 bb 53 d4 95 3d f5 71 bd 3d 66 c0 ac bc
       -0.0075348006 0.07315888 0.09250251 -0.021087836
000060 9f c7 d4 3d b3 07 b1 3d db 3f b9 3d b8 ae 3c bd
       0.10389637 0.08644047 0.090453826 -0.046065062
000070 5b 3c 9c 3d ce 71 0b bd 2c 12 1e bd 74 a9 e7 3c
       0.076286994 -0.03404408 -0.03859155 0.028279044
000080 d6 21 1b 3e 73 75 90 bd e6 3b 23 3e bb 2a 8f bd
       0.15149626 -0.07053652 0.15940818 -0.06990572
000090 60 b5 ee 3d e4 3d d9 bc 63 14 2f 3d 04 8a 9f 3d
       0.11655688 -0.02651877 0.04274405 0.07789996
0000a0 73 dd 87 bc 8c 3f e0 3a 2b 9c 80 3d 74 03 a6 3d
       -0.016585087 0.0017108782 0.06279787 0.081061274
0000b0 87 09 ca bc 04 ba e1 3d 22 b4 e8 bc c3 86 fe 3d
       -0.024662746 0.11021808 -0.028406207 0.124280475
0000c0 4e 38 ca bd ab 95 9e 3d bc 2b 17 3e 98 74 b9 3d
       -0.098740205 0.07743391 0.14762777 0.090554416
0000d0 4a 9f a8 3d 4f 54 d5 bc d3 6c c9 bd 73 13 b6 3d
       0.08233507 -0.026041178 -0.0983521 0.088904284
0000e0 37 07 0d 3e ac a9 4e 3b 39 fe c5 3d be d2 06 be
       0.13772283 0.0031534238 0.0966763 -0.1316633
0000f0 88 f6 82 3d 4a 44 d7 3d 52 87 3d 3d 4d 01 8b 3d
       0.06394678 0.10511072 0.04627163 0.067873575
000100 2f e5 18 3d 71 b5 13 bd b2 58 72 3c 50 86 5b bd
       0.03732794 -0.036061708 0.014791654 -0.053594887
000110 77 97 8e 3d 37 79 36 3d 0e bd 91 bd 60 3b 84 bc
       0.069624834 0.044549193 -0.071161374 -0.016141593
000120 64 8a 89 3c 22 d8 e4 bc e8 63 39 bd af f1 27 3c
       0.016789623 -0.027935091 -0.045261294 0.010250493
000130 3e 5b c7 bd 81 c1 04 3e 7e b9 e3 bd 98 e4 b8 3c
       -0.097342 0.12964441 -0.11119364 0.02256994
000140 1c fc cd 3c 88 8f 93 3c 02 a7 ca 3d a3 65 ba bd
       0.02514463 0.018012777 0.098951355 -0.09101417
000150 2c 10 c4 3d bb 3c eb 3c b1 cb 1e 3e 84 22 bc 3c
       0.09573397 0.028715482 0.1550739 0.022965677
000160 b2 27 28 bc 05 a3 8e bd ff 7e ae 3c 0a 7e 01 3d
       -0.01026337 -0.06964687 0.02130079 0.03161434
000170 e4 ef 68 bb ad e1 b4 3d 12 f5 fa ba 60 7c dd 3d
       -0.0035543377 0.08832107 -0.0019146523 0.10814738
000180 a2 3f 23 3d 87 fd ae 3c e9 58 b4 bd 08 65 19 bd
       0.039855607 0.021361126 -0.08806021 -0.037449867
000190 52 7c 02 be c0 1c 14 be b3 48 18 be b4 98 27 bd
       -0.12742737 -0.14464092 -0.14871483 -0.040917113
0001a0 bb ce 80 bd e2 c8 97 3c e0 39 f9 bd 2d 3c 38 bd
       -0.06289431 0.018528406 -0.12169242 -0.044979263
0001b0 7b e5 bd bd 13 96 d6 bd 8e 7b 5f 3c 90 cc 36 be
       -0.092722856 -0.10477843 0.013640298 -0.17851472
0001c0 ff 32 02 be d8 a6 12 be 9d 74 48 bc ae 01 6d bd
       -0.12714766 -0.14321458 -0.012234834 -0.05786293
0001d0 6a c8 25 be 93 fc 20 be 54 e8 f4 bc c7 c3 eb bd
       -0.16189733 -0.1572135 -0.029895939 -0.11511951
0001e0 ef 31 0f 3c 57 d6 16 be a7 8f d7 bd 6a 95 f4 bd
       0.008739932 -0.14730202 -0.105254464 -0.11942561
0001f0 36 7a b1 3c b6 10 0f be 08 db 58 3c 9d 6f 13 be
       0.02166472 -0.13971218 0.013235815 -0.14398046
000200 d7 cd ec bd 0b 82 ce 3c 66 99 27 be 86 a8 cb bd
       -0.11562698 0.025208494 -0.1636711 -0.09944253
000210 c8 54 e1 bd f7 f0 02 be c8 45 9b 3c ee 39 91 bd
       -0.11002499 -0.12787233 0.018954173 -0.07091127
000220 42 ec ff bd 92 a4 89 bd 41 e0 22 be 80 4a 77 bd
       -0.124962345 -0.067208424 -0.15905859 -0.060373783
000230 52 08 c2 bd f2 58 55 bd 03 9f 01 be 68 47 06 be
       -0.09474243 -0.052086778 -0.12658314 -0.13113177
000240 04 a1 8e bd 9f e4 2d be 9f b3 c7 bd 61 e0 a9 3d
       -0.06964305 -0.16981743 -0.09751057 0.0829475
000250 0b ca 08 3c 77 d6 15 be 37 83 9d bc 0b 03 41 bd
       0.008348952 -0.14632593 -0.019227607 -0.047122043
000260 4f f4 d0 bd 30 90 46 bc 33 9d 46 bd d0 0d dd 3d
       -0.10202848 -0.012119338 -0.04848976 0.1079365
000270 7b 04 3b bd 34 51 32 bc f6 85 87 bc 10 f8 37 3d
       -0.04565857 -0.010883618 -0.01654337 0.044914305
000280 9e c9 1f 3d ed 1e fb bd 64 ff a5 bc 4c 15 00 be
       0.039010637 -0.12261758 -0.020263381 -0.12508124
000290 5c 28 7c 3c b3 6a f6 3c 6c 80 4c bd cb c5 c9 bd
       0.015390482 0.030080175 -0.04992716 -0.09852179
0002a0 1a 81 fd 3c 11 bf ba ba 5a 87 05 3d a0 fe a7 3d
       0.03094535 -0.0014247616 0.032599784 0.08202863
0002b0 c9 29 24 bd a0 eb 81 3d ff c0 59 3d 9a 50 db bd
       -0.040078912 0.0634377 0.05316257 -0.10708733
0002c0 a3 77 f6 3d 10 f0 e8 bd 8b 17 29 bd 09 be 76 bc
       0.12034538 -0.11373913 -0.041282218 -0.015059956
0002d0 5f 79 85 bd 3e 57 e4 bc 6b 45 e8 bd 5f 14 c2 bd
       -0.0651729 -0.027873632 -0.113413654 -0.09476542
0002e0 e2 de a7 3d 36 20 8b 3c c3 fe d9 bc 8a 1e 7b 3d
       0.081968084 0.016983133 -0.026610738 0.06130842
0002f0 26 a5 f4 bc 11 a0 dc bd 48 07 97 3c 4e 61 3c 3d
       -0.029863905 -0.10772718 0.01843609 0.045991234
000300 f5 16 86 3d 52 58 9e bd 2d bf b0 3d 3f 90 87 bd
       0.065473475 -0.077316895 0.08630214 -0.0661931
000310 41 db c6 bd 33 51 0f 3e 92 e0 80 bc 4a e9 11 bc
       -0.09709788 0.13995819 -0.015732083 -0.008905718
000320 da d3 2f bd ec 78 19 be 3d e3 a2 ba 30 dd 44 bd
       -0.042926647 -0.14987534 -0.0012427341 -0.048062503
000330 cb 05 b0 3d dd 18 d6 3c 78 6f dc bc 32 de 38 3c
       0.08594855 0.026134903 -0.026908621 0.011283444
000340 9f 5b b1 3b 98 69 cd bd 38 75 c2 39 9b e9 a1 bd
       0.0054125334 -0.10029906 0.00037089898 -0.07905885
000350 50 f6 a1 ba ed c0 93 bd ec e2 58 bd 00 16 11 3d
       -0.0012356732 -0.07214532 -0.052950785 0.03542137
000360 62 f7 33 3d be 7d c5 3d 1b c0 1c 3d 9a b6 aa bd
       0.043937095 0.09643124 0.038269144 -0.0833561
000370 1b 8b 0d bd 5d 33 a4 bc fd 20 be bd 75 0d 4b bd
       -0.03455649 -0.020044023 -0.09283636 -0.04957338
000380 54 14 77 3d ed 38 12 3c d0 cd 55 3b 62 a0 17 3d
       0.06032212 0.008924705 0.0032623895 0.037018187
000390 ec 78 e8 bc cc d5 eb bc 6d 7d 03 3d 36 c6 df 3c
       -0.028377973 -0.02878847 0.032102037 0.027316194
0003a0 6f df 0a be 49 25 c8 bb fe fb 08 be ba bb 82 3d
       -0.13561796 -0.0061079604 -0.13377377 0.06383462
0003b0 15 a9 ca bd b1 31 06 bd 36 30 1b 3d 94 43 a3 bd
       -0.09895531 -0.032762233 0.037887774 -0.07971874
0003c0 b1 eb ec bc b7 db 89 bc af 53 07 3c 70 1c 58 bd
       -0.02892098 -0.016828401 0.008259698 -0.052761495
0003d0 ed cb a4 bd 23 51 07 be d2 7a 33 bb a8 68 a1 bd
       -0.08046708 -0.13214545 -0.002738644 -0.0788129
0003e0 5f 34 fa 3c 15 a5 08 bd c6 9c c4 bd 0c 66 2c bd
       0.03054255 -0.03336056 -0.09600215 -0.042089507
0003f0 e8 c4 d8 bd 4d d1 b1 bd 79 e0 fd 3d f8 a8 ef 3c
       -0.10584432 -0.08682499 0.123963304 0.029255375

fc4.bias f4 [3]
000000 71 ce f6 3c da 63 0d 3b 8e 84 85 3d
       0.030127736 0.0021574409 0.065194234
