experiments/experiment_2/checkpoint_4_2.pt (torch, 39119 bytes, 8 tensors)

conv1.bias f4 [50]
00000000: 9502 a33d 49c6 a63c 4243 9e3c 4e3c 8a3c
00000010: a212 19bd 4d29 3d3c de2f e63c 532f 233c
00000020: 9577 c23c c9ac 0b3d a1e2 183b 003b a93c
00000030: fc50 d83d 57e4 e5ba b41e 453c d12a 393b
00000040: 1b6f e5bc 2e4d 1a3d 1478 67bd 25a7 5bbc
00000050: fcfb ec3c 7a85 9fbc 3e7e 3b3c 0312 9c3c
00000060: 678d 30bc 70f5 15bd 6414 bd39 95d3 f4bc
00000070: f8b9 ddbb 9cb1 963c 14a3 3abd ca91 b7b9
00000080: a503 86bc b2b7 193c 0693 a93c ada3 b13c
00000090: 02fd 063c a965 913d 945a 3b3c 0ae1 be3d
000000a0: d02c 563c 28c8 c43d 5909 6a3c a84c e03a
000000b0: 69bb 82bb 38d6 edbb b7ab 123a 6c84 bebc
000000c0: aace e1bc fc29 fc3c
0.07959477 0.020358222 0.01931918 0.016874459 -0.037371285 0.011545491 0.028098997 0.009960013
0.023738662 0.034100328 0.002332844 0.020658016 0.105623215 -0.0017539364 0.012031246 0.002825428
-0.02800708 0.03767126 -0.056511 -0.01340655 0.02892875 -0.019472826 0.011443673 0.019051557
-0.0107759 -0.03661102 0.0003606408 -0.029886046 -0.006766554 0.018395238 -0.04556568 -0.000350131
-0.01635916 0.009382175 0.020699989 0.021684492 0.008239033 0.07099468 0.01143517 0.093202665
0.013072208 0.09608489 0.014284455 0.0017112689 -0.003989626 -0.007258203 0.00055950455 -0.023256503
-0.027564365 0.030781738

conv1.lin.weight f4 [50, 116]
00000000: 6786 69bd 0636 cabd 550d c03c b7aa 6d3e
00000010: 4d86 3bbe 034d 473e 12ff 353d b5a4 a5bd
00000020: e3c7 7a3d 446c 5b3e d4bb 0abd 3fa2 633e
00000030: cf89 df3b 4475 9c3d 16f0 5f3e b9cb f2bd
00000040: 0527 073e 6cb1 e73d de0c 02be 30c7 8fbd
00000050: 8e6c 18bd b40e d73d 46b9 b5bd 947f 29be
00000060: f145 523e 79ac 9abb 578c b23d 6804 d3bd
00000070: 44d8 34be bdf2 323d 726c 553e 88d0 2dbe
00000080: d1e8 c63d 6a8d b5bd 8158 1bbd acd5 383e
00000090: 3ea3 f73d 4a4d 9bbc 313b 953e 282d 283e
000000a0: e003 2bbe df77 1cbe 7422 bdbd 2a4a 0e3c
000000b0: a2e5 373d d690 2c3d bca9 0cbe 277e 9cbc
000000c0: e457 3dbd b9ea fe3d bf7b 48be d08f 9b3e
000000d0: f422 ae3d 8202 0fbe 8a17 86bc 7c92 2d3e
000000e0: 5128 8fbc e5ab 04be bf3c fa3d f411 3ebd
000000f0: c38a 20bd c8d9 0cbe 6bba 1abe 1b7f 1d3e
00000100: 76e3 013e 5201 8ebd 14ce 20be e810 cebc
00000110: 3d31 213e 31f4 f3bd 3303 573e 6969 c63d
00000120: 6861 e93d 42cc 593e a009 333e 7ede d3bd
00000130: a11d 2bbe 5360 473e 9764 833d 0263 193e
00000140: 7a8d 1b3e 44ca e3bd 6df0 683e 4f31 1a3e
00000150: 6301 483e d9c8 35be c259 ee3d b1b1 2c3b
00000160: fbea e33c 632a 39be 8928 2e3e 363e afbd
00000170: a473 1a3e 1ec7 45bc 3362 1ebe 9115 20be
00000180: 44f2 cabd c26a 34be 71ae 0e3e 9f36 42bd
00000190: c60c 873d 750c cebc 931e 673e d72f 053e
000001a0: c767 ae3c 1faa ed3d 195b 1abd 2565 b5bd
000001b0: 1c7f 91bd badd c2bd 1d08 98bd 3fc8 cb3d
000001c0: 7ab4 f63c 9617 fe3d 3a5b 48be dc87 4a3e
000001d0: 35cd 133e f018 b5bd 6df5 093e 9fc0 e13d
000001e0: 4e52 25be 262b 643e d0e0 5e3e 650f 1bbe
000001f0: 7899 aebc 3583 cdbd fda2 d33c 22e5 18bd
00000200: 2c89 3b3d bff8 2d3e fad2 393e aa2d 053d
00000210: 633b febd 3517 f6bd 008d 45be ce9a 74bd
00000220: 218c 093e b2fe 4dbc 054b 193e e68f 31be
00000230: 885e 47be 0bf3 67bc 549f aa3d 82ae 8dbd
00000240: 6cae 353e 4960 a2bd 2b79 c73d ef08 2cbe
00000250: 8144 30be c877 e5bd 7d9e 123e 1de7 afbd
00000260: bb44 51bc df27 753e edc1 1bbe 0fd0 31be
00000270: d4e3 893c d80c da3d 69f5 21bd 6bdb 0c3e
00000280: 51bd 023e a300 62be 88ae aebd 6c76 a63d
00000290: 4ce4 3abd abe5 0e3d 7bf7 f03d 46fb 2b3e
000002a0: 9602 7e3b 04d8 7b3c 6d70 62bc fc2f c63d
000002b0: 7520 d3bd 4a3a fabd 4223 e53d ec64 44be
000002c0: fa70 4cbe 97aa 2abc 3e99 b0bd 930b 0a3e
000002d0: da38 743d a213 bdbb d0b4 01be 7d70 303d
000002e0: 21c0 5b3e 253b 15be 4094 6b3e e328 82bd
000002f0: 6f37 af3c 261d b23c 82d3 1abe a62e 03be
00000300: 0454 dd3d a7b1 24be f44e ddbd 9a23 3f3c
00000310: 30f0 433e db0f dfbd 1b68 433e 5af8 4fbe
00000320: 93f0 02be d794 25be 7b19 5a3e 41fe 3e3d
00000330: 2d3c 1fbe 1b30 593e 83da 363d 2c63 38be
00000340: 20a8 e6bc 363a 5f3d 21d5 5fbc 3e26 b5bd
00000350: 5af8 173e 1ce5 28be 51a5 ddbd ef54 90bd
00000360: db5c 813e 196c 9d3d 2366 7b3e ebe8 68bd
00000370: 0790 c53c 8370 273e 6afa 69bd 78b1 3e3e
00000380: 19c5 0e3d b824 5f3d 9d7b 24be d768 16bd
00000390: 5775 26be 556c c0bd 71c8 08be 3ca6 57be
000003a0: eed2 433e e798 4b3d 8037 55be d9cc adbd
000003b0: 5030 02be 0820 c23d a008 38bb a334 953d
000003c0: c202 e2bd 4523 aabd 47c9 283e 5300 7d3e
000003d0: a5e3 5bbe 748c edbd e429 813d e203 e4bd
000003e0: 9e10 3c3d b10f 673d 8187 333e 424c e7bd
000003f0: f164 fe3c ea9e 12bd 31da 12bd 3eb3 03be
-0.05701294 -0.098735854 0.023443857 0.23209654 -0.1831295 0.19462971 0.044432707 -0.08088056
0.061225783 0.21428019 -0.033870533 0.2222986 0.006821848 0.07639554 0.2186893 -0.11855263
0.13198479 0.113131374 -0.12700221 -0.07020414 -0.0372129 0.10500851 -0.08873229 -0.16552573
0.20534493 -0.0047202674 0.08718174 -0.10303575 -0.17660624 0.043688525 0.2084215 -0.1697408
0.09712375 -0.08864863 -0.0379262 0.1805026 0.12091683 -0.018957753 0.29146722 0.16423476
-0.16700697 -0.15280102 -0.09235087 0.008684674 0.04489673 0.042130314 -0.13736624 -0.019103123
-0.046226397 0.124471135 -0.19578455 0.30383158 0.085027605 -0.139658 -0.016368646 0.1695041
-0.017475279 -0.12956198 0.12218618 -0.04640384 -0.039194833 -0.13754952 -0.15110175 0.15380518
0.12684426 -0.069338456 -0.15703613 -0.025154546 0.15741439 -0.1191181 0.20997314 0.09688074
0.11395532 0.21269324 0.1748414 -0.103451714 -0.16710521 0.19470339 0.0641567 0.14979175
0.15190688 -0.111225635 0.22747965 0.15057872 0.19531779 -0.17752399 0.11638214 0.002635103
0.027822008 -0.18082576 0.1700765 -0.08556788 0.15083176 -0.012071399 -0.15467148 -0.15633227
-0.0990949 -0.1761885 0.13933732 -0.047415372 0.06594233 -0.025152424 0.22570257 0.1300653
0.02128972 0.11604714 -0.037684534 -0.088571824 -0.07104322 -0.09514947 -0.074234225 0.09950303
0.030115355 0.124068424 -0.1956605 0.19778389 0.14433749 -0.08842647 0.13472529 0.11023068
-0.16144678 0.22282085 0.21765447 -0.15142591 -0.021313414 -0.100347914 0.025834555 -0.037327893
0.045785114 0.1698942 0.18146887 0.03251425 -0.12413671 -0.12016145 -0.19292068 -0.059717946
0.13432361 -0.012572931 0.14970024 -0.17340049 -0.19469655 -0.014157067 0.08331171 -0.0691805
0.17742318 -0.07928521 0.09739908 -0.16800283 -0.17213632 -0.11204487 0.14318271 -0.08589003
-0.012772734 0.23940991 -0.15210696 -0.17364524 0.01683227 0.10646981 -0.039540682 0.13755576
0.12767531 -0.22070555 -0.08529383 0.08128056 -0.045627877 0.034886997 0.11765953 0.16795072
0.0038758866 0.015371326 -0.01382075 0.09677121 -0.10308925 -0.12218149 0.111883655 -0.19179124
-0.19964972 -0.010416648 -0.08622979 0.13480978 0.05962453 -0.0057701627 -0.1266663 0.043076027
0.2146001 -0.14573343 0.23005772 -0.06355455 0.021388737 0.021742415 -0.15119746 -0.12810764
0.1080704 -0.16083394 -0.10806075 0.011666203 0.19134593 -0.10891696 0.19082682 -0.20309582
-0.12787084 -0.16170059 0.21298783 0.046629194 -0.15550299 0.21209757 0.044641983 -0.18006581
-0.02815634 0.054498874 -0.013661654 -0.08845185 0.14840832 -0.16493648 -0.10822547 -0.0704745
0.25266156 0.076866336 0.24550681 -0.056862753 0.02411653 0.16351514 -0.05712358 0.18622386
0.034855936 0.054478377 -0.1606278 -0.036721077 -0.16255699 -0.09395663 -0.13357712 -0.21059507
0.19123432 0.049706366 -0.20821953 -0.08486337 -0.12713742 0.09478766 -0.0028081313 0.0728543
-0.11035682 -0.083075084 0.16483031 0.24707155 -0.21473558 -0.11599055 0.06306818 -0.11133553
0.045914285 0.05641145 0.1753216 -0.11293842 0.031053992 -0.035796084 -0.035852615 -0.12861344

conv2.bias f4 [50]
00000000: c425 d63c 7f0a 1c3d 64d2 b13d 302c d4bc
00000010: d5df 1a3d e3dd d33d 4f89 d03a 5172 c93a
00000020: 2cc3 053d 2288 c1bb 4534 b1bc b7ce 283d
00000030: 1b03 60bd ff54 ac3d f3b0 513d acf1 c7bd
00000040: bec9 b73c 34bf 063d 8326 293d 796e 2b3d
00000050: 9fe0 27bc c8a8 023e dab1 173c 8186 d23d
00000060: 0b3c 5c3c 0b47 5cbc ed09 3abd dfc0 033e
00000070: e965 1b3d 6273 c83c 44d2 b03d c73d 493d
00000080: 0a2a c23d db0c c63d 120b 70bb 7e6c 883d
00000090: 0b64 f33c 8de9 c63c 72ac 15bd 771d 723d
000000a0: eda8 8a3d 2254 723c 9240 3abc cd73 8d3d
000000b0: 0934 b9bc d06f a23c 304e 463d ca1d d33b
000000c0: fc78 a8bc 4df5 963c
0.026141055 0.038095947 0.08682707 -0.025899976 0.03781112 0.10345056 0.0015910062 0.0015369152
0.032656834 -0.005906121 -0.02163137 0.041212764 -0.05469046 0.08414649 0.051194143 -0.09762892
0.022435065 0.03289719 0.041296493 0.0418534 -0.010246425 0.12759697 0.009258712 0.10279561
0.01344205 -0.013444672 -0.045419622 0.12866543 0.037938986 0.024469081 0.08633855 0.04913118
0.094806746 0.09670421 -0.0036627692 0.06661318 0.02971079 0.024281288 -0.03654141 0.05911013
0.06770501 0.014790567 -0.011367934 0.06906853 -0.02260782 0.019828707 0.04841441 0.00644276
-0.020565502 0.018427515

conv2.lin.weight f4 [50, 50]
00000000: a8da 50be fa4c 343d cc68 8b3c ff83 49be
00000010: 6ff5 293e 2888 043e 1794 2fbe 72be 253e
00000020: 4120 76be 933a 54bd ae52 2bbe 4fa8 533e
00000030: f09e 593e 026d 703c 9d8e b03d f142 86bd
00000040: 202d f83d 1070 20be c0f2 fcbd b8e6 debd
00000050: 1f68 323e c79f b03c c101 623d 8338 533e
00000060: b7e4 31be d058 de3c d839 8cbe e1b4 e4bd
00000070: 0545 85be aca9 5bbe 0cdd 223e 268a ddbd
00000080: c785 a4bd c556 1ebe 4c3b ac3c 42b1 27bc
00000090: 656f 613d e382 62be 85a1 0cbe 3343 a0bd
000000a0: bdfe 1dbd 017c a9bd 110e 3dbe 99f7 47bc
000000b0: dc9d 633e 653d d03d 88c5 393d a2bf 3e3e
000000c0: 72b5 2b3e d522 2a3b fbba 0ebe dd41 9a3e
000000d0: e894 153e 200d 3fbe 132d ddbc d224 9d3e
000000e0: d42b 393e 27a0 39be 2685 843d 909c 98bd
000000f0: 8af7 c33c 2b6b 9c3e 9d1e 0abe a62d e3bc
00000100: d678 003d 8ee6 95bc 7d49 0fbe acfb 8b3e
00000110: ee9e 39bd b786 f93d 3f95 9b3e ba3d 53be
00000120: 07e2 bf3d 69b4 fe3d d008 acbe 3504 11bd
00000130: e455 d53d 5cbe 02be 7f85 a53d 15d5 99bd
00000140: aa21 32be 1ebf f03d 326a e4bc ef02 c43c
00000150: 643e fc3c 0ab4 ed3d a567 5c3e dee2 7f3e
00000160: 4e27 68be 2839 fdbd dd25 233e 2740 ff3c
00000170: 4964 2b3e 754d 78bc a880 61bd 01f4 043d
00000180: 72f6 23be 239a ce3d 2c6e 29bd 5fcf 643c
00000190: d5af 0dbe 8c60 11be e6d0 8b3e d3a2 03be
000001a0: 9e49 21be 4200 11be b012 493d 163f 303e
000001b0: 34b5 23be 6586 213e d34a 90bd 8f56 16bd
000001c0: be57 823e 89da 87be cadf 2b3d b8c0 92be
000001d0: f8eb 3dbe 15fa fa3d c8c8 bebc f862 8c3d
000001e0: 1e4a 653e e5ce 53be 17d8 08be 71ff 903d
000001f0: 348c 59bc 85b5 5dbd 8447 413d d083 533e
00000200: 3379 78be ae36 79be 8887 60be 0ca9 21be
00000210: e8a7 bb3d b413 633e 0837 3a3c dba2 813e
00000220: 2e5a 9dbe bb50 3e3e c0b5 833e 0ead b83c
00000230: a7c9 c53d 6318 a93e e8e5 bfbd e2aa 9e3d
00000240: 5471 423e 533d 3c3e 825c eebd 2c6a 95be
00000250: 9f0e 153c 28ba 18be 6978 7fbe 4d60 45be
00000260: 0f51 df3d 9e3c 2e3e 7b5b 88be c9ba 8cbd
00000270: 1c33 8c3e 28a0 6c3d 5c68 f8bd 5608 493e
00000280: 208f 313e 4381 8abd b150 363e 6fd0 79be
00000290: b29a 37bd a6ba c33c c43f 45be 882d a93d
000002a0: 46b7 363e f8ce 96bc a8b5 7d3e f67f 3cbd
000002b0: 7626 75be 4db7 ac3d 3d61 31be 881f 90be
000002c0: 4b35 cabd 8c84 8abe 8f6b d13c 1dda ed3c
000002d0: 868a 89bd 26e8 44be 3694 89bd 0e99 193e
000002e0: 06cd 8d3d 648a 68bd 0461 4d3e ef17 c13b
000002f0: 5dcd 88be 9144 cbbd e0de 993e dd78 ba3d
00000300: 5c71 4d3e 715b 0b3e 0823 96be 1634 a8bc
00000310: b499 053e 1fc6 fc3d 2e17 033e cbcf efbd
00000320: c239 b13d 6619 9bbe 12c1 49bc d77d c13d
00000330: f307 62be ec0e 18be 0a34 87be fd7a 39bd
00000340: 8d89 e93d f982 00be 9448 373e c30a 223e
00000350: 3217 34be 50fd 0cbe a57e 05bd 0b79 483e
00000360: 5c54 9abc af11 aebd 4ebd 3dbd 6f2f 8f3e
00000370: a249 04be 5652 0abd 2298 36be faff e5bc
00000380: 914b 8a3c eeef 2bbe ffb1 cfbd 50aa 7abe
00000390: d2e3 56be c8d2 433e 26ae 993c 9098 bb3d
000003a0: d41c 01be 8240 8a3e 5fd2 9bbd 9292 e0bc
000003b0: 618e e5bd 92c5 743e 7117 e4bd c928 2b3e
000003c0: 0049 403e deb6 9bbd 87b6 acbb 3968 9fbe
000003d0: d73f 5dbe a473 583e 41a2 d53c d2f6 823e
000003e0: 4b64 293e fe11 8fbd 1844 2f3d 7d33 863e
000003f0: 8a1c 593d 7f3e 003e 9941 8bbe aef6 28be
-0.2039591 0.044018723 0.017017744 -0.19679259 0.16597532 0.12942564 -0.17146336 0.1618593
-0.24035741 -0.051813673 -0.16730759 0.20669673 0.21252036 0.014674427 0.08620951 -0.06555737
0.12117982 -0.15667748 -0.123509884 -0.1088385 0.17422532 0.021560563 0.055177454 0.20627026
-0.17372404 0.027141958 -0.2738788 -0.111673124 -0.2602922 -0.21451443 0.15904635 -0.10817365
-0.080333285 -0.15462787 0.021024369 -0.010235133 0.055037875 -0.22120242 -0.1373349 -0.07825317
-0.038573015 -0.08275605 -0.18462397 -0.012205028 0.22228187 0.1016796 0.045354396 0.1862779
0.16768435 0.0025960703 -0.13938515 0.30128375 0.14607584 -0.1865735 -0.026999032 0.30692154
0.18083125 -0.181275 0.064707085 -0.07451737 0.023921747 0.30550513 -0.1348824 -0.027731728
0.031365238 -0.018298414 -0.13992877 0.27340448 -0.045317583 0.12183898 0.30387303 -0.20629016
0.09369283 0.12436754 -0.33600473 -0.035404403 0.10416773 -0.12767929 0.08082103 -0.07511345
-0.17395654 0.11755203 -0.02788267 0.02392718 0.030791469 0.11606605 0.21523912 0.24988887
-0.22671244 -0.12364417 0.15932412 0.03115852 0.16737475 -0.015155186 -0.055054337 0.032459263
-0.1601198 0.10087993 -0.041364834 0.013965457 -0.13836606 -0.14196986 0.27307814 -0.12855081
-0.15750739 -0.14160255 0.049090087 0.17211565 -0.15987092 0.15773924 -0.070455216 -0.036703642
0.25457567 -0.26533917 0.04196147 -0.28662658 -0.18547046 0.122547306 -0.0232891 0.06854814
0.22391555 -0.20684393 -0.13363682 0.070799716 -0.013278056 -0.05412819 0.047187343 0.20655751
-0.24264984 -0.24337265 -0.21926701 -0.15787143 0.09162885 0.22175485 0.01136566 0.2531956
-0.30732864 0.18585484 0.25724602 0.022543456 0.09657603 0.33026418 -0.09370023 0.07747437
0.18988544 0.18382768 -0.11638738 -0.29182565 0.009097724 -0.14914763 -0.24948277 -0.19275017
0.109041326 0.17015311 -0.26632294 -0.06871564 0.27382743 0.057769924 -0.1212928 0.19632086
0.17339754 -0.06762936 0.17804219 -0.24395917 -0.044825263 0.023892712 -0.19262606 0.082606375
0.17843351 -0.018409237 0.24776328 -0.04602047 -0.23940453 0.08433399 -0.1732225 -0.28149056
-0.09873446 -0.2705425 0.025563983 0.029034669 -0.067158744 -0.19229183 -0.06717722 0.14999792
0.06923871 -0.056772605 0.2005654 0.0058927457 -0.2671918 -0.099251874 0.30052853 0.09105084
0.20062774 0.13609101 -0.29323602 -0.020532649 0.13046914 0.12342476 0.12801811 -0.11709555
0.086535946 -0.30292815 -0.012314098 0.0944783 -0.22073345 -0.14849442 -0.2640689 -0.045283306
0.11403189 -0.12549962 0.1789878 0.15824418 -0.17586973 -0.13768506 -0.03259148 0.19577424
-0.018839054 -0.08499467 -0.046323113 0.27965876 -0.12918714 -0.033769928 -0.17831472 -0.02807616
0.016881736 -0.16790745 -0.10141372 -0.24479032 -0.20985344 0.19123375 0.018759798 0.09159958
-0.12608653 0.2700234 -0.076084845 -0.02741364 -0.11208797 0.23903492 -0.111372836 0.16714777
0.18777847 -0.076032385 -0.0052707824 -0.31134203 -0.21606384 0.21137863 0.026078345 0.25578934
0.16542165 -0.069858536 0.04278955 0.26211157 0.053005733 0.1252384 -0.27198485 -0.16500351

pool1.weight f4 [1, 50]
00000000: 2a47 1c3d 7025 1b3e 7b1e 013e 493a a8bd
00000010: a37f 02be b00e 073e 977f 803d e6a0 9bbc
00000020: 244f fdbd af3f c1bc 20c4 66bd 2b05 013e
00000030: 6d8b e43b 7162 b3bd f1d1 803d 5df6 72bb
00000040: 5282 fabd 2ea2 c03d 72e4 16bd 8c0b 1b3d
00000050: 862a c4bd 04a2 d1bd d114 3cbd f7ee 333d
00000060: 3a2c 79bd 19f0 b5bd 5576 203d 136e 953a
00000070: 2b3f 70bc a235 9d3d e244 abbd 31eb c53d
00000080: f9da 3d3d 4807 f33d 00f7 013e 7965 a33c
00000090: 42fc d0bd 0ac3 023d 1120 87bd 3297 b73d
000000a0: 2975 7d3d 68cd 1f3d 062f de3d efef 9bbd
000000b0: 6ce8 a33d 8bef e2bd cdce 0cbd 0d3e 87bd
000000c0: cb3e 44bd 9c2e a63d
0.038153805 0.15151 0.12609284 -0.08214242 -0.12744002 0.13189197 0.06274336 -0.01899762
-0.123686105 -0.023589937 -0.056339383 0.12599628 0.0069746287 -0.087590106 0.06290043 -0.0037073113
-0.12231888 0.09405933 -0.036838956 0.03785281 -0.09578423 -0.1023598 -0.04591829 0.043929067
-0.060833193 -0.088836856 0.03917535 0.0011400603 -0.014663498 0.07676245 -0.08362748 0.09664
0.046351407 0.11866623 0.1269188 0.019945847 -0.10204364 0.031924285 -0.06597913 0.08964385
0.06187931 0.03901425 0.10848813 -0.07614123 0.08003315 -0.110808454 -0.034376908 -0.06603632
-0.047911447 0.08114359

pool2.weight f4 [1, 50]
00000000: 1ef7 e5bc 9e9a ef3c 2e19 f5bd d731 953d
00000010: 3d31 563b c2b0 69bd e27a 403d 8d6a 743c
00000020: 5711 d3bd 9c83 5d3d 54e4 aa3d 5dae c33b
00000030: 9147 693d b82c 67bc 82fb 19be c618 a43d
00000040: 7b06 3bbd 74db e8bd cf2e 8e3c 230f 0cbe
00000050: 9753 163e 5311 65bd 9ecf 503d 6d30 93bd
00000060: 8c4b 4d3d aa88 0a3e b2a5 1f3d c770 81bd
00000070: 0bf5 fcbd a4ed d8bd 8718 03be 8a91 37bc
00000080: 30a3 40bd 705d a4bc 41e4 2e3d a589 3abd
00000090: 4cb2 003d c0fe 2ebd 95d9 ce3d b9d0 b4bd
000000a0: f992 a0bd 539f 4f3d 49a3 b63d 06d7 15bc
000000b0: 1950 163d 9ca8 1cbd dd17 1abe 7637 893d
000000c0: 2484 fb3d a637 133d
-0.028071936 0.029248532 -0.11967693 0.07284897 0.0032683157 -0.057053335 0.04699219 0.014917982
-0.10306042 0.05408059 0.083443314 0.0059717135 0.056953017 -0.014109783 -0.15037349 0.08012538
-0.045660477 -0.11369982 0.017356304 -0.13677649 0.14680324 -0.055924725 0.05097925 -0.07186971
0.050120875 0.13528696 0.03897638 -0.06320339 -0.12351426 -0.10592201 -0.12802325 -0.011204133
-0.047030628 -0.020064086 0.04269815 -0.045541424 0.031420037 -0.042723417 0.10100094 -0.08828873
-0.07840533 0.050689053 0.08917863 -0.009145504 0.03669748 -0.038246736 -0.15048166 0.067000315
0.12281063 0.035941742

fc4.weight f4 [3, 200]
00000000: 8dcf cb3d 0992 d53d 52f5 143e 7ffc 973d
00000010: 353a 40bc 656c 8fbd 4f9f a73d 94bb 54bd
00000020: d27c 40bc 31c4 0f3e 3be4 903a 211a 193e
00000030: 1980 3c3d eb7a a9bc 27e3 91bd debe ec3d
00000040: 9303 1abd 2674 543d 7894 f83d 9a18 463d
00000050: 5e56 e8bb 688d 933d 806f 0c3d ec0b cf3c
00000060: 0180 de3d b37c cc3d 3ba3 9b3c 8092 b23d
00000070: 67c3 e33c d1f3 f6bd 00df e33d 4e6b 79bb
00000080: 65cd b0bd aa2c 573d 71e7 1a3e 1902 3a3d
00000090: 96e5 dbbd 838f 223c 38a8 af3d a083 183e
000000a0: 1b4f 873d 1b0c 163c 6687 463a e657 ba3d
000000b0: 9433 9a3d 73e7 e63c c4a3 9e3d 8f9d be3d
000000c0: 4915 5ebd 537e b53d 2ae8 c73d df0d 4a3b
000000d0: 2f37 a13d b674 ab3d 31cf b63c 47c9 6abd
000000e0: 10d0 0e3d 8dd7 b13d 1b58 673c 575e 743d
000000f0: fa64 ce3a e739 23bc 3815 0d3e ff94 85bd
00000100: 9a4d 8a3b 2a59 c33d cc04 463c 231c 01bd
00000110: 2057 533b 0c04 703d 3bb2 05be 89ab 22bd
00000120: 04cb bc3d fc98 b0bd c9e3 b23d d91b a93c
00000130: 2832 b2bd a624 2fbb e4a0 1abd 72ea 22be
00000140: 9af0 5f3d 51fa c9bb f355 8f3d d184 493d
00000150: 2825 783d ab3e 65bd d415 b1bd 1c35 423a
00000160: 6a2f eabb 1190 eb3c 0e76 88bd 53a6 2a3b
00000170: c6f4 593d d8e6 1a3d 34c9 133e 85fd e23c
00000180: 06b9 7b3d f4f7 313d 55fe 0c3d 70f9 f0bc
00000190: 18a1 6f3b c81c 1cbc 4a37 24be 8370 c3bd
000001a0: 0576 7c3d 7594 1abe b200 edbd dd09 c8bd
000001b0: 6fa7 683c 9411 96bd 47d1 973c 2af5 98bd
000001c0: 6bc0 eebc 2b11 09be 8f34 8ebd 64a6 5f3d
000001d0: a573 c93c 3be0 703d 51a8 bcbb 9a05 3ebc
000001e0: 23d0 bebd 5f6e f4bc 0928 1dbd b4a8 47be
000001f0: d87c b7bd 7bc5 f7bd 00e3 c83d 46bf 3dbe
00000200: 4f69 7d3c d8c6 963d 53e0 bebd 9e2a 18bd
00000210: 6655 56bb 0a19 c1bd a982 89bc f5ab 21be
00000220: 5b43 12be 18b0 9d3d b602 86bd 810e fabd
00000230: 3db5 b3bd b12f d8bd 4f3f 10be 3acc c7bd
00000240: 72ac d3bd 7f78 a83d 8902 f13c 5084 163c
00000250: 2334 11bd 6f07 d1bd 6f0f 8e3d 6ee9 f6bd
00000260: c4ad 5e3c 4933 c7bc 76ad e9bc 99b2 0fbe
00000270: dc84 573c 4891 c73d 07f2 0c3c 0a9b a6bc
00000280: 2c00 b4ba df65 dcbc 4e3d 853d a379 c1bd
00000290: 75a1 723d 992b cb3d 0f36 9b3d 2c8b cf3d
000002a0: 169a 9ebd 9622 bf3d e3ad 74bd a7cb 0fbd
000002b0: d22d ddbd 3587 3dbd 5e75 5abc 63d0 d1bd
000002c0: 8a69 f3bc df7a d0bd 2d93 063d ce65 1e3d
000002d0: 6aa0 7cbd aa3e ebbc be90 a2bd e4c9 dabd
000002e0: 237f 403b 487a 21bd 7492 0abe 83b5 a03c
000002f0: 27dd fe3b 20f7 0abc 0fd8 fe3c 8fe6 b4bd
00000300: 0856 8dbd 222f e7bd a253 acbb c30d 8b3d
00000310: e228 c23d d1ad acbd ea93 7cbd e601 b5bd
00000320: a602 ffbd da5f 233d 3d4b 71bd 8918 babd
00000330: cbce ab3d cfdd b6bc 3a08 9a3c 87f2 afbc
00000340: 498a 093d 298c 8dbd 88ab 3d3d 0639 d5bd
00000350: 37be 7dbd 54ff 37bd 9249 4cbd 8148 f9bd
00000360: 285b b83c 9aae 613d 9baf f8bc 8715 6f3d
00000370: cd78 12ba 16ed 013d 4850 debd eabc 723d
00000380: e62d d7bd 6e2e 323c 04d7 8dbd fb73 69bd
00000390: 9210 933d 1aab 943d b189 6fbd 122f 943d
000003a0: cbc4 c73d 100c 453d 32e6 cfbd 0c7b 363d
000003b0: 0651 563c b6c9 8d3d 224a 77bd 5b23 e6bd
000003c0: 7c91 2cbd e384 b1bd 239d 13bc 50ed 8bbd
000003d0: 6472 b0bd 6c01 d0bc b46b 0ebe 4327 ccba
000003e0: 7a9b aebd c931 893c af80 f7bd 129d 77bd
000003f0: 588b 6bbd c235 86bd e56c 72bc 83b0 c7bc
0.099516965 0.104282446 0.14546707 0.07421207 -0.011732628 -0.070030965 0.081846826 -0.0519367
-0.0117485095 0.14039685 0.0011054346 0.14951374 0.0460206 -0.020688495 -0.07123404 0.115598425
-0.037601065 0.05186858 0.12137693 0.048363306 -0.007090374 0.072047055 0.034286022 0.02527424
0.108642586 0.09984722 0.018998733 0.08719349 0.027803136 -0.12058223 0.11126518 -0.0038058343
-0.08632926 0.05253283 0.1512735 0.045412157 -0.107371494 0.009921911 0.08577007 0.14893961
0.06606885 0.00915816 0.00075732765 0.090987965 0.07529369 0.028186535 0.077460796 0.09307396
-0.054219518 0.08861985 0.09761079 0.0030831022 0.078718536 0.0837187 0.022315593 -0.05732086
0.034866393 0.08683691 0.014120127 0.059660282 0.0015746646 -0.009962535 0.13777626 -0.065225594
0.0042206766 0.09538491 0.012086105 -0.031520974 0.0032247975 0.05859761 -0.13056271 -0.03971437
0.0921841 -0.086229295 0.08734853 0.020643162 -0.08700973 -0.0026724725 -0.037751094 -0.15909746
0.054672815 -0.0061638732 0.069988154 0.04919893 0.06058231 -0.055967968 -0.086467415 0.00074084266
-0.0071467655 0.02875522 -0.06663142 0.0026039078 0.05321195 0.037817806 0.14432222 0.027708778
0.06145575 0.043449357 0.034422237 -0.029415816 0.0036564525 -0.009528346 -0.16036716 -0.09542944
0.06163599 -0.15095694 -0.11572398 -0.09767506 0.0142000755 -0.073275715 0.018532408 -0.07468636
-0.029144486 -0.13385455 -0.069436185 0.05460204 0.024591276 0.058807593 -0.0057573696 -0.011598015
-0.09317043 -0.029837785 -0.03836826 -0.19497949 -0.08959359 -0.12098213 0.09808922 -0.18529996
0.015467002 0.07362145 -0.0932013 -0.037150018 -0.003270471 -0.09428604 -0.016785936 -0.15788253
-0.14283507 0.07699603 -0.06543486 -0.12209798 -0.08774803 -0.105559714 -0.1408665 -0.0975575
-0.10335626 0.08226108 0.029420154 0.009186819 -0.035450112 -0.10206496 0.069365375 -0.12056242
0.013591234 -0.024316447 -0.028525095 -0.14032973 0.013154235 0.09744507 0.008602626 -0.0203376
-0.0013732961 -0.026904045 0.065058336 -0.094470285 0.05923601 0.09920425 0.0757867 0.10133967
-0.07744233 0.093327686 -0.059736144 -0.035106327 -0.10799755 -0.04627152 -0.013333647 -0.10244825
-0.02971341 -0.10179686 0.0328552 0.038671307 -0.06167642 -0.028716404 -0.07937764 -0.10683039
0.0029372654 -0.039423257 -0.1353243 0.019617802 0.0077778283 -0.008481771 0.031108884 -0.08833038
-0.06901175 -0.11288287 -0.0052589932 0.06789734 0.09480454 -0.0843159 -0.0616645 -0.08838253
-0.12451677 0.039886333 -0.058909643 -0.09086711 0.08389052 -0.022322563 0.01880275 -0.02147795
0.033579145 -0.06911499 0.046306163 -0.10411267 -0.06194898 -0.044921234 -0.04987485 -0.12172032
0.022504404 0.055098154 -0.030357173 0.05837014 -0.0005587459 0.031720243 -0.10855156 0.059262194
-0.10506801 0.0108753275 -0.069257766 -0.056995373 0.07180895 0.072591975 -0.058480922 0.072355404
0.09754332 0.048107207 -0.10151328 0.04455094 0.013080841 0.06923239 -0.060373433 -0.11237212
-0.042130932 -0.08667924 -0.009009632 -0.06832373 -0.08615568 -0.025391303 -0.13908273 -0.0015575666
-0.085257486 0.016747372 -0.12085091 -0.06045253 -0.057505935 -0.06553222 -0.01479647 -0.02437616

fc4.bias f4 [3]
00000000: 1cbe a8bd dc27 33bd 5217 513d
-0.082393855 -0.043739185 0.05104763
