experiments/experiment_2/checkpoint_2_2.pt (torch, 39119 bytes, 8 tensors)

conv1.bias f4 [50]
00000000: d117 47bd 5b94 ad3b 5453 febc 2dca 7ebb
00000010: d625 00bd 2ac3 a1bc 1b78 333c be6e 643d
00000020: f0d1 953c 64da 253c b6e5 883c fa75 173b
00000030: 2c1b 32bd 4548 cf3d 5860 d7bb 0e4d a9bc
00000040: ff2f ff39 4ae9 04bc e591 483c 7bb7 a13c
00000050: 4ae1 6b3d 3f4d d1bb 303e fb3c a29a 84bd
00000060: 77e7 02bd a285 b83b d74e 093c 62ea 55bc
00000070: 10be c43c 563b 8ebc d81c 42bd 83d3 3b3d
00000080: 1d7f 4c3d 2d39 fcbb 0dba 023a 4472 5c3c
00000090: e0ca 96bc cb8b ca3c 4ab0 8d3d 6952 603c
000000a0: ac9d dcbb 2b4c b8bb bf2c 45bc 719b 8e3b
000000b0: 7b06 813c fd73 b83d c746 bd3d 226e 98ba
000000c0: 0656 403c 065d ac3c
-0.048606697 0.0052972264 -0.031045593 -0.003887783 -0.031286083 -0.019746382 0.010953928 0.055769674
0.018288583 0.010122869 0.016711097 0.002311109 -0.043482944 0.10121206 -0.0065727644 -0.020666625
0.0004867315 -0.008112261 0.012241815 0.01974081 0.0575879 -0.0063873823 0.030669302 -0.06474806
-0.031959023 0.0056311646 0.008380613 -0.0130563695 0.02401641 -0.017362278 -0.04739079 0.04585601
0.049925912 -0.0076972456 0.000498683 0.013454977 -0.018407285 0.024724862 0.0691839 0.013691523
-0.006732663 -0.0056243143 -0.012034594 0.004352026 0.01575016 0.09006498 0.09242015 -0.0011629502
0.01173926 0.02104045

conv1.lin.weight f4 [50, 116]
00000000: 3abb a5bc 1bcf 0e3d 11a0 9bbc 2d79 1e3e
00000010: 11f1 a13d 8279 873d 8009 e13d 5acd e0bb
00000020: 92b9 2cbd 01fb 32be de6f 8bbd f2fe 78be
00000030: a678 fcbd 29b6 19bd b800 593c 2391 003d
00000040: 5b1e ed3d 2931 0f3d f0fd 143e 8944 2dbd
00000050: 6fd7 85be 3815 57be ae83 863d a7b0 f13d
00000060: e372 69bd f235 583d 97a0 b6bd f86f cabd
00000070: 426c 34bc 1fa3 133e fbd9 783e 81ef af3c
00000080: bde3 223e fbff 11be 392f 183e 4839 2f3d
00000090: f424 d93d 3e99 d5bd 6d26 72bd 82d6 0f3e
000000a0: 9793 2dbe 5ead 86bc 9c67 5d3e d556 ad3d
000000b0: 3676 193e ec75 1e3e 99d7 1dbd 4d93 323e
000000c0: 6ffb 22bc 003e 73be 0a31 dabd 45ae 25bd
000000d0: 4abd e2bd c028 4c3e ccb4 c63d 7a67 01bb
000000e0: 988b 543e 079d b9bd e46e 67bc 3c1c 1fbd
000000f0: efcc 37be 6705 363e b620 523e 87e8 e43d
00000100: 784e 4d3e 282f 9ebd 341d b8bc 6242 83bd
00000110: fcd9 413e 5fad 0cbe 69e0 1f3e 2978 46bd
00000120: 538d cc3d f42e 1e3e 0957 30be fd8a c33d
00000130: 89e3 f23d f7ad 533e 4829 403d d85d c13d
00000140: d505 41be 7381 903d 406a 843d 5e1c 3d3e
00000150: 250f 183e bcbb 5abe 3e20 0dbe b816 423c
00000160: ca42 163d 5b1c e53d 808b 36be 9db4 ae3d
00000170: 79b5 56be 5be1 92bd 98ad f9bd 7242 3a3e
00000180: aeff 0d3e 6573 51bd 3f83 be3d 527d 923a
00000190: ac64 4fbe 9bf1 013d aa33 aabd 66b8 af3d
000001a0: 0007 1fbd 787c ce3d 498f 52be 6487 adbd
000001b0: 38f4 67be 0af7 2d3e 5113 83bd e72c 093e
000001c0: 6a00 953c d4ea 1ebe 24a5 4abd 642a e83d
000001d0: f80a 55be 4057 3ebd bb81 c2bd b452 f53d
000001e0: 4088 6a3e a21b 103e 6634 e13b a8fd fb3d
000001f0: a4b9 2d3d c953 153c 43eb 49be 51fb 00be
00000200: ae46 0ebe 203f 4a3e 9903 053e 7633 173e
00000210: be18 ff3c 320a 86bd 269a cabd b650 cfbd
00000220: 2c67 b1bd f86a 1a3e dcf2 be3d 7131 b53a
00000230: a7bf a23d 3190 55bd 47fa 02be ed80 cebd
00000240: 43ff 193d a872 463e 8f0f a9bd 303a 673e
00000250: 0a83 0dbc 6fb6 363e ee92 06be b10d 283d
00000260: 92e3 b9bc 2e69 0bbe 77da d5bc eb42 4ebe
00000270: 3c02 00be 9cc1 d4bd 9af2 32be 82b2 9fbd
00000280: 3a1d e73a a507 8f3d 0156 c23c f917 5bbd
00000290: fe43 00be 9f14 043d 202f 353d a0f9 cdbb
000002a0: be0e 0d3d b6d4 e63c ad3e 933d 0955 18be
000002b0: 3192 933d 320f 183e cb61 8ebd b679 243e
000002c0: 16de a33d 9782 47be adb6 a83d 4dc7 8d3b
000002d0: 465a 16bd e289 d5bd 30cb dd3d a534 8b3d
000002e0: d7b2 4c3e 5ec1 123d 9e5d 1cbe 3dae 503d
000002f0: 25a1 263e 339b c23d c9d6 b33d 80f1 683e
00000300: dd9a 4bbe 793c 27be 0899 2e3d 0dae 4e3e
00000310: 83e9 26be 7451 1fbd ae82 e6bd 46cc 9d3d
00000320: 98ae 313e 1cdd c83c ec45 883e 2a13 17be
00000330: 72a4 e63d 9460 8abd 8fed a1bc 2dd3 2ebe
00000340: 8d07 e53d 9ff4 9e3d a0d3 e4bd 9e54 0ebe
00000350: 24b7 8d3c 8305 63be a6f1 56bd 2d82 953c
00000360: ae53 fe3d d43d c8bd aaf2 c13d 7916 67bd
00000370: 1110 e1bd 5f06 823d b411 123e d6c6 18bd
00000380: d1c1 313e 0d8e 16bd b128 803d 71bc a13d
00000390: 9a58 b7bd 475f aabc 5c64 29be f8d0 143e
000003a0: 8fee e7bd 325b 3abe 5f4d c93d 779c 39bd
000003b0: 3dec 13be 97a9 44be 58c2 dc3d 4281 21be
000003c0: bdbc e4bc fc04 473e 18ba 9f3c f85f e83c
000003d0: 8c17 49be 10ee 4cbe c99c 023d fdce 603c
000003e0: 2eb9 b33d 5205 f83d a6c8 843d 6746 97bd
000003f0: 13d7 21bc 065f dabc 8448 0cbe ea8d 343e
-0.020230878 0.03486548 -0.018997224 0.15475912 0.07907308 0.06614973 0.1098814 -0.0068604173
-0.04216916 -0.17478563 -0.06808446 -0.24316004 -0.12327699 -0.037527237 0.0132448 0.031388413
0.115780555 0.034958992 0.14549994 -0.04230169 -0.26140925 -0.21004188 0.06568085 0.11801272
-0.05699433 0.05278582 -0.08917349 -0.098846376 -0.011012139 0.14417695 0.24301903 0.021476509
0.15907188 -0.14257805 0.14861764 0.042779237 0.106027514 -0.10429619 -0.059118677 0.14046672
-0.16950832 -0.01644009 0.21621555 0.084638275 0.149865 0.15474671 -0.038535688 0.17439003
-0.009947642 -0.2375412 -0.10653885 -0.0404494 -0.1107126 0.1993742 0.09702453 -0.0019745515
0.20756376 -0.09063154 -0.0141255595 -0.038845286 -0.1794927 0.17775498 0.2052029 0.111771636
0.20049465 -0.07723838 -0.022474863 -0.06409146 0.1893081 -0.13738011 0.1561295 -0.048454437
0.09987893 0.15447599 -0.17220701 0.09547994 0.11859805 0.20671831 0.04691437 0.094417274
-0.18849881 0.070559405 0.06465578 0.18467852 0.14849527 -0.21360677 -0.1378183 0.011846237
0.03668479 0.11187049 -0.17826653 0.08530543 -0.20967664 -0.071718894 -0.121913135 0.1818941
0.13867065 -0.05113544 0.09302377 0.0011176264 -0.20253247 0.031724554 -0.083106354 0.08580093
-0.038825035 0.10082334 -0.20562471 -0.08473089 -0.22651756 0.16988769 -0.06400169 0.13396035
0.018188674 -0.15519267 -0.049473897 0.1133621 -0.20804965 -0.046469927 -0.094974004 0.11978665
0.22903538 0.14073041 0.0068727015 0.123042405 0.04241337 0.009114214 -0.19718651 -0.1259587
-0.1389415 0.19750643 0.12989654 0.14765725 0.031139728 -0.06544913 -0.09892683 -0.10122816
-0.086622566 0.15079868 0.093236655 0.0013823939 0.07946711 -0.052139465 -0.12790786 -0.100831844
0.037596952 0.19379675 -0.08254921 0.2258079 -0.008637199 0.1784303 -0.13141987 0.041028682
-0.022691522 -0.13614342 -0.026105149 -0.20142715 -0.12500852 -0.103884906 -0.17475358 -0.077977195
0.0017632612 0.0698388 0.02372265 -0.05348966 -0.12525937 0.03224623 0.044234395 -0.006285861
0.034437887 0.0281776 0.07189689 -0.14876188 0.07205618 0.14849547 -0.06952246 0.16062054
0.08001344 -0.1948341 0.08237968 0.004326737 -0.036707185 -0.1042669 0.108297706 0.067971505
0.19990097 0.03582894 -0.15270087 0.050947417 0.1627241 0.09502258 0.087812014 0.22748375
-0.19883294 -0.16331662 0.04262641 0.20183583 -0.16300015 -0.03889604 -0.11255394 0.07704978
0.17351758 0.024519496 0.26615846 -0.14753404 0.11261834 -0.06756702 -0.019766597 -0.17072745
0.11183081 0.077615015 -0.11173177 -0.13899466 0.017299242 -0.22170071 -0.052476548 0.01825055
0.124183044 -0.09777418 0.094701126 -0.056417916 -0.109893925 0.063488714 0.14264566 -0.037299
0.17359091 -0.036756564 0.06257761 0.078972705 -0.08952446 -0.020797385 -0.1654219 0.1453284
-0.11324798 -0.18198851 0.098292105 -0.045315232 -0.14445587 -0.19205318 0.10779256 -0.15771964
-0.027922029 0.19435495 0.019497916 0.028366074 -0.19637889 -0.20012689 0.031887803 0.013721225
0.087755546 0.1211039 0.06483583 -0.07386475 -0.009877938 -0.026656639 -0.13699538 0.17632261

conv2.bias f4 [50]
00000000: f3f8 f13c 1a0d ccbb ba67 913d 3628 8ebc
00000010: d50e 6fbd 6919 05be 71cc 6cbd 9519 ce3d
00000020: 2582 8b3d 0074 97bc 52ce f9bb dbbb c73d
00000030: 15de 7a3c 593c f23d dd58 7f3c 97e1 f73d
00000040: 0490 8bbb 08e0 6d3d db1e a73d 8808 243d
00000050: 8dec 533d 11f6 6b3d 9efe 813d 270a 243d
00000060: 505b c13d 75bb 01bd 4c9f a03d 2438 003e
00000070: 6901 743d b1b3 8b3d a970 ff3d eb60 a63d
00000080: d536 a33d 2ba8 603d 5786 f5bc 4f26 a63b
00000090: bbf0 5b3d 4820 c53d 036a 833d a9e7 fa3d
000000a0: 474c 273d c65b 1b3d 82b0 8a3d ce79 fcbc
000000b0: 4ca7 6c3d 1f04 32bc bef5 523c cdae df3c
000000c0: 3d5d 893d f4a4 963d
0.029537654 -0.0062271478 0.070998624 -0.017353158 -0.058363754 -0.12997974 -0.057812158 0.10063473
0.068119325 -0.01848793 -0.0076234723 0.097526275 0.015311738 0.11827917 0.0155851515 0.12103575
-0.0042591114 0.05807498 0.08160182 0.0400472 0.051739264 0.057607714 0.063473925 0.040048745
0.094412446 -0.031672914 0.078428835 0.12521416 0.059571657 0.06821383 0.1247266 0.081239544
0.07969443 0.054847877 -0.029971285 0.0050704847 0.053696375 0.09625298 0.064167045 0.12251217
0.040844228 0.03792932 0.067719474 -0.0308198 0.057776734 -0.01086524 0.012875972 0.027305031
0.06707237 0.07355681

conv2.lin.weight f4 [50, 50]
00000000: 570d ff3d c15b 173e b3c9 03be d001 55be
00000010: 6014 ec3d 5736 6abe cc23 9f3d d715 9a3e
00000020: 0fc6 cc3b df66 28be de79 acbd 66f9 cc3d
00000030: b6cc 313e a9c8 2b3e 34c5 013e 7200 c4bd
00000040: f7fa 3c3e c117 e43d 2795 713e f9cd cbbc
00000050: 74d2 3a3e 8823 c4bd 4d2e cdbd fa40 f8bd
00000060: 0d87 b43d 93e9 763e 6c55 94bd b7f8 f4bd
00000070: 6565 d93b 0c8c 883d dd72 6cbe 4dcd 763e
00000080: 0704 913d 614a 493e a01f ff3d decf f83c
00000090: 714c cabd f499 7a3e 9267 ad3e a454 04bc
000000a0: 439b cb3c 8b6a 78be 6cd7 a0bc 1ed4 51bd
000000b0: c6cc d0bd 8d8e 823e cb90 e23c 5ab6 93be
000000c0: 2a8a 4c3e ad65 9a3e d5af 9dbe 97eb bf3d
000000d0: 73ed b9ba 80b8 41bd 907c b33d 0032 213e
000000e0: 77f5 46be 5b3a f03b 758e fabd 4da1 203e
000000f0: dbe1 7a3d bf7b 493e 6311 a6bc 6929 0abe
00000100: d738 e5bd cfb5 fa3a 05f5 c73d 660d 18be
00000110: cfa6 463e 5144 ecbd e9fb cf3d 1a86 313e
00000120: 64b6 f3bd 281d 48bd dd04 93bc 60b6 283d
00000130: f8c9 a93e ac61 b03d 4f87 c2bd 36fe f1bd
00000140: 5c7a 1dbe 7ae4 283e 5b01 df3d ac97 503e
00000150: 37b3 a33d bdb6 923e b189 15bc d5f0 a73d
00000160: caaa 403e 575d f53c 7e3a 183d 644c c7bc
00000170: f0e7 2cbd c9be 4f3c a32e 0c3e f95e 2c3d
00000180: fb8c be3d 0b6d 84be eb5c 2abd 0099 9d3e
00000190: 8b3c 8cbe ff36 15be 3fac 2d3e 3ae1 34be
000001a0: da91 563e 37b1 3b3a 7ec3 fbbd 9f9d 463e
000001b0: 924b 5fbd 9690 883d 9403 68bd 51f8 09be
000001c0: d16e ae3d b4ba 143e b4a6 993d 0071 d9bd
000001d0: 0a0c 85bd 16ea 85bd 2dc9 bd3c fac5 4a3e
000001e0: bdd6 bcbd 4fa7 963d efb5 003e 9649 3c3e
000001f0: 9a35 f63d 6471 39be 4184 713e 8475 5ebd
00000200: 13d6 893e 590a cfbd 999a e53c fc0b ae3d
00000210: f894 2f3e f2a0 21be e912 47bd 04f0 f8bd
00000220: 0c9f 2a3e 45be 133e 5fbb 6bbd 7ca2 76bd
00000230: 5628 b53d 59ab 56be f614 343e 3113 f4bb
00000240: d177 ae3d 0cb6 983e 26ee 63be 3f2e 29be
00000250: 0466 28bd 7783 0fbe 5f2a 143e 5dc7 48bd
00000260: 5efb 23be c6d2 663d d141 43bd 855c 61bd
00000270: 2161 0b3d 5b6e 813e a37d efbd 2009 02be
00000280: 25ac 48be 76a1 0fbe ab94 8dbd 6808 1abe
00000290: 819a 903d acb9 cc3c 5fe8 02bd 3bf6 823e
000002a0: 5f84 e33d 678e 3dbe cd92 cdbd 26a3 90be
000002b0: 4080 a53d 7c5f 7d3d cc05 44be 4e52 e93d
000002c0: 8b4d 8e3d fbc8 263d 3b5f 9abe 960e 5dbd
000002d0: 71a3 85be 1e6b 6a3d 19e2 76be 2b16 54bd
000002e0: 8ee3 c63d 3346 c4bb f230 273e 828e 5a3e
000002f0: 04c5 a8bd 7dbb 2e3e c39b aabd 9ce3 013e
00000300: 1261 31be 235d c63d 8e87 bfbd 2207 d1bd
00000310: 1dfb eebc 94e6 84bd ba04 4cbe 4efc 0f3e
00000320: 64b9 39bd 2215 79bd 3a3f c5bd 60f0 5fbe
00000330: f673 eb3d 668b 063e 1b7e 773c 1ff6 9f3e
00000340: 5ecd 8e3d 3070 0abe e12e 543b 3e45 dc3d
00000350: 6909 0e3e 33c9 1cbe 24bd b13e 90d4 1bbe
00000360: ff81 09be a2e9 6abd e889 fd3d 9820 263e
00000370: 8344 283e cefc 67be 5d4d 2c3e 9660 e23d
00000380: 0eed 46be 771c 453e 5c79 f33d b2c9 25be
00000390: d48b 443d 99b5 a7bd 1e59 09be 74f5 d73d
000003a0: 38ed 873d 7ebb 6abe 91e7 41be ca62 48be
000003b0: 9b9d 523d 0ca4 b93d ffd4 d7bd dbde 3b3e
000003c0: 868e 04bd 3ebe 8fbe f866 003e 5e03 f83c
000003d0: 348f 03bd c42c 953d d809 723e 7f25 6bbe
000003e0: acd4 08be 663c 4ebd 45e6 113e c936 53be
000003f0: 0f89 663e 47ae 6abe ddd0 70be 7c34 bbbd
0.12453716 0.14781095 -0.12869911 -0.20801473 0.11527324 -0.22872292 0.077704996 0.30094787
0.0062491964 -0.16445492 -0.08421682 0.100085065 0.17363247 0.16775765 0.12672883 -0.095703974
0.1845511 0.11137343 0.23592053 -0.024878489 0.18244344 -0.095770895 -0.10018597 -0.12121768
0.088148214 0.24112539 -0.072428554 -0.11961501 0.0066344016 0.06667337 -0.23090692 0.24101754
0.07080846 0.1965728 0.12457204 0.030372556 -0.09877861 0.24472791 0.3386808 -0.0080768205
0.024854308 -0.24259393 -0.019633971 -0.05122768 -0.101953074 0.25499383 0.027656933 -0.2885006
0.1997458 0.30155697 -0.30798212 0.09371107 -0.0014185145 -0.047295094 0.08763993 0.1574173
-0.19429575 0.0073311753 -0.12234203 0.15686531 0.06125055 0.19676112 -0.020271963 -0.13492359
-0.11192482 0.001912767 0.09763531 -0.14848861 0.1939957 -0.11536468 0.1015547 0.17336312
-0.119000226 -0.04885593 -0.017946655 0.04118955 0.33161902 0.086123794 -0.09498464 -0.11816065
-0.15378708 0.16493407 0.108889304 0.20370358 0.07993167 0.28655043 -0.0091270665 0.08200232
0.18815151 0.029951734 0.037165157 -0.024328418 -0.04221338 0.012679764 0.13689665 0.04208276
0.09304234 -0.25864443 -0.04159252 0.30780792 -0.2738994 -0.1457176 0.16960238 -0.17664042
0.20954075 0.0007159891 -0.122931466 0.19396065 -0.05451543 0.066682026 -0.056644037 -0.13473631
0.0851723 0.14524347 0.07502499 -0.10617256 -0.06496437 -0.06538789 0.023167217 0.19802085
-0.092206456 0.0735613 0.12569402 0.18387446 0.120219424 -0.18109661 0.23585607 -0.05431129
0.26921138 -0.101093955 0.02802782 0.084983796 0.17146671 -0.15784052 -0.04860202 -0.12155154
0.16662234 0.14428051 -0.057551738 -0.06021355 0.08845584 -0.20963801 0.17586121 -0.007448577
0.08518947 0.2982639 -0.22258815 -0.16521548 -0.041112915 -0.14014994 0.14469288 -0.049018253
-0.16013858 0.056353353 -0.04767019 -0.055019874 0.034028176 0.25279507 -0.11693885 -0.12698793
-0.19596918 -0.14026436 -0.06913122 -0.15042269 0.07060719 0.024990879 -0.031959888 0.25578484
0.11109232 -0.18511353 -0.10037766 -0.28249472 0.08081102 0.06185864 -0.19142836 0.113926515
0.06948384 0.040719014 -0.3015078 -0.05396899 -0.26101258 0.05723106 -0.24109687 -0.051778954
0.09711371 -0.0059898137 0.16327265 0.21343425 -0.08240703 0.17063709 -0.083304904 0.12684482
-0.17322186 0.09685733 -0.09352027 -0.102064386 -0.029172475 -0.06489292 -0.19923678 0.1406109
-0.045342818 -0.06081117 -0.096312 -0.2186904 0.11496727 0.13139114 0.0151057495 0.31242463
0.069727644 -0.13519359 0.0032376575 0.107553944 0.13870777 -0.15311126 0.34714615 -0.15217805
-0.13428496 -0.057351716 0.12379819 0.16223371 0.16432385 -0.22655031 0.16826387 0.110535786
-0.19426367 0.1924914 0.11888382 -0.16190222 0.047984913 -0.08188934 -0.13412902 0.10544863
0.06637043 -0.22923085 -0.18935992 -0.19568935 0.051419836 0.090644926 -0.10538673 0.18346731
-0.032362483 -0.2807483 0.1253928 0.030275043 -0.03211899 0.07283929 0.23636568 -0.22963522
-0.13362378 -0.05035057 0.14247997 -0.20626368 0.22513221 -0.22918044 -0.23517175 -0.0914087

pool1.weight f4 [1, 50]
00000000: 926f 8fbd 4969 1d3e c8ca 89bd 475f 10be
00000010: f4ec 3bbd e661 f03d 91ac fdbd 84ce cb3b
00000020: b831 793c 9c15 50bd 5bdd d13c df74 683d
00000030: 7dce 6fbd eb0f ad3c 4206 0f3e da1e e0bd
00000040: d05a 77bd 4228 ffbd fb67 ef3d 453d 73bd
00000050: a29b 98bd 6e1f 0b3e d7cd ae3c b019 87ba
00000060: f697 c0bd 5072 70bd 5287 c03d 6a88 bfbd
00000070: 0b8d 233c 3a09 c9bd 2a79 993d f8e8 12bd
00000080: 0aa6 763d 5de1 03bd 729e ae3d c4a5 413d
00000090: 6938 67bd b77e e43d 12a7 51bd 8fb3 183e
000000a0: 7064 a7bd a04c 94bd eeaa 4b3d 3aba b3bd
000000b0: 31f2 88bc cf5f 533d d94d 4dbc c84c ffbb
000000c0: 1cda d63d 2233 16bd
-0.07003702 0.15372194 -0.067281306 -0.14098845 -0.045880273 0.11737423 -0.1238643 0.006219687
0.015209608 -0.05080186 0.025618246 0.056752082 -0.058546532 0.021125754 0.13967231 -0.109433845
-0.06038934 -0.124588504 0.116897546 -0.059384603 -0.074515596 0.13586208 0.021338386 -0.0010307338
-0.09403984 -0.058702767 0.0940081 -0.09352191 0.009982358 -0.09816213 0.07493813 -0.035866708
0.06021694 -0.032197345 0.08526315 0.047277227 -0.05645028 0.111569814 -0.05118472 0.14912246
-0.08173454 -0.072411776 0.049723558 -0.08775754 -0.016717048 0.051605042 -0.012530767 -0.0077911355
0.1049082 -0.036669858

pool2.weight f4 [1, 50]
00000000: e2ff a63c cf2a 613d de42 80bd 3fe0 0d3c
00000010: f673 a83d 2e3d ba3d ef80 c83d 6a11 27bd
00000020: 672a e9bd e20c 263d fc0d d03d 21c7 6fbc
00000030: c29b a63c adb4 97bd 36e5 853d 327b 90bc
00000040: d5ea c43c 33b0 8cbd b6fd dabd 37f0 44bd
00000050: 6632 1dbe 760e 29be 3260 513c 19ad 64bd
00000060: 61bb 5bbc 2d8c dd3d fe29 90bc c08f 8bbd
00000070: d31f 01be 08e9 dcbd 8bdc 79bd 057e 99bd
00000080: 4dd1 603b 0aa9 a13c 00cd e93d d96b 973d
00000090: 91ee bebd 3e93 1dbd f699 d4bd 79d4 b7bd
000000a0: b92d 8bbd 0cb2 97bd 51a7 34be 0f5e bd3d
000000b0: 39e1 d1bd 69fc 96bc f1d7 283d 7a0e 8c3c
000000c0: 88fb 34bd 9877 b9bd
0.020385686 0.054972466 -0.06262754 0.0086594215 0.08225243 0.090937 0.09790217 -0.04078809
-0.11385041 0.04053963 0.10158917 -0.014634878 0.020337943 -0.07407508 0.06537859 -0.01763687
0.024037758 -0.06869545 -0.10692923 -0.04808065 -0.15351257 -0.16509423 0.012779282 -0.05582914
-0.013411374 0.10817752 -0.017598148 -0.068145275 -0.12609796 -0.10786635 -0.06100134 -0.074947394
0.003430444 0.019733924 0.11416054 0.07393617 -0.09322847 -0.0384705 -0.10380928 -0.08976073
-0.0679583 -0.074070066 -0.17641951 0.09246456 -0.10248036 -0.018430905 0.041221563 0.017096747
-0.04418519 -0.09056014

fc4.weight f4 [3, 200]
00000000: 2fc4 173d 14f5 863d 0e4c 39bd 04bb dabc
00000010: 4c89 3e3d 4fda 063d bbb2 fe3b 78fe 743d
00000020: 4135 7bbd 2c24 e2bd 3dca cc3b f898 47bd
00000030: cb27 d73d a17b 013e 33db 073d 03bb c6bd
00000040: 4c80 a73d 72b8 493d d97e 8f3d 99d9 c6bd
00000050: 2731 d53d ce22 023e 5895 2c3e 84e9 aabc
00000060: c9a2 9ebd 24bd d8bd bd0f 74bd db22 dabd
00000070: fd17 28bb 5144 073c 38d0 9cbd f62f aabc
00000080: 5457 bf3d b8ed 8dbd de47 d93c 4f0d 43bd
00000090: c84e 043d cdee 903d a9e7 173e f71c 40bd
000000a0: 978b 173c 9e97 7ebd 76bd 8d3d a02f 96bd
000000b0: 8d5b c5bd 1e1c 703d 571f b63d d3fa 063e
000000c0: 5e7d 2e3c d62c 3dbd b6d0 2fbd 41b8 993d
000000d0: 8c58 b6bd 9929 d23c 26a4 f8bd 7956 253c
000000e0: 693a bc3d 1813 b23d d1a6 bcbc 8c80 8abd
000000f0: 438a 7cbd 868f 553d fedc 843c bdfc 4b3e
00000100: e2db ab3d e89c c9ba 9e6a 32bd 8e59 23bd
00000110: 19d2 6e3c 5474 42be 02e9 f23d ee6d edbc
00000120: 8df7 163e 86ca 85bd 507b 29be 42e3 13be
00000130: fdad 43bd 41df 2fbc 0b12 c5bd d56a 253c
00000140: 2ff3 28bc bbef 45bd 66ca 023e af04 d6bd
00000150: 8bfd 02bd 36d3 9a3b fd3e f03c d91f cc3c
00000160: a23a 9abc e97c 0ebd 39b3 133d 8566 b5bd
00000170: 6786 da3d 4bee b1bd 9621 4fbd f0a7 2a3d
00000180: e04e de3d 0f16 433d 13c2 823d 5d63 06bc
00000190: 4a61 30bd 6b24 90bd b735 fdbd 3b86 d43d
000001a0: 1f22 6d3d 50b7 75bd 12ae 1dbd 4859 72bd
000001b0: 0abc 05be 8cf3 f6bd f927 29be 604f 88bd
000001c0: bf2c 08bd 30be 93bd d631 c9bd eb2b d7bd
000001d0: 1f7c 19be 72e5 01bd c39d b43c cb8f a1bd
000001e0: 3edd 6c3c 96dc fa3d adbe 3ebe 1ee0 61bb
000001f0: ad58 39bb 9419 6ebd 0734 94bd 4bb5 babd
00000200: 01db 9abd f419 93bc f557 90bd 91bf d4bc
00000210: fbcc 36be b37b 07be b333 f1bd a9dc dfbd
00000220: 69e2 e8bc 6ca8 c0bb 5c01 26be e99c 5cbb
00000230: 4cc6 973d 443c 9e3b 8a0a b4bd f5aa ddbd
00000240: 1be0 0ebe 2cb7 b9bd 9691 16be 3077 9abd
00000250: a0c5 46bc 3da9 0cbe 8a6c c43d f165 debd
00000260: b1b5 d0bc 8132 9e3d b42b 6f3d 7cab 493d
00000270: 5ed5 09be 6e87 7b3c b3ac 243d 5979 cf3c
00000280: 26ed d7bd 858e 9fbd 5954 e23c a1bf 6bbd
00000290: 51bf e7bd 32e0 97bd ab7d bcbd 504d a03d
000002a0: 3b65 4a3d 02df 4ebd 4d3f 8e3c 0bbf 9d3c
000002b0: 5911 d2bd a651 c83d df26 943d 8ee6 af3c
000002c0: a2a9 32bd cc51 86bd 8b2f cc3d 85c6 c93d
000002d0: 3c8b 20bd e341 a63c 172a 04be 9a7f acbd
000002e0: 1b90 3ebd 0ab8 2abd dca7 233c a7f7 353c
000002f0: 1ae1 d33d 4397 68bd 60c7 e63d a591 a23c
00000300: 947c 233d 89fc eebd 2e61 643d 6fc4 113c
00000310: 8d47 03be 003c b2bd ebe0 ce3d afeb a73d
00000320: 2609 d13c f381 05bb 12d9 1e3d fac7 c5bd
00000330: 1a08 2f3d 1de0 5dbc 6a4f d9bd 0632 193d
00000340: 2441 183d 5442 fcbb 3aba 1f3d f481 67bb
00000350: 6390 2f3d 21ee d6bd d5e7 4f3c 8e23 8f3d
00000360: 1b1c 29bd 1d91 9d3d 4302 39bc 887b 223d
00000370: edd8 24bd 92ff 163d 1421 24be d553 b13d
00000380: 58c1 613d 9be3 923d 36d5 7bbc c370 f9bd
00000390: e6ca 92bd ddf1 02be d85e 36bd f797 78bb
000003a0: 6645 ccbd 1144 aa3c e953 36ba 43ae 71bd
000003b0: 1ddb 14bd ae9b 9abd 4ff4 a2bd 4ba1 f63a
000003c0: 4e5b 68bd 1d88 c7bc 5548 f8bc 5b01 2b3d
000003d0: 6b1b 843d 504f f9bd 444e e23c c0fa 12be
000003e0: dd33 bc3c 8b3c 8a3d d8d2 183e c6c7 c4bc
000003f0: f7c4 34bc c085 a33a e45a 653d 8bc8 a7bc
0.03705233 0.06589714 -0.045238547 -0.026700504 0.046517655 0.03292304 0.007772771 0.059812993
-0.061330084 -0.110420555 0.0062496946 -0.048729867 0.10505637 0.12644817 0.03316803 -0.097036384
0.081787676 0.049248166 0.07006616 -0.09709472 0.10409766 0.1270859 0.16853845 -0.020863302
-0.077458926 -0.10582951 -0.05958532 -0.106511794 -0.0025649064 0.008256034 -0.07656902 -0.020774823
0.093428284 -0.06930107 0.026523527 -0.047620114 0.032301694 0.07076798 0.14834465 -0.046902623
0.009249589 -0.062156312 0.069209024 -0.073333025 -0.096366026 0.058620565 0.08892696 0.1318162
0.010650007 -0.046185337 -0.04292365 0.07505847 -0.08903608 0.025654601 -0.12140684 0.0100914175
0.09190828 0.08695048 -0.023028763 -0.067627996 -0.061655294 0.052138828 0.016218659 0.19920631
0.08391549 -0.0015381845 -0.04355871 -0.039880328 0.014576458 -0.18989688 0.11860849 -0.028983083
0.1474287 -0.06532769 -0.16550946 -0.1444216 -0.04777335 -0.01073438 -0.09622582 0.0100962715
-0.010311886 -0.048324328 0.12772521 -0.10450112 -0.03198008 0.0047248853 0.02932691 0.02491753
-0.018826786 -0.034787092 0.036059592 -0.08857445 0.106701665 -0.08688029 -0.05056914 0.041664064
0.10854888 0.04762846 0.06384673 -0.008202401 -0.043061532 -0.07038196 -0.12363761 0.10377165
0.05789387 -0.059989274 -0.038496085 -0.059167176 -0.13060012 -0.12058172 -0.16519155 -0.066557646
-0.0332458 -0.0721401 -0.098239586 -0.105064236 -0.14988755 -0.031712957 0.022047883 -0.078887545
0.014457045 0.12249105 -0.18627425 -0.003446586 -0.0028281615 -0.058129862 -0.07236486 -0.0911661
-0.07561303 -0.017956711 -0.070480265 -0.025970252 -0.17851631 -0.13230781 -0.11777439 -0.109307595
-0.028428273 -0.0058794525 -0.16211456 -0.0033662862 0.07410869 0.0048289616 -0.08791073 -0.10823623
-0.13952677 -0.090681404 -0.14703974 -0.075422645 -0.012132078 -0.13736434 0.09591015 -0.108592875
-0.025477262 0.077244766 0.058391288 0.049235806 -0.134603 0.015352113 0.04020376 0.025326418
-0.10543279 -0.07790855 0.02762811 -0.0575558 -0.113157876 -0.07415809 -0.09203657 0.07827246
0.049412947 -0.050505646 0.017364169 0.019256135 -0.10257215 0.09781198 0.072339766 0.021472242
-0.043618806 -0.0655857 0.099700056 0.09852318 -0.039195284 0.02029509 -0.12906681 -0.084227756
-0.04652415 -0.04167942 0.009988751 0.011106408 0.10345669 -0.05678488 0.112684965 0.01984484
0.03991373 -0.11669261 0.05575674 0.008896931 -0.12820263 -0.0870285 0.101014934 0.0819925
0.025517058 -0.0020371645 0.038781233 -0.09657283 0.042732336 -0.013542202 -0.1061085 0.03740122
0.037171498 -0.0076983366 0.03899596 -0.003532526 0.042862307 -0.10494638 0.01268955 0.069892034
-0.04128657 0.07693694 -0.011292043 0.03966859 -0.04024594 0.036864825 -0.16028243 0.08658568
0.055116028 0.071723185 -0.015370658 -0.12179711 -0.07167606 -0.12787576 -0.044524044 -0.0037932375
-0.09974174 0.02078441 -0.00069552526 -0.05900408 -0.036341775 -0.07549225 -0.079567544 0.001881638
-0.0567277 -0.024356896 -0.030307928 0.04174934 0.06450542 -0.12173331 0.02762521 -0.14353466
0.02297395 0.06749829 0.1492418 -0.02402104 -0.011033288 0.0012475774 0.055994883 -0.020481369

fc4.bias f4 [3]
00000000: 08c2 4dbd e22e d6bb 9739 06bd
-0.05023387 -0.0065363506 -0.032769766
