experiments/experiment_2/checkpoint_3_2.pt (torch, 39119 bytes, 8 tensors)

conv1.bias f4 [50]
00000000: b302 b23b 5338 3a3c bacf 1b3c 50db 1e3c
00000010: 83de ae3b a036 2ebd 2ca2 a6bd 8b4e 803d
00000020: 424c d7bc 1b9d b73b aad6 523c 2c83 96bb
00000030: 9b58 9fbc db31 a23c d82b 5e3c 4838 9abb
00000040: b7bb 4f3c 3d81 213c 51bb 043d 2538 fe3c
00000050: f276 4fbc f876 f73b 642d 95bc 9f25 173c
00000060: 8a82 72bc 3754 f13c 3f7a 81bc 40d5 e13c
00000070: f741 8c3d b7d5 f0bd 62e2 05bc 0f3d fcbb
00000080: bffc fb3c f9fc 943b 9586 1cbe 892a 823d
00000090: 04cb 4e3d 79bf 143d 5393 b53b 70d1 f03d
000000a0: 4a7f 653b 9370 2c3d 2d12 9cbc 1346 18bd
000000b0: a462 a9bb 0695 a63b a065 ba3c 7447 26bd
000000c0: 2eed bd3d 3cca 8f3d
0.0054324507 0.011365968 0.009509975 0.009695843 0.005336584 -0.042532563 -0.081364006 0.06264981
-0.02628148 0.005603445 0.012868563 -0.0045932736 -0.01945143 0.019799164 0.013560258 -0.0047064163
0.012679032 0.009857473 0.0324052 0.031032631 -0.012662636 0.007552024 -0.01821012 0.009225278
-0.014801631 0.029459102 -0.015805362 0.027567506 0.06848519 -0.11759513 -0.00817165 -0.0076977084
0.030760167 0.0045467583 -0.15285714 0.06355769 0.05048658 0.036315415 0.005541244 0.11758697
0.0035018497 0.042099547 -0.019051636 -0.037176203 -0.0051692296 0.005083683 0.022753537 -0.040595487
0.09273754 0.07020995

conv1.lin.weight f4 [50, 116]
00000000: eaec 0bbe 2c42 0cbe 1cf6 623e 4484 1ebd
00000010: 7627 15bc 3a4c 073c d87f 433e 63e0 07bc
00000020: 6d30 2dbe 4bd1 d3bd 5fbb 453d 1304 16be
00000030: b45a 24be 963b 8a3c 47d2 5c3d 087e 44bd
00000040: 3522 8d3d 6df1 57bd 461f 52be 2f84 4f3e
00000050: 144c febd 22d9 28be 571c e7bd af1e 16be
00000060: 92aa 94bd 3549 0dbe 8513 b33d 6a56 9bbd
00000070: dafa 163e 10c0 1d3d b5ab 133e 34e3 50bd
00000080: 89e9 493d 91e9 99bd 92d6 95bc c148 1dbe
00000090: c523 6f3d b52c ba3d 000c e03d a866 e0bd
000000a0: c90d 32bd e045 02be 0f58 fbbd 23b4 14be
000000b0: 7bd2 79bd d461 fcbd ba00 c5bb 8289 d83d
000000c0: 0892 98bd d58c 86bc 968b 9d3d 4d04 72be
000000d0: e685 fa3d 07e2 6f3d f217 68bd d3ee eabc
000000e0: 4fa0 dcbd 3735 4d3e df84 b3bd e230 c83c
000000f0: d9de 06be 82a3 b33d 0100 46bd 6741 7f3e
00000100: ab16 a13d 368a 16be aa47 00be ec2f 113e
00000110: 321b 30bc 1451 afbd 06a6 ba3d 12d1 8b3c
00000120: 7158 0d3e 4039 05bd 5447 033e ee3d 89bd
00000130: d15c 953d 8bab 333e 7955 993d 42e0 b03d
00000140: 12a3 e239 432e 853c 3a93 0cbe 16f2 3ebe
00000150: f33c 3cbe ac8a b73d 4160 e3bc 776d 033e
00000160: 46f8 92bd f882 ea3c 71ca 5bbe 6f9f 36be
00000170: 2a0f 4e3e 10f2 3a3e b1c4 303e 0499 d0bd
00000180: 5794 8fbb 41eb 28bc cbcd 653e e754 16be
00000190: d99e e03b e18c 7ebb 79dc d3bc a3a5 063e
000001a0: 5db8 f93c 8731 1dbc 42f1 5ebe 1f8a 013e
000001b0: e323 123c ea39 e43d ff4a ac3d 5d26 cc3c
000001c0: 8135 003e 0ed6 fcbd ef75 ba3c f2d2 1b3e
000001d0: 1c56 86bd d8c8 683d 415b bcbd 1305 703d
000001e0: 5d88 673c 260e c2bc 6ca2 18bd 1e07 b53d
000001f0: 501f 1b3d b468 5dbe 8d14 263e 50b3 34bd
00000200: 8e7f cd3d d12d 0bbe 2f21 ab3d a0fb 693e
00000210: fa3a 83bd 9e06 143d 3318 bbbd 9e05 cc3d
00000220: 34e5 c33c da60 13be abab 153e ddaa f8bc
00000230: 42b4 2ebd ccbc cc3a 3cdb f63d 56fe 0ebe
00000240: 6ae6 973b dd50 e6bd 1112 21bc fe9d 003e
00000250: 99a1 203e 0cbb f63d 1951 d1bc 14c6 83bd
00000260: 0165 863e e63a 12be c5a5 6e3d 55a0 2f3a
00000270: 47f7 723c bfb9 273e af54 4dbd bc7a 15be
00000280: 6d4a 0d3d 6730 e0bd e15b 0b3d 4056 30be
00000290: 99bb 41be 1ba7 17bd cd9e 0d3e 06f8 83bb
000002a0: 6bdc 2cbe 68c6 283e 8b92 553d b64e 113d
000002b0: 31e6 83bd e835 c13d f496 313c 6b76 3cbe
000002c0: e517 893d f84b 943d 5fc8 d43d dd9d 043e
000002d0: 3e29 3fbe c4ed 0bbe a5a3 bbbb 95b1 e8bc
000002e0: a0dd c63d 8aaf 83be a41a 363e 7bad 85bc
000002f0: 0733 6b3e cfbf d1bb 1f12 0c3e 1114 0ebc
00000300: 11a3 253e b3ed 3e3e ea97 17be 5631 51be
00000310: 0549 e2bd b418 03be 84eb 323d 2494 69bd
00000320: b0b7 33bd fe15 eabd bd4c 1a3d d2bc 0dbe
00000330: 6a22 44bb f7f2 1b3e cde4 46bc 05bd 1a3e
00000340: 13ec e73d 8ffc 7dbe 60c7 263d 5639 133e
00000350: f845 5d3e 1e14 d4bd 1a78 853e c446 1b3d
00000360: 7891 893d 6b8b 20be 514f 0d3d 5954 373e
00000370: 0dbf 1abe 4992 17be 2e9f c0bd 429d 79bd
00000380: 0904 30bd 69db c63d 95ee 82bc 069e a3bd
00000390: 9053 14be c000 32bd 7ee1 01be 6e99 4e3e
000003a0: 22cf bb3d 2ef9 d73d 0731 0bbd 066b e63d
000003b0: 9996 133e 3c29 ad3d f908 733d ac41 05be
000003c0: c93d 53be 6b90 80bd adac 75bc abf7 c93d
000003d0: 50dc 11be b2f6 c0bc 5ec1 03bd 3105 293e
000003e0: 7034 883d 73e3 153e 8d22 023d 38fe 3cbe
000003f0: 3ecb 21bd 465d 2fbe 324d 19bb 7f73 eebd
-0.13664594 -0.13697118 0.22164196 -0.038700357 -0.0091036465 0.00825792 0.19091737 -0.008293244
-0.16913004 -0.10342654 0.048274394 -0.14649992 -0.16050225 0.016874116 0.053911474 -0.047971755
0.0689129 -0.052720476 -0.20519742 0.20265268 -0.124168545 -0.1648908 -0.11284702 -0.14660142
-0.07259096 -0.13797458 0.087439574 -0.075848415 0.1474413 0.038513243 0.1442097 -0.050997928
0.049294982 -0.075152524 -0.018290792 -0.15359785 0.05838372 0.090905584 0.10939789 -0.1095708
-0.043470178 -0.12721968 -0.12272655 -0.14521842 -0.060991745 -0.12323347 -0.0060120495 0.105731025
-0.07449728 -0.016424576 0.076926395 -0.23634453 0.1223257 0.058565166 -0.05666346 -0.028678333
-0.10772764 0.20039831 -0.087655775 0.024437372 -0.13170947 0.08771421 -0.048339847 0.24927293
0.07865652 -0.14701161 -0.12527338 0.14178437 -0.010748671 -0.08560386 0.09113698 0.017067466
0.13803269 -0.0325253 0.12820178 -0.06701265 0.07293094 0.17545907 0.07487006 0.08636524
0.00043227576 0.01625741 -0.13728037 -0.18647036 -0.18382625 0.089619964 -0.027755858 0.12834726
-0.07176261 0.028626904 -0.21463944 -0.17834257 0.20122972 0.18256402 0.17262532 -0.101854354
-0.004381697 -0.010309995 0.22441785 -0.14680825 0.0068548736 -0.0038841295 -0.025861965 0.13149123
0.03048342 -0.009594328 -0.2177172 0.12650345 0.008919689 0.11143859 0.08412742 0.024920637
0.1252041 -0.12345515 0.022761313 0.15217188 -0.06559393 0.056832165 -0.09197093 0.05859859
0.014131633 -0.023688387 -0.037264273 0.08839248 0.03787166 -0.21621972 0.16218777 -0.04411632
0.10034095 -0.13591696 0.08355939 0.22849894 -0.06407733 0.036139123 -0.09135475 0.09962009
0.023913004 -0.14392415 0.14616267 -0.030354911 -0.042652376 0.0015620231 0.120535344 -0.13964209
0.004635622 -0.11245892 -0.0098309675 0.12560269 0.15686645 0.12047395 -0.025551366 -0.06434265
0.26248935 -0.1428028 0.05826356 0.00066996115 0.014829463 0.1637945 -0.05012959 -0.145976
0.034494806 -0.10946732 0.03402317 -0.17220402 -0.18919219 -0.0370246 0.13830109 -0.0040273694
-0.16880958 0.16481936 0.052141707 0.035475455 -0.0644039 0.0943411 0.010839213 -0.18404548
0.06694011 0.072410524 0.1038978 0.12950845 -0.18668076 -0.13664919 -0.005726295 -0.02840499
0.0971024 -0.25719863 0.177836 -0.016318073 0.22968684 -0.006401039 0.13678788 -0.008671776
0.16175486 0.18645363 -0.14804044 -0.20428976 -0.110490836 -0.12802392 0.043681636 -0.057026044
-0.04387635 -0.11429976 0.03767084 -0.1384156 -0.002992774 0.15229402 -0.012139511 0.15111168
0.113243245 -0.24803375 0.040717483 0.1437734 0.21608722 -0.103553995 0.26068193 0.037909284
0.06717199 -0.15678184 0.03449947 0.1790327 -0.15111943 -0.14801897 -0.09405361 -0.06094099
-0.0429726 0.09709818 -0.015982905 -0.07989125 -0.14485002 -0.043457747 -0.12683675 0.20175716
0.09170367 0.10545574 -0.033982303 0.11250882 0.14412917 0.084551305 0.05933473 -0.13013333
-0.20629038 -0.062775455 -0.014994782 0.09861692 -0.14244199 -0.023555133 -0.03216683 0.16505887
0.06650627 0.14637546 0.03177123 -0.18456352 -0.039500467 -0.17125425 -0.002339196 -0.11643123

conv2.bias f4 [50]
00000000: f532 293e 0267 b53d dbf9 2a3e 1eb7 103d
00000010: 97c2 bc3d 1393 6dbb 2ba8 7f3d e613 263e
00000020: 379c a13c daa4 403d fde3 57bd b99a 2b3e
00000030: 429f 123e 1506 113e 987c 41bd 8ce8 f23d
00000040: 3718 fc3d af52 133d 716f 943d b2bf 82bd
00000050: 4562 ea3d 46c9 013e 558c 903d 2f65 a63d
00000060: 5f9a 453d f502 213e 5ed0 7b3d 5a99 6d3d
00000070: cab7 013e 0b7c e83d 9d2f 10be c79a 963d
00000080: e6d5 373e 263d 903d 20ae 00bb c354 28bc
00000090: 1030 b83d 4a5c 5dbc ded5 553d 55d6 393c
000000a0: ff13 ba3d d87e 86bd 49d4 7e3d 3e18 013e
000000b0: cb40 003e 5cb1 7fbb 126c f7bc baa2 573c
000000c0: 61d4 c33d 7364 7d3d
0.16523345 0.08857538 0.16696875 0.035330884 0.092168026 -0.0036250993 0.062416237 0.16218528
0.01972781 0.047032215 -0.05270766 0.16758241 0.14318565 0.14162476 -0.047237962 0.11860761
0.12309306 0.035967525 0.07247818 -0.06384219 0.11444525 0.12674436 0.07058016 0.08124768
0.048242923 0.15723784 0.06147801 0.058007576 0.12667766 0.11351784 -0.14080663 0.0735374
0.1795269 0.07042913 -0.0019635037 -0.010274115 0.08993542 -0.013510773 0.052205913 0.011342605
0.09085845 -0.06567162 0.06221417 0.12606904 0.12524717 -0.0039015627 -0.0302029 0.013161356
0.095619924 0.061863374

conv2.lin.weight f4 [50, 50]
00000000: ff7d 3f3e c541 4b3e e978 41be cb95 d73c
00000010: e7a2 323d 96e7 3cbd 8b04 593b 8c61 0d3e
00000020: 29b7 c6bd 5233 d23d a553 0b3e de54 473e
00000030: f323 46bd 17fb b53d b101 19be aae9 3ebd
00000040: dae2 1d3c 8b49 a7bd b382 513e 636a 183e
00000050: fedb 93be 5a86 cbbd b6d1 513d 944c 6f3e
00000060: 7ad2 753d 0935 56bd 708d 69be 0ae7 8b3c
00000070: 764d bb3d 4d56 afbe f842 5fbe d1fc 51be
00000080: 95a9 813e aa99 7dbd 3db6 98be bb74 923e
00000090: d021 863e 7b86 623d 92cf 25be 188a 5cbd
000000a0: cf8f ebbd 651f 593e a699 56be a175 83be
000000b0: 3f75 8abd e0c9 7dbe a087 b5bb e35e a6be
000000c0: d54c 793e 7783 20be 7707 3bbe 7139 62bb
000000d0: 49c0 043c d70c b7bd 4f2b e3bb cda6 48be
000000e0: a43a 5ebd f649 47be b409 be3c 6b69 54be
000000f0: e5b4 1e3e 4303 3cbe abca 273e 6e5a 8b3e
00000100: 21cc 17be d055 a83d 6edd 843e 45f5 61bc
00000110: 321a d53d b134 50be 26f7 1c3e c313 613b
00000120: 241d 95be 0bab 823d a609 f33d 0835 fd3c
00000130: 9694 ddbd 8a4f 4a3d 9df2 87bd fe92 febd
00000140: 234f 3ebe 5e87 543e 7343 bcbd f3ef 0ebe
00000150: c5d3 033d c6f0 413e ba50 8b3c 1eb9 503e
00000160: 96b3 dabc a59a 17be 5745 9e3e 69c4 ed3b
00000170: 9da0 113e ebb4 203e 7f8c 00bd 5cfd 9bbc
00000180: 5194 3cbe a2aa 733e e158 603e acfd 993e
00000190: 53de b9bd 96ff 993d 8ea2 0a3e ab4b 033e
000001a0: b6ee 36be 23fa 853c 2cc7 81be e440 d8bd
000001b0: fbb5 47be 11c9 383d ee47 323e 3a56 a03d
000001c0: d51d 08bd 54b5 b43d 7358 28be c547 afbd
000001d0: 345f 953e 9c98 14bd f886 adbd 1e5a 4c3e
000001e0: 9cdc 93be 44d3 8f3d 7f7d 92bd da4a 1dbe
000001f0: 63b0 ab3d 6583 55bd 594a a2bd 01c6 ff3c
00000200: 1471 803e c6b6 b7be 012b 80be 71b7 9ebe
00000210: 3627 6a3e dcbe 413e 2514 e33d 9687 843e
00000220: 168e 57be c190 943e 790f 22be 4e29 633d
00000230: dd98 e1bd 3e53 a33e e47f 94bd 4a3c 48bd
00000240: 31f4 08be 453a fe3d 4b86 8bbe 8dc2 a1be
00000250: 20f4 293c 4294 f63d e5f9 48be 037d 09be
00000260: ce65 3ebe e652 373e 7604 193e bf15 6dbe
00000270: 7fb2 4b3e 625f a7bd 0c87 533e 5866 52be
00000280: edae 723a 2b08 833d 5609 40be 0377 62be
00000290: 104c 1d3e 2dca 4c3e e053 5fbc 0be9 183c
000002a0: 26a9 163e c081 9d3b 8d81 03bc 0af9 dabd
000002b0: 4839 9cbd eaa9 32be d64c 48be f57d 2f3e
000002c0: be35 10be ff16 f5bc 34e0 083e 286b 39be
000002d0: 4561 773e 6d00 9b3c 8b1e 38be 87f7 1c3e
000002e0: 2766 233e a795 60be a5b2 79be 0d6b 393e
000002f0: ab7b dfbd b9df 4dbe 6154 403e a1df b0bd
00000300: 74f1 1dbe e6a0 cebc 7f8f 943d 4154 1cbd
00000310: 09ea 083e 97e0 1a3e 02b6 543e 99e2 b7bd
00000320: 5028 9ebd ccd2 71be ff27 403e faf5 63b8
00000330: b60b 853d c975 d2bd b4b7 013e b44d 013e
00000340: 9ee6 0c3e 4965 21be 2cbc 113e 321b c23d
00000350: e20a 273e e7f9 f3bd a064 39be e9ef 7c3d
00000360: 94c6 ab3d 9242 7a3e 2888 80be 5e72 4bbe
00000370: b2e4 c5bd fceb 30be f2c5 4a3e 5231 94bb
00000380: 7e81 5a3d c774 76bd baed db3d ce3b 63be
00000390: 0424 e9bd 167e 2bbe ba75 343d 5c75 9b3c
000003a0: cacf 0a3e 3b99 1bbe 4fa8 32be c0de 003e
000003b0: 73b6 88bd 6cb4 2bbd f69d 08be c7aa c9bc
000003c0: 3147 ccbd 230e 913d af97 94be e228 2b3e
000003d0: 1aae 01be b982 4cbe 8bc9 8d3d ce57 4e3e
000003e0: 9f82 383e 52af 9c3d 3f41 2bbe 4987 123e
000003f0: 682d 303e 8265 dbbc 665e d2bd 03b7 0dbe
0.18700407 0.19849308 -0.1889378 0.026316544 0.043612387 -0.046119295 0.003311428 0.13806742
-0.09702904 0.10263695 0.13606127 0.19465968 -0.048374128 0.08885782 -0.14942051 -0.04660956
0.009636605 -0.08168324 0.20460014 0.14884333 -0.28878778 -0.09937735 0.051225387 0.23369056
0.06001518 -0.052296672 -0.2280786 0.017077941 0.09145634 -0.3424553 -0.2180289 -0.20506598
0.25324693 -0.061914124 -0.29826537 0.28604683 0.26197672 0.05530403 -0.16192463 -0.053842634
-0.11502039 0.21203382 -0.2095705 -0.2567568 -0.06760644 -0.2478404 -0.0055398494 -0.32494268
0.24345715 -0.1567515 -0.18264566 -0.00345191 0.008102485 -0.08937996 -0.006932653 -0.1959488
-0.054255143 -0.19461808 0.023197986 -0.20743339 0.15498693 -0.18360619 0.16385905 0.2721743
-0.14823963 0.082194924 0.25950187 -0.013791387 0.10405387 -0.203326 0.15328655 0.0034344054
-0.29123795 0.0638028 0.11867075 0.030909076 -0.10819356 0.04939226 -0.06638072 -0.1243038
-0.18584876 0.20754763 -0.091925524 -0.13958721 0.03218438 0.18939504 0.017006267 0.20383117
-0.026696961 -0.14805086 0.30912277 0.00725608 0.14221425 0.15694015 -0.031383988 -0.01904171
-0.18415953 0.2379556 0.21908905 0.3007635 -0.09075608 0.07519452 0.13538572 0.12821834
-0.17864498 0.016354626 -0.2534727 -0.10559252 -0.19503014 0.045113627 0.17410251 0.078289464
-0.033231575 0.08823648 -0.1643999 -0.08558611 0.29174197 -0.036278352 -0.08473009 0.19956252
-0.2887925 0.070227176 -0.07152843 -0.15360585 0.083832525 -0.05212726 -0.07924337 0.031222345
0.25086272 -0.35881633 -0.2503281 -0.3099933 0.2286652 0.18920463 0.11087827 0.25884694
-0.21050295 0.29016688 -0.15826215 0.055459313 -0.110154845 0.31899446 -0.07250956 -0.04888562
-0.13374402 0.12413458 -0.27250895 -0.31593743 0.010373145 0.12039997 -0.19626577 -0.13426594
-0.18593523 0.17902717 0.14943108 -0.23152827 0.1989231 -0.0817249 0.20656985 -0.20546854
0.00092576334 0.06398042 -0.18753561 -0.22115712 0.15361047 0.19998999 -0.013630837 0.0093329055
0.14712963 0.004806727 -0.008026493 -0.10692032 -0.07628113 -0.1744763 -0.1956056 0.17137893
-0.14083001 -0.029918192 0.13366777 -0.18107283 0.24158199 0.018921101 -0.17980401 0.15328799
0.15956937 -0.21932088 -0.24384554 0.18107243 -0.1091226 -0.20104875 0.18782188 -0.08636404
-0.15424138 -0.025223207 0.07253932 -0.03816629 0.13370527 0.15124737 0.20772555 -0.08978767
-0.07722533 -0.23615569 0.18765257 -5.43501e-05 0.06496374 -0.10276372 0.12667733 0.12627298
0.13759848 -0.15761293 0.14231938 0.09477843 0.16312745 -0.119128995 -0.18104792 0.061752234
0.08387485 0.24439457 -0.2510388 -0.19867846 -0.09662761 -0.17277521 0.19802073 -0.004522481
0.05334615 -0.06016996 0.10738702 -0.22190782 -0.113838226 -0.16747317 0.044057585 0.01897686
0.13555828 -0.15195172 -0.17447017 0.12584972 -0.066754244 -0.04192011 -0.13341507 -0.024617566
-0.09974516 0.070827745 -0.29021975 0.16714814 -0.1266407 -0.19971742 0.06923207 0.20150682
0.18018578 0.07650627 -0.16724108 0.1430942 0.17204821 -0.026781801 -0.10271911 -0.13839345

pool1.weight f4 [1, 50]
00000000: d63c ac3d a6f4 ad3d b39e c13d d449 0e3e
00000010: 73aa d43d 18d2 0fbe a7c6 89bc c487 c3bd
00000020: 67e4 d5bd 8e72 033e 6973 233c 4071 a1bd
00000030: 10a0 023d 5ec4 b63d c0fe 0bbe bf71 06be
00000040: 636b e03d 3a78 4bbd 0a45 643d 2bdf e83c
00000050: d48b afbd cea9 4c3d 85fa afbd 64c8 1f3e
00000060: a837 5abd cbe2 003e 5172 cebd cf12 083d
00000070: 78d1 afbc 2632 01bd 39fd 6bbc 2f9b 00be
00000080: 6707 453d 982c e83d c24c cbbc 927b 3f3a
00000090: ff87 53bd d277 cf3d 385f 8f3d 2a41 90bc
000000a0: bfa0 8b3c 5966 a43d 10a1 213d aaac a5bd
000000b0: e252 9d3d aa47 853d a124 f0bd 813e 28bd
000000c0: 12a7 9f3c 8396 86bd
0.08410041 0.084939286 0.094540976 0.1389535 0.10384073 -0.14044988 -0.016818358 -0.095473796
-0.10443955 0.12836668 0.009976246 -0.07882929 0.03189093 0.08924173 -0.13671398 -0.13129328
0.109579824 -0.049675204 0.055729903 0.028426727 -0.08571592 0.049966626 -0.08592705 0.15603787
-0.053275734 0.12586515 -0.10080398 0.033221062 -0.021462187 -0.031541966 -0.014403635 -0.12559198
0.048102763 0.113366306 -0.024816874 0.0007304485 -0.051643368 0.10130276 0.070005834 -0.017609198
0.017044423 0.08027334 0.03946024 -0.08089574 0.07681824 0.065078095 -0.117257364 -0.041075233
0.019488845 -0.065716766

pool2.weight f4 [1, 50]
00000000: 6567 41bd cee5 4cbd 67b6 34bd 5bb4 0bbd
00000010: 7ac8 d7bd 7c2c 3b3d d296 a7bd cfc5 b8bd
00000020: 2052 393d 0f25 babd 71b4 df3d 2ddc 53bd
00000030: 6a96 85bc 5e65 c5bd c779 e43d 4fc2 46bd
00000040: 15b3 f8bd 2376 143d 8e76 97bd beb7 b63d
00000050: e6f9 b1bd 68df c3bc 0509 8ebd 019e 06be
00000060: 4c77 6dbd a5f0 b3bd 778b cabd dd59 8abd
00000070: 562e 94bb e5cd 85bc cf98 433d 2067 343c
00000080: 146d a0bd 2f22 acbd 9f90 993d 5884 933d
00000090: 5948 ddbd 95d7 e7bc b96d 98bd 2c34 0f3d
000000a0: 4e29 8dbd 84b8 a03d a374 d6bc 6abd 93bd
000000b0: b00b 24bd 183a b73d f8b9 993d 269e 8d3d
000000c0: a2bf c9bd ebd3 913c
-0.047217745 -0.050023846 -0.044119265 -0.034107547 -0.10536285 0.04569672 -0.081830636 -0.09022104
0.045244336 -0.090890996 0.10923088 -0.051723648 -0.016307075 -0.09638475 0.1115604 -0.04852515
-0.12143532 0.036245476 -0.073956594 0.08921765 -0.086902425 -0.02391024 -0.06935314 -0.13146211
-0.0579751 -0.08786134 -0.09889882 -0.06755421 -0.0045221252 -0.01633353 0.04775315 0.011010915
-0.07833305 -0.084049575 0.074982874 0.07202977 -0.10804815 -0.02830104 -0.07442803 0.034961864
-0.06892644 0.078476936 -0.026178664 -0.07213862 -0.04005021 0.089466274 0.07506174 0.0691493
-0.09851004 0.017801246

fc4.weight f4 [3, 200]
00000000: b93a a53d 1026 073d de4f 0e3c a44c 12bb
00000010: 771c a7bd c37c 6d3d ed37 703d de5a 2dbd
00000020: ceee 23bd 4650 ab3c a5f4 3b3d 54c7 0a3c
00000030: a16a ddbc 7809 06bd ec46 fcbb cc8f b43d
00000040: e4f3 743d b2c3 8f3d b471 2c3d fda7 d13c
00000050: 38bc e13d 8e12 863d 5b96 c73c f47c cf3d
00000060: 126b 7e3d 6189 b43d 4367 8fbd 43ae 583d
00000070: 8910 51bc 7488 56bd a87d 903c 1bc8 90bc
00000080: 63d4 2c3c 1645 a23c a2fe 2c3d 74b2 8b3c
00000090: 1d2e 8abc 16d6 ea3c a22e babd ab90 223e
000000a0: e0df aabc 9cb4 a83d b9a3 5dbd 5553 4bbd
000000b0: c28b e33c 177f 95bc 15c1 573d 2d31 8e3d
000000c0: 4041 1d3e 8d74 b7bd 6d57 233d c887 84bd
000000d0: 1188 45bd 4f98 e3bc a5ec 6abc bfec 8fbd
000000e0: 6cec ab3d f66a 87bd a0f6 8d3c 5a26 b8bc
000000f0: 4d1d a43d 02b0 553d 884e eabd 61f0 8ebd
00000100: ba81 7fbd ccd6 9ebd 2b9e e43c 810c f23c
00000110: a4cc edbc c7b0 8b3d fe29 ecbb db79 85bc
00000120: d580 203c 828a bc3d 4510 b0ba ad8a b53c
00000130: 5125 b13d 09ce b33d 840c e13d b505 abbc
00000140: cef0 a93b f191 0a3d c2d9 1ebd dabe 9bbd
00000150: 10f8 a7bd 0685 ccbc cb1e cc3c d881 c43d
00000160: 09af 38bd 89b5 b13d 6b22 9ebd cabc b73b
00000170: bcb3 e0b9 2284 5fbc 9228 9abd e715 64bc
00000180: f2fe d0bd 140f ba3c 05ef 2a3e cf27 eebd
00000190: 54f1 7f3c c522 aabd f989 bdbd 2406 dcbc
000001a0: 809f 163d 4b4c 12be 4e70 cf3d 148e 01be
000001b0: 40fd ecbd 5013 243e 8505 90bd 3b02 43bc
000001c0: 78b8 2ebe e731 e7bd 0276 0abe 6b63 02be
000001d0: c764 593d 16b5 55bd 9c42 0a3d 7389 1f3b
000001e0: d4b6 b4bc b32f 18be 164c 6b3d ad7b 323c
000001f0: bf46 39ba 1ff5 05be d0cd 55bd cd26 993d
00000200: e136 a4bd 55ad 0ebe b495 47bd 0e9c 04bd
00000210: 2e02 10be edc4 28bc 966d 1cbe 07bf a0bd
00000220: f510 a8bd 04c1 283d 56a7 413d 129d 093c
00000230: 05c2 fe3b fe40 debd a178 04be db59 933d
00000240: c37f edbd a537 00be de3a f0bd 9b28 37bd
00000250: 4c8a 11be 9f2d 26be d11b 04be 9120 e83b
00000260: ec48 14be 7ae5 27bd 33a6 943d 0eb5 9cbd
00000270: 1f4b 3d3d cfbc 18be 81bd 5abc a546 083e
00000280: 705b 82bd a738 01bc c56f 9fbd 7ec4 0ebe
00000290: cf57 5bbd c55d b0bd 5551 bd3c d140 4cbd
000002a0: 5cdc 25bb ae21 f63d b8db 7fbd 5a88 72bd
000002b0: 87bc 51bc 93b6 683d e110 813d aaa5 d0bd
000002c0: 8bea a03d 1cf4 853d f6e6 0dbe 0286 e9bd
000002d0: 9aa7 db3d c9f3 2fbd 1e72 bfbc df5c 073c
000002e0: b5aa e6bd d5e7 ddbc 519b 4cbd 6b16 e73d
000002f0: 8a8b ed3c 48a2 743c 28b1 44bb 767f 5b3d
00000300: 6121 dc39 840b bdbc 8fd7 26be ded2 03be
00000310: ce55 f6bd ab68 01be f803 763d 9c2b 19be
00000320: 55c8 18bc c89e 203d d835 adbd 34c5 653d
00000330: 893b 19bd 688a 533c 00f9 c4bc b9a0 7f3d
00000340: 1977 03bd 6e33 c0bc f86a 903d 5b14 8a3d
00000350: bb40 833d 4e66 4bbd d550 233d d202 a63c
00000360: ef0d 073d 40a7 e0bd 3e79 603c 0a9f 8c3c
00000370: 87da 64bd 768b 7b3d 3535 91bc 2079 973c
00000380: b6f2 cdbd 61e6 8abc 0054 1abd 10e4 d83c
00000390: 89d9 383d 21f3 2e3d 37a9 f33a cec9 683d
000003a0: ffa8 4a3c 837a 083d 9485 d9ba 2f3b 773d
000003b0: 231c 253c aa61 6fbd 5af2 56bd 5c45 063d
000003c0: 7f3a 58bb b261 bfbd 0528 343d 4667 a53d
000003d0: f26c 823c 1d21 ebbd e31e 99bd 3316 873d
000003e0: 7ee7 4ebd 9466 a7bc acf8 843c c3fe 0abd
000003f0: aa88 08bd a58b b23d 179c 26bc 7f1e 2e3d
0.08067841 0.032995284 0.008686034 -0.0022323513 -0.08159726 0.05798031 0.058647085 -0.042322986
-0.040022664 0.0209123 0.045887608 0.008470375 -0.027028384 -0.032723874 -0.0076988842 0.088164896
0.059802905 0.07019748 0.042100623 0.025592798 0.11022228 0.06546508 0.024363687 0.10131255
0.06211383 0.088152654 -0.070021175 0.052900564 -0.01276029 -0.052376226 0.017638043 -0.017673543
0.010548684 0.019808333 0.042235024 0.017052867 -0.016867692 0.028666537 -0.09090926 0.15875499
-0.020858705 0.082375735 -0.054111216 -0.04964002 0.027776603 -0.018249078 0.05267437 0.06942973
0.15356922 -0.08957777 0.039878298 -0.06471211 -0.048225466 -0.027782587 -0.014338647 -0.070275776
0.08394703 -0.06612198 0.017329514 -0.022479225 0.08013401 0.052169807 -0.1144076 -0.069794424
-0.062379576 -0.07755813 0.027907452 0.029546978 -0.029028244 0.06820827 -0.0072071543 -0.016293457
0.009796341 0.09206106 -0.0013432583 0.022160852 0.08649696 0.087795325 0.10988715 -0.020876745
0.005186177 0.033830587 -0.03878189 -0.076047614 -0.08201611 -0.024965774 0.024917027 0.09595078
-0.0450888 0.08677203 -0.077214085 0.005607222 -0.00042858522 -0.013642343 -0.075272694 -0.013921238
-0.10204877 0.022712268 0.16692741 -0.11628687 0.015621502 -0.08307413 -0.09254832 -0.026858397
0.036773205 -0.14286916 0.10128842 -0.12651855 -0.11571741 0.16022992 -0.07032303 -0.011902387
-0.17062557 -0.11288815 -0.13521579 -0.12733237 0.053074624 -0.05217465 0.03375493 0.00243434
-0.022059835 -0.14861946 0.057445608 0.010893744 -0.0007067732 -0.13081788 -0.05219823 0.07478104
-0.0801828 -0.13933308 -0.048726752 -0.032375388 -0.14063331 -0.010300857 -0.15276179 -0.078489356
-0.08206359 0.0411997 0.047278725 0.008399265 0.007774594 -0.1085224 -0.12936641 0.07194873
-0.11596634 -0.12521227 -0.11729978 -0.04471646 -0.14212912 -0.1622834 -0.12901236 0.0070839603
-0.14480942 -0.04099033 0.072582625 -0.07651721 0.04621422 -0.14915775 -0.013350845 0.13308199
-0.063650966 -0.007887042 -0.0778499 -0.13942143 -0.053550538 -0.08611635 0.023110071 -0.0498665
-0.0025308346 0.12018143 -0.0624654 -0.059212066 -0.012801296 0.05681474 0.063020475 -0.10187848
0.078572355 0.06540701 -0.13857636 -0.11402513 0.10725327 -0.0429571 -0.023369845 0.008261888
-0.112630285 -0.027088085 -0.04995281 0.11283573 0.028997201 0.014931269 -0.003001282 0.053588353
0.0004198654 -0.02307678 -0.16293167 -0.12873408 -0.12028085 -0.12637584 0.06006238 -0.14958042
-0.009325107 0.039213926 -0.084575355 0.05609627 -0.037410293 0.012911417 -0.024044514 0.062409136
-0.032096002 -0.023462024 0.07051653 0.06742164 0.06408831 -0.049658112 0.03987201 0.020265017
0.032972272 -0.109694004 0.013700781 0.01716568 -0.055872466 0.061412297 -0.017725566 0.018490374
-0.10056059 -0.016955556 -0.037677765 0.026475936 0.045129333 0.042712335 0.0018589859 0.05683308
0.012369393 0.03331996 -0.0016595596 0.060359176 0.010077509 -0.05844275 -0.05247722 0.03278099
-0.003299385 -0.09344806 0.043983478 0.080763385 0.01592109 -0.11480925 -0.07476594 0.06596031
-0.050513737 -0.020434655 0.016231857 -0.033934366 -0.033333458 0.08718041 -0.010169051 0.042509552

fc4.bias f4 [3]
00000000: 7c33 8c3d 2fde 6bbd a5dc b33d
0.06845757 -0.057584938 0.08782319
